resources/models/onnx/acas/ACASXU_run2a_5_3_batch_2000.onnx (onnx, 54456 bytes, 14 tensors)

layers.0.bias f4 [50]
00000000: 253b bebe af7a 283f 6f81 64be 562d 053f
00000010: 1453 8e3c cd2b 0dbd 419a 213e 151d 99be
00000020: 4739 2cbf 7444 26bf 2d0b 02bf a169 31bf
00000030: 610c 763d 7ac6 febd 3788 c6be 0101 e7bb
00000040: 6612 c53e f596 77bd a48e 56bf d789 3b3e
00000050: a154 313c 53cf fabe 5183 61bf c18e d73e
00000060: 40b6 173a 09a4 b4be bcfd 5ebd 02ef 893c
00000070: c26f 9ebc a94d 943e 4a41 f7be 64ca 13bf
00000080: 1ee7 91bc a297 29bf 7549 0bbd 7594 63be
00000090: 9b76 01be a720 d7be 4834 713e 262f fc3c
000000a0: 90c1 5a3e 7a5f cbbc 4c37 b93d 2fa3 803e
000000b0: e76d 9c3e f018 febd da8c b8bc 5c1e 6bbe
000000c0: b3b2 fd3d ba87 143e
-0.371545 0.658122 -0.22315 0.520223 0.0173736 -0.0344656 0.157815 -0.29905
-0.672749 -0.649482 -0.507983 -0.693018 0.0600704 -0.124402 -0.387758 -0.00704968
0.384906 -0.0604467 -0.838114 0.183143 0.0108234 -0.489863 -0.88091 0.421011
0.000578735 -0.352814 -0.0544412 0.0168376 -0.0193404 0.289655 -0.48292 -0.577307
-0.0178104 -0.66247 -0.0340056 -0.222246 -0.126429 -0.420171 0.235551 0.0307842
0.213629 -0.0248258 0.0904375 0.251245 0.305526 -0.124071 -0.0225281 -0.229608
0.123876 0.145049

layers.0.weight f4 [50, 5]
00000000: b3d2 0cc0 4426 ea3c 830a 583c 32e8 803b
00000010: 50e1 ebbb 9e0c f23f d9e2 a2bb 7629 fdbb
00000020: b39a 3ebe 967a 8e3e 4a29 683c cf4b 493f
00000030: 471c 5ebf d11f dabe 2ba4 2cbf 3bc2 ab3b
00000040: 1e89 373e e980 54be 6a88 463f cd77 30bf
00000050: a8ff 6cbd 6c24 b1be 6b4a 0ebf 6bf2 8cbe
00000060: ac09 b83d 1557 65be d316 13bf 5439 853e
00000070: 1aa2 fabe c939 21be a800 48be 81eb 52bf
00000080: a12c 3c3f 0b0e 9f3e 5397 1cbf c4e8 29bf
00000090: eeec 133f 65c3 9a3b 55c1 183e e4a2 36bf
000000a0: 5d5d 243d 56b7 ae3f c0b2 a6bf ad2f 02bf
000000b0: fcab 373e 0829 2ebc 7d20 a13e c05e 81be
000000c0: 01c0 45bf 4f40 cfbf e9bf 83bb 8cbb 29bf
000000d0: 2bfb ca3f 3a68 b5bd 48e1 62bf 6bc6 75bb
000000e0: 9173 ac3d 2e8b 0ebd 6c5b 04c0 cafe 59bd
000000f0: 8dc5 c03d 39b5 4bbf 6f9f 69bf 66aa 36bd
00000100: d838 113d 4106 57bd ffb0 7d3f 7041 7abf
00000110: 03ae 703d 389e 37bf acde 48bb 53ae 00c0
00000120: 9fe5 fd3f e161 c2be ebfd 363f f0a1 89bd
00000130: b2ba 753e 7c2c 8d3f 9bdc b43d 4ecd 9abd
00000140: d62c 1fbc 9a26 3cbe ace2 6d3e 8254 ba3e
00000150: dac9 f4bf f3fe 183a 581e 1cbf ef1c 163f
00000160: ea92 f9be 452f a3bf f37f bd3d ff7b cfbb
00000170: 34c0 a0bc c9ab 0fbf 516b c2bf 99cc 823c
00000180: 9f02 0040 ac33 43bd 54c6 873e 284f 74bd
00000190: 8631 103c e8b0 8cbd 533e 443e c1e6 68bf
000001a0: 3d2c ac3f a53c 29bc c9af 3fbe 8a01 823e
000001b0: 76fc 9fbe 2849 f7bf 2c55 a83d f3b5 1d3d
000001c0: c025 3e3b 4f5c 42bf 912c d4bf 99f4 b53b
000001d0: 984f 863e 1de3 a2be cfa2 273f 3525 693f
000001e0: 7b27 eebb 4ca6 1abe d8ef 793e 425b 82bf
000001f0: cc24 a23e db67 063a 910c 693e b7b3 7fbe
00000200: f54a 95bf 4f06 bbbf bc3d e8be ff79 923e
00000210: 0cf6 f0bc cb9d 69be 22ab 4bbe 8d5b b13c
00000220: 8b99 2ebd cac3 bebf ec06 b03d bb37 b5bd
00000230: a4a5 373d 12a3 4f3f 1b9b 353f 47c8 f8be
00000240: 8330 873e b2f4 1fbc 2fc5 30bd 830e 5f3d
00000250: aa62 7a3f 5516 41bf f31f d6bf 7407 963c
00000260: f36d a83b 93e6 aa3c 6abf c5be deb3 693d
00000270: f46c 9abf d09b a63f ddb2 c3be 0d8c ec3e
00000280: 6e08 823b a434 bc3b 5954 5d3b 33eb 7bbc
00000290: c070 57bb a306 21c0 7f65 e7bb c01a 31bc
000002a0: 976f a23b e39c e23c d6e4 293e 4bb0 1040
000002b0: c841 07c0 d5a0 ae3d 2afd 343e 3541 88bf
000002c0: 9ef3 ee3c 09df 8bbd e35c f93c 9dbb a5be
000002d0: 2007 4a3b 9d68 cbbf abcd 1bbf c899 223f
000002e0: 14d0 70bf 0bec f1bc cc41 603e 7193 31be
000002f0: daff 74bf c5fe 8abf 0dcf 213d 35f0 3b3f
00000300: 567d 4abf e599 df3e 5de1 c1bf 66ff 173c
00000310: 36e8 4bbc c425 ab3f 54dd 48bd 6424 3b3d
00000320: a513 263b 4031 f23d 3943 a9be 9126 cebe
00000330: af5b 643f 150a 273d d00a 2040 c119 9dbb
00000340: 6649 253c c4f5 3d3b 67b4 013f 2856 b7bd
00000350: bfb8 04be c972 2a3f 923f 94bf 2658 f73c
00000360: 66da aebe e3a5 0f3f d909 5f3e 2c0e c33f
00000370: 7b3c a33d 7c0a 0cc0 d0c5 553d 103f 2fbe
00000380: 3d81 d03d f1f4 6abe 29cb 143f 6ad9 a2bf
00000390: 40a5 7abe 7215 0b3f 3d44 67bf 9d27 85bb
000003a0: ea73 5a3c e753 e8ba ef57 01bd 92b0 0f3e
000003b0: 1cf0 19c0 a67d 6b3f 3bc6 d53d 221c b3be
000003c0: 68cb c1be 1f4b 17bf 6a6a bd3f 9525 9fbc
000003d0: 7cee 543e 6453 b33d 2cf0 313f 4293 203f
000003e0: 7e1b d2be 0abc d33d
-2.20036 0.0285827 0.0131861 0.00393393 -0.00719849 1.89101 -0.00497089 -0.00772589
-0.186137 0.278279 0.01417 0.786313 -0.867619 -0.426024 -0.67438 0.00524166
0.179234 -0.207523 0.775519 -0.689328 -0.057861 -0.345981 -0.555823 -0.275287
0.0898622 -0.223965 -0.574567 0.260203 -0.489518 -0.157447 -0.195315 -0.823906
0.735056 0.310654 -0.611684 -0.663708 0.577834 0.004723 0.149175 -0.713423
0.0401281 1.36497 -1.30233 -0.50854 0.179367 -0.0106299 0.314701 -0.252676
-0.772461 -1.61915 -0.00402068 -0.663018 1.58579 -0.0885777 -0.88625 -0.00375023
0.0842048 -0.0348007 -2.06808 -0.0532215 0.0941268 -0.795734 -0.912589 -0.0445961
0.0354546 -0.0524962 0.990982 -0.977561 0.0587597 -0.717258 -0.00306503 -2.01064
1.98357 -0.379653 0.714812 -0.0672034 0.23997 1.10292 0.0883114 -0.0755869
-0.00971528 -0.183741 0.23231 0.363926 -1.91241 0.000583633 -0.609838 0.586379
-0.487449 -1.27488 0.0925292 -0.00633192 -0.0196229 -0.561215 -1.5189 0.0159667
2.00016 -0.0476567 0.265185 -0.0596458 0.00880087 -0.0686968 0.191644 -0.909771
1.3451 -0.0103294 -0.187194 0.253918 -0.312473 -1.93192 0.0821937 0.0385036
0.00290142 -0.759221 -1.65761 0.00555284 0.262326 -0.318139 0.654828 0.910724
-0.00726789 -0.151025 0.244079 -1.01841 0.316687 0.000512717 0.227587 -0.249709
-1.16635 -1.46113 -0.453596 0.286087 -0.0294142 -0.228141 -0.198895 0.0216501
-0.0426269 -1.49035 0.0859507 -0.0884852 0.0448357 0.811082 0.709398 -0.485903
0.264042 -0.00976293 -0.0431568 0.0544572 0.978068 -0.754247 -1.67285 0.0183141
0.00514006 0.0208619 -0.386226 0.0570563 -1.20645 1.30163 -0.382224 0.462006
0.00396829 0.00574358 0.00337722 -0.0153759 -0.00328736 -2.51603 -0.00706166 -0.0108096
0.00495715 0.0276627 0.165912 2.26076 -2.11339 0.0852677 0.176747 -1.06449
0.0291689 -0.0682965 0.0304398 -0.323697 0.0030827 -1.58913 -0.608607 0.635159
-0.940675 -0.0295315 0.219001 -0.173414 -0.957029 -1.0859 0.0395041 0.734134
-0.790975 0.436721 -1.51469 0.0092772 -0.0124455 1.33709 -0.0490392 0.045689
0.00253413 0.118258 -0.330591 -0.402638 0.892024 0.0407811 2.50066 -0.00479433
0.0100883 0.00289856 0.506659 -0.0895198 -0.129611 0.665814 -1.15819 0.0301934
-0.34151 0.561125 0.217811 1.52387 0.0797052 -2.18814 0.0521906 -0.171139
0.101809 -0.22945 0.581225 -1.27226 -0.244771 0.543296 -0.903385 -0.00406356
0.0133333 -0.00177252 -0.031578 0.140322 -2.40528 0.919886 0.104382 -0.349824
-0.378505 -0.59099 1.47981 -0.0194271 0.207941 0.0875614 0.695071 0.627247
-0.410366 0.103386

layers.10.bias f4 [50]
00000000: bfba 7a3e 62db a63f 0c5d 843d d255 2e3f
00000010: 70d0 9e3e 116d 0c3d 399b 4e3e 5570 323b
00000020: c020 593e de93 83bf 842d 663e 75f4 6e3d
00000030: 4432 20bf 5f9b 09bc 65a6 74be 6caf fdbe
00000040: 223d a0bc 6fb9 32bf 9d11 c5bf f777 16bd
00000050: 28ba 4ebf 145c ecbf bbf0 47bf e772 27bf
00000060: 4d9f dd3d 3b01 3bc0 17f0 823e d2fb cebf
00000070: 2270 a4be fe60 a0bf e0d5 36bf 5c38 d0be
00000080: 7364 8dbe 8e5b 44bf a56b 1ebf 00f2 8fbd
00000090: 5cd7 f93c f88b 693e d1f7 49bd 465b ba3d
000000a0: aaef 5cbd d97c 48bf 98c2 ebbe 27dc a33e
000000b0: 9da1 7cbf cfda 8dbf 62f7 5dbe 2783 6f3f
000000c0: 2711 513e 4969 a6be
0.244853 1.30357 0.0646306 0.680997 0.310184 0.0342837 0.201764 0.00272276
0.212039 -1.02795 0.224783 0.0583386 -0.625767 -0.00839886 -0.238916 -0.495479
-0.0195604 -0.698142 -1.5396 -0.0367355 -0.807528 -1.84656 -0.781017 -0.654097
0.108214 -2.92195 0.255738 -1.61706 -0.321168 -1.25296 -0.714201 -0.40668
-0.276157 -0.767022 -0.61883 -0.0702858 0.0304982 0.228073 -0.0493086 0.0909944
-0.0539395 -0.783155 -0.460469 0.320039 -0.986841 -1.10824 -0.216764 0.935595
0.204167 -0.325022

layers.10.weight f4 [50, 50]
00000000: ad51 0fbe b123 c4bc 1510 24bd 3972 6ebb
00000010: 8cb2 883c 8604 2cbd a1bb 64bd ce7e eebc
00000020: 6686 4d3e b8c9 803e 15e5 02be 899a 583e
00000030: 0130 14c0 8c84 363e 59da 8e3c e753 373e
00000040: df34 7dbe 9e28 a1be 0a6a f0be ada1 a4bd
00000050: e0a2 0e3d 9be3 6c3e 7c56 933d fe39 d6bc
00000060: f205 92bd a697 203f fb3f 85c0 19e2 bc3f
00000070: 0e14 80be 029f 05c0 4566 c6be f3ff babe
00000080: 8b53 0dbe 9e29 c0bf 5287 80bd 425b 4e3e
00000090: 8612 b93b bd72 8d3e fb3f 933f 6a69 f6be
000000a0: 2381 0bbd 4eee f73c 0b5d 55bf 9b01 8ebe
000000b0: ba5b a33c 83dc e5bd 99f5 a2bf f646 683d
000000c0: bea0 69bf 86af dfbe 19ad 8fbf 376e a1bd
000000d0: fd4e d33e f4c2 a5be c293 8cbc 46db 273d
000000e0: 49da 69bf c592 fabe 8047 9c3e 8d9c adbf
000000f0: 2f27 92bd 9c18 0a3f 9c30 4dbf d0b4 243e
00000100: 1406 e53c 60d3 aebd 0d37 a0bf 2254 493e
00000110: 965f a63e b5a9 a2be d9e9 073e bd34 cd3e
00000120: 68eb 403d a1c5 883d 5532 30bf a6d5 08bf
00000130: adfa 7cbf 7ff6 f7bf 09de 90be fd4f debe
00000140: 562b c7bf 4487 e83e d97b e9be 1896 3f3f
00000150: 3068 e93e a9c1 843e 0c03 c63e d7c0 12c0
00000160: 5470 68be 075f 5040 7b2d e0be 1f64 493e
00000170: 2c48 13be 44f7 ecbd 0731 26bd fe2a 00be
00000180: 666a 0abf 23bc 5d3e e4bb b43e f836 5dbe
00000190: 9c87 f3bd 441d f1bc bb99 c1bd 5154 71bd
000001a0: 0bd3 773c a87d 29bc 48b5 d93c 739f 8cbe
000001b0: 3884 2a3e dd98 3ebe 1ac2 d1bd c023 1a3e
000001c0: 0abb 383e 971e 2d3e 1278 51bd 8979 06be
000001d0: 39ec 8ebd b5a3 5dbc 76d6 b83c 3d9d 0bbe
000001e0: 5ba1 9ebd 996d b23d 7191 4bbe 2343 d83c
000001f0: 8e02 b4bd a9fb a83e 9987 e9ba 07cf 14be
00000200: fc35 813e 14f8 54bc 04b6 99bd 5f4b bebc
00000210: bd1d 913e ddc8 023c 8f93 dbbb ef38 453e
00000220: 19ba 083d 632a 0d3e c272 9f3c 5c73 473c
00000230: fbe1 8cbc d8df 483c 5df8 e13d 7a95 2b3d
00000240: 9c46 243d f700 b5be b94f 0ebe 12d9 e7bd
00000250: a111 1cbe 7f2e 6abe 5e9d abbf 1772 a6bd
00000260: 5fb6 d53e a227 adbe 34a1 093d 058c 293d
00000270: c3ba 65bf 4fe7 e2be 2331 713e 6056 143f
00000280: 7090 95bd 0b0d f43e e7c4 42bf cd78 2b3e
00000290: 93a4 303d 376a eabc 5f24 a4bf 4300 503e
000002a0: 6a33 9e3e 1bf5 98be 6e19 103e 5cac 443f
000002b0: adb2 903d 29ae 6f3d 9d66 45bf 9d68 1540
000002c0: c8cf 36bf e5ed bcbf e355 a6be ffaf e2be
000002d0: 47e6 bdbf 87e1 cb3e 83db fabe 74b3 433f
000002e0: 0dc2 ec3e 016a 8a3e d6aa cd3e cadd 53bf
000002f0: 9d64 8bbe 399c c93f 11ac e2be 3771 523e
00000300: 3811 3dbe e064 2bbe f1d9 95bc e3e2 08be
00000310: 83a7 24bf 431c 5b3e 2d05 bc3e f8e2 5bbe
00000320: ea42 b4be fa1f ea3c 29ce 513c f9f6 ae3b
00000330: 835f 14bd 5c85 9c3a a006 42bc bbf5 55bd
00000340: cde9 f2bd d89e 09be d03b bebb 26ec 913c
00000350: 10af abbd e50b dabc ea58 e5bc 8a02 3dbd
00000360: 4aba 91bd 8c37 aa3b 8124 4cbd 0d99 1f3c
00000370: 54a8 30ba 3333 03be cdee 243c 6677 373c
00000380: 0521 8f3c 7155 49be ef80 1cbd f358 433f
00000390: 1aa8 9cbd 6756 00bd 91de 263c fc7b 1f3d
000003a0: 0a5c 68bc 878a 113e e645 fd3b 0ffa 98bd
000003b0: b8b4 16bc 7c84 953d 9b56 8abc adfb 97be
000003c0: e0ff fd3c 73d6 c83b bb65 623c d111 6f3d
000003d0: 7a48 82bc e493 dfbb c2f6 38bd f2d4 be3c
000003e0: 40d0 bc3b 0de8 60bc b0e8 f13c be4e 5abe
000003f0: a67b 79bf 76dd 40bd f173 cdbc 723a 24bd
-0.13996 -0.0239428 -0.0400544 -0.0036384 0.0166867 -0.0419965 -0.055843 -0.0291132
0.200708 0.251539 -0.127827 0.211527 -2.31543 0.17824 0.0174381 0.179031
-0.247272 -0.314763 -0.469559 -0.0803865 0.0348233 0.231337 0.0719423 -0.0261507
-0.0713004 0.627314 -4.16406 1.47565 -0.250153 -2.08783 -0.387499 -0.365234
-0.138014 -1.50127 -0.0627581 0.20152 0.00564796 0.276266 1.15039 -0.481273
-0.0340587 0.030265 -0.833451 -0.277356 0.0199412 -0.112237 -1.27312 0.0567083
-0.912609 -0.436886 -1.12247 -0.0788235 0.412712 -0.323753 -0.0171603 0.0409806
-0.913487 -0.489401 0.305233 -1.35634 -0.0713638 0.539438 -0.801523 0.160846
0.027957 -0.0853641 -1.25168 0.19661 0.324948 -0.317701 0.132728 0.400793
0.0470995 0.0667832 -0.688268 -0.53451 -0.9882 -1.93721 -0.282944 -0.434204
-1.55601 0.454157 -0.456023 0.748384 0.455873 0.25929 0.386742 -2.29302
-0.226991 3.2558 -0.437847 0.196671 -0.14383 -0.115706 -0.0405741 -0.125164
-0.540686 0.216538 0.352996 -0.21603 -0.118911 -0.0294329 -0.0945315 -0.0589183
0.015126 -0.0103449 0.0265757 -0.274654 0.16652 -0.18613 -0.102421 0.150527
0.180401 0.169062 -0.0511399 -0.131323 -0.0697865 -0.0135278 0.0225632 -0.136342
-0.0774562 0.0871231 -0.198797 0.0263992 -0.0878955 0.330045 -0.00178169 -0.145321
0.252365 -0.0129986 -0.0750542 -0.0232293 0.28343 0.00798246 -0.00670094 0.1926
0.0333806 0.137857 0.0194639 0.0121735 -0.0171976 0.0122604 0.110337 0.0418906
0.0401064 -0.353523 -0.138976 -0.113207 -0.152411 -0.228693 -1.34074 -0.0812723
0.417407 -0.338193 0.033601 0.0413933 -0.897381 -0.443171 0.235539 0.579443
-0.0730294 0.476662 -0.760817 0.167453 0.0431257 -0.0286151 -1.28236 0.203126
0.308986 -0.298745 0.140722 0.768255 0.0706533 0.0585157 -0.771097 2.33451
-0.714108 -1.47601 -0.324874 -0.442749 -1.48359 0.398205 -0.489956 0.764457
0.462418 0.27034 0.401694 -0.827603 -0.272252 1.57508 -0.442719 0.20551
-0.184636 -0.167377 -0.0182924 -0.133678 -0.643181 0.213975 0.367227 -0.214733
-0.352073 0.0285797 0.0128055 0.0053395 -0.0362239 0.00119416 -0.0118424 -0.0522363
-0.11861 -0.134395 -0.00580547 0.0178128 -0.08383 -0.026617 -0.0279965 -0.046145
-0.0711561 0.00519461 -0.0498395 0.00974108 -0.000673895 -0.128125 0.0100667 0.0111979
0.0174718 -0.196615 -0.0382089 0.763076 -0.0764925 -0.0313324 0.0101849 0.0389366
-0.0141821 0.14213 0.00772928 -0.0746957 -0.00919836 0.0730066 -0.016887 -0.296842
0.0310058 0.00612908 0.0138182 0.0583666 -0.0159037 -0.00682305 -0.0451572 0.0232949
0.00576213 -0.0137272 0.0295299 -0.213191 -0.974543 -0.0470862 -0.0250797 -0.0400948

layers.12.bias f4 [5]
00000000: 36a4 db3c 96a9 d33c d49f 1abc ea7b a83c
00000010: d3e9 afbc
0.0268117 0.0258377 -0.00943752 0.0205669 -0.0214738

layers.12.weight f4 [5, 50]
00000000: 2c55 98bc 0682 80bd e0ea ca3c c812 713d
00000010: 51c1 a1bc 5a28 fcbb 563f db3b df64 653c
00000020: a1c8 093d 55f7 483c db25 a0bc d67c 4bbc
00000030: 17c2 003d 014a e83c 33e1 d73c 9a29 a8bd
00000040: b0df 38bc d6e4 29bc 1cdc 2dbb 7ffe 0f3a
00000050: a290 493d 34c0 603c 400b d3bc 1233 fb3d
00000060: 8e5b fc39 52bb ba3c 45ac 0eba 920d 1f3d
00000070: 85ef d83c fbd5 52bc 40e0 bb3a 2ac3 5d3c
00000080: bf51 c43b 52c0 acbc 19cd 253c 04dc 3d3d
00000090: cd22 f33a 6f26 4b3c f0ec 61bc 25f2 d33c
000000a0: 0a4e 1cbc 0353 d5bb 5791 b63c 3b28 f6bb
000000b0: 7ae6 a3ba a027 343d 1d65 333c 70be 47bb
000000c0: 106d ae3b 0fef f93c 04ab 493b 6630 88ba
000000d0: 5139 9c3c 77fe 233b 606d b1bc 8bff 163d
000000e0: f20f 36bc edb1 d93c 48e8 9d3c ae8f 983c
000000f0: 3796 52b8 8245 13bc 7aef f93c 52db 013d
00000100: bb15 b83c 7c6b 70ba 7931 9ebc 27e7 5abd
00000110: f1a2 69bb f7c1 a2bb 9b91 413d bfb9 df3d
00000120: 90af 13bd c121 8e3b 0b1b af3a b1fd e736
00000130: 2a10 6a3b 2631 2d3c 4bf0 213d ecda 9ebc
00000140: 1980 7cbb 97dd b83c f071 223c fb02 9fbc
00000150: 7e9a 493c eefb 613d d41f edbb e92e 433b
00000160: 29d9 e0bc 8896 063d 0f90 1a3a a7e7 ddba
00000170: 5e5d 3a3c 2a99 12bc 678a 6fbc 8861 2c3d
00000180: 9ba6 843d 8e6b aeba fe25 0a3c e874 cf3c
00000190: 87f7 223c ea19 8c3b d7b8 e33c 0ec0 82ba
000001a0: e18a 1abd 30c8 08bc 7199 293d 37c6 8c3b
000001b0: 298a 413d 3bc7 d639 0f58 ff3a 2076 4bbc
000001c0: 9728 113d e231 cd3c c7d1 c13c d68a 3a3b
000001d0: 9203 f6bc 7cf9 d33b dafa 8ebb 0e46 913c
000001e0: 8cb9 4b3d 7de6 cc3d 179e 17bc 84b8 8136
000001f0: a693 91bc 4941 e0ba f3fb 023b 6dd7 0bba
00000200: 4515 593c 36c9 0fbc fae3 09bc 6a3a 713c
00000210: 36ba 56bb 4196 4bbb 9ddc 8a3c f0ce 503d
00000220: 0e1b 3b3d 979e babc f2c2 473d ff31 fe3c
00000230: 5053 cbba 678f a1bc 8a68 073c 6194 d63c
00000240: ea2b 7e3c a3bc 253d 4073 90bb 7e84 06bc
00000250: 2516 003c 3091 1c3d f76d ce3b d3c3 43ba
00000260: 9686 50bc 4757 a73a 9dbf a6bb e877 2b3d
00000270: 28ed 32bd 16ba f73c 018b db3b 5e9c 3d3d
00000280: 953f 04bb 1bf3 1d3b 5a3e 5c3c ff32 293c
00000290: 9de1 bc3c d019 a43a 85bb 69bc 1f5f 87bd
000002a0: e890 4739 2bd4 a4bc f8ff 513d 989b b43d
000002b0: 7622 87bd a862 b63a 7db7 96bb d262 4037
000002c0: 568f 853c 8656 e53b 301b 533d 8e9c fbbc
000002d0: 4495 50bc 6146 c23c 0a10 c53c 6d23 b9bc
000002e0: 9426 6f3c 3910 2d3d 3ec7 ecbb e713 de3c
000002f0: e86f 5d3d 2b82 043d 3ba4 da3b e2fb 6a3b
00000300: acfe eb3b dee6 8dbc 84db f5bc 6b6c 2a3d
00000310: 46ae a03d 69dd 8539 5545 e13b 6649 803c
00000320: 7292 9c3c b79d 403a 4b4d 8c3c 22c4 313a
00000330: 24ce 2f3c 6432 a83a f16b 8f3d 080e 5cbb
00000340: cbe0 033d 6942 0bbc 47df 0bba c98b 71bc
00000350: 4381 2d3c a146 e73b c9a1 cf3c 0a7f cc3b
00000360: e30d 7abc 71de 87bb 3f71 c0bc 09c2 d53c
00000370: 10e7 413d 94ef fe3c 88e6 4b3c 26cb 83bb
00000380: 178c c03c 233d 8e39 62a4 123d f131 14bc
00000390: a6e0 bebb c92b 253b 0151 b03c b6fe 503b
000003a0: 4670 6dbc a29d 913a 46c9 d03c 4c7f c03c
000003b0: fba2 8e3c 2553 aa3c e5a1 ca3c 8906 ce3c
000003c0: 07de bfbc 23ec e5bc 629d 2abc 8ce4 213d
000003d0: 07a0 c73c 58db 3e3d 7424 8839 38a8 98bc
000003e0: f66d b7bc f5cc 5c3d
-0.0185953 -0.062748 0.0247702 0.0588558 -0.0197455 -0.00769524 0.0066909 0.0140011
0.0336386 0.012266 -0.0195493 -0.0124199 0.0314351 0.0283556 0.0263525 -0.0821106
-0.0112838 -0.0103695 -0.00265289 0.000549294 0.0492102 0.0137177 -0.0257622 0.122656
0.000481334 0.0227944 -0.000544254 0.0388313 0.0264814 -0.0128684 0.00143338 0.0135353
0.00599119 -0.0210878 0.0101197 0.0463524 0.00185498 0.0123993 -0.0137894 0.0258723
-0.00954009 -0.00651014 0.0222861 -0.00751212 -0.00125046 0.0439831 0.0109494 -0.00304785
0.00532306 0.0305095 0.00307721 -0.00103904 0.0190703 0.00250235 -0.0216586 0.0368648
-0.0111122 0.0265741 0.0192758 0.0186232 -5.02078e-05 -0.00898874 0.0305097 0.0317033
0.0224713 -0.000917129 -0.0193107 -0.0534431 -0.00356501 -0.00496697 0.047258 0.109241
-0.0360561 0.00433752 0.00133595 6.91387e-06 0.00357152 0.0105708 0.0395358 -0.0193915
-0.00385285 0.0225666 0.00991486 -0.0194106 0.0123049 0.0551719 -0.00723646 0.00297826
-0.0274473 0.0328584 0.00058961 -0.001693 0.0113748 -0.00894765 -0.0146204 0.0420852
0.0647709 -0.00133072 0.00843191 0.0253243 0.00994671 0.00427555 0.0277981 -0.000997545
-0.0377301 -0.00834851 0.0414061 0.00429609 0.0472509 0.000409657 0.00194812 -0.0124183
0.0354391 0.0250482 0.0236596 0.00284641 -0.030031 0.00646895 -0.0043634 0.0177336
0.0497375 0.100049 -0.009254 3.86598e-06 -0.0177706 -0.00171093 0.00199866 -0.000533453
0.0132497 -0.008776 -0.00841617 0.0147234 -0.00327648 -0.00310649 0.0169509 0.0509786
0.0456801 -0.0227807 0.0487699 0.0310297 -0.00155125 -0.0197217 0.00826467 0.0261938
0.0155134 0.0404631 -0.00440827 -0.0082103 0.00781778 0.0382244 0.00629973 -0.000746784
-0.0127274 0.00127671 -0.00508876 0.0418624 -0.0436832 0.0302401 0.00669992 0.0462917
-0.00201795 0.00241012 0.0134426 0.0103271 0.0230568 0.00125199 -0.0142659 -0.0660994
0.000190321 -0.0201207 0.0512695 0.0881874 -0.0659837 0.00139149 -0.00459951 1.14671e-05
0.0163037 0.00699884 0.0515396 -0.0307143 -0.0127309 0.0237152 0.0240555 -0.0225999
0.0145966 0.0422518 -0.0072259 0.0271091 0.0540618 0.0323507 0.00667241 0.00358557
0.00720199 -0.017322 -0.0300119 0.0416073 0.0784574 0.000255327 0.00687472 0.01566
0.0191128 0.000734772 0.0171267 0.000678124 0.0107303 0.00128324 0.0700301 -0.00335777
0.0321968 -0.00849972 -0.00053357 -0.0147428 0.0105899 0.00705798 0.0253457 0.00624073
-0.0152621 -0.00414639 -0.0234915 0.0260935 0.0473395 0.0311201 0.0124451 -0.00402202
0.0235043 0.000271299 0.0358013 -0.00904511 -0.00582512 0.00252031 0.021523 0.00318901
-0.0144921 0.00111096 0.0254866 0.0234982 0.0174117 0.0207916 0.0247354 0.0251496
-0.0234213 -0.0280667 -0.0104135 0.0395246 0.0243683 0.0465959 0.000259671 -0.0186349
-0.0223913 0.0539064

layers.2.bias f4 [50]
00000000: 18b5 2bbe 3a07 9f3e 083c 78bf d445 2abd
00000010: d55c f6be 3c30 28bf 1010 82bd aa49 4b3d
00000020: edd3 bd3f de20 b2be f8a3 eebb c8ef 9d3e
00000030: 41bc aa3f aab7 ee3e c9f1 79bc 9d4b 01bf
00000040: 12f7 e0be b62e 3dbf ffb2 273f 3d0d 28be
00000050: 3673 6dbd cf66 b93f d652 a53c 215c d1be
00000060: 7b69 c2be 63b9 35bf d1cc 73bf ff03 91bc
00000070: b263 efbf 57c9 09bc 60b3 b73c a377 2ebf
00000080: 1c60 0abf 569f 4b3e f453 173d 9561 fcbe
00000090: cad5 59bc 0295 3bbc 162f 663f 884a 23be
000000a0: 780b c0bf 05fd 113f bcb3 aabf e2c9 8ebe
000000b0: 3a40 d0be 6c25 40bf 86ae 203f 01f9 0e3f
000000c0: d30c cebc bd75 79bd
-0.167683 0.310602 -0.969666 -0.0415705 -0.481177 -0.656986 -0.0635072 0.0496308
1.48303 -0.347907 -0.00728273 0.30847 1.33387 0.466245 -0.0152554 -0.50506
-0.439385 -0.738994 0.655075 -0.164113 -0.0579712 1.44845 0.0201811 -0.408906
-0.379711 -0.70986 -0.952344 -0.0177021 -1.87023 -0.00840982 0.0224244 -0.681513
-0.540529 0.19885 0.0369453 -0.492932 -0.0132956 -0.0114491 0.899156 -0.159464
-1.50035 0.570267 -1.33361 -0.278884 -0.40674 -0.750571 0.627663 0.558487
-0.0251526 -0.0609033

layers.2.weight f4 [50, 50]
00000000: 780d c2be e7e0 593e d1ca 3d3e 54aa 34be
00000010: c956 cfbe f6ec 09be 2b13 4a3f 42ec 0c3e
00000020: bf60 973f fc36 a43e fc35 2d3f 8d7c febd
00000030: c3b6 a13f e1d5 8d3d c2a6 e6be 0c22 aabe
00000040: 5fbd 95bd c9b0 e53c 33fd 82be a9c0 c93e
00000050: 61c3 d7bf d87e fa3e f63b 893d c80c d0bf
00000060: 261d ad3e f5a5 10bc 7977 943e 6764 a83e
00000070: b30a fb3e 325a 9fbf fbaf 47bf 508d 43c0
00000080: c3ec 0abd d07c 0ebe 2ee2 ebbe 537a 66be
00000090: 3560 4c3f 3ca3 5d3e 79eb 6cbe b20e d7be
000000a0: f97e 8fbd b39a 0ebd e772 73be cbf3 b0bf
000000b0: 5839 98bf 187a 18bf 7423 bc3e 86ad c1be
000000c0: 098c 09bf 6211 173f 5d6b 473f 3586 2f3d
000000d0: 73a2 8dbe c2fa d7be 444c d9bf 98de 06bf
000000e0: b9c5 40bf f8c3 43bf 4d49 963e 58aa 6b3e
000000f0: 6dfe 173f 3f74 01bf 8ee8 6ebe 73be 28be
00000100: e430 00bf b151 063e 3f8d 273f 166b f83d
00000110: 51a5 0ec0 f6b6 193e 2097 e83e e602 57be
00000120: 890b 903e 2767 283f 8332 edbe a224 99bd
00000130: 19c5 62be 8f72 20bf 7b9f 6abd 221c 73bf
00000140: 3524 b2bf 3e97 e93d 6b7e 7cbc 8dd1 c23e
00000150: 5283 44bc c8ec dcbe 588c 4a3e cfdb a83e
00000160: 4fcb 973e 1c2a 413d ff75 eebe e3fe 233e
00000170: 2a72 24bf 863a 8cbe 34f2 a93e f8de 2bbf
00000180: dfe0 bf3f b8ce afbe 0052 7b3f 537b 55bf
00000190: 57cf 893f 8940 3dbf ad85 69be d0f8 59bd
000001a0: 5fb4 673e 39fd ca3d 7ec3 e4be 64af ef3e
000001b0: dd28 263f 2d07 623f 2863 cc3e b0c8 3fbf
000001c0: 4d4b 403f e8ff 50bd 64eb 193e 4be9 d1be
000001d0: 28bb 313f 62f0 15bd 313f 7b3f cd72 05bf
000001e0: 5dbf 04c0 a41b 593f ca89 ba3f cc42 373f
000001f0: 1a17 86bf a8c4 11bf 60ac 3f3e d34d 0ebf
00000200: 567e 81be 9693 103e e7e3 1440 0dfc 103f
00000210: 9b2e d53c 295e d5be 349e 38be 994a 133f
00000220: 5853 aebd 7e25 c63c 9bcb 5dbe a52d 6ebe
00000230: 82c4 023f 4df7 363f 93e0 b5be 0c74 2d3e
00000240: f321 58be 53c1 123d ffc6 a3bd fbea eabd
00000250: 4832 a33e 32aa 20bf 1f64 fe3c c6f8 30be
00000260: 2d03 133d 880e 01be 4fd4 9d3d 7cd6 153d
00000270: 8e82 963c 6b51 953d 7324 c13d e82b 6dbc
00000280: 0dae 343d d428 443d 3276 423c ff9c 183d
00000290: c67b 003c eed6 8d3c fdaa 573d 6f91 253d
000002a0: c674 d73c 3ddb 9e3d a9d9 13be 20d6 763c
000002b0: edd1 903d 734a 00be 1907 823d 33b3 053d
000002c0: 9d8c 003d 382f eebd c430 543b c806 92be
000002d0: 8c85 213d 16e2 4c3d 62bc a63c 3832 0f3d
000002e0: 9db6 8b3d ccdc 123d 3420 8c3d 1434 873d
000002f0: 02f3 98be b2a1 86bd bd37 06be 35b6 57be
00000300: 4cc6 a1be 679f b2bd fda9 6cbd acc5 b7bd
00000310: 685c b8bc 7b10 52be 9395 3a3c 8046 e9bd
00000320: e21d 88be 172b 20c0 a912 553f 0e31 d6be
00000330: 5531 553e f1ba 0e3f d7a2 313f 6cea 38bf
00000340: fe43 8ebf 2284 ac3d 74f0 0c3e 8540 5ebe
00000350: 2ee2 1fbf b347 033d 43ca b3bf 0af5 0c3f
00000360: c718 53bd 1c7b 663e 9621 6a3f 3275 03bf
00000370: a8c6 b33e 6ff5 fc3d 5c25 b3bd 23f3 acbf
00000380: 0be8 2abc b289 a73c 2fa7 643d 10cf f2bd
00000390: 999e 8c3f 4bce c4bd b8bd aebd ee08 633f
000003a0: 4f43 2f3c 0a11 8cbf 7408 d43e 3c32 06be
000003b0: a301 b1bd 8256 703e 84e4 d3bc 0933 cdbd
000003c0: a565 2c3f f12e c0c0 8f51 ee3e d4b7 103f
000003d0: 97aa 5c3f 1539 543e 1767 4cbe a4dd bdbd
000003e0: 5952 06bf ab06 e1bd c9df e2bb 3f1c ec3e
000003f0: 97c8 193f 3737 f6be a090 88bd 59a7 1abe
-0.379009 0.212772 0.185344 -0.176431 -0.404959 -0.134693 0.789355 0.13762
1.18264 0.320732 0.676605 -0.124261 1.26339 0.0692556 -0.450491 -0.332291
-0.0731151 0.0280384 -0.255838 0.394048 -1.68565 0.489249 0.0670089 -1.62539
0.338113 -0.00882863 0.289974 0.328891 0.490316 -1.24494 -0.780029 -3.0555
-0.0339172 -0.139148 -0.46071 -0.225076 0.798343 0.216443 -0.231367 -0.420034
-0.0700664 -0.0348155 -0.237743 -1.38244 -1.18925 -0.595613 0.367458 -0.378277
-0.537293 0.590109 0.778982 0.0428526 -0.27663 -0.421835 -1.69764 -0.526834
-0.753017 -0.764709 0.293528 0.230142 0.593726 -0.50568 -0.233309 -0.164789
-0.500746 0.131171 0.654499 0.121298 -2.22884 0.150112 0.454278 -0.209972
0.281338 0.657824 -0.463276 -0.0747769 -0.221455 -0.626748 -0.057281 -0.949648
-1.39173 0.114058 -0.015411 0.380505 -0.0119942 -0.431494 0.197801 0.329802
0.296473 0.0471593 -0.465744 0.160152 -0.642367 -0.273884 0.331926 -0.671371
1.49905 -0.343374 0.98172 -0.833913 1.07664 -0.739266 -0.228049 -0.0532158
0.226274 0.0991158 -0.446804 0.468135 0.649061 0.882922 0.399194 -0.749156
0.751149 -0.0510253 0.150312 -0.409983 0.694262 -0.0366062 0.981433 -0.521283
-2.07418 0.848078 1.45733 0.715863 -1.04758 -0.569407 0.187181 -0.555875
-0.252917 0.141188 2.32641 0.566346 0.0260232 -0.416734 -0.180291 0.575357
-0.0851199 0.0241878 -0.216597 -0.232596 0.510811 0.714711 -0.355229 0.169388
-0.211067 0.0358289 -0.0799694 -0.114706 0.318743 -0.627597 0.0310536 -0.172824
0.0358917 -0.126032 0.0770651 0.0365815 0.0183728 0.0729092 0.0943078 -0.0144758
0.0441113 0.0478905 0.011869 0.0372591 0.00784201 0.0173144 0.0526533 0.0404219
0.0263008 0.0775666 -0.144385 0.0150657 0.0707129 -0.125284 0.0634901 0.0326416
0.0313841 -0.116301 0.00323777 -0.285208 0.039434 0.0500203 0.0203535 0.03496
0.0682194 0.0358551 0.0684208 0.0660173 -0.298729 -0.0657381 -0.131072 -0.210656
-0.315966 -0.0872181 -0.0577793 -0.0897325 -0.022505 -0.205141 0.0113882 -0.113904
-0.265853 -2.50263 0.832316 -0.418343 0.208196 0.55754 0.693891 -0.722327
-1.11145 0.0842364 0.137636 -0.217043 -0.624545 0.0320508 -1.40461 0.550614
-0.0515373 0.225079 0.914575 -0.513507 0.351125 0.123515 -0.0874736 -1.35117
-0.0104313 0.0204514 0.0558235 -0.118559 1.09859 -0.0960966 -0.0853228 0.886855
0.0106972 -1.09427 0.414127 -0.131051 -0.0864289 0.234705 -0.0258658 -0.100195
0.673426 -6.00573 0.465466 0.565305 0.861978 0.207249 -0.199612 -0.0927079
-0.524694 -0.109876 -0.00692365 0.461153 0.600717 -0.48089 -0.0666821 -0.151029

layers.4.bias f4 [50]
00000000: 51a1 1a3e 67f2 493f 4a5e 99bf 49be 16bf
00000010: 7e54 cbbe 42af 8fbe ffb2 d73f 6116 1abf
00000020: d925 d2bf 9161 07c0 8b83 30bd 7216 42bf
00000030: 49e1 a0bd 75cd ac3f e0d6 e9bf bc91 85bf
00000040: 871a 0dbf 7077 0ac0 99d5 57bf ae12 5cbe
00000050: 8fc4 4fbf d178 0e3f 0685 0d3f ff79 da3d
00000060: 0531 f83e 8cdb b03e 7f30 903f 7e00 86bf
00000070: 622d e2bf bb63 11be bb99 513f dbbf b6bf
00000080: 6421 62bf 66bf 16bf 766c 803f 6caf a53e
00000090: fbae 0ac0 c806 b23e 780a 1dbf 834c 58c0
000000a0: c4eb a2be 4ded 86bd e7e2 6f3e 6328 87bf
000000b0: aa2c 463f 9146 e53e 70ec 0dbf b01f 56bf
000000c0: b1f9 9c3f 3eb4 7f3e
0.151006 0.788855 -1.19819 -0.588841 -0.397129 -0.280634 1.68515 -0.601904
-1.64178 -2.11533 -0.0430942 -0.758155 -0.0785547 1.35002 -1.82687 -1.04351
-0.551186 -2.16354 -0.843103 -0.214915 -0.811593 0.556531 0.552811 0.106678
0.484749 0.345425 1.12648 -1.04689 -1.76701 -0.141982 0.818752 -1.42773
-0.883322 -0.588858 1.00331 0.323604 -2.16693 0.347708 -0.613441 -3.37967
-0.318205 -0.0658823 0.234264 -1.05592 0.774119 0.447804 -0.554389 -0.836421
1.22637 0.249711

layers.4.weight f4 [50, 50]
00000000: a72b 0e3d 61c3 bf3f 7dcf 3cbf 1fe2 55bd
00000010: 9205 9c3f 0d38 8b3e 014d dcbf 7ae0 043c
00000020: 0d0b a4bc fbae 2ac0 5cf9 713d a531 42bf
00000030: ca6c b03e 4278 543e 5754 cebc b85b 7a3f
00000040: 1d2e 93bd 6de2 48bf 624e 883e 05a3 92bf
00000050: c18e f538 764f 923f e04b b13d d68b 993e
00000060: 3cdd 1d3f 2739 cb3d 0118 7bbf e4b5 573d
00000070: a5f7 c93f 4f3a 32bb 2827 92bf 492a 07bf
00000080: 67d4 dc3d 395e a1be c98e a53f 507a 15bd
00000090: 66cf af3c ee96 443d c1c7 14bf ca52 2b3e
000000a0: 12a0 ae3f e599 87be 0d1a a2be 5797 abbe
000000b0: bf60 b7bf b03d afbf 506e 23bf b762 93bf
000000c0: 559f 903c 9086 333d 9a06 b5be b29f ad3e
000000d0: 434c 533c 9a27 523d 24d1 cb3d 85d2 df3e
000000e0: 2935 65bd 94f3 4abd c0e5 a63d fe9e f03e
000000f0: 317e fa3e 6589 a63e 4cc4 e3be 00e5 0fbe
00000100: f584 25bc 5ed9 f5be 2b51 563e 137f a43e
00000110: 0761 ce3d 31ef 6cbd b361 cd3d 4751 8c3d
00000120: f757 433f e9b7 afbe a2ec 1d3f a530 cfbe
00000130: ba68 783e 7c04 28bd 6f0f 06bf 0e30 10bb
00000140: 5bd0 0b3f 302f a03e 1b2b 35bb e3ff be3d
00000150: 79af 7abd ee5e 223f 697a 1f3d 4540 4fbc
00000160: e8fa 3ebe ae2e 923d 2a72 c03e 8b6e cdbe
00000170: a6b2 0dbd 9f0e 9a3c 3504 2eba 9292 0ebe
00000180: e7ab 64be 45d5 5fbe bc4c 633d 34b9 283e
00000190: 611b 09bf 872f 983d aa60 b8bf 5be0 3c3d
000001a0: f6c9 3b3d dcd9 b73e d460 cabf 740b ddbd
000001b0: edd8 f4bf f816 863e f7d5 6bbd 6b9b ea3e
000001c0: 2d0b 46bf 1783 573e d764 f23c 5f98 a43f
000001d0: f19d 483e ebc3 563f 166a ad3e 8387 793e
000001e0: 4a7e 043e 01fb f0be 3bdf 333f 810a 67bf
000001f0: 3271 4b3e e140 a83f 9357 af3e 8ece 59bd
00000200: bbf2 13c0 17b1 34bd 8638 4ebf acca 96bf
00000210: 5487 81bd 1a52 253d 8a77 34bf 6adb d03d
00000220: f348 523d 2431 fb3b 29e9 91be 7a8a 8cbe
00000230: 1b66 883e 3272 06be 3a92 e3be 2b13 86bf
00000240: e195 543e 67ed d6bd 82ab 083f 9a99 f1bf
00000250: 8b39 a33c c79d f23d 9acf b13e d979 5b3e
00000260: adbd ffbe 85d4 88bc 1101 b3bf 658c cf3d
00000270: bad7 693e 59c1 cfbd 9dd7 b83f f4bf 74bf
00000280: 301b 733d 42e9 e3be 6e50 bbbe eb0f 7e3d
00000290: 8783 a9bc b5e0 8d3f 01a6 5c3e d506 073f
000002a0: a31f 5dbe 7d59 5abd 877d 4cbc 86e2 86be
000002b0: 63b4 86bf 4086 e6be c781 373e 8d97 96be
000002c0: 9604 04c0 2328 e3bc 410d 3f3e 8055 81b9
000002d0: f8a7 00bf 8962 62be d8d8 c9bf 6a4d 6b3f
000002e0: 5f07 1e3e 3a1e fb3e 652e 153d 8a95 ecbc
000002f0: d7a3 703e 5a48 e03e 2499 bd3e d592 22bf
00000300: e735 cabf c573 5abf 0f5e 83be d191 fcbd
00000310: 910b 6ebe 1d20 f8bf 39c0 62bd cf2d 153b
00000320: 400a 88bd a681 4b3f ab79 febe 8cc9 d13c
00000330: e738 67bf ac06 fcbc 0ccb 6fbe f739 a13b
00000340: b742 08bf b476 97bf 289e 033e da77 a0bc
00000350: ed2d a53d bd6f dc3d 604a d3bc 88d7 65be
00000360: c72c 8b3e e608 a9be 33fd 223e 5ed5 a13e
00000370: 642f 653d fa28 8b3e 8638 ce3e d1e7 b33d
00000380: 978b 18be 0106 883d 6a8b b6bd 840d 4fbc
00000390: 23f3 e0c0 51af 4abc 6d39 c7bf 9565 4cc0
000003a0: 295e 3d3f ff07 78be 5919 bd3e 6745 ecbe
000003b0: 7bca 403d 392c 893b 3dce a93d d6d9 9abd
000003c0: 5ccc f7be 3e7b 493d 1bd6 943c 933f b3bd
000003d0: 6189 dfbe 4e8f b73c cd5b 9d3e 293e 1e3d
000003e0: 3af7 a8bc 54c9 003e 707c 11bf c4ec 353e
000003f0: 9b90 863e e86c e13d f8fb bdbe 4ad4 8b3e
0.0347096 1.49815 -0.737541 -0.0522176 1.21892 0.271912 -1.7211 0.00811016
-0.0200248 -2.66693 0.0590757 -0.75857 0.34458 0.20749 -0.0251867 0.977962
-0.0718653 -0.784705 0.266223 -1.1456 0.000117091 1.14305 0.0865705 0.299895
0.616657 0.0992301 -0.980835 0.0526637 1.57787 -0.00271954 -1.14182 -0.527989
0.107827 -0.315172 1.29342 -0.0364936 0.0214612 0.0479955 -0.581173 0.167308
1.36426 -0.264846 -0.316605 -0.335139 -1.43264 -1.36907 -0.638402 -1.15145
0.0176541 0.0438295 -0.353566 0.339109 0.0128966 0.0513073 0.09952 0.437153
-0.0559589 -0.0495487 0.0814929 0.469963 0.489244 0.325267 -0.444857 -0.140522
-0.0101025 -0.480174 0.209294 0.321282 0.100771 -0.0578453 0.100284 0.0685144
0.763061 -0.3432 0.616892 -0.404668 0.242587 -0.0410199 -0.523673 -0.00220013
0.546148 0.31286 -0.00276441 0.0932615 -0.0612025 0.634261 0.0389351 -0.0126496
-0.186504 0.0713781 0.375871 -0.401234 -0.0345942 0.0188058 -0.00066382 -0.139231
-0.223312 -0.218587 0.0554931 0.164769 -0.535574 0.0743094 -1.44045 0.0461124
0.0458469 0.359084 -1.58108 -0.107932 -1.91287 0.261894 -0.0575771 0.458217
-0.773608 0.210461 0.0295891 1.2859 0.195915 0.838927 0.3387 0.243681
0.129388 -0.470665 0.702625 -0.902504 0.198674 1.31448 0.342465 -0.0531755
-2.31169 -0.0441142 -0.80555 -1.17806 -0.0632464 0.0403615 -0.704949 0.101981
0.0513391 0.00766577 -0.284982 -0.274494 0.266404 -0.131295 -0.444475 -1.04746
0.207603 -0.104945 0.533867 -1.8875 0.0199249 0.118465 0.347287 0.214332
-0.499494 -0.0167029 -1.39847 0.101342 0.228362 -0.101443 1.44408 -0.956054
0.0593521 -0.445139 -0.365848 0.0620269 -0.0206926 1.10842 0.215477 0.527448
-0.215941 -0.053308 -0.0124811 -0.263447 -1.05238 -0.450243 0.179206 -0.294125
-2.06278 -0.0277291 0.186574 -0.000246685 -0.502563 -0.221079 -1.57693 0.91915
0.154325 0.490465 0.0364212 -0.0288799 0.235 0.438052 0.370309 -0.635053
-1.57977 -0.853329 -0.256577 -0.123325 -0.232466 -1.93848 -0.0553591 0.00227629
-0.0664258 0.794947 -0.497022 0.0256088 -0.903212 -0.0307649 -0.234173 0.00492024
-0.532268 -1.18331 0.128533 -0.0195884 0.080654 0.107635 -0.0257923 -0.224455
0.271826 -0.330146 0.159169 0.316081 0.0559534 0.271797 0.402775 0.0878445
-0.14897 0.0664177 -0.0891331 -0.0126375 -7.02968 -0.0123709 -1.55644 -3.1937
0.739718 -0.242218 0.369334 -0.461467 0.0470681 0.00418618 0.0829129 -0.0756108
-0.483981 0.0491898 0.0181685 -0.0875236 -0.436595 0.0224072 0.307341 0.0386335
-0.0206257 0.125768 -0.568305 0.177661 0.262822 0.110071 -0.371063 0.273104

layers.6.bias f4 [50]
00000000: 5da4 383f f9da 0b3f dd98 8e3f 98bf e2be
00000010: a5bf a73e ce29 b23d fb07 75bf 433d 5d3e
00000020: 2d09 80c0 5437 a7be 5d1a 27bf b8fe c2bc
00000030: 8813 40bf edf4 8e3d 2c66 24be 6632 5cbe
00000040: 7368 093f 1a4d fe3e af77 b3bf 54c9 903e
00000050: b266 9c3e 4359 34bf f417 4ebf f2ea a43f
00000060: e223 523e 6d91 1cbf 8675 43be bf48 a0bf
00000070: f662 28bf 3a15 ba3c 8cbb 493f 7d75 7d3f
00000080: 3e93 bd3d f2ed 853e 53b1 f1be b117 d2be
00000090: 4390 83be c2d9 053f b8ad 9d3e 92b3 02c0
000000a0: a6b6 143e 2618 123f f5a1 87bf 9e5e 25bf
000000b0: 90dd 613f 145b 41bc 209b 24be 768b 04bf
000000c0: 61a6 49c0 0e15 9b3e
0.721258 0.54631 1.11404 -0.442868 0.327634 0.0869938 -0.957153 0.216054
-4.00112 -0.326594 -0.652746 -0.0238031 -0.750298 0.0698031 -0.160546 -0.215036
0.53675 0.496682 -1.40209 0.282786 0.305471 -0.704487 -0.805053 1.28842
0.205215 -0.611594 -0.190878 -1.25222 -0.65776 0.0227152 0.788018 0.990074
0.092566 0.261581 -0.472056 -0.410337 -0.25696 0.522854 0.307966 -2.04221
0.145228 0.570681 -1.05963 -0.645975 0.882287 -0.0118015 -0.160748 -0.517753
-3.15078 0.302895

layers.6.weight f4 [50, 50]
00000000: 1a01 11bc d7bf 27bf 31b6 48bf 9f20 5dbf
00000010: 406a dbbf f46d 05bf ef1c 5ebf 3337 e73e
00000020: 747d 6f3e 196e 85bd b116 c5c0 e965 94bf
00000030: f0dc 27c0 bb7b d03e cc79 06be cff9 e13e
00000040: a450 febe 1f11 433e 8c4f bcbd ae9d 203f
00000050: 5ead 49bd 9cf9 853f 8a8e cc3f 78b8 dd3e
00000060: 86c9 84bf d5cf 21c0 501c 303e e10b cbbe
00000070: aeb7 7dbf 1760 44bc b9fc 87bf dba4 5ebf
00000080: c6fd 6b3f 5935 143f 5c8e 1bbf 79a0 943d
00000090: 23c0 893e 2cf4 213f 5e87 85bc adb4 b6bd
000000a0: c24d 063f efa9 5c3f 5723 07bf 1920 a13e
000000b0: 5800 173f a9fb 2cc0 3e07 7ebf 0398 923e
000000c0: ab40 f5be a391 c73e 382f e63e 9815 2abe
000000d0: 58c5 873f 6cec 823f c18c 193f eab4 2e3e
000000e0: 1317 763d 3c2f 4d3f 3a78 e63d 3dcc 07bb
000000f0: edf0 d73f a549 3940 ea5a fb3e 8cf7 073f
00000100: b918 233d 478e 24be b1d1 23bd 904a b93e
00000110: 2dcf 8b3f e999 023f 11c7 da3d 0083 ee3c
00000120: 764a 6cbd 4980 8e3f e8a4 973e 0da7 d4be
00000130: 793b d63f 99ba b3be 0fdd a2bc 26df ac3c
00000140: 06f2 ccbe b6f8 0c3f 6893 273f cbd5 533f
00000150: 6c3e 923f b614 b83e 9142 8ebd f5f3 2a3f
00000160: 0d89 8b3f 6420 bfbe b807 e1bd 2044 1a3f
00000170: a357 8bbe ad4b 3d3e 96cc 35bf 9d10 eabe
00000180: 9f5b f03e b2df aebd 2f18 fcbe e751 e93e
00000190: f74a 6abd 27a4 b53e 2e1a 423e 666c 903e
000001a0: f27c e63e 8db7 cdbe 9817 20be 78da b5bc
000001b0: cc7e 3dbe f9a2 95be dd7d d6be 91f3 6abf
000001c0: 95f2 6a3f acad 783e 77bd dc3e 992a 08be
000001d0: 74ee 96be a5f8 083e 6aa0 d1be c685 e3bd
000001e0: a388 89b7 d07c 9ebd 5fed 183e 9ed0 6bbe
000001f0: 2989 c6bd 73f1 673e 52ee 9ebe a91a d6bb
00000200: 3561 133f 831c 9fbd be93 853c 4563 0dbe
00000210: 9622 99be 008c 0b3f a032 5ebe d593 193e
00000220: b2ca d6bc 8df0 16be 17bb 7d3e 8995 513e
00000230: 5385 55bd 349d 09bf f532 c8bb 56d8 3c3e
00000240: d32f 113d 6362 cbbe 8e75 513e 7c99 08be
00000250: c094 c13e 9eed 41be 2bc3 78be bc74 e33e
00000260: 2cd4 da3f e63f 88bf c827 14bf 1dad 3e3f
00000270: 5f7a 0fbf 1899 043f 1e88 8c3e 4a28 49bf
00000280: d42b 05c0 e679 48c0 ce55 63bf 0a09 fd3c
00000290: e23c 7c3f 38f8 a13a 6fd6 b0be acc5 1fbf
000002a0: 1a88 75bf 12fa 11bf 3cf9 443e da70 c83d
000002b0: 3cfa a73e b874 20bf 2a02 ccbe d7f5 10bd
000002c0: 77f4 ef3e 2f18 103f 91f2 0340 ab09 023e
000002d0: ad86 84be 9e5f 003f b3eb e6be d461 69bf
000002e0: 336e 16bf 3932 85bc f774 153e 2195 0a3f
000002f0: 89b1 34bf 61a8 173f 5fb5 08c0 6479 8f3e
00000300: 29d1 6d3d 2cd4 92bf ee7e 803d a6d1 683f
00000310: 2788 7abe 0933 ad3e d7a4 cbbe 6cb5 073f
00000320: 45f4 1b3e 5f7c 01be 7ea4 ed3c d31c bfbd
00000330: b059 cebd 68b6 263d d07f ef3d f6eb 2e3e
00000340: ec36 633d 8f1a 1fbf a14d 1ebe c040 903e
00000350: 42ce cbbe ad8a a83e 2638 b5be 0ce8 15be
00000360: 4cfd 00bf 61e0 913e 30cc 93bd b9b6 c13c
00000370: 5dc5 3dbd 6ccb 853d 7957 6dbe 1c95 9bba
00000380: fb10 4abd 95aa 1ebd 8fa6 fabd 1c04 c2bd
00000390: 2cd3 7fbe 05fb afbc 4792 c0be 1d94 84bf
000003a0: f486 8b3e a985 b23e 695d 393d 8ffe 173e
000003b0: 2f85 77be 3b6e 683e 7db1 173f 851f 41bd
000003c0: 062f 6abe 3e96 863e e15f e4bd 0b28 94bd
000003d0: adda 75be 75c5 91bd 0709 15bf 3e59 81bd
000003e0: 971b b43e bb31 733d 564a cfbd 2c48 373f
000003f0: ff5b 99be 65f5 33bd 9066 a0bf 2e53 b8bd
-0.00885036 -0.655271 -0.78403 -0.863779 -1.71418 -0.521209 -0.867629 0.451593
0.233877 -0.0651514 -6.15902 -1.15936 -2.62286 0.407194 -0.131324 0.441359
-0.496709 0.190495 -0.0919486 0.627406 -0.0492376 1.04668 1.5981 0.433048
-1.0374 -2.52831 0.171983 -0.396575 -0.991084 -0.0119858 -1.0624 -0.869703
0.921841 0.578939 -0.607641 0.0725717 0.269044 0.632632 -0.0162999 -0.0892118
0.524624 0.861968 -0.527883 0.314698 0.589849 -2.70286 -0.992298 0.286316
-0.479009 0.389783 0.449579 -0.166098 1.06071 1.02284 0.599804 0.170612
0.0600806 0.801502 0.112534 -0.00207211 1.68704 2.89512 0.490928 0.531121
0.0398185 -0.160699 -0.0399949 0.361897 1.09226 0.510161 0.106825 0.0291152
-0.0576882 1.11329 0.29618 -0.415337 1.67369 -0.351033 -0.0198808 0.0211025
-0.400284 0.55067 0.654593 0.827481 1.14253 0.359533 -0.0694629 0.667785
1.09012 -0.373294 -0.109878 0.602602 -0.272153 0.184859 -0.710153 -0.457158
0.469449 -0.0853876 -0.492372 0.455703 -0.0572004 0.354768 0.189553 0.282077
0.450172 -0.401791 -0.15634 -0.0221989 -0.185054 -0.292259 -0.418929 -0.917779
0.917764 0.24285 0.431133 -0.132975 -0.294788 0.133761 -0.409427 -0.111095
-1.63953e-05 -0.0773865 0.149343 -0.230288 -0.0969413 0.226507 -0.310412 -0.00653394
0.575702 -0.0776911 0.0163058 -0.138074 -0.299092 0.545105 -0.21699 0.149978
-0.0262197 -0.147402 0.247784 0.204672 -0.0521291 -0.537555 -0.00610959 0.184419
0.035446 -0.397235 0.20455 -0.133398 0.378088 -0.189383 -0.242932 0.44425
1.7096 -1.06445 -0.578732 0.744829 -0.560461 0.517961 0.274476 -0.785771
-2.0808 -3.13244 -0.888028 0.0308881 0.985304 0.00123573 -0.345386 -0.62411
-0.959108 -0.570222 0.192357 0.0978715 0.328081 -0.626781 -0.398454 -0.0353907
0.468662 0.562869 2.06168 0.12699 -0.25884 0.501459 -0.451017 -0.911649
-0.587619 -0.0162593 0.145954 0.541338 -0.705834 0.592413 -2.13607 0.280223
0.0580608 -1.1471 0.0627421 0.909449 -0.24466 0.33828 -0.397742 0.530112
0.152299 -0.126451 0.0290091 -0.0933167 -0.100757 0.0407013 0.116943 0.170822
0.0554723 -0.621499 -0.154593 0.281744 -0.398058 0.329183 -0.353944 -0.146393
-0.503865 0.284915 -0.0721668 0.0236467 -0.0463308 0.0653294 -0.231779 -0.001187
-0.0493326 -0.0387369 -0.122388 -0.0947344 -0.249829 -0.021482 -0.376116 -1.03577
0.272514 0.348676 0.0452551 0.148432 -0.241719 0.226983 0.592552 -0.0471492
-0.228695 0.262865 -0.111511 -0.072342 -0.240092 -0.0711774 -0.582169 -0.0631585
0.351773 0.0593736 -0.101216 0.715945 -0.29953 -0.0439352 -1.25313 -0.0900024

layers.8.bias f4 [50]
00000000: 88f6 f13e c5e6 9f3f 56d4 90c0 6e4f 28bf
00000010: 290f e6bc fbe6 4ebe 5394 333f ace3 2c3f
00000020: 2619 413f 1fd6 7bbe c3bc 923d 00c6 633e
00000030: 5c57 54bf b325 a3be b470 febb eeee 713f
00000040: 3d44 8ec0 522c 873f 7e1d d43f a839 4dbf
00000050: 4ad2 c93f e258 833f c19c 4a3d 9ab6 bf3f
00000060: a9c2 7f3e 9eef b3bf 1c9a 7abf 6e51 8ebf
00000070: df32 233f 9f3c 6c3f b0ab 453f 48c4 983f
00000080: c251 b23f be2d f83e 672c fabf f168 873f
00000090: ed47 fa3f 86e7 59bf 0057 be3f 10ea dabe
000000a0: 1af8 193f 8ae5 c63e c6a7 a8bf 2aa8 e83e
000000b0: 23f6 89bc 6747 12bf 84bb ebbf f4fd 9c3f
000000c0: 0890 013f f9a1 46bf
0.472584 1.24923 -4.52592 -0.657462 -0.0280834 -0.202053 0.701482 0.675349
0.75429 -0.245934 0.0716491 0.222435 -0.829458 -0.318647 -0.0077649 0.945052
-4.44583 1.05604 1.65715 -0.801661 1.57673 1.02615 0.0494659 1.49776
0.249766 -1.40575 -0.978914 -1.11186 0.637495 0.9228 0.772151 1.19349
1.39312 0.484724 -1.95448 1.05789 1.95532 -0.851189 1.48703 -0.427567
0.601442 0.38847 -1.31762 0.454408 -0.016841 -0.571402 -1.84166 1.2265
0.506104 -0.775909

layers.8.weight f4 [50, 50]
00000000: f8e2 bbbe de55 5fbe f1d9 2a3e ed0b a0be
00000010: addd ae3e 3a3d 5f3e bb0e ad3e a726 9c3c
00000020: 0130 7e3e 9db9 073e 448a 893e 001f bcbc
00000030: 7021 743d cc62 e2bd 272d c13c 782d bcbc
00000040: 5ed0 67bc b60e 8e3e abf5 b4bc 3cbc 73bf
00000050: 4017 e5be ca6c 50be fcb7 5c3c 9144 1fbe
00000060: f987 4dbe d2ff ca3e e1c6 b73d 5c75 953e
00000070: a31d 8fbe 4701 323e 1c06 433e 5bb3 553e
00000080: ba69 d33d 1bb9 ae3e cdce 163f c095 d4be
00000090: 0d1a a63f c407 463e 0c67 28bd 363c 5dbd
000000a0: f23f 99be 34a0 9ebc 0176 94bd 0aa1 e3bd
000000b0: 61de 13be ebf5 38bd db17 283f b493 71be
000000c0: ca7b cb3c 4299 9e3e 3771 babf 55db 0dbe
000000d0: 1136 8c3f 65aa fcbf 9b1b 0b3f 6496 fd3e
000000e0: c7df 2c3c eb1e 61bf 36ae dfbe e36b bf3e
000000f0: 3a23 3a3f 0e56 32bd 433d 3d3e 47fa bebd
00000100: c7f3 a13e 6090 bc3e d2a6 823e d811 3bbf
00000110: eeeb 80be c990 fbbe 0394 563f ba46 f0bc
00000120: 4704 fbbe 85b3 c3be f111 c5bf a6f1 3b3e
00000130: 7443 1bbf 234a 0bbf 7073 8fbd e1b8 943e
00000140: cc40 f93f c08e c4bd 1795 c93d bc94 fabd
00000150: 29ae bebf fe0b 6cbf 79af 823f f7ea 8b3e
00000160: 4dd6 f0bf 57cc 04bf 0ebf d33e 82e6 13be
00000170: f704 d1be 51a5 a2bf 23db e1bf 4400 8dbb
00000180: 2559 af3e abb2 cfbe 9487 05be abcf 35bf
00000190: 2786 dcbe 2783 933e 971b 2c3f 1091 163f
000001a0: eab2 64bf e65a f43d 7014 bfbd c1ff cabf
000001b0: 5f41 8ebf 0d6e 6b3f cfdb 64bf ee26 b83c
000001c0: e198 35be 4a27 2abf a8e0 683f 30f1 37be
000001d0: 3bd4 603d 1d05 403f df15 bdbf e691 2dc0
000001e0: 9fca b1be 02fb 8e3d ecde fabe 4563 25bf
000001f0: f2d2 37c0 f0f9 853f bd38 89be bf9d 0cbf
00000200: fe7b d03d 0c76 573f c5e2 df3e e866 13bf
00000210: 4d4a 90c0 0bd2 0cbf 21e9 d3bd a0c1 4abf
00000220: 79e9 a63e 6c7a 603e 1860 1fbe 323d 853f
00000230: 931c 48bf cd37 47bd 2d26 cebf 0aa2 06c0
00000240: b64b 6bbf 3cc8 a1bc 2cbc 6fbf 75cb aebe
00000250: f7e6 e7be 8d46 5a3f 6151 993e 9eef 8fbf
00000260: 8f70 cabe 8d0b 07be 228e 0940 6649 94c0
00000270: 2387 e83d f247 2c3b de71 a6bf e00f 97be
00000280: 2cd4 ca3f 2dfd f43b 1b8a c63d b0a0 7a3d
00000290: 340f 5c3f ea6a c13d 3945 3bc0 9aeb c43f
000002a0: faf0 0cbe aef2 e43e 7fde 3840 384a 963f
000002b0: 2787 033f 4581 ae3f a6d0 8d3f acc4 2cbe
000002c0: a930 4a40 b3d2 843f 6e4e 453e d3d9 85bf
000002d0: c1ca c93f 4772 d9be 2d21 0fc0 fb20 833e
000002e0: dfde adbe 06dd 7bbb 1a34 9440 2cd4 b63f
000002f0: 2861 ca3f bccb 1740 328e 39bf 8599 f63d
00000300: 103e 443e 55de de3f a323 d1bf 2074 793b
00000310: 6ec1 2e3f 003a a43f d97c f03f 6458 f53f
00000320: 00b6 72bc 6713 3bbd a3b2 3c3c a137 70bc
00000330: 521e 653b 8737 26bd 4799 c33c b5f6 42bb
00000340: af1e 1ebc 5044 96bb 188a 65bd 3d72 b53c
00000350: 262b 80bd 3a35 fc3c 5755 143c 2b1b b13c
00000360: b77d 8f3c 5199 67bd baa1 293c 46e6 36bd
00000370: 3105 ce3b d7c9 cf3b dce7 043b 7451 e33c
00000380: 8022 1bbd a088 45bc 2041 51bd 7d83 45bd
00000390: 7f78 8cbc 0a96 72bb ec82 07bb 5469 11bc
000003a0: 96fd 84bc 2d0e 823c 462b d23c 9785 60bd
000003b0: d03c 4a3c bcca daba 9f4f 69bd 0960 943c
000003c0: c986 7f3c 6e0c 4bbc e92c 133d 5a62 053d
000003d0: 7d2c f3bc 86f3 1abd 7f3a 54bc a3be f63c
000003e0: 9dc0 cf3c a53d 34bd 6c5a 993e 4760 a23c
000003f0: 68a2 99bd fdf5 ea3d 3013 553e f9a3 2c3f
-0.366966 -0.218101 0.166847 -0.312591 0.341535 0.218007 0.338003 0.0190614
0.24823 0.132544 0.268633 -0.022964 0.0596022 -0.11054 0.0235811 -0.0229709
-0.0141488 0.277456 -0.0220898 -0.952091 -0.447443 -0.20354 0.0134716 -0.155535
-0.200714 0.396483 0.0897348 0.291911 -0.279523 0.173833 0.190453 0.208692
0.103229 0.341256 0.589093 -0.415205 1.29767 0.193389 -0.0411139 -0.0540125
-0.299316 -0.0193635 -0.0724907 -0.111147 -0.144403 -0.0451564 0.656614 -0.235915
0.0248393 0.309763 -1.45658 -0.138532 1.0954 -1.97395 0.54339 0.495288
0.0105514 -0.879378 -0.436876 0.37387 0.7271 -0.0435391 0.184804 -0.0932508
0.316313 0.368289 0.255179 -0.730741 -0.2518 -0.491339 0.838196 -0.0293306
-0.490267 -0.382229 -1.53961 0.183539 -0.606498 -0.5441 -0.0700444 0.290473
1.94729 -0.0959754 0.0984289 -0.122354 -1.48969 -0.922058 1.02098 0.273277
-1.88154 -0.518743 0.413567 -0.144434 -0.408241 -1.27067 -1.7645 -0.00430301
0.342477 -0.40566 -0.1304 -0.7102 -0.430711 0.28811 0.672296 0.588151
-0.893355 0.119314 -0.0933007 -1.58593 -1.11137 0.919648 -0.893979 0.0224795
-0.177341 -0.664662 0.909678 -0.179631 0.0548899 0.750078 -1.47723 -2.71203
-0.347249 0.0698147 -0.489982 -0.646046 -2.87225 1.04669 -0.268011 -0.549282
0.101799 0.841645 0.437277 -0.575789 -4.50907 -0.55008 -0.103472 -0.792017
0.326 0.219217 -0.15564 1.04093 -0.781686 -0.0486372 -1.61054 -2.10364
-0.919124 -0.0197488 -0.936465 -0.341396 -0.452934 0.852639 0.299449 -1.1245
-0.39539 -0.13188 2.1493 -4.63396 0.113539 0.0026288 -1.30035 -0.295043
1.5846 0.00747647 0.0969431 0.0611884 0.859607 0.0944422 -2.9261 1.53844
-0.137638 0.447164 2.88858 1.17414 0.513781 1.36332 1.10793 -0.168719
3.15922 1.03768 0.192682 -1.04571 1.5765 -0.4247 -2.2364 0.256111
-0.339591 -0.00384313 4.63136 1.42835 1.58109 2.37181 -0.724826 0.12041
0.191643 1.74116 -1.6339 0.00380636 0.682639 1.28302 1.87881 1.91676
-0.0148139 -0.0456728 0.0115172 -0.0146617 0.00349607 -0.0405803 0.0238768 -0.00297491
-0.00965087 -0.00458578 -0.0560399 0.0221492 -0.0625823 0.0307871 0.00905355 0.0216194
0.017516 -0.0565427 0.0103535 -0.0446532 0.00628724 0.0063412 0.00202798 0.0277488
-0.0378747 -0.0120565 -0.0510875 -0.0482211 -0.0171473 -0.00370157 -0.00206774 -0.00887521
-0.0162342 0.0158759 0.0256554 -0.0548149 0.0123436 -0.00166925 -0.0569607 0.0181122
0.0155961 -0.0123931 0.0359315 0.0325645 -0.0296843 -0.0378299 -0.0129534 0.0301202
0.0253604 -0.0440041 0.299518 0.0198213 -0.0750168 0.114727 0.208081 0.674377
