resources/models/onnx/acas/ACASXU_run2a_1_5_batch_2000.onnx (onnx, 54456 bytes, 14 tensors)

layers.0.bias f4 [50]
0	0x3cde533d	0.0271393
1	0xbd6d2fff	-0.0579071
2	0xbc924b5c	-0.0178582
3	0x3db9b987	0.0906859
4	0xbc05ccfe	-0.00816655
5	0x3dd425f2	0.103588
6	0xbcb51f31	-0.0221096
7	0x3d120d64	0.0356573
8	0xbdc124a8	-0.0943082
9	0x3c661a10	0.0140443
10	0x3c5051bd	0.0127148
11	0xbe9c944f	-0.305819
12	0xbc7589f0	-0.0149865
13	0x3c2c654e	0.0105222
14	0xbcbe1da8	-0.0232075
15	0xbe37e6b4	-0.179591
16	0xbdd260f6	-0.102724
17	0x3e0d27c4	0.137847
18	0xbecb480a	-0.397034
19	0xbe1da6a4	-0.153956
20	0xbed08d2a	-0.407327
21	0x3b88dee1	0.00417696
22	0x3cafbe34	0.021453
23	0xbde3c8e2	-0.111223
24	0x3cd23191	0.0256584
25	0x3dd16ebd	0.102262
26	0x3d1831bb	0.0371568
27	0xbe7583e8	-0.239761
28	0xbe8e67d7	-0.278136
29	0x3e39baa1	0.181376
30	0x3d4fd7ff	0.0507431
31	0x3e6d434a	0.231702
32	0xbea5e1e3	-0.323989
33	0x3d0f58e9	0.0349969
34	0x3dbb6864	0.0915077
35	0xbddfaebc	-0.10922
36	0xbcd2cf7b	-0.0257337
37	0x3e753932	0.239476
38	0xbe9dc0db	-0.308112
39	0xbe8fb19e	-0.280652
40	0xbe853a3f	-0.26021
41	0x3ccac556	0.0247523
42	0xbc74d021	-0.0149422
43	0xbe0a38fc	-0.134983
44	0x3ca0b40a	0.0196171
45	0x3ddc25d0	0.107494
46	0x3d13f88b	0.0361257
47	0x3c95aaf8	0.01827
48	0xbba61f4e	-0.00506965
49	0xbe637f39	-0.222165

layers.0.weight f4 [50, 5]
0	0x3f5744d4	0.840894
1	0xbce9b109	-0.0285268
2	0x3d275ad3	0.0408581
3	0xbe9a1555	-0.300944
4	0xbf113672	-0.567237
5	0xbf085bd1	-0.532651
6	0x3bd462ee	0.00648152
7	0x3bff3326	0.00778808
8	0xbe1dbbe0	-0.154037
9	0x3dd84d34	0.105616
10	0xbcecc69d	-0.0289033
11	0x3be64c25	0.00702812
12	0x3b53fa94	0.00323454
13	0xb9fd3a7e	-0.000482995
14	0x3af3333e	0.00185547
15	0x3e21e57e	0.158102
16	0x3f4f7e80	0.810524
17	0xbd8aceee	-0.0677775
18	0x3d0987ee	0.0335769
19	0xbd68a09e	-0.0567938
20	0xbcf6e5db	-0.0301389
21	0xbedb8067	-0.428714
22	0x3ed037f8	0.406677
23	0xbb8c3b8d	-0.00427956
24	0xbe394291	-0.180918
25	0xbe42bc73	-0.190172
26	0xbbfd5a49	-0.00773171
27	0x3adfeebe	0.00170847
28	0x3e496356	0.196668
29	0x3e46937d	0.193922
30	0x3de32ca5	0.110925
31	0xbdf3d07d	-0.11905
32	0xbea01451	-0.312655
33	0x3e723af3	0.236553
34	0x3df4fe7a	0.119626
35	0x3d13eb54	0.0361131
36	0x3e9d4a5e	0.307208
37	0x3ed0ff54	0.408198
38	0xbe2446fa	-0.160427
39	0xbd33e5fb	-0.0439205
40	0x3f0de493	0.554269
41	0x3e4fbdf1	0.202873
42	0x3e44d0dd	0.192203
43	0x3e6a133c	0.228589
44	0x3e222963	0.158361
45	0xbd964056	-0.0733649
46	0x3e3ed1bf	0.186347
47	0xbe09d346	-0.134595
48	0x3e736c59	0.237718
49	0xbeac1095	-0.336064
50	0xbf332f45	-0.69994
51	0xbd2b8b84	-0.0418811
52	0xbd4024b3	-0.04691
53	0x3dfafd11	0.122553
54	0x3e7b2e17	0.245293
55	0xbf37c6c9	-0.717877
56	0x3c963bac	0.018339
57	0xbbb93327	-0.00565185
58	0x3cbce274	0.0230572
59	0xbeab341e	-0.334382
60	0x3a7680e1	0.000940336
61	0xbbc6a1e5	-0.00606178
62	0xba86a678	-0.0010273
63	0x3a87a982	0.00103502
64	0x3c62017d	0.0137943
65	0x3d826e7d	0.0636873
66	0xbf5a46ae	-0.852641
67	0xbd57dcb0	-0.0527007
68	0x3e6b5c3a	0.229844
69	0xbe7bedfa	-0.246025
70	0xbecc7736	-0.399347
71	0x3e8971c1	0.268446
72	0x3cd5f098	0.0261157
73	0x3df07faa	0.117431
74	0x3de3d684	0.111249
75	0xbcdd561c	-0.0270186
76	0xbf20e182	-0.628441
77	0x3f59d5e5	0.85092
78	0x3de40d91	0.111354
79	0xbe912dfd	-0.283554
80	0x3ecbb5e1	0.397872
81	0x3d17693e	0.0369656
82	0xbcf4b68b	-0.0298722
83	0x3dcd41b7	0.100223
84	0xbf3071f8	-0.689239
85	0xbe204ee8	-0.156551
86	0xbd44be40	-0.048033
87	0xbbbe8cae	-0.00581511
88	0x3eeb26c0	0.45928
89	0xbeb903c9	-0.361357
90	0x3c6b96bc	0.0143792
91	0xbd3181b8	-0.0433366
92	0xbc8d25ee	-0.01723
93	0xbf1513d7	-0.582334
94	0xbeea5a04	-0.457718
95	0xbf89e354	-1.07725
96	0x3c191aef	0.0093448
97	0xbb36d290	-0.00278965
98	0x3c79b3b6	0.0152406
99	0x3b3acc9a	0.00285033
100	0xbd1703a2	-0.0368687
101	0x3e302cd4	0.172046
102	0x3dbed2a4	0.0931752
103	0xbed8f7ba	-0.423765
104	0xbefcd39e	-0.493802
105	0xbe076f2a	-0.13226
106	0xbc1d60ae	-0.00960557
107	0x3e23e921	0.160069
108	0xbec5f97b	-0.386669
109	0x3eed25cc	0.463179
110	0x3a7155e6	0.000920622
111	0x3c6aa3e3	0.0143213
112	0x3c21e9e0	0.00988242
113	0x3e8badc1	0.27281
114	0xbe518a87	-0.20463
115	0x3d037e55	0.0321029
116	0x3f39cfee	0.725829
117	0xbea30c46	-0.318453
118	0x3e67ad08	0.226246
119	0xbe2c2f40	-0.168149
120	0x3f2a705d	0.665777
121	0x3d687a22	0.0567571
122	0x3da487e2	0.0803373
123	0xbd65ba54	-0.0560859
124	0xbdcf2841	-0.101151
125	0xbc99a9c0	-0.0187577
126	0x3e186c22	0.14885
127	0xbf2066d3	-0.626569
128	0x3e0c77de	0.137176
129	0xbe9456f7	-0.289726
130	0x3e020f2c	0.127011
131	0x3fb95df6	1.44818
132	0xbd2aac7c	-0.0416684
133	0x3cac1aa6	0.0210088
134	0xbdcf3669	-0.101178
135	0x3cdeb420	0.0271855
136	0x3f518bf8	0.818542
137	0xbf67c9de	-0.905424
138	0x3dbe5e3f	0.0929532
139	0x3dd2fd33	0.103022
140	0x3d05c6e9	0.0326604
141	0x3f3a8523	0.728594
142	0xbf3d7b31	-0.740161
143	0x3d29557f	0.0413413
144	0x3dc39622	0.0955012
145	0x3ebaa5c6	0.364546
146	0xba82d0bc	-0.000998042
147	0x3b863a97	0.00409634
148	0x3eb2c94b	0.349192
149	0xbe61c68f	-0.220484
150	0x3eb81d7e	0.3596
151	0xbcff3aa8	-0.0311559
152	0xbdac689c	-0.0841839
153	0x3deb5dcc	0.114925
154	0xbe4127f6	-0.188629
155	0x3f1b9f23	0.607897
156	0x3b0d0c43	0.00215222
157	0x3a883975	0.00103931
158	0x3d8dd880	0.0692606
159	0xbb9a8669	-0.00471573
160	0x3b182073	0.00232127
161	0xbf51435b	-0.817434
162	0x3f54d467	0.831366
163	0x3c8de9ce	0.0173234
164	0x3df9e59f	0.12202
165	0x3d68d683	0.0568452
166	0xbea2aef3	-0.317741
167	0xbec86680	-0.391407
168	0xbe2d288d	-0.1691
169	0x3e29a390	0.165663
170	0x3b11c611	0.00222433
171	0x3a46781f	0.0007571
172	0x3b04f69f	0.00202886
173	0x3e4075b4	0.187949
174	0x398a1689	0.000263382
175	0x3cb3f92c	0.0219694
176	0xbf1fd417	-0.62433
177	0x3f202eba	0.625713
178	0x3e0acbc9	0.135543
179	0x3e14024b	0.14454
180	0xbe11b9b6	-0.14231
181	0x3d92bae0	0.0716455
182	0x3e0d199c	0.137793
183	0x3e827829	0.254823
184	0x3d6162d7	0.0550259
185	0x3f303a86	0.688393
186	0x3b0fc98c	0.00219402
187	0xb98ee730	-0.000272566
188	0x3cafdaef	0.0214667
189	0x3c103e87	0.00880397
190	0x3d644dd8	0.0557383
191	0x3b988f2e	0.00465574
192	0xba8c1e5c	-0.00106902
193	0x3c139701	0.00900817
194	0xbf5cb30b	-0.862107
195	0xbd67e67e	-0.0566163
196	0xbd8a45ac	-0.0675157
197	0xbe11159c	-0.141684
198	0xbf3b861a	-0.732515
199	0xbe2b6e0d	-0.167412
200	0x3d988d1d	0.0744879
201	0xbf606dd7	-0.876676
202	0x3f54cb8e	0.831231
203	0x3de73a36	0.112904
204	0x3cfac8be	0.0306133
205	0xbc080adc	-0.00830337
206	0x3e9ba66a	0.304004
207	0x3e8dc2d2	0.276877
208	0xbe246f15	-0.16058
209	0x3e1037d6	0.140838
210	0xbb9f4f66	-0.00486176
211	0xbbf7b7f2	-0.00755977
212	0x3c2b9687	0.0104729
213	0x3b78ede8	0.00379836
214	0x3b928db7	0.00447246
215	0xbdf95ee1	-0.121763
216	0x3f5b05d9	0.855558
217	0x3f7fcd03	0.999222
218	0x3ef2df0d	0.474358
219	0xbc3a8750	-0.0113848
220	0xbd4fb4f9	-0.0507097
221	0xbd8e57e7	-0.0695036
222	0x3e3a4a49	0.181924
223	0x3e14f7ec	0.145477
224	0xbe5f073a	-0.217801
225	0x3e625743	0.221036
226	0x3d43f3e0	0.04784
227	0x3e5e84f1	0.217304
228	0x3ef319e7	0.474807
229	0xbf2db37d	-0.67852
230	0xbda293de	-0.0793836
231	0xbd14573a	-0.036216
232	0x3fc4092d	1.53153
233	0x3cf3fc1b	0.0297833
234	0xbb40ae86	-0.00294009
235	0xbe0b3fa7	-0.135985
236	0xbcd68b92	-0.0261896
237	0xbfb7c600	-1.43573
238	0xbde41355	-0.111365
239	0x3e4cc74c	0.199979
240	0x3c62a2f8	0.0138328
241	0xbf9eb26c	-1.23982
242	0x3c8b007a	0.016968
243	0x3aca1994	0.0015419
244	0x3a17bde6	0.000578849
245	0xbf76cd29	-0.964068
246	0x3d37a71b	0.0448371
247	0x3d15e489	0.0365949
248	0x3d0fff1c	0.0351554
249	0xbd03d3e5	-0.0321845

layers.10.bias f4 [50]
0	0xbe5a033e	-0.212903
1	0x3e3b4d49	0.182912
2	0x3e96c1c2	0.294447
3	0x3ed7954f	0.421061
4	0xbd72b7c8	-0.0592573
5	0xbf77bc1b	-0.967714
6	0xbc9307af	-0.017948
7	0x3f049e45	0.51804
8	0x3db7b635	0.089703
9	0x3d7c0d2c	0.061536
10	0x3e9fb7e9	0.31195
11	0xbed39021	-0.413209
12	0x3ead38ef	0.338325
13	0xbef8fe69	-0.486316
14	0x3e509dd0	0.203727
15	0xbd252ce0	-0.040326
16	0xbe9d716d	-0.307506
17	0x3d8665ee	0.0656241
18	0xbd0ee26c	-0.0348839
19	0x3eaf0479	0.341831
20	0xbb65a764	-0.00350424
21	0x3cc8d9f9	0.024518
22	0x3f297050	0.66187
23	0xbf1f8950	-0.623189
24	0xbde23316	-0.110449
25	0xbd6c3fa9	-0.0576779
26	0xbd058e65	-0.0326065
27	0xbe14f50a	-0.145466
28	0xbea7ecbb	-0.327978
29	0x3e50f990	0.204077
30	0xbcae462f	-0.0212737
31	0x3ec3a53c	0.38212
32	0xbe155326	-0.145825
33	0xbc493dcc	-0.0122828
34	0xbf02fd54	-0.511678
35	0xbe71fff8	-0.236328
36	0xbcc1d04f	-0.0236589
37	0xbf13fc54	-0.578069
38	0xbd5c9e31	-0.0538618
39	0x3fa44913	1.28348
40	0xbe73d31c	-0.23811
41	0xbcceca68	-0.025243
42	0xbe245027	-0.160462
43	0xbc24c547	-0.0100568
44	0xbea4894c	-0.32136
45	0xbf71b1d9	-0.94412
46	0xbf11da16	-0.569734
47	0xbcbe103c	-0.0232011
48	0x3f00f66a	0.50376
49	0x3edc4567	0.430217

layers.10.weight f4 [50, 50]
0	0x3f996a6a	1.19856
1	0xc0a8c155	-5.2736
2	0x3fa6085b	1.29713
3	0xbfe7212d	-1.8057
4	0x3f2df80a	0.679566
5	0x3ca45839	0.0200616
6	0xbdc84bff	-0.0978012
7	0xbedb6007	-0.428467
8	0x3d85d364	0.0653446
9	0x3e3d2780	0.184721
10	0xbf91b963	-1.13847
11	0xc00da82f	-2.21339
12	0x3fc24a38	1.51789
13	0xc00048e9	-2.00445
14	0xbd48e3ef	-0.0490455
15	0x3e824031	0.254396
16	0xbfc156c1	-1.51046
17	0xc0463f14	-3.0976
18	0x3fa4053e	1.28141
19	0xbefb393b	-0.490671
20	0x3eb37b6c	0.350551
21	0x3e9c7885	0.305607
22	0x3de26a23	0.110554
23	0xbdbeb61e	-0.0931208
24	0xbf34afa3	-0.705805
25	0x3d26e9e4	0.0407504
26	0xbf185825	-0.595095
27	0x3ef4a4f4	0.477821
28	0xbf2cd63d	-0.675144
29	0xc0d63afb	-6.6947
30	0xbc98d915	-0.0186582
31	0xbd516731	-0.0511238
32	0xbbcffd2e	-0.00634732
33	0xbdf9f6ec	-0.122053
34	0xc031d07d	-2.77835
35	0x3d7fc52d	0.0624439
36	0xbc9dc909	-0.0192609
37	0x3e57f738	0.210904
38	0x3ecf50c2	0.404913
39	0x3eacc405	0.337433
40	0xbebb2096	-0.365483
41	0x3f6ab1a3	0.916773
42	0x3eaedd48	0.341532
43	0xbf0e7ba2	-0.556574
44	0x3f24bd98	0.643518
45	0x3e09da16	0.134621
46	0x3dd4128c	0.103551
47	0x3e388872	0.180208
48	0xbf24d888	-0.643929
49	0xc019ce85	-2.40323
50	0xbf4a847b	-0.791084
51	0xbd55743b	-0.0521128
52	0xbc4b8173	-0.012421
53	0xbf47416c	-0.778342
54	0x3e90f8a5	0.283147
55	0x3e10435f	0.140882
56	0xbf52a62b	-0.822848
57	0xbcc20f04	-0.0236888
58	0xbde8c0cf	-0.113649
59	0xbe951c9f	-0.291234
60	0x3f364e9c	0.712137
61	0xbd03f177	-0.0322127
62	0xbbaa2b8d	-0.00519318
63	0x3f2f83ae	0.685603
64	0xbd41599c	-0.0472046
65	0xbee9d367	-0.456691
66	0xbdc38c11	-0.095482
67	0xbfb321d5	-1.39947
68	0xbf9631f9	-1.1734
69	0xbed84620	-0.42241
70	0x3f045c46	0.517033
71	0x3c8da9a1	0.0172928
72	0x3f4a234b	0.789601
73	0xbe0968d7	-0.134189
74	0xbda7e613	-0.0819818
75	0xbdabbd60	-0.0838573
76	0xbe826a44	-0.254717
77	0x3da21c70	0.0791558
78	0x3ed2abac	0.411466
79	0xbf102d38	-0.56319
80	0xbbb95cee	-0.00565683
81	0xbe25d031	-0.161927
82	0x3be1b86c	0.00688844
83	0x3ec0cb08	0.376549
84	0xbe4db403	-0.200882
85	0x3ec0f0e9	0.376838
86	0x3e1189be	0.142127
87	0xbdab56b8	-0.0836615
88	0xbbe0a2d8	-0.00685535
89	0xbe93b2bc	-0.288473
90	0xbd99c77a	-0.0750875
91	0xbd4fdc31	-0.0507471
92	0x3d0c78ea	0.034295
93	0xbda9f4c6	-0.0829864
94	0xbf8f5547	-1.11979
95	0x3e5c2268	0.214975
96	0x3c6ec5b0	0.0145735
97	0x3e39bb6b	0.181379
98	0xbc254824	-0.010088
99	0x3f08ec42	0.534855
100	0xbd09cb76	-0.0336413
101	0x3bc94e3d	0.00614336
102	0xbe52f556	-0.206014
103	0xbdc63249	-0.0967756
104	0x3e0cf3dc	0.137649
105	0x3e0801f7	0.13282
106	0x3c1f2082	0.00971234
107	0xbde8bda9	-0.113643
108	0x3de41dd2	0.111385
109	0xbe1c258d	-0.152487
110	0x3cf3145f	0.0296728
111	0xbe15b7d0	-0.146209
112	0xbcaec0de	-0.0213322
113	0x3ef324c8	0.47489
114	0x3ca850ed	0.0205464
115	0xbdb9a184	-0.0906401
116	0x3ccf9f0f	0.0253444
117	0x3d5b8eb7	0.0536029
118	0xbcd7540f	-0.0262852
119	0xbd1538c7	-0.0364311
120	0x3dd19b4e	0.102347
121	0xbd5607a9	-0.0522534
122	0x3e42af9b	0.190123
123	0xbb30452d	-0.00268967
124	0xbe91d94d	-0.284861
125	0x3bd8c945	0.00661579
126	0xbd76f687	-0.0602937
127	0x3cd3712c	0.0258108
128	0xbe41e365	-0.189344
129	0x3bbb4424	0.00571491
130	0x3c78a8f4	0.015177
131	0xbd306390	-0.0430637
132	0x3e1b92c0	0.151927
133	0xbd5b1ef0	-0.0534963
134	0x3d894e50	0.0670439
135	0x3e857668	0.260669
136	0xbdbf316e	-0.093356
137	0x3edd6990	0.432446
138	0x3dcdb595	0.100444
139	0xbb0b6e89	-0.00212756
140	0x3cd0173a	0.0254017
141	0xbcf37fbf	-0.029724
142	0x3d4a431a	0.0493804
143	0xbe138002	-0.144043
144	0xbe46c00e	-0.194092
145	0xbd6da2d0	-0.0580166
146	0xbd18f88a	-0.0373464
147	0x3da72a46	0.0816236
148	0xbe39a1ba	-0.181281
149	0x3c47ae14	0.0121875
150	0x3f51d2bf	0.819622
151	0xbee2fb5d	-0.443324
152	0xbf664b23	-0.899584
153	0xc080f62b	-4.03005
154	0x3f818f1d	1.01218
155	0xbeb1800a	-0.34668
156	0xbf1d4a2c	-0.614413
157	0x3ef512a9	0.478658
158	0xbe38fb01	-0.180645
159	0xbdc1fe80	-0.0947237
160	0xbf32a24d	-0.697789
161	0x3e88d3d0	0.267241
162	0x3f27d3f6	0.655578
163	0xbdd0dae4	-0.10198
164	0xbc3d34a9	-0.0115482
165	0xc013197a	-2.29843
166	0x3e281cf8	0.164173
167	0xbe1174c5	-0.142047
168	0xbe23311a	-0.159367
169	0xbe0569b1	-0.130286
170	0x3e02d9cf	0.127784
171	0x3ccdf231	0.0251399
172	0xbf492e73	-0.785865
173	0x3f178c00	0.59198
174	0xbd3f6fb7	-0.0467374
175	0x3ea818a4	0.328313
176	0xbeb966e0	-0.362113
177	0x3e29a3d3	0.165664
178	0x3e456217	0.192757
179	0x3c9ae6d6	0.0189089
180	0x3d2451b9	0.040117
181	0x3d8a8346	0.0676332
182	0xbe7fb268	-0.249704
183	0xbd0754d9	-0.0330399
184	0xbf33486f	-0.700324
185	0x3fbf0b8d	1.49254
186	0x3ba8fa0a	0.00515676
187	0xbf4c7853	-0.798711
188	0xbd775a24	-0.0603887
189	0xbf501893	-0.812875
190	0x3e6124d1	0.219867
191	0x3dee0eb6	0.116239
192	0xbe7a0cae	-0.244189
193	0xbe0bd8be	-0.136569
194	0x3c8a2bd3	0.0168666
195	0x3ebeda01	0.372757
196	0x3dc35b0c	0.0953885
197	0x3ec551b5	0.385389
198	0xbe8311a5	-0.255994
199	0x3b92d7b4	0.00448128
200	0xbf4ef284	-0.808388
201	0xbf8f08ee	-1.11746
202	0x3bc4cb36	0.00600567
203	0xbdc1001d	-0.0942385
204	0xbfaf57e6	-1.36987
205	0x3e58a8f4	0.211582
206	0xbfa2bde4	-1.27142
207	0xbe615d70	-0.220083
208	0xbf1c0f45	-0.609608
209	0x3f1e3f46	0.618153
210	0x3d0c5e98	0.0342699
211	0xbe227b2d	-0.158673
212	0x3f288052	0.658208
213	0xbcc0dbc8	-0.0235423
214	0x3c567a60	0.0130907
215	0xbde10492	-0.109872
216	0x3f314079	0.69239
217	0x3e34e337	0.176648
218	0xbfdb6502	-1.71402
219	0xbb4d8be4	-0.00313639
220	0x3eab074a	0.33404
221	0x3d4fb7e9	0.0507125
222	0xbc980941	-0.0185591
223	0xbf66f06b	-0.902106
224	0xbd2033e8	-0.039112
225	0xbcf88044	-0.0303346
226	0xbea84d12	-0.328713
227	0x3de3ed0f	0.111292
228	0xbdf37197	-0.118869
229	0xbf963f14	-1.1738
230	0x3d2ee5c7	0.0426996
231	0xbe1cdee3	-0.153194
232	0x3efa220c	0.488541
233	0x3dd62c77	0.104577
234	0xbdec8c50	-0.115502
235	0xbd054732	-0.0325386
236	0xbfbcd4fe	-1.47525
237	0xbe218937	-0.15775
238	0xbf1ee02a	-0.620608
239	0xc04c1f9f	-3.18943
240	0xbed09f84	-0.407467
241	0xbbdaab88	-0.00667328
242	0x3e7a1b19	0.244244
243	0x3e252e73	0.16131
244	0xbf5bfe2a	-0.859347
245	0xbe5cce1c	-0.21563
246	0xbd7d6d13	-0.0618716
247	0xbf5eaf79	-0.869865
248	0xbf18bc6a	-0.596625
249	0xbd457321	-0.0482055
250	0x40157f39	2.33589
251	0xbf4d539c	-0.802057
252	0x3f7b1b37	0.980884
253	0xbf58a84c	-0.846318
254	0x3fc84913	1.56473
255	0xbf515886	-0.817757

layers.12.bias f4 [5]
0	0xbc40e172	-0.0117725
1	0xbc8e1679	-0.0173447
2	0xbc880e21	-0.0166083
3	0xbc832010	-0.0160065
4	0xbc695d26	-0.0142434

layers.12.weight f4 [5, 50]
0	0x3cff118e	0.0311363
1	0x3caec072	0.021332
2	0x3c803e49	0.0156547
3	0x3cf6b823	0.0301171
4	0xbd192769	-0.0373911
5	0x3a6a66bc	0.00089417
6	0x3d9be6d9	0.0761239
7	0x3c942c07	0.0180874
8	0xbd3cd6eb	-0.0461034
9	0xbc3b2b4f	-0.0114239
10	0xbd49c836	-0.0492632
11	0xbbf05842	-0.00733474
12	0x3cfe3708	0.0310321
13	0x3c63439c	0.0138711
14	0x3d0b0999	0.0339447
15	0x3da42e12	0.080166
16	0x3a23a32a	0.000624227
17	0x3b45a18a	0.00301561
18	0xbd22f944	-0.0397885
19	0x3b885f4a	0.00416175
20	0x3c457b34	0.0120533
21	0xbaf9137d	-0.0019003
22	0x3d8082dd	0.0627496
23	0x3c14a5a9	0.0090727
24	0x3d58a48c	0.0528913
25	0x3e22e87d	0.15909
26	0x3d249dda	0.0401896
27	0xbb07bccd	-0.00207119
28	0x3e47dd44	0.19518
29	0x3d18d16d	0.0373091
30	0x3c185d24	0.00929955
31	0x3d8af295	0.0678455
32	0x3e8bf035	0.273317
33	0x3b05236b	0.00203153
34	0xbc366517	-0.0111325
35	0x3c90c68c	0.0176728
36	0xbc1dca76	-0.00963079
37	0x3c1a2276	0.00940763
38	0xbb56acf5	-0.00327569
39	0xba341227	-0.000686916
40	0xbc26a1c0	-0.0101704
41	0x3cd9d9fc	0.0265932
42	0x3d46b84b	0.0485156
43	0x3c2c54f3	0.0105183
44	0x3d7c72fd	0.0616331
45	0xbd9dfb5e	-0.0771396
46	0x3bd2c02c	0.0064316
47	0x3ba20d9c	0.00494547
48	0x3b20861d	0.0024494
49	0x3e6213a1	0.220778
50	0x3d09b3c3	0.0336187
51	0x3d074589	0.0330253
52	0x3cb4c85f	0.0220682
53	0x3c391fdc	0.0112991
54	0x3c2ad1d0	0.010426
55	0x3ab7b0dc	0.00140145
56	0x3d938ea3	0.0720494
57	0x3cf77623	0.0302077
58	0xbd889b45	-0.0667024
59	0xbc2bb01d	-0.010479
60	0x3b647408	0.00348592
61	0xbb7062a9	-0.00366799
62	0x3d46759b	0.048452
63	0xbd1275d4	-0.0357569
64	0x3ccec95c	0.0252425
65	0xbcb83c87	-0.0224898
66	0x3937c4a8	0.000175255
67	0x3c7eb512	0.0155461
68	0xbd12ee4f	-0.0358718
69	0x3d82ee0c	0.0639306
70	0x3ca4d9d4	0.0201234
71	0x3a442533	0.000748235
72	0x3d89ddea	0.0673178
73	0x3b1a5f67	0.00235554
74	0xbccb8ae3	-0.0248465
75	0x3e105f6c	0.140989
76	0xbd29fb61	-0.0414995
77	0xbc92472a	-0.0178562
78	0x3e627350	0.221143
79	0xbc1d6bec	-0.00960825
80	0xbc192515	-0.00934722
81	0x3d7b34f5	0.0613298
82	0x3e83f530	0.25773
83	0x3cde2b2f	0.0271202
84	0x3a23513a	0.000623006
85	0x3c45069a	0.0120255
86	0xbdb0a138	-0.086245
87	0x3c2c1d2a	0.010505
88	0x3c97898a	0.0184982
89	0x3ced428e	0.0289624
90	0x3aa37f77	0.00124739
91	0x3a2ac363	0.00065141
92	0x3d554a65	0.0520729
93	0xbc4a488e	-0.0123464
94	0x3d6dbc9c	0.0580412
95	0xbdd6db94	-0.104911
96	0x3c6e49f5	0.014544
97	0x3d333d5f	0.0437597
98	0x3d1b9cdf	0.0379914
99	0x3e0dc0db	0.138431
100	0x3d08f176	0.0334334
101	0xbcbd4b85	-0.0231073
102	0xbb8131ae	-0.00394269
103	0x3c0c8d77	0.00857865
104	0x3d2903ea	0.0412635
105	0x3c273dc7	0.0102076
106	0x3d89a7b4	0.0672144
107	0x3d2cc01d	0.0421754
108	0xbd72dd02	-0.0592928
109	0xbc6d5d66	-0.0144876
110	0x3b8e2776	0.0043382
111	0xbcf011ab	-0.0293053
112	0x3d5719dd	0.0525149
113	0x3cfb80aa	0.030701
114	0x3cf3f027	0.0297776
115	0xbd082822	-0.0332414
116	0x3d4b51f3	0.0496387
117	0x3c1969de	0.00936362
118	0x3cdb0d01	0.0267396
119	0xbb8e31f2	-0.00433945
120	0xbb870f7e	-0.00412172
121	0x3d0610a0	0.0327307
122	0x3d98b08e	0.0745555
123	0x3c5f2453	0.0136195
124	0x3d908015	0.0705568
125	0x3e162c77	0.146654
126	0xbcb78903	-0.0224042
127	0x391bda5e	0.000148633
128	0x3e67c06e	0.22632
129	0xbc3fb953	-0.0117019
130	0x3d0bb1af	0.034105
131	0x3d901eef	0.0703715
132	0x3e6275ef	0.221153
133	0xbc62032a	-0.0137947
134	0xbdc0500f	-0.0939027
135	0x3c435fd1	0.0119247
136	0xbc90cde3	-0.0176763
137	0x3ba28134	0.00495925
138	0x3b01981b	0.00197745
139	0xba2a318f	-0.000649237
140	0xbb9f6c97	-0.00486524
141	0x3d06b160	0.032884
142	0x3d6b2af1	0.057414
143	0xbc48202a	-0.0122147
144	0x3d392fb2	0.0452115
145	0xbdb91e8d	-0.0903903
146	0x3b4fb70d	0.00316948
147	0x3d432d97	0.0476509
148	0xba873716	-0.00103161
149	0x3e0c9a78	0.137308
150	0x3c8f8e12	0.0175238
151	0x3d202498	0.0390974
152	0x3cf2c4e4	0.0296349
153	0x3d046f81	0.0323329
154	0x3d810632	0.0630001
155	0xbc149416	-0.00906851
156	0x3d8c5d20	0.068537
157	0x3cb481e8	0.0220346
158	0x3be84209	0.00708795
159	0xbc9662e3	-0.0183577
160	0x3ade8b10	0.00169787
161	0x3b803af9	0.00391328
162	0x3bda583b	0.00666335
163	0x3bd6a04b	0.00654987
164	0x3ca1ad9a	0.0197361
165	0x3e4a5acd	0.197612
166	0x3acd6421	0.00156701
167	0xbca835df	-0.0205335
168	0x3c909b8e	0.0176523
169	0x3cf31891	0.0296748
170	0xbc35b559	-0.0110906
171	0xbaa14a12	-0.00123054
172	0x3d36ec0a	0.0446587
173	0xbb8b4dbc	-0.00425121
174	0x3dda6efc	0.106657
175	0x3dee72da	0.11643
176	0xbc886778	-0.0166509
177	0xbcef73f6	-0.0292301
178	0x3eceffa0	0.404294
179	0xbc695c50	-0.0142432
180	0x38de0e94	0.000105885
181	0x3d6b5279	0.0574517
182	0x3f07a030	0.529788
183	0x3bbcdfaf	0.00576397
184	0xbc01cabb	-0.00792187
185	0x3ca06317	0.0195785
186	0xbd3c7150	-0.0460065
187	0xbca9ce30	-0.0207282
188	0x3d23b70f	0.0399695
189	0x3d213a93	0.0393625
190	0xbc96494d	-0.0183455
191	0xbb6e471b	-0.00363583
192	0x3d934ad8	0.0719201
193	0xbc022839	-0.00794416
194	0x3d849b20	0.064749
195	0xbdaf7d9c	-0.0856888
196	0x3ce7bc72	0.0282881
197	0x3d03f706	0.032218
198	0x3d392adf	0.0452069
199	0x3e2d130e	0.169018
200	0x3d55e4d9	0.0522202
201	0x3d37b5c9	0.0448511
202	0x3c144608	0.0090499
203	0x3d5a5135	0.0533001
204	0x3d8bee30	0.0683254
205	0x3ca32493	0.0199149
206	0x3d9a3c49	0.0753103
207	0x3c8482b1	0.0161756
208	0x3b37e738	0.00280614
209	0xbcdb7b51	-0.0267922
210	0x3b855986	0.00406951
211	0xbd3784b7	-0.0448043
212	0xba9fb20d	-0.00121838
213	0x3d3a374e	0.0454629
214	0x3c823671	0.0158951
215	0x3e526f1e	0.205502
216	0x3d5647f0	0.0523147
217	0x3d02c64e	0.0319274
218	0x3b5cd127	0.0033694
219	0x3aa7e537	0.00128094
220	0x3c49a7ea	0.0123081
221	0x3d292b72	0.0413012
222	0xbb07333b	-0.00206299
223	0x3ce7699c	0.0282486
224	0x3db1e7b1	0.0868677
225	0x3e147a18	0.144997
226	0x3a02d178	0.000499032
227	0x3b3545f2	0.00276601
228	0x3e62e515	0.221577
229	0xbca7edf0	-0.0204992
230	0x3d0d0a3f	0.0344336
231	0x3d872bbe	0.0660014
232	0x3ef33786	0.475033
233	0x3bcc1b21	0.00622882
234	0xbdb7d0ff	-0.0897541
235	0x3c6b5188	0.0143627
236	0xbc1fb16b	-0.00974689
237	0x3d103d80	0.0352149
238	0xbb7887bc	-0.00379227
239	0xbaaf4802	-0.00133729
240	0xbc8f8eb4	-0.0175241
241	0xbaa79d12	-0.00127879
242	0x3d7f3d98	0.0623146
243	0x3d2ed60c	0.0426846
244	0x3d538dcc	0.0516489
245	0xbd52279a	-0.0513073
246	0xbc928390	-0.017885
247	0xbcf50a6e	-0.0299122
248	0xbc1d59a2	-0.00960389
249	0x3de2afde	0.110687

layers.2.bias f4 [50]
0	0x3ece976c	0.403499
1	0x3dca4625	0.0987666
2	0x3dcf73c1	0.101295
3	0xbece9403	-0.403473
4	0xbe913ec4	-0.283682
5	0xbc695315	-0.014241
6	0xbeb460aa	-0.3523
7	0xbd02cce9	-0.0319337
8	0x3e0f3ba7	0.139876
9	0xbe4f5b60	-0.202497
10	0xbc91e281	-0.0178082
11	0x3df5a101	0.119936
12	0x3e006680	0.125391
13	0xbeec6067	-0.461673
14	0xbbacf643	-0.00527838
15	0xbee91772	-0.455257
16	0x3e888851	0.266665
17	0x3e8d0f62	0.275508
18	0xbbb5b294	-0.00554497
19	0xbb8d19ef	-0.00430607
20	0x3cc11000	0.0235672
21	0x3efb3a47	0.490679
22	0xbbb64663	-0.00556259
23	0xbe2df5cf	-0.169883
24	0x3cf58ef8	0.0299754
25	0xbecb4480	-0.397007
26	0xbc0ddd4e	-0.00865872
27	0x3ea9dde3	0.331771
28	0x3e0865d8	0.133201
29	0xbcc4a11a	-0.0240026
30	0xbdc1f76c	-0.0947102
31	0xbe854584	-0.260296
32	0xbd83c9ef	-0.06435
33	0x3e48eeaf	0.196223
34	0xbd87c519	-0.0662939
35	0xbdf93dd9	-0.1217
36	0xbe782c2c	-0.242356
37	0xbb22e26e	-0.00248542
38	0xbe11c2a0	-0.142344
39	0xbc35cfc6	-0.0110969
40	0xbddd1138	-0.107943
41	0x3e67cd46	0.226369
42	0x3ef2239e	0.472928
43	0x3e9c36db	0.305106
44	0xbca5f882	-0.0202601
45	0xbdcfd8f1	-0.101488
46	0xbe4f2778	-0.202299
47	0x3e9b063e	0.302782
48	0xbc592cc2	-0.0132553
49	0x3da9974b	0.0828081

layers.2.weight f4 [50, 50]
0	0xbe547a9e	-0.207499
1	0xbee15747	-0.440119
2	0x3ceb95e6	0.028758
3	0xbcbbd23e	-0.0229274
4	0xbef1c6b0	-0.472219
5	0xbe8b5287	-0.272114
6	0xbea6047d	-0.324253
7	0x3e3d51f8	0.184883
8	0x3de7de51	0.113217
9	0xbef19781	-0.471859
10	0x3ea50c5f	0.32236
11	0xbe14cbe2	-0.145309
12	0x3d27314d	0.0408185
13	0xbf808659	-1.0041
14	0x3da05766	0.0782917
15	0xbef5ad75	-0.479839
16	0xbf2117a4	-0.629267
17	0xbe510625	-0.204125
18	0xbf1d7ecc	-0.615216
19	0xbe1f5cf2	-0.155628
20	0xbf1a4e16	-0.602754
21	0x3f027f0b	0.509751
22	0x4005013b	2.0782
23	0x3e7df612	0.248009
24	0x3e59335d	0.21211
25	0xbe97dd66	-0.296611
26	0xbd8b4098	-0.0679943
27	0xbe7e236c	-0.248182
28	0x3f4a2f9d	0.789789
29	0x3d4b64ee	0.0496568
30	0x3e706cca	0.23479
31	0x3e1b2d90	0.151541
32	0xbfeeb0c9	-1.86477
33	0xbe8cf638	-0.275316
34	0xbf1f24ea	-0.621657
35	0xbf62aab0	-0.885417
36	0x3dcd77b8	0.100326
37	0x3ea1c51e	0.315957
38	0xbee845bb	-0.453657
39	0x3f147304	0.57988
40	0xbfb56d09	-1.41739
41	0x3d5a2ff7	0.0532684
42	0xbc7d0650	-0.0154434
43	0xbf04997c	-0.517967
44	0xbeda62aa	-0.426534
45	0xbe0c9de0	-0.137321
46	0x3c45c359	0.0120705
47	0x3dc39e93	0.0955173
48	0xbd255483	-0.0403638
49	0xbd0ed063	-0.0348667
50	0xbe8d8fb4	-0.276487
51	0x3da623b6	0.0811228
52	0x3d48d6b9	0.0490329
53	0x3cb4893f	0.0220381
54	0x3e02702a	0.127381
55	0xbe31e322	-0.173718
56	0x3e5ce5f7	0.215721
57	0x3d8bf3cc	0.0683361
58	0x3d53b5f5	0.0516872
59	0xbe42aa5c	-0.190103
60	0x3e4a7829	0.197724
61	0xbeb7c47e	-0.358921
62	0xbd0967a3	-0.0335461
63	0x3f02ab8a	0.51043
64	0xbd7added	-0.0612468
65	0x3d8f2255	0.0698897
66	0xbe3d30ad	-0.184756
67	0xbe351b0d	-0.176861
68	0x3f006c66	0.501654
69	0xbe348beb	-0.176315
70	0xbe360568	-0.177755
71	0xbf2afed6	-0.667951
72	0x3dd69985	0.104785
73	0x3e50d068	0.20392
74	0x3e3c3697	0.183802
75	0x3e507e9e	0.203608
76	0x3e13c9ef	0.144325
77	0x3dec679d	0.115432
78	0xbe80effe	-0.251831
79	0xbe5b8cfc	-0.214405
80	0xbf4809b3	-0.781398
81	0x3eb0897f	0.344799
82	0xbeeeeb0b	-0.466637
83	0xbdb9f509	-0.0907994
84	0x3dff6d33	0.12472
85	0xbebe6dbd	-0.371931
86	0x3def9097	0.116975
87	0x3efc0ee0	0.492301
88	0xbf0e40c8	-0.555676
89	0xbe6cf80e	-0.231415
90	0xbe915704	-0.283867
91	0x3ba61898	0.00506885
92	0x3d601d0c	0.0547152
93	0xbcfec2e9	-0.0310988
94	0x3e480a18	0.195351
95	0xbdab3dec	-0.0836142
96	0x3d688d88	0.0567756
97	0xbec47cb7	-0.383764
98	0x3e0a1db8	0.134879
99	0x3e806595	0.250775
100	0xbe55119d	-0.208075
101	0x3e3449dc	0.176063
102	0xbd5e43d3	-0.0542639
103	0xbdedf71f	-0.116194
104	0xbe1ddc62	-0.154161
105	0xbedb497b	-0.428295
106	0xbe023bbc	-0.127181
107	0xbe33458d	-0.17507
108	0x3de3a6ce	0.111158
109	0x3dece896	0.115678
110	0x3db00051	0.0859381
111	0x3b841a97	0.00403149
112	0xbb7454d1	-0.0037282
113	0xbe33ee1c	-0.175713
114	0x3dca0656	0.0986449
115	0xbe24dad3	-0.160991
116	0xbdd21577	-0.10258
117	0xbd05fa4b	-0.0327094
118	0x3f024745	0.5089
119	0xbeee33ad	-0.465238
120	0x3e91563b	0.283861
121	0xbe2d640f	-0.169327
122	0x3f1c6b38	0.611011
123	0xbe0fc6da	-0.140407
124	0xbea9fd59	-0.332011
125	0x3f11f8b1	0.570201
126	0x3cdd6642	0.0270263
127	0x3d8fe111	0.0702535
128	0x3f066091	0.524911
129	0xbebf4491	-0.37357
130	0x3dbe5987	0.0929442
131	0xbdc82426	-0.0977252
132	0x3aec1ea2	0.00180145
133	0x3ea29436	0.317537
134	0x3e92ebe6	0.286956
135	0xbeca0b3d	-0.394617
136	0xbe856d1a	-0.260598
137	0x3e82c81d	0.255433
138	0x3c9e4672	0.0193207
139	0xbec7beba	-0.390127
140	0x3f09a61e	0.537691
141	0xbe5eaa6d	-0.217447
142	0xbd13fa1d	-0.0361272
143	0x3f1979d1	0.599515
144	0x3e592296	0.212046
145	0xbc401960	-0.0117248
146	0x3e0f4ba5	0.139937
147	0xbe8e21b8	-0.277601
148	0x3dea0c28	0.114281
149	0xbea32c41	-0.318697
150	0xbe099d45	-0.134389
151	0x3e4bc558	0.198995
152	0xbcc8920a	-0.0244837
153	0x3e9c2481	0.304966
154	0x3cc66392	0.0242174
155	0x3f1a9dc7	0.60397
156	0x3f766741	0.962513
157	0xbe577857	-0.21042
158	0x3edc4652	0.430224
159	0x3e286cec	0.164478
160	0x3d138294	0.0360132
161	0x3e48f8a5	0.196261
162	0xbcb3bea9	-0.0219415
163	0xbd3eebb3	-0.0466115
164	0x3ed5aa50	0.417315
165	0xbeee5908	-0.465523
166	0x3d2840c7	0.0410774
167	0x3de413db	0.111366
168	0x3c82730c	0.015924
169	0xbe3e94ee	-0.186115
170	0xbf6b7d0f	-0.919877
171	0xbf1746cc	-0.590924
172	0x3e3c753e	0.184041
173	0x3e514c66	0.204393
174	0xbe7b252d	-0.245259
175	0xbe238866	-0.1597
176	0xbe3fb507	-0.187214
177	0x3dbed162	0.0931728
178	0xbeef29d4	-0.467116
179	0x3ebf3040	0.373415
180	0xbea5d053	-0.323855
181	0x3c763e4b	0.0150295
182	0xbd9c6640	-0.0763669
183	0x3da18d33	0.0788826
184	0x3eebaeab	0.460317
185	0x3ea5dfa8	0.323972
186	0x3d1812e7	0.0371274
187	0xbd0fdf06	-0.0351248
188	0x3f219b5f	0.631277
189	0xbe0944ed	-0.134052
190	0x3ec3f3e0	0.38272
191	0x3f1e0f6f	0.617423
192	0xbcd49de7	-0.0259542
193	0xbb9efc04	-0.00485182
194	0x3e1ce853	0.15323
195	0x3e5e89ec	0.217323
196	0x3dbbab9a	0.0916359
197	0xbd8bffdb	-0.0683591
198	0x3d5336c4	0.0515659
199	0xbef8d691	-0.486012
200	0x3cfd7dda	0.0309438
201	0x3ee1ef0f	0.441277
202	0x3c87d186	0.0165794
203	0x3d255d01	0.0403719
204	0x3e44a2fd	0.192028
205	0xbe63cb3e	-0.222455
206	0xbfa10dae	-1.25823
207	0xbcb29330	-0.0217987
208	0xbecbcf70	-0.398067
209	0xbcec6294	-0.0288556
210	0xbe22a7bd	-0.158843
211	0xc05e9afe	-3.47821
212	0x3cb87959	0.0225188
213	0x3e8e2281	0.277607
214	0xbda88129	-0.0822776
215	0x3c83c80c	0.0160866
216	0x3eaa19ca	0.332228
217	0x3e34d014	0.176575
218	0xbf107e28	-0.564425
219	0xbf1fd114	-0.624284
220	0xbf575a32	-0.84122
221	0xbe4fd9ba	-0.202979
222	0x3e0ca362	0.137342
223	0x3e859a31	0.260942
224	0xbe421cce	-0.189563
225	0x3dcca5a3	0.0999253
226	0x3eb847d4	0.359923
227	0x3fb1ae3e	1.38813
228	0x3fc064ed	1.50308
229	0x3eff5297	0.498677
230	0x3ed14185	0.408703
231	0x3d1cd2ef	0.0382871
232	0x3fe378ab	1.77712
233	0xbe0a2a91	-0.134928
234	0xbde7cf1c	-0.113188
235	0x3d6b700b	0.0574799
236	0xbd8c1f6b	-0.0684193
237	0xbc2035e0	-0.00977847
238	0xbf9aea74	-1.21028
239	0x3e3850df	0.179996
240	0x3f91a9a8	1.13799
241	0xbdf847f5	-0.121231
242	0xbb178872	-0.00231221
243	0xbf3a1cac	-0.727
244	0xbe29d1f6	-0.16584
245	0x3e4bd231	0.199044
246	0x3eb927d4	0.361632
247	0x3dc853c1	0.097816
248	0x3e3d2fa1	0.184752
249	0xbf675b60	-0.903738
250	0xbe0c58ef	-0.137058
251	0x3e84e2d2	0.259543
252	0xbd191fc1	-0.0373838
253	0xbddf9831	-0.109177
254	0xbe7f177a	-0.249113
255	0x3dead46f	0.114663

layers.4.bias f4 [50]
0	0xbed58516	-0.417031
1	0x3d529aa2	0.051417
2	0xbe44d014	-0.1922
3	0xbccaab55	-0.0247399
4	0x3ea4cc8a	0.321873
5	0x3d60c176	0.054872
6	0x3e0d8948	0.138219
7	0xbc0d8900	-0.00863862
8	0x3e633e36	0.221917
9	0x3e8f110e	0.279427
10	0xbdffe975	-0.124957
11	0xbecd5022	-0.401002
12	0xbbbf96c4	-0.00584683
13	0xbe4970b5	-0.196719
14	0xbde2938e	-0.110633
15	0xbf00e758	-0.50353
16	0xbe8e7925	-0.278268
17	0xbea76c6a	-0.326999
18	0xbed7507f	-0.420536
19	0xbeffe49b	-0.499791
20	0xbb341546	-0.00274785
21	0xbf18767d	-0.595558
22	0xbe7dbfcf	-0.247802
23	0xbd4a2e21	-0.0493604
24	0xbe96f933	-0.29487
25	0x3ca133f7	0.0196781
26	0xbe684988	-0.226843
27	0x3ea586a9	0.323293
28	0x3e24bdba	0.16088
29	0xbd1e1a4d	-0.0385993
30	0xbe5f7f8d	-0.21826
31	0x3e89f773	0.269466
32	0x3e197c3d	0.149888
33	0xbeaa3055	-0.3324
34	0x3e782dbe	0.242362
35	0xbd9b1c6b	-0.0757378
36	0x3e2f969e	0.171473
37	0xbdaf672c	-0.085646
38	0xbe009bfa	-0.125595
39	0xbc9a6033	-0.0188447
40	0xbe0ee06e	-0.139528
41	0x3e950cc3	0.291113
42	0xbd1ec9d5	-0.0387667
43	0x3ea277c4	0.31732
44	0x3d25a541	0.0404408
45	0xbed0d541	-0.407877
46	0xbd3009b3	-0.042978
47	0x3dda8262	0.106694
48	0x3e23ee1c	0.160088
49	0x3d9c447c	0.0763025

layers.4.weight f4 [50, 50]
0	0xbec34e77	-0.381458
1	0x3eda4096	0.426274
2	0x3dd28f9f	0.102813
3	0xc08ed331	-4.46328
4	0x3cb775ee	0.0223951
5	0x3f09dde3	0.538542
6	0xbf5bdb2b	-0.858813
7	0x3ea3fa4c	0.320269
8	0xbf0f8b69	-0.560721
9	0xbf95b036	-1.16944
10	0x3d3ca537	0.046056
11	0xbee86ee3	-0.453971
12	0x3e1d6495	0.153704
13	0x3e49e6ef	0.19717
14	0xbc84e1e7	-0.016221
15	0xbf0737ca	-0.528195
16	0xbebf353b	-0.373453
17	0x3f131fac	0.574702
18	0xbb0a5706	-0.0021109
19	0x3dffd8ae	0.124925
20	0xbf18969a	-0.596048
21	0xbd3f88c7	-0.0467613
22	0x3d1dc5fe	0.0385189
23	0x3e804d77	0.250591
24	0x3f04e8c9	0.519177
25	0x3db4a6c3	0.0882087
26	0xb97f8b10	-0.000243705
27	0xbef3b7fa	-0.476013
28	0xbe6e1b8f	-0.232527
29	0x3c6458db	0.0139372
30	0x3f031141	0.511982
31	0xbea936e7	-0.330497
32	0xbde5247d	-0.111886
33	0x3f16ed89	0.589562
34	0x3e4fc222	0.202889
35	0x3e6c8b87	0.231001
36	0x3def74cd	0.116922
37	0xbe64bec6	-0.223384
38	0xbf4cbb0a	-0.799729
39	0x3f556ce8	0.833693
40	0x3e9a3748	0.301203
41	0x3e4e64b2	0.201556
42	0xbd893342	-0.0669923
43	0xbd95abe9	-0.0730818
44	0xbd24ba29	-0.0402166
45	0xbf66bce8	-0.90132
46	0x3e989720	0.298028
47	0xbf771b48	-0.96526
48	0xbf17dda9	-0.593226
49	0x3e3fc979	0.187292
50	0x3f30aada	0.690107
51	0xbf6b1748	-0.918324
52	0x3eaa6bf8	0.332855
53	0x3dbeef01	0.0932293
54	0x3f03b2cc	0.514447
55	0xbead27c4	-0.338194
56	0xbe85564b	-0.260424
57	0x3e89841b	0.268586
58	0x3c33d8e0	0.010977
59	0x3ec7b86f	0.390079
60	0xbc93b9f1	-0.018033
61	0xbedfb8d4	-0.436957
62	0x3f022e5e	0.50852
63	0x3e21e1d2	0.158088
64	0x3cb62083	0.0222323
65	0xbeeace46	-0.458605
66	0x3e9559d5	0.291701
67	0xbe2f65dc	-0.171287
68	0xbc597b9c	-0.0132741
69	0x3e04e1e7	0.129768
70	0xbde9dbec	-0.114189
71	0x3c9cd1fe	0.0191431
72	0x3cb41f8d	0.0219877
73	0xbd8ed388	-0.0697394
74	0xbf25f83c	-0.648319
75	0x3b8d6c3a	0.00431588
76	0xbd4cef17	-0.0500327
77	0xbd3fc273	-0.0468163
78	0x3e6fbd6a	0.234121
79	0xbca87d62	-0.0205676
80	0x3ea6d86f	0.32587
81	0x3dda6bd7	0.106651
82	0x3dccc0cb	0.0999771
83	0x3dfa682b	0.122269
84	0xbcc1673e	-0.0236088
85	0x3e7ddf01	0.247921
86	0x3dedba4d	0.116078
87	0xbe510e02	-0.204155
88	0xbee5ec1c	-0.449067
89	0xbd8d3e77	-0.0689668
90	0xbeb7e6d6	-0.359183
91	0x3d356cc9	0.0442932
92	0xbdae9f85	-0.0852652
93	0x3ec72b02	0.389
94	0x3b9c45b1	0.00476905
95	0x3ef6ebd5	0.482268
96	0x3d9ea23f	0.0774579
97	0xbe5dacef	-0.21648
98	0x3ef71e2a	0.482652
99	0x3f4d199c	0.801172
100	0x3e907033	0.282106
101	0xbef9e258	-0.488055
102	0x3e6e18ad	0.232516
103	0x3f5bf63c	0.859226
104	0xbe88f239	-0.267473
105	0x3f325a47	0.69669
106	0xbdf7c45d	-0.12098
107	0xbe4d5065	-0.200502
108	0x3e0a511a	0.135075
109	0xbf1a439a	-0.602594
110	0x3d3bdc34	0.0458643
111	0x3da3adba	0.0799212
112	0x3ecf8b7a	0.405361
113	0xbde6c6de	-0.112684
114	0xbc2c48c9	-0.0105154
115	0xbee870b9	-0.453985
116	0x3e76d506	0.241047
117	0xba601b92	-0.000854903
118	0x3b5e502d	0.00339223
119	0x3dd76ddb	0.10519
120	0xbf03990b	-0.514054
121	0x3e1700ce	0.147464
122	0x3bf79954	0.00755612
123	0xbe49b38d	-0.196974
124	0xbfdc341a	-1.72034
125	0x3e612ba1	0.219893
126	0x3d2187a5	0.039436
127	0xbe95b4ee	-0.292396
128	0x3e3c84b6	0.1841
129	0xbcb21668	-0.0217392
130	0x3e8016f0	0.250175
131	0xbecbfd50	-0.398417
132	0x3ef0b934	0.470163
133	0xbc875742	-0.0165211
134	0x3eb895d1	0.360518
135	0x3e870996	0.263745
136	0x3f253f29	0.645495
137	0x3e9a9803	0.301941
138	0xbfcb8ef3	-1.5903
139	0xbe998762	-0.299861
140	0xbedcbfd3	-0.431151
141	0x3e988616	0.297898
142	0x3f103b1d	0.563402
143	0xbdcce91d	-0.100054
144	0x3c17295d	0.00922617
145	0xbd14c900	-0.0363245
146	0xbec62329	-0.386987
147	0xbe9df655	-0.30852
148	0xbe8d0f1f	-0.275506
149	0xbdc83da1	-0.0977738
150	0xbcd447b6	-0.0259131
151	0xbcba0a88	-0.0227101
152	0x3d13a655	0.0360473
153	0xbd234473	-0.0398602
154	0xbd437fe7	-0.0477294
155	0xbcaa103f	-0.0207597
156	0x3ace3b8d	0.00157343
157	0xbb58f4ce	-0.00331049
158	0x3c20d33f	0.00981599
159	0xbd24912a	-0.0401775
160	0x3acd0079	0.00156404
161	0x3c2b3d9b	0.0104517
162	0xbd299ace	-0.0414074
163	0x3aa10244	0.0012284
164	0xbcae7c80	-0.0212996
165	0x3d0e91e4	0.0348071
166	0x3acd5406	0.00156653
167	0xbc223a72	-0.00990163
168	0xbc3eaf68	-0.0116385
169	0x3cf80be0	0.0302791
170	0xbd2fa681	-0.0428834
171	0xbca245a5	-0.0198086
172	0x3cfa237d	0.0305345
173	0xbd847786	-0.0646811
174	0xbd4f8254	-0.0506614
175	0x3c805e5f	0.01567
176	0x3b22fa6b	0.00248685
177	0xbc378cca	-0.011203
178	0x3c689515	0.0141957
179	0x3d193378	0.0374026
180	0x3cd2670b	0.0256839
181	0x3d001b79	0.0312762
182	0xbd511daf	-0.0510537
183	0x3c86aadf	0.0164389
184	0xbcf491a2	-0.0298546
185	0xbd0f5f33	-0.0350029
186	0x3cbf7850	0.0233728
187	0xbbbf642e	-0.0058408
188	0xba9db5b3	-0.00120323
189	0xbd3d46b2	-0.04621
190	0x37992363	1.82555e-05
191	0x3d130bab	0.0358998
192	0xbd22d293	-0.0397516
193	0xbc224de8	-0.00990627
194	0xbd539d00	-0.0516634
195	0x3b36a167	0.00278672
196	0x3d29203a	0.0412905
197	0x3cb8ac4f	0.0225431
198	0x3c84d303	0.0162139
199	0xbd52c99c	-0.0514618
200	0x3e07a9a0	0.132483
201	0x3d8ea381	0.0696478
202	0x3daacaff	0.083395
203	0xbfa29b28	-1.27036
204	0x3f0f90b8	0.560802
205	0x3f50816f	0.814475
206	0x3e5f2735	0.217923
207	0xbe7d7b20	-0.24754
208	0xbe117764	-0.142057
209	0x3fd7dbf5	1.6864
210	0xbd1d7ce9	-0.0384492
211	0xbf098b3f	-0.537281
212	0xbba11e73	-0.00491696
213	0xbe9fe975	-0.312328
214	0xbd16bef4	-0.0368032
215	0xbf19dacf	-0.600995
216	0x3f554531	0.833087
217	0x3e2a6d6a	0.166433
218	0x3c96dcbb	0.0184158
219	0xbeaa55d2	-0.332686
220	0x3eb56840	0.354311
221	0x3e8554da	0.260413
222	0xbc78883c	-0.0151692
223	0x3eab0058	0.333987
224	0xbf102108	-0.563004
225	0xbdf8e087	-0.121522
226	0xbd1dc21d	-0.0385152
227	0xbe7f5665	-0.249353
228	0xbe2dfd69	-0.169912
229	0xbcdf728c	-0.0272763
230	0xbd9ba08a	-0.0759898
231	0x3ecbe74b	0.398249
232	0xbeaf8099	-0.342778
233	0x3ec553ac	0.385404
234	0xbe36516e	-0.178045
235	0x3d401aa2	0.0469004
236	0x3ee2495e	0.441966
237	0x3e4e2cdc	0.201343
238	0xbeb6aa6d	-0.356769
239	0x3f460b0b	0.773606
240	0xbee78423	-0.45218
241	0x3f0907ea	0.535277
242	0xbd5f8932	-0.0545742
243	0x3e798d8b	0.243704
244	0xbd1727ea	-0.0369033
245	0xbe5692b4	-0.209544
246	0x3ea84902	0.328682
247	0xbdb56141	-0.0885644
248	0x3eb1f01c	0.347535
249	0x3f2acfea	0.667235
250	0xbd88642a	-0.0665973
251	0xbf06325d	-0.524206
252	0xbe8eb80f	-0.278748
253	0xbf8f7fe1	-1.12109
254	0xbeec3611	-0.46135
255	0x3e1a9cdc	0.150989

layers.6.bias f4 [50]
0	0xbec2ecf2	-0.380714
1	0x3f44ecb7	0.769237
2	0x3de74e23	0.112942
3	0xbe991601	-0.298996
4	0xbe0cffa8	-0.137694
5	0xbe615e7d	-0.220087
6	0xbd88ca74	-0.0667924
7	0xbdd41d8f	-0.103572
8	0xbee05af7	-0.438194
9	0xbe49d27c	-0.197092
10	0xbcbffb63	-0.0234353
11	0xbc57be2d	-0.0131679
12	0x3e9774ac	0.295812
13	0x3e53bc90	0.206774
14	0xbf535f0b	-0.825669
15	0xbe188c61	-0.148973
16	0xbdf84d34	-0.121241
17	0xbe28b114	-0.164738
18	0xbf072fba	-0.528072
19	0x3e7c0011	0.246094
20	0x3de36007	0.111023
21	0x3db59550	0.0886637
22	0x3ee51a22	0.447465
23	0x3d4c9986	0.0499511
24	0x3ef4aab9	0.477865
25	0xbe2fa4c6	-0.171527
26	0x3ead1245	0.33803
27	0xbea2faf8	-0.318321
28	0xbe9b20b8	-0.302984
29	0x3d99429f	0.0748341
30	0xbd92d20d	-0.0716897
31	0xbf3033c6	-0.68829
32	0x3edf8dd6	0.436629
33	0xbf7c6c55	-0.986028
34	0xbbe62d06	-0.00702441
35	0xbf2cf8f9	-0.675674
36	0xbef21017	-0.472779
37	0x3f443d79	0.766563
38	0xbc75176f	-0.0149592
39	0xbc4d46db	-0.0125291
40	0xbead95dd	-0.339034
41	0x3e0b6dca	0.136161
42	0x3e9af5fd	0.302658
43	0xbea88462	-0.329135
44	0xbc9d429c	-0.0191968
45	0x3dcf2064	0.101136
46	0xba97a477	-0.00115694
47	0x3ea08a05	0.313553
48	0xbf923d1d	-1.14249
49	0x3e88f323	0.26748

layers.6.weight f4 [50, 50]
0	0xbf8ece46	-1.11567
1	0xbf6c9928	-0.924212
2	0xbf059781	-0.521843
3	0x3cbaa045	0.0227815
4	0x3d9c9280	0.0764513
5	0xbe500608	-0.203148
6	0xbf9f80dc	-1.24612
7	0xbcef68a3	-0.0292247
8	0x3e9203e6	0.285186
9	0xbf0cc910	-0.549943
10	0xbeb53e92	-0.353993
11	0x3db6f46e	0.0893334
12	0xbdf3fd0d	-0.119135
13	0x3e971f9b	0.295163
14	0x3e27f413	0.164017
15	0x3dc242a8	0.0948537
16	0xbe852392	-0.260037
17	0xbd9e875a	-0.0774066
18	0x3ce56e84	0.0280068
19	0xbeadbbbf	-0.339323
20	0xbe1a4441	-0.150651
21	0xbec68555	-0.387736
22	0xbf4da32b	-0.803271
23	0x3f783255	0.969518
24	0x3fd15b57	1.6356
25	0xbdfd798e	-0.123767
26	0x3e0543f2	0.130142
27	0x3e270c99	0.163134
28	0xbefcde5d	-0.493884
29	0x3efe427c	0.496601
30	0x3f810d06	1.00821
31	0xbeaba92a	-0.335275
32	0x3e43eaf7	0.191326
33	0xc00e7ae1	-2.22625
34	0x3e13b4b3	0.144244
35	0xbe87ff37	-0.265619
36	0xbef47dc3	-0.477522
37	0xbefd3b2a	-0.494592
38	0xbe97ba45	-0.296343
39	0xbcff0274	-0.0311291
40	0x3e758ea8	0.239802
41	0x3e9ddd6e	0.30833
42	0x3ed75caf	0.420629
43	0x3ebd3e0c	0.369614
44	0x3f16e233	0.589389
45	0x3f082785	0.531853
46	0x3d487ca6	0.048947
47	0x3de0f6f1	0.109846
48	0xbf6d562a	-0.927096
49	0x3d5ed84d	0.0544055
50	0xbdf89f84	-0.121398
51	0xbecf7814	-0.405213
52	0x3e79218a	0.243292
53	0xbcef26ca	-0.0291933
54	0xbf58c5a8	-0.846766
55	0xbf592d56	-0.848348
56	0x3ddbb060	0.10727
57	0x3ce9f242	0.0285579
58	0xbd87d490	-0.0663234
59	0x3e31fd9c	0.173819
60	0xbe8f485e	-0.279849
61	0x3f05fddf	0.523405
62	0x3eeb0ab3	0.459066
63	0x3e63f855	0.222627
64	0xbf164c40	-0.587101
65	0xbed4e358	-0.415797
66	0x3e242c80	0.160326
67	0x3ed8f430	0.423738
68	0xbf1044af	-0.563548
69	0x3e8d7061	0.276248
70	0x3e62ed35	0.221608
71	0xbf0d6f22	-0.552477
72	0x3ee8e0ca	0.45484
73	0x3ef50dae	0.47862
74	0x3fedcc10	1.85779
75	0x3f08297c	0.531883
76	0x3e9235d6	0.285567
77	0x3e809d8c	0.251202
78	0x3f66a25e	0.900915
79	0x3ee01b86	0.43771
80	0xbe78c3f4	-0.242935
81	0xbf1ac93a	-0.604633
82	0x3eab2592	0.334271
83	0xbf0f2820	-0.559206
84	0x3e266dbd	0.162528
85	0xbefa55f3	-0.488937
86	0xbebf8141	-0.374033
87	0xbef4d489	-0.478184
88	0x3e03fab1	0.128886
89	0x3d27ec78	0.040997
90	0xbe26a8fc	-0.162754
91	0xbea1a21f	-0.31569
92	0x3e1837b5	0.14865
93	0xbded6990	-0.115924
94	0x3e9b0ad4	0.302817
95	0xbb2a08fd	-0.00259453
96	0xbda5534e	-0.0807253
97	0x3ecb88ca	0.397528
98	0xbda00eff	-0.0781536
99	0xbea6b9a1	-0.325635
100	0x3e82c711	0.255425
101	0xbeb5dd90	-0.355206
102	0x3c777872	0.0151044
103	0x3bfa3bf1	0.00763654
104	0xbd53d641	-0.051718
105	0xbfcfb353	-1.62266
106	0x3f227211	0.634553
107	0xbce8f3df	-0.0284366
108	0xbe069553	-0.131429
109	0xbf178ceb	-0.591994
110	0xbf0c03bc	-0.546932
111	0x3ec6a52f	0.387979
112	0xbeb9001d	-0.361329
113	0xbceca9e2	-0.0288896
114	0xc03c0885	-2.93802
115	0x3ed66c09	0.418793
116	0xbd395810	-0.04525
117	0x3ee107b8	0.439512
118	0x3e94388f	0.289494
119	0x3e918373	0.284206
120	0xbe00728f	-0.125437
121	0xbe46b2f2	-0.194042
122	0x3cd6c6ec	0.0262179
123	0x3e84cd75	0.25938
124	0x3f661ed6	0.898908
125	0x3f4b16f4	0.793319
126	0xbe8d3f9e	-0.275876
127	0xbe53dbc2	-0.206893
128	0x3e5b22d1	0.214
129	0xbde51e32	-0.111874
130	0xbe736439	-0.237687
131	0x3eb5df65	0.35522
132	0xc0045f31	-2.06831
133	0x3f0babeb	0.545592
134	0xbe2d8f50	-0.169492
135	0x3ea06141	0.313242
136	0x3ef0a394	0.469998
137	0x3ddc6089	0.107606
138	0xbec98f1d	-0.39367
139	0xbd1abf84	-0.0377803
140	0xbe2b64e0	-0.167377
141	0xbf02c56d	-0.510825
142	0xbe480a5b	-0.195352
143	0xbe87bc7f	-0.26511
144	0x3e9c09e5	0.304763
145	0xbe3631f9	-0.177925
146	0xbc3c8480	-0.0115062
147	0xbe5311a5	-0.206122
148	0xbfa441dd	-1.28326
149	0x3e12224f	0.142709
150	0xbefd4068	-0.494632
151	0x3db59d71	0.0886792
152	0x3e63dab6	0.222514
153	0xbbde4ba5	-0.00678392
154	0x3e76eac8	0.24113
155	0x3e326f61	0.174253
156	0x3e47d242	0.195138
157	0x3d2f3b3c	0.0427811
158	0x3ddd4281	0.108037
159	0x3d9b5294	0.0758411
160	0x3e249cf5	0.160755
161	0x3cd749fe	0.0262804
162	0x3e35fc3b	0.17772
163	0xbe38bdec	-0.180412
164	0x3ec007ff	0.375061
165	0xbe6acd5b	-0.229299
166	0x3ed6feb5	0.419912
167	0xbe776c05	-0.241623
168	0xbe50aaa8	-0.203776
169	0xbdcb41cd	-0.0992466
170	0x3e44c836	0.19217
171	0x3e200e6b	0.156305
172	0x3e46cbda	0.194137
173	0x3e80ff11	0.251946
174	0x3e6ccdd9	0.231254
175	0x3dbd3664	0.0923889
176	0xbde034f4	-0.109476
177	0xbd950a10	-0.0727731
178	0x3f079607	0.529633
179	0x3ee8e12f	0.454843
180	0xbd6e3f79	-0.058166
181	0xbedbbb84	-0.429165
182	0x3d7a989d	0.0611807
183	0x3e340d91	0.175833
184	0xbd623a1c	-0.0552312
185	0xbf0b4f83	-0.544182
186	0x3bf8fe59	0.00759868
187	0xbe465519	-0.193684
188	0xbe442d06	-0.191578
189	0xbc601f25	-0.0136793
190	0xbe4ea897	-0.201815
191	0xbeb4486b	-0.352115
192	0x3c6d3233	0.0144773
193	0x3d93ae4e	0.0721098
194	0x3e545cbc	0.207385
195	0x3ecce896	0.400212
196	0xbbd63719	-0.00653733
197	0x3cef4100	0.0292058
198	0xbf07da83	-0.530678
199	0xbe0151e7	-0.126289
200	0xbdfd4739	-0.123671
201	0x3d732d1e	0.0593692
202	0x3e60b1ff	0.219429
203	0x39fdcf9c	0.000484106
204	0x3e4b2bfe	0.19841
205	0xbe2f96e1	-0.171474
206	0x3eadb142	0.339243
207	0xbc8ef1a0	-0.0174492
208	0x3e4b5b2d	0.19859
209	0x3e4d462c	0.200463
210	0xbe4e66cb	-0.201564
211	0xbde06078	-0.109559
212	0x3e028a61	0.127481
213	0xbe72e664	-0.237207
214	0xbf200789	-0.625115
215	0x3e06bb56	0.131574
216	0xbe1b2d90	-0.151541
217	0x3e04ddb5	0.129752
218	0xbe3576cd	-0.177211
219	0xbd7a05b5	-0.0610406
220	0x3cf75247	0.0301906
221	0x3d9162bc	0.0709891
222	0xbde8ab50	-0.113608
223	0x3e2a975b	0.166593
224	0x3d098783	0.0335765
225	0xbcde1a32	-0.0271121
226	0xbe02ddbe	-0.127799
227	0x3e145027	0.144837
228	0x3ea1e860	0.316226
229	0x3dc7fd75	0.0976514
230	0x3e33cc08	0.175583
231	0xbe2f8488	-0.171404
232	0xbf547725	-0.829943
233	0xbe869ea1	-0.262929
234	0x3dd35116	0.103182
235	0xbc1c5fb2	-0.0095443
236	0x3db25735	0.0870804
237	0xbd326ee8	-0.0435628
238	0xbcaae0b4	-0.0208591
239	0x3d2bdfb8	0.0419614
240	0x3e2a5eff	0.166378
241	0xbe533440	-0.206254
242	0x3d116426	0.0354959
243	0xc0c1862f	-6.04763
244	0x3e41309c	0.188662
245	0xbea287e4	-0.317443
246	0x3d454244	0.0481589
247	0xbf3b82e4	-0.732466
248	0xbf4ade12	-0.792451
249	0x3d275727	0.0408546
250	0x3d33df60	0.0439142
251	0x3eea619e	0.457776
252	0xbecea162	-0.403575
253	0xbd2ca057	-0.0421451
254	0xbf54a00a	-0.830567
255	0xbea857d1	-0.328795

layers.8.bias f4 [50]
0	0xbd61f9f0	-0.05517
1	0xbed3ffac	-0.41406
2	0x3ac14708	0.00147459
3	0x3e8ab474	0.270908
4	0x3e885ee5	0.266349
5	0x3eada07b	0.339115
6	0xbf8be6c5	-1.09298
7	0xbdf1d14e	-0.118075
8	0x3ea62f5a	0.32458
9	0x3eb336bd	0.350027
10	0xbededc3c	-0.435274
11	0xbea64192	-0.324719
12	0x3df21ff3	0.118225
13	0xbdff52fc	-0.12467
14	0xbc3816c8	-0.0112359
15	0x3ecd4328	0.400903
16	0xbd99ec05	-0.0751572
17	0x3dd80c31	0.105492
18	0x3e2a8694	0.166529
19	0xbfe6fad7	-1.80453
20	0x3e78d328	0.242993
21	0x3f7f5632	0.997409
22	0x3e214728	0.157498
23	0xbe9ac259	-0.302264
24	0xbea0691f	-0.313302
25	0x3e4e5d5b	0.201528
26	0x3fb1d399	1.38927
27	0xbe1cedd5	-0.153251
28	0xbe19d7ba	-0.150237
29	0xbe55db34	-0.208844
30	0xbcdb01ae	-0.0267342
31	0x3f3706b3	0.714946
32	0x3cf4f1e5	0.0299005
33	0x3db00ee4	0.0859659
34	0x3e38090b	0.179722
35	0x3d5e9623	0.0543424
36	0x3f210215	0.628938
37	0x3eb62e0a	0.35582
38	0x3d3001d6	0.0429705
39	0xbe036113	-0.1283
40	0xbefc1e15	-0.492417
41	0x3f362563	0.711508
42	0xbdc4c646	-0.0960813
43	0x3eb546f6	0.354057
44	0x3e98850a	0.29789
45	0xbd64ea30	-0.0558874
46	0x3f25bbae	0.647395
47	0x3dbbe8a1	0.0917523
48	0xbe0a0b1c	-0.134808
49	0xbeea4f66	-0.457637
