resources/models/onnx/acas/ACASXU_run2a_2_3_batch_2000.onnx (onnx, 54456 bytes, 14 tensors)

layers.0.bias f4 [50]
00000000: 58ae d7be 94fb 7d3e 031f 883d bcaf 3ebf
00000010: 20a2 27bd 524a 633c 4c53 84be 906e afbd
00000020: 1a4e d9bd 1f83 8dbe f356 4d3e ca1a 05be
00000030: 4486 ddbe f392 b7be 8d46 2abf 9cf8 2abe
00000040: 629e 95be e8a2 39bf da73 293e 3c16 1fbf
00000050: 5ef4 1dbf 4e28 10bf 78d4 383d b873 b9be
00000060: 7a56 02be c904 94be 340f 103e 8e03 efbd
00000070: f563 f8bc c3a3 053b 58c6 7abf 5324 0fbf
00000080: ab3d 3c3e 604a 133d 2ac1 073d e2c2 66bd
00000090: fad0 e53d 492d 1cbf d1e6 08be 5588 c7be
000000a0: fe7c 6b3e e599 03bf 0344 f9be a8d9 8d3d
000000b0: 97de 433d bf44 bcbe b5db 93bc 7c48 10bf
000000c0: 206c e73c cdaf 56be
-0.421252 0.24803 0.0664654 -0.744869 -0.0409261 0.0138727 -0.258448 -0.0856601
-0.106106 -0.276391 0.200527 -0.129985 -0.432665 -0.358543 -0.665139 -0.166964
-0.292224 -0.725142 0.165481 -0.621433 -0.61701 -0.563115 0.0451245 -0.362211
-0.127283 -0.289099 0.140683 -0.116706 -0.0303211 0.00203918 -0.979589 -0.559148
0.183829 0.0359596 0.0331432 -0.0563382 0.112215 -0.610066 -0.133693 -0.389712
0.229969 -0.514067 -0.486847 0.0692628 0.0478197 -0.367712 -0.0180491 -0.563606
0.0282498 -0.209655

layers.0.weight f4 [50, 5]
00000000: 0660 a8bc f67c 7d3e 5af0 62be 7e1d bcbf
00000010: 6799 05bf 16f9 353f cffe 363d 556d 573e
00000020: b592 813d 8598 0bbe fbd4 e7bc f5ec a03b
00000030: dc2e d83f c284 863d 1efb 39bd ac23 b23d
00000040: 24e6 c43a 0536 823c d6a9 22bf c078 b6bf
00000050: 5f6a 9abd 8159 313e af99 c4be 4968 a3be
00000060: d08b c93c b6ca 7d3d f9a0 c3bf fd7b db3b
00000070: b0f5 363d 5270 b7bd 06ef 703d c328 08be
00000080: 6407 253e 6940 83bd 3a1e a3bf eab2 b9bb
00000090: 759a cbbd a741 11bd adc0 8cbf 1c27 1d3f
000000a0: ed83 ecbe eb52 c8bd 6500 e83d 7428 dbbe
000000b0: 63b8 5a3e df9b 503d 25e9 9e3f bc57 9dbf
000000c0: fb69 8dbd 41ef fd3e 11a6 c9bb d3ee 9d3b
000000d0: bf2b 963f e6ef 793d 4a55 44bd 5e4a 3dbe
000000e0: 508d 9f3f 111e d53f 9813 2c3f aed4 9bbe
000000f0: a01a cbbf 7528 1e3d c45d 3dbd f04f 79be
00000100: feba 333e 68e6 493d 71ae 393f 4a9b 0a3e
00000110: 3b34 58bf a413 2ebd 6c79 653d a3ac dfbd
00000120: f6e1 0bbc 34d5 0fbf 1f11 bbbf 1a3b 7abb
00000130: af7b 7bbe e012 c03e 8e22 5bbe 5b99 d0bf
00000140: 7f61 debc 9565 8c3f ff25 313f ceeb a13b
00000150: 1b87 15bd 8f5c 4d3d 0205 283c 56e1 c7bb
00000160: cd58 a0bf 0c02 37bf 994a 7dba d432 6dbd
00000170: 41f4 e43d d4d4 223f 5f99 77bf c631 523e
00000180: 863d cd3d c5e4 edbd 5a0e 08bf 691d 95bf
00000190: 8a80 b7ba 1096 f1bd 2014 ca3d 40f6 b6bf
000001a0: 7db0 18bf d639 9abf eaaa a33b 1846 133b
000001b0: 9c67 a1bd f9f5 07bf eaf0 0b3d cd01 42bf
000001c0: aed3 94bf 6728 0e3e 3cf4 ddbd 658d 00c0
000001d0: 5551 3cbe fd52 dabc c218 d13d 8ac9 1b3e
000001e0: 55fe 90bc 99bb d2bf 5d8a ef3f 4609 3abd
000001f0: 158f ab3e b24c 0f3e dc11 eebf f44e cd3e
00000200: 1f84 20be c26d 3dbf 6eda ec3d 8e6f d43c
00000210: 4fe6 7fbe c18d a43e 3620 76bf dcd2 d1bb
00000220: c789 0a3d 8d63 a43c 6c22 3fbf 056e 81bf
00000230: 0264 a8bc 2a2f c33c 77cf e8bb d3c5 223c
00000240: 585a 00bb b648 46bf a5af 51bd bd14 c3bd
00000250: e8f4 dcbd b626 92bd fa62 0c3b c7a3 2fbc
00000260: 7d8c 9ebc f3ab 85bf aed3 98bf a306 97bf
00000270: 7bd2 533c 1f08 983b babc d9be e90c 94be
00000280: 03d4 afbc 693f 0c3b 0ecc 9bbc b0f2 3abd
00000290: 3411 8e3f 048f efbc 1422 c8bf a9de a63f
000002a0: 355a f33c 2ee2 a3be 9a0c a23c d236 4e3e
000002b0: 8c0f 1b3f e4a1 efbe 8ecd fe3e 9fab 01bf
000002c0: cafd 1ebf 4161 203f 10e8 8c3e 48df dcbe
000002d0: adae 593d 0459 3fbe 2a37 01be a2b7 a0be
000002e0: 0d39 d6bd 9b16 81bd 022a 9cbd 4431 a93e
000002f0: f8af 97bd daac cabf 95d2 3bbf 2d12 293d
00000300: 7497 e4be d512 1fbc 72c1 a93e e657 bbbf
00000310: 1014 89bd adfc 3e3f 460b 103e d7b4 1c3d
00000320: b1f9 18be 9014 853f faf2 aabf 09df 8b3e
00000330: 8620 ffbe 5803 9cbe a061 1bbd 3a02 28be
00000340: f08a 98bf 1808 a23d f12e dbbf 303f 813c
00000350: 43b6 a23c b000 163e 211e 89be 6b93 d43c
00000360: faed 97bf 6f73 f4bc 658a 293e fd69 23be
00000370: 71c6 b0bc 98de ae3e afb5 e73e 01c1 6cbe
00000380: 3e6f 343d dc46 fbbf 05bf 1d3e 3698 613c
00000390: f878 a73d 0f42 00be 5090 b3bc a75c 1fbb
000003a0: b292 033c 0f8a 9c3b 8027 d23b 4670 4dbd
000003b0: 187d 8d3e cf83 c3be 4180 00bf 05a3 babf
000003c0: 31ec 983e 5986 0840 1748 20bf e3e1 3d3e
000003d0: 0281 7ebe 828b b1bf 1525 f8bb 4e09 08be
000003e0: 1284 ebbd 50f0 b3bd
-0.0205536 0.247547 -0.22162 -1.46965 -0.521872 0.710832 0.0446766 0.210378
0.0632681 -0.136324 -0.0282998 0.00491106 1.68893 0.0656829 -0.0454055 0.0869821
0.00150222 0.0158949 -0.635404 -1.42556 -0.0753982 0.173193 -0.383985 -0.319155
0.0246028 0.0619609 -1.52835 0.00669813 0.0446679 -0.0895697 0.0588217 -0.132968
0.161161 -0.0640877 -1.27436 -0.00566708 -0.0994157 -0.035463 -1.09963 0.613878
-0.461944 -0.0978144 0.113282 -0.428043 0.213594 0.0509299 1.24149 -1.22924
-0.0690498 0.495966 -0.00615383 0.00481973 1.17321 0.0610198 -0.0479329 -0.184854
1.2465 1.66498 0.672174 -0.304357 -1.58675 0.0386128 -0.046232 -0.243469
0.175518 0.049292 0.725318 0.135358 -0.844547 -0.0424992 0.056024 -0.109216
-0.00853776 -0.561847 -1.46146 -0.00381822 -0.245589 0.375144 -0.213999 -1.62968
-0.0271461 1.09685 0.691986 0.00494144 -0.0365058 0.0501371 0.0102551 -0.00609986
-1.25271 -0.714875 -0.00096623 -0.0579098 0.111794 0.63606 -0.967184 0.205268
0.100215 -0.116159 -0.531469 -1.16496 -0.00140001 -0.117962 0.0986712 -1.42939
-0.596443 -1.20489 0.00499474 0.00224722 -0.0788109 -0.531097 0.0341653 -0.75784
-1.16271 0.138826 -0.108376 -2.00863 -0.183904 -0.0266509 0.102098 0.152136
-0.0176994 -1.64635 1.87141 -0.045419 0.335076 0.139941 -1.85992 0.400993
-0.156754 -0.739956 0.115651 0.0259321 -0.249902 0.321394 -0.961429 -0.00640331
0.0338228 0.020067 -0.746619 -1.01117 -0.0205555 0.0238262 -0.00710481 0.00993486
-0.00195851 -0.774547 -0.0511929 -0.0952544 -0.107889 -0.0713629 0.00214213 -0.0107202
-0.0193541 -1.04431 -1.19396 -1.17989 0.0129286 0.00463964 -0.425268 -0.289161
-0.0214634 0.00214001 -0.0190182 -0.0456416 1.1099 -0.029243 -1.56354 1.30367
0.0297061 -0.320085 0.0197814 0.201381 0.605706 -0.468032 0.497662 -0.506525
-0.62106 0.626484 0.275208 -0.431391 0.0531451 -0.186863 -0.126187 -0.313901
-0.104601 -0.0630314 -0.076252 0.330454 -0.0740661 -1.5834 -0.733682 0.0412771
-0.446468 -0.00970908 0.331554 -1.46362 -0.0669328 0.746043 0.140668 0.0382584
-0.14939 1.03969 -1.33554 0.273186 -0.498295 -0.304713 -0.0379349 -0.164071
-1.19174 0.079117 -1.71237 0.0157772 0.0198623 0.146487 -0.267808 0.0259492
-1.18695 -0.0298402 0.165567 -0.159584 -0.021579 0.341542 0.452558 -0.231205
0.0440514 -1.9631 0.154049 0.0137692 0.0817737 -0.125252 -0.0219194 -0.00243167
0.00803058 0.0047772 0.0064134 -0.0501559 0.276345 -0.381865 -0.501957 -1.4581
0.298677 2.1332 -0.6261 0.185432 -0.248539 -1.38707 -0.00757278 -0.132848
-0.114998 -0.0878607

layers.10.bias f4 [50]
00000000: b3ef 4a3f df36 dbbe 732e 11bf faf0 ec3e
00000010: 2b15 dc3e 9371 383f 21c8 313f 4a7f d73e
00000020: 74b5 8d3e 4a6d 38bd c2a2 72be 87a8 523e
00000030: d768 493e 1db0 7bbf 4773 ac3e 4e0d a4be
00000040: b823 0c3f 3943 d93e c77f 06bd 9b55 a3bf
00000050: b265 093e d3f8 fdbe 793e 4bbf 6754 8abd
00000060: f54a c5bf cf66 853f 357a c53e 0649 033f
00000070: 01df 053f f355 e23e d5b4 1bbe bfff 05bd
00000080: 7bd7 d03e d3dc 82be df32 bf3e 4b01 093e
00000090: 488c 72bf 01fa e53e c8b6 dc3e f5b9 0a3e
000000a0: 9e26 93be d657 a73e d750 023f b537 f8be
000000b0: 05a8 39be 672d a03d 649b ef3c 1fbd d13e
000000c0: 5b08 a23e 2a1d f4be
0.79272 -0.428153 -0.567115 0.462776 0.429849 0.720483 0.69446 0.420893
0.276775 -0.0450261 -0.236949 0.205721 0.196689 -0.983156 0.336817 -0.320414
0.54742 0.424341 -0.0328367 -1.27605 0.134177 -0.496039 -0.793922 -0.0675438
-1.54135 1.0422 0.385698 0.512833 0.522934 0.442062 -0.152057 -0.0327146
0.407894 -0.255591 0.373435 0.133794 -0.947453 0.449173 0.431082 0.135475
-0.287404 0.326842 0.509046 -0.4848 -0.181305 0.0782116 0.0292489 0.409646
0.31647 -0.476785

layers.10.weight f4 [50, 50]
00000000: e15d d3bc 7906 6dbe c21e 6a3b 7afb 23be
00000010: 276a e93e 27ec 0d3c f4df 13be 8a39 903e
00000020: 7e39 33be d82a e13d 6658 1bbd 8505 07be
00000030: da75 97be 33e1 473e 4e29 0f3e f8ef eebb
00000040: 22c5 10be dcd7 c93e 80d5 21be 279d 4d3d
00000050: 3f58 063d 24d5 d73d d6e6 4b3f 9203 86be
00000060: c85e c73f 0f2b 1c3e 2e53 d33c a378 05be
00000070: 1692 a2bd a94a 0bbe 7b44 a1bd 4a96 23be
00000080: 997f 243e a662 333f d8f1 ffbe b1df 03be
00000090: 207c 283c a261 01be 99f4 37be ed2a 44be
000000a0: 7aa4 c63d 3d25 9cbd a2d0 823e aa0e 91be
000000b0: e196 2f3e 6b62 913e cba2 40be 18d1 9e3e
000000c0: 6dab 51bf 228b a43e 3d7e ef3c 1c68 84bd
000000d0: f87f 9fbc 3fe9 dfbc 315c fdbd 78d5 de3c
000000e0: ea5e 9fbe 3865 c63e 7e14 dabc 8e75 013e
000000f0: c855 16bd cde3 113c 8ba2 bcbd 9f55 963e
00000100: 7a8d 1dbd 7b30 31bf 5f23 2e3d ce8d 893d
00000110: 6910 b0bc 548f 843e 71e6 9fbe c938 46bd
00000120: 05df 443e cde3 c5bd 56b7 8ebf d78f b8bd
00000130: b708 0cbe a910 f43c c155 de3d 7446 af3c
00000140: 50c9 943c d1fa 65bd c322 50bc cee3 90be
00000150: 7887 babd 045a 7abe a9c1 ac3e 36ca 92be
00000160: fe7b 953c 6874 4cbd eba7 643d e9a7 ae3c
00000170: 9199 4b3e 040a 0bbd a2bb 3f3d 335e a9bc
00000180: 483a 5e3d d7bf 0b3d ce28 c7bd fb21 46be
00000190: 1ccc 2bbd 286d 403d 85b6 84be cb12 1d3e
000001a0: 0821 50bf 7c0b 0b3e 6e68 2a3e 5280 b8be
000001b0: 249c 063e 8290 84be 0229 91bd 59fc 163e
000001c0: 438f 38be 69d8 a9bd 18a7 8b3d 5166 533e
000001d0: f1ce 46bd 0415 3fbd a4aa 05bf 4c53 543e
000001e0: dd44 adbe fed7 f9bc 54c4 29be f42f aebd
000001f0: ab0c 5ebd f8c5 153e 0df5 403d e072 abbc
00000200: 98ac 853d 7557 863e 173a a03d d443 d43d
00000210: cde5 46bd 081c a93d 71ad 7ebf a583 81bf
00000220: 289b 22c0 302a 69bd fcd1 963d c2df 0fbe
00000230: 9b3d 10be 4d7c 8a3d 6519 d23e 7d09 25be
00000240: 1cce b8bf 35ce 2b3d 679d f13d e209 383d
00000250: 05fc fabd 5a29 c4be ddbe 8dbd 8f43 73bd
00000260: 7447 dabc 32de 1bbd 9738 c2be 5310 52bd
00000270: 77f3 58bf 4949 873e 1f80 793c 63f2 46be
00000280: 5853 ddba a8e3 d1bd ce06 8f3d 813f dc3d
00000290: de3b 2a3e d108 d63d 31d1 e0bd 87fb 68bd
000002a0: 4904 b4bc 56e4 413d 2808 b3bd 63a8 993d
000002b0: 72fa c23e 6423 3cbf 1b64 62c0 71de 643d
000002c0: a6f2 00c0 54a4 07bd f8eb 443d 7501 6fbe
000002d0: 560c 973c 39ec 02bf ba2c cbbc 2bde 1ac0
000002e0: 1aa4 a0be f07a 9abd e42e 023e 2d6b c13d
000002f0: 7e54 433e 4b6e 89bd 31d5 673d c40e 8e3d
00000300: e0d7 f0be 95f2 6abe 3d46 493e 1bb9 9e3d
00000310: eb3b 8fbd 2314 0b3e 68ea 19bf 1095 e6bd
00000320: b01e 1fbf e355 be3e 0f45 1bc0 7f67 fbbd
00000330: 4b93 d3c0 c137 31bf 9be2 013e 001f 243f
00000340: a9bd 48be 097e e53c 3aeb abbe 1217 e0be
00000350: 1aa3 dd3e ef53 45be 64a5 8f3b 936f 06c0
00000360: 5c1f f6bd f2ed 61bf c4e9 043e 19ca 093e
00000370: d579 8c3e 0e4c ee3d 328f 843f 6b60 ebbd
00000380: 4f75 93c0 4ca6 0cc0 d729 403d a7ad f1be
00000390: d8f0 a4be 1172 6ebe 8eba 9cbd 8e3a fabd
000003a0: 5b5c 0bbf 478f 8b3f f46c 96be 698f 4fbf
000003b0: 0ea1 ae3f e71c ac3e f0c3 013e 253e 67be
000003c0: f84f e73e 3560 30be deca 623e 80f1 b43e
000003d0: 923f c0bf e7d8 073c 3dd6 acbe f0a7 bebe
000003e0: 0de4 d93d afce 55bf 1956 b1bc 6c3d 43be
000003f0: 4b59 92bf 4fca 10bf 5e9d 9bbf 7103 2ebe
-0.0258016 -0.23147 0.00357239 -0.160139 0.455888 0.00866226 -0.144409 0.281689
-0.175024 0.109945 -0.0379261 -0.131857 -0.295821 0.195195 0.139806 -0.00729179
-0.141377 0.394225 -0.158041 0.0501987 0.032799 0.105387 0.796491 -0.261746
1.55758 0.152508 0.0257965 -0.130343 -0.0793802 -0.136027 -0.0787439 -0.159753
0.160643 0.700724 -0.499892 -0.128783 0.0102835 -0.126349 -0.179644 -0.19157
0.0969934 -0.0762429 0.255498 -0.283315 0.171474 0.283954 -0.188121 0.310189
-0.819022 0.321374 0.029235 -0.0646517 -0.0194702 -0.0273329 -0.123711 0.0272014
-0.311271 0.387491 -0.0266211 0.126425 -0.0367029 0.00890441 -0.0921069 0.293622
-0.038465 -0.692146 0.0425142 0.067165 -0.0214922 0.258906 -0.312305 -0.048394
0.192257 -0.0966259 -1.11497 -0.0901181 -0.136752 0.0297931 0.108562 0.0213959
0.0181624 -0.0561474 -0.0127036 -0.282988 -0.0910787 -0.244484 0.337415 -0.286699
0.0182476 -0.0499157 0.0558242 0.0213203 0.198828 -0.0339451 0.0468098 -0.0206748
0.0542548 0.0341185 -0.0972458 -0.193489 -0.0419427 0.0469791 -0.259205 0.153392
-0.813004 0.135786 0.166414 -0.360354 0.131455 -0.258915 -0.070879 0.147447
-0.180234 -0.0829323 0.0681898 0.206445 -0.0485372 -0.0466509 -0.522135 0.207349
-0.338416 -0.0304985 -0.165788 -0.0850524 -0.0542113 0.146263 0.0471087 -0.0209288
0.0652706 0.262386 0.0782358 0.103645 -0.048559 0.082573 -0.994834 -1.01183
-2.54072 -0.056925 0.0736427 -0.140502 -0.14086 0.0676199 0.41035 -0.161169
-1.44379 0.0419447 0.117976 0.0449313 -0.122551 -0.383128 -0.0692117 -0.0593906
-0.0266454 -0.0380537 -0.379338 -0.0512851 -0.847465 0.264231 0.0152283 -0.194284
-0.00168858 -0.102485 0.0698372 0.107543 0.166244 0.104509 -0.109774 -0.0568805
-0.0219747 0.0473369 -0.0874179 0.0750282 0.380817 -0.734915 -3.53736 0.0558762
-2.01481 -0.0331157 0.0480766 -0.233404 0.0184385 -0.511417 -0.0248016 -2.41981
-0.313752 -0.0754298 0.127132 0.0944427 0.190752 -0.0671049 0.0565998 0.0693641
-0.470397 -0.229441 0.196557 0.0775015 -0.0699385 0.135819 -0.601233 -0.112589
-0.621562 0.371749 -2.42609 -0.122756 -6.61173 -0.692257 0.126841 0.641098
-0.196036 0.0280142 -0.335779 -0.437676 0.432885 -0.192703 0.00438373 -2.10056
-0.120177 -0.882537 0.129798 0.13456 0.274367 0.116356 1.03562 -0.11493
-4.60807 -2.19765 0.0469149 -0.472028 -0.32215 -0.232857 -0.0765277 -0.122182
-0.544378 1.09031 -0.2938 -0.810782 1.36429 0.336158 0.126724 -0.225823
0.451782 -0.172242 0.221477 0.353405 -1.50194 0.00829146 -0.337572 -0.372375
0.106392 -0.835185 -0.0216475 -0.190664 -1.14335 -0.565587 -1.21574 -0.169935

layers.12.bias f4 [5]
00000000: caf3 aabc 94d9 a0bc ec02 943c 5096 90bc
00000010: 4a4a 953c
-0.0208682 -0.019635 0.0180678 -0.0176498 0.0182239

layers.12.weight f4 [5, 50]
00000000: fadf c03d 53ec a83c 4f51 3a3d 52f3 55bc
00000010: 9295 9f3c b1d8 8bbc 4fb1 6abc a488 cc3c
00000020: 8ced 9a3d e516 8cbb 917e b93b fae3 c73c
00000030: 2b29 c13b 696e e8bb 6362 23be 907f 0dbc
00000040: a8eb bf3c 641e 533a cebd cdbb 4af2 bbbb
00000050: e826 983b 4c78 f83c 9902 e33c 99c6 a53c
00000060: cb52 063d f8a9 2a3c 2f25 1e3c 1443 4dbc
00000070: 1178 1b3d 3521 523c 6f51 4bba 1be1 023b
00000080: d604 ac3c e54f 8a3c d0d2 d53c 7173 2a3c
00000090: ec8d 35bc 28fa 323c f524 fa3b 6e47 5dbb
000000a0: 0985 ed3c b593 da3b 6143 263c 84e2 fd3c
000000b0: d743 85bc 2c4c 7a3d 634a 7f3c 2271 0f3d
000000c0: 36bb 443d 6060 313d cb1f 21bc d6a6 963c
000000d0: 661a 483d 28e0 cdbc 9146 64bb 34b7 67bc
000000e0: 840e 3a3c 9c5a ec3b f70f 983c b6c9 d73c
000000f0: 2db6 043d 0f6b 60bc 1076 0a3d 0552 a23c
00000100: 1909 883c 9aa5 ae3c 440d f03c 169a 35bc
00000110: 4099 d0bc 3336 153b 9029 c43c 7ee7 723c
00000120: d8b1 f63c ca5c 8f3c b1ba 3cbb cd63 83bb
00000130: 890c ebbc 5175 bebc c8b4 74bb 1d77 e53c
00000140: 6b6c 0a3d 0428 9d3b da0f e73c 2876 be3c
00000150: 177e f03c a28e 62ba e218 eebc 4a6a f8bb
00000160: 9a3c ca3c b7a6 ef3c 94a7 8bba e7df aebc
00000170: 901f 603c e757 903b 1326 4ebb 3c82 603d
00000180: f35c f83a 03f0 0a3d 3cf4 3d3d ab22 3c3d
00000190: 9158 cc39 5d12 8c3c 38e8 213d c3fc 4bbc
000001a0: 16df eb3c ee54 cabc 8fe8 79bc 46fa e33c
000001b0: 1708 a73c 77d6 6e3c 13fb 1a3d 51fb 883c
000001c0: f7e0 5abc 4b71 fa3b 121d 38bb 8518 58ba
000001d0: 1067 b43c 78be 153d 98b5 5e3c 7b0e 51bc
000001e0: 39a2 35bb fc55 c03c 29d0 c2bc 516d 0b3d
000001f0: d7ec f13b 2d83 83bb 1be2 4cbb 0a52 23bc
00000200: 2a68 453b 760f bbbb e5c8 143d b176 f039
00000210: 131b a23c 2cd8 863c 9405 823c bd51 2b3d
00000220: 3e09 47bb 6e18 c33a f162 c63c f696 13bc
00000230: f267 b23a e2c1 603c 995b 0b3d 6528 dd3c
00000240: 0404 0ebd d8d3 0e3d 3fa4 843c 10f4 063d
00000250: 83da 2f3d 00e0 3d3d c396 bcb8 cd06 b43c
00000260: d95a 3f3d 64ef 9c3a 793e 83bc a9cc 83bb
00000270: 58c4 95bc 0893 ff3b 2c63 853b b40e 1d3d
00000280: 2155 da3b 9d32 f13b 8afa 093d d6a7 9c3c
00000290: 3bbf 2cbb 7585 c83c 35e2 72bb bba5 cbbc
000002a0: ef3b 063d 4f12 c13c ad5f 7a3d 4c9c a63c
000002b0: 53b4 2d3d eb06 063c c2ca d73c 55d3 dabc
000002c0: fb49 ab3c 2153 a13b 8d6c be39 48b2 7dbc
000002d0: be44 e13c 76cf f03c 2362 b13b ae18 853b
000002e0: 5457 be3c ed7c 85bb 6533 4cbd 3fb4 493b
000002f0: 2b26 003d 0d40 d93c b55f eb3a 2739 18bc
00000300: 8d83 063d 7e20 943c e868 933b 1522 fb3c
00000310: ec07 2b3c b2a0 303c bd4b 733c a980 603d
00000320: 4ff6 d1b9 ad05 ec3c 1697 143d eaee b6bb
00000330: 0783 263d 2993 9abc 0f71 bdbc fc62 403d
00000340: a76f 3e3c 4877 4c36 931c f03c 3665 d439
00000350: 9f71 06bd a27a eb3b 8f84 7cba abc8 cdbc
00000360: b7d3 563c 75f9 603d e9a6 03bd e06f aabc
00000370: 28f5 40bc ec1c 9e3c 13be 12bd 3f03 053d
00000380: 976c 023c 1016 a13a 2723 783c 93ab 98bc
00000390: 5ee9 843b 5a75 67bc 751a 0e3d c4af 58bc
000003a0: a885 373c 9bd2 113c 62c8 a03c 8a99 783d
000003b0: bb37 503c 4a41 373b 3fe2 d73c 0f74 bc3b
000003c0: d217 c63a 8f5b 823c 791f c73c b6eb 4f3d
000003d0: 73b7 30bd ba0c e43c 5570 533c 6a7d 9b3c
000003e0: 91fb 0c3d eccc 333d
0.0941772 0.0206205 0.0454877 -0.0130585 0.0194805 -0.0170711 -0.0143245 0.0249675
0.0756484 -0.00427519 0.00566084 0.0244007 0.0058948 -0.00709324 -0.159555 -0.00863637
0.0234278 0.000805354 -0.00627873 -0.00573567 0.00464331 0.0303308 0.0277112 0.0202363
0.0327938 0.0104165 0.00965242 -0.0125282 0.0379563 0.0128253 -0.000775597 0.00199706
0.0209984 0.0168838 0.0261015 0.0104035 -0.0110812 0.0109239 0.0076338 -0.00337645
0.0289941 0.00667044 0.0101479 0.0309918 -0.0162677 0.0611078 0.0155817 0.03502
0.0480301 0.0433048 -0.00983424 0.0183901 0.0488533 -0.0251313 -0.00348321 -0.0141428
0.011356 0.00721295 0.0185623 0.0263413 0.0324003 -0.0136974 0.033804 0.0198145
0.0166059 0.0213192 0.0293032 -0.0110841 -0.0254637 0.00227679 0.0239456 0.0148257
0.0301141 0.0175003 -0.00287978 -0.0040097 -0.0286925 -0.0232493 -0.00373392 0.0280109
0.0337948 0.00479603 0.0282058 0.0232497 0.029357 -0.000864247 -0.0290646 -0.00758103
0.0246871 0.0292543 -0.00106548 -0.021347 0.0136794 0.00440501 -0.00314558 0.0548117
0.00189486 0.0339203 0.0463755 0.0459315 0.000389759 0.0170986 0.0395281 -0.0124504
0.0287929 -0.0246987 -0.0152532 0.0278293 0.0203896 0.0145775 0.0378371 0.0167214
-0.0133593 0.0076429 -0.00280935 -0.00082434 0.0220218 0.0365586 0.0135931 -0.0127598
-0.00277151 0.0234785 -0.0237809 0.0340398 0.00738297 -0.00401344 -0.00312627 -0.00996829
0.00301219 -0.00570863 0.0363244 0.000458648 0.0197883 0.0164605 0.0158718 0.041826
-0.00303705 0.00148846 0.0242171 -0.00900816 0.00136113 0.0137181 0.0340229 0.0269968
-0.0346718 0.03487 0.0161916 0.0329476 0.042933 0.0463562 -8.99262e-05 0.0219759
0.0467175 0.00119732 -0.016021 -0.0040222 -0.0182821 0.00779951 0.00407066 0.0383441
0.00666298 0.00736077 0.0336862 0.019123 -0.00263591 0.0244777 -0.00370611 -0.0248593
0.032772 0.0235683 0.0611264 0.0203382 0.0424083 0.00818036 0.0263418 -0.0267121
0.0209093 0.00492324 0.000363205 -0.0154844 0.0274986 0.0293958 0.00541331 0.00406178
0.023235 -0.00407373 -0.0498537 0.00307776 0.0312864 0.0265198 0.00179576 -0.00929097
0.0328403 0.0180819 0.00449859 0.0306559 0.0104389 0.0107805 0.0148496 0.0548102
-0.000400471 0.0288113 0.0362769 -0.00558268 0.0406523 -0.018869 -0.0231252 0.0469694
0.0116233 3.04678e-06 0.0293105 0.000405112 -0.0328232 0.00718625 -0.000963279 -0.0251201
0.013112 0.0549254 -0.0321416 -0.0208053 -0.0117772 0.0193009 -0.0358258 0.0324738
0.00796046 0.00122899 0.0151451 -0.0186365 0.00405614 -0.0141271 0.0346932 -0.0132255
0.0112013 0.00890031 0.0196268 0.0606933 0.0127086 0.00279625 0.026353 0.00575114
0.00151133 0.0159128 0.024307 0.0507619 -0.0431437 0.0278381 0.0129052 0.0189807
0.0344196 0.0438966

layers.2.bias f4 [50]
00000000: 0abd 56bf 5b5c e3be 54a7 3f3f c763 86be
00000010: 0116 413f 16a7 363f 740d fb3e efca 4a3f
00000020: 5185 633f e02e eb3e 2252 33be 6230 733f
00000030: c1c6 6dbf cb85 f2be 74ec e03e 4b98 23bc
00000040: 5aba b2be 0950 073f e203 d33e ba2e 303f
00000050: c559 753f 6683 acbe 5280 c8be 9755 16bc
00000060: 4a22 a0bc 747e b2be 5c1d e8be 3b01 45bf
00000070: 9aec 17bf 6458 a5be a2b8 6bbf e9d6 933e
00000080: cbba 73bf 1fbc d6bd f20c 96bf f050 8cbf
00000090: 76e0 b4bf 46b6 533e 4982 98be a1f3 8ebf
000000a0: a208 65bf bcea 213e 4b3a 1ebf 302c cfbe
000000b0: 4b02 9cbf 7dca 19bf fb96 89bf ddce 2abf
000000c0: 1440 09bf c9ca e7be
-0.838822 -0.444064 0.748647 -0.26248 0.754242 0.713487 0.490337 0.792159
0.888753 0.459342 -0.175118 0.949957 -0.928814 -0.473677 0.439304 -0.00998504
-0.349078 0.528565 0.412139 0.688213 0.958401 -0.33694 -0.391604 -0.00917568
-0.0195476 -0.348621 -0.453349 -0.76955 -0.593454 -0.32294 -0.920786 0.288749
-0.952069 -0.104851 -1.17227 -1.09622 -1.4131 0.20675 -0.297869 -1.11681
-0.894663 0.158122 -0.618077 -0.404634 -1.21882 -0.600746 -1.07492 -0.667219
-0.536134 -0.452719

layers.2.weight f4 [50, 50]
00000000: 9961 43be 4f86 f8bb b478 bcbd 4aef 8b3f
00000010: ec6a a23e 81ec 17c0 a25e 703e 8290 0cbe
00000020: e44e 213f de02 b93f 1d91 efbd 7496 09be
00000030: 0f29 e6be fa41 55bf 5359 2c3f 9c89 493e
00000040: 03d0 18be 6b62 213f b54c 48bb 564a 3f3f
00000050: afe3 e4bc c921 4e3f a968 a43e 35ee bd3e
00000060: b4ad d63e 92d6 9e3d 26fb efbe 008f 80be
00000070: 9321 20bc e3a4 183f cbb9 1640 09e1 893f
00000080: f6d2 2cbf 5474 e4bd d3c1 86bf ec31 f93e
00000090: 10cd 5cbd 884b 563f 83a4 2f3e 3194 0b3f
000000a0: c22f 45be e42c 843f c6fc 1c3e 2cbc 93bf
000000b0: 578d 2fbd da1f a03e 308d 353d 73f9 ea3c
000000c0: 6020 4cbf 520a f23e 2386 613f 3142 d0bf
000000d0: 1cef 26bf 4c38 b4be beda c13e 47a5 9dbd
000000e0: 5c3d 573e 5d4f 443e 8752 db3d 3209 92bd
000000f0: 87fd 1a3f 5e2f cd3e 4cc3 703f 1f0b 563d
00000100: 865a 8bbf 5131 b6be b323 65be 94f6 8e3f
00000110: 17ef 37bf 5a47 913f 59be 8ebe cb48 0d3f
00000120: 74b5 fd3e 3447 123f 78d1 77be 9dd6 cd3d
00000130: 13d5 97bf 9b62 b43d 9ed3 ecbc 3985 503d
00000140: 7975 ea3f ceaa 2f3f bd6f ccbe 0b60 ea3d
00000150: 55c2 633f aefc 48bd f700 11bf 8885 12bf
00000160: a2d0 123e 5457 92bf 3d9a 3abf df13 703d
00000170: 9258 3e3f 9489 2b3e e085 4d3f 3a22 733f
00000180: 3b5d ccbc 8909 923e 18ee 2cbe 105d 203f
00000190: 302e 653e 8bc3 dd3f 73d7 aabe 7a36 cb3d
000001a0: 795c 043e c559 013f 882f f33d ff1d a6bd
000001b0: c3f5 88be 2a01 213e 6de4 aa3e 5e47 2c3e
000001c0: 5935 00bf 0fc2 92bd be2e 333e e077 9dbc
000001d0: 0b7d 10be f1d9 363f e38e 5fbf c4d1 a5be
000001e0: 842e 9cbd a41b 15bf e31a d7be 393c 993d
000001f0: da5f c1bd 98dc 083e 0af2 073f ab97 1f3e
00000200: 0386 3bbd 7559 bcbf da55 48be 7979 66bf
00000210: db52 77be 01c1 1c3d a438 77be 7c9d 24bf
00000220: 74b4 5e3f 3735 64bf 32e4 a0be c32a e63e
00000230: 5083 b33d 643c 2a3d 0306 49be db15 3a3e
00000240: 5cff 2e3e 6ad9 2ebf e0bf 94bc 9dda 913e
00000250: 123a 5ebd d13f 8dbf 4295 92bf ed91 a73d
00000260: 9885 66be 2bfb 963f de8e 68bf 1cf1 8fbd
00000270: 3064 793f f836 0340 7d41 833e 5377 053f
00000280: 8885 3abe 26e0 973c a73b 973e 75c7 4e3f
00000290: e9d4 c9bf e1b4 acbf 8bf1 2bbd 4a7b 933f
000002a0: 399c 29be cd04 0bbf 9dd5 5a3f 376f 1c3e
000002b0: 85b5 81be c164 b43d 3144 eebe 2fdc 493e
000002c0: 48fe 203f a4c7 a33f 6f12 7f3b e9f0 a83e
000002d0: c009 4fc0 cd78 dbbe 3066 b3be a5d8 593f
000002e0: 698b 733f 7a6c 4b3c 9ab1 003f c87b b13f
000002f0: 98f7 68be 535a 1fbe 1fda 5f3f 3fab 783f
00000300: 6f5a ca3d f48b a2be 9790 cf3d 1d27 00bd
00000310: 8981 89bc 7440 6a3f 0b61 8dbe fb20 1bbe
00000320: 041c 163f 6e2c 4dbc b01b ae3e ec86 e13f
00000330: 53e7 f9be d104 12bf aa27 933e 55c3 59bd
00000340: 3b54 f33d 1bf2 1fbf 8cd6 793f 0812 653d
00000350: 4ce0 66be f0fc d2be 328f 8cbf 614f 8bbe
00000360: d3da 543f 118d 963f dd79 82be 8a3e 43bf
00000370: 7ec6 55bf ae64 87bf dcda 6ebf b5a3 d83d
00000380: 25ec 83be f94a c0be 1763 303e 13d4 043f
00000390: 283e c6bb 0859 f6bd dc9d 153f df36 bb3e
000003a0: 7fdc 0ebe 2193 84bf edb6 a3be a96c 08be
000003b0: 2cd4 1abe 39a2 96bd fef1 7ebe 4df9 003e
000003c0: 3bc2 293e 74d2 0bbe 9cdf e0be fa25 02bf
000003d0: b446 b3bc de56 6abe ec2f 1b3d 5978 cd3c
000003e0: ebad c13f 096b 73be 5d33 e9be 32c5 623b
000003f0: 4963 18bf 459f 033f 1fa0 d3be a264 cd3b
-0.190802 -0.00758437 -0.0920271 1.09324 0.317222 -2.37381 0.234736 -0.13727
0.63011 1.4454 -0.116976 -0.134363 -0.449532 -0.833038 0.673238 0.196814
-0.149231 0.630408 -0.00305633 0.747228 -0.0279406 0.805203 0.321111 0.370958
0.419294 0.0775577 -0.468713 -0.251091 -0.00977363 0.596266 2.35509 1.07718
-0.675094 -0.11155 -1.05279 0.486709 -0.0539065 0.83709 0.171526 0.54523
-0.192565 1.03262 0.153308 -1.15418 -0.0428594 0.312743 0.0443241 0.0286834
-0.797369 0.472735 0.880953 -1.62702 -0.652086 -0.351992 0.378622 -0.0769754
0.210195 0.191709 0.107091 -0.0713066 0.605431 0.400752 0.94048 0.0522567
-1.0887 -0.355845 -0.223769 1.1169 -0.718492 1.13499 -0.278796 0.551892
0.495525 0.571399 -0.24201 0.100507 -1.18619 0.0880787 -0.0289095 0.0509083
1.83171 0.6862 -0.39929 0.114441 0.889684 -0.0490691 -0.566421 -0.57235
0.143374 -1.14329 -0.728916 0.0586127 0.743539 0.167517 0.802824 0.949741
-0.0249468 0.285229 -0.168877 0.62642 0.223809 1.73253 -0.333675 0.099225
0.129259 0.505276 0.118743 -0.0811119 -0.2675 0.157231 0.333774 0.168241
-0.500814 -0.0716592 0.174983 -0.0192222 -0.141102 0.714263 -0.873274 -0.323866
-0.0762606 -0.582453 -0.420127 0.0748219 -0.0944211 0.133654 0.531037 0.155852
-0.0457821 -1.47148 -0.19564 -0.900291 -0.241527 0.03827 -0.241427 -0.643028
0.869941 -0.891437 -0.314241 0.449545 0.0876528 0.0415615 -0.196312 0.181724
0.170896 -0.683005 -0.0181579 0.284871 -0.0542546 -1.10351 -1.14518 0.0818213
-0.225119 1.17954 -0.90843 -0.0702841 0.974185 2.05023 0.256359 0.521352
-0.18215 0.0185395 0.295377 0.807731 -1.57681 -1.34927 -0.0419784 1.1522
-0.165635 -0.543042 0.854822 0.152768 -0.253338 0.0880828 -0.465364 0.197129
0.62888 1.27953 0.00389209 0.329963 -3.23497 -0.428656 -0.350389 0.850962
0.951346 0.012416 0.50271 1.38659 -0.227507 -0.155618 0.874422 0.971363
0.0988053 -0.317474 0.10135 -0.0312873 -0.0167854 0.915046 -0.276131 -0.151493
0.586365 -0.0125228 0.340055 1.76193 -0.488093 -0.570386 0.287412 -0.0531648
0.118813 -0.624788 0.97593 0.0559254 -0.225465 -0.412086 -1.09812 -0.27209
0.831464 1.17618 -0.254836 -0.762673 -0.83506 -1.05776 -0.933027 0.105781
-0.257661 -0.375572 0.172253 0.518861 -0.00604989 -0.120287 0.58444 0.365653
-0.139513 -1.03574 -0.319755 -0.133227 -0.1512 -0.0735516 -0.24897 0.125951
0.16578 -0.136545 -0.439206 -0.508392 -0.0218843 -0.228847 0.0378875 0.0250818
1.51312 -0.237713 -0.45547 0.00346024 -0.595265 0.514149 -0.413331 0.0062681

layers.4.bias f4 [50]
00000000: 897e 693f 43ad 8dbf df19 0d3e 8480 2cbe
00000010: 834c b6bf e081 493f 4720 febd 20d2 af3f
00000020: 9fd7 0cbc 09e0 26bf 0ce5 143e adb2 853d
00000030: 8754 acbd c4ac 3cbc 3ba9 7fbf b0ad 5f3e
00000040: 8178 013f dd95 11bf a526 cbbc 6c24 09be
00000050: a94e 87bc af3f 71bf b519 87be 91f2 433f
00000060: 6f0c e1bd 8880 53bf 5ce5 c93e 7100 e5be
00000070: c9e8 983e e3e0 72be db6a 0a3f 8140 37bf
00000080: 2dce 283f 0dc4 92be c096 7fbf 5c30 c2bc
00000090: 9c8c 5abe 2bd9 a93e a890 5bbf ac39 b0bf
000000a0: 813f 74bf 5de6 cfbc a7b1 fd3c 39d4 3fbf
000000b0: 6486 873d 3771 12bd 57f3 b7bc 520c 04bf
000000c0: de75 22bf 3ab1 87be
0.912087 -1.10685 0.137794 -0.168459 -1.42421 0.787138 -0.124085 1.3736
-0.00859633 -0.651856 0.145405 0.0652822 -0.0841456 -0.0115158 -0.998676 0.218436
0.505745 -0.568693 -0.0247987 -0.133928 -0.016517 -0.942378 -0.263868 0.76542
-0.109887 -0.82618 0.394328 -0.447269 0.298651 -0.237186 0.540693 -0.715828
0.659396 -0.286652 -0.998394 -0.0237047 -0.213427 0.331735 -0.857676 -1.37676
-0.954094 -0.0253784 0.0309685 -0.749332 0.0661743 -0.0357525 -0.0224549 -0.515813
-0.634611 -0.265024

layers.4.weight f4 [50, 50]
00000000: 1b2a 963e d6e6 5fbe 4297 0cbf dc63 693e
00000010: 280f ebbd 23f3 e83d 1a89 90bd 80a0 b73c
00000020: 2636 433f eb6e 433d 5453 02be 2274 5f39
00000030: a65e afbe b32b 683d 5a15 ac3d 0fe8 1bba
00000040: 43cd cb3d 193b e13d b81d 5a3e 05b8 aa3d
00000050: 92cb 87be 69ff 43be f5f1 203e da64 03bd
00000060: 7425 863b 9966 3abe ca33 a73e 09e0 b6be
00000070: f609 243f e09d 5c3e 2239 49be ecf6 f93d
00000080: 0c91 533e b682 fe3e 79ce 06be 0733 d83b
00000090: a6d2 afbe c3f0 f1bd 79f0 aebc 26ab cabe
000000a0: 23a2 183d 6615 9e3e f40f 0c3d d07b 13be
000000b0: 4eb9 9abe 0839 0fbe 9853 dd3c 36cc 803e
000000c0: 78ec b7be f019 f13e 4aef 9f3f a852 8b3f
000000d0: 022a bc3e f3ab 81be 5378 203e cc7b bc3e
000000e0: ceff abbe 6bbb 29be 0f28 1b3e eb1b f8bd
000000f0: 1bbc 473f 3dd5 91be eba8 a6bf 2977 c73e
00000100: b3ee df3d 9b95 28bd 9560 a93e 6d73 873f
00000110: 9180 d9be 3fc6 dcbd cc0c fbbe 8123 553f
00000120: 419c 8f3e aa4a 36bc a131 33bd a67d 9b3e
00000130: 37fd 793e f339 ff3e 9c86 183e 0188 e33e
00000140: e9d5 e0bd ca87 203f f3ab 853f 9695 663e
00000150: f08a 40c0 4375 ab3e f0fd 85be bebc 14bf
00000160: 77bb 56bf 51ba 19bd 2031 303d 7e16 f0bc
00000170: bf2b d23e b248 2bbf cac3 92be 855f 02bf
00000180: 2425 513f 4cc5 1a3f be1c 51bd 25ad f83e
00000190: bb45 043f 4819 413e f697 1d3e f90a 8c3d
000001a0: 0e30 b3bc 4339 c13e 62be a4be 7191 1fbf
000001b0: b222 b43d f88a 96be c603 b03d 695d 1ebd
000001c0: 35d3 4dbe a3ad e2be 6f9f 7d3f 6a1d 30bd
000001d0: fb3e 2cbe 359a ccbe 7df3 71bd cceb 583e
000001e0: 14e1 70bc 26fc eabe 4416 81be e826 fbbc
000001f0: d74a 8d3c a0e0 223e 25ad a83e a530 ff3e
00000200: 0b41 86be b8e9 7f3e 2576 8d3e d76a d7be
00000210: f12d dcbe 9f71 113e 7ef9 693d ff3f 6ebe
00000220: 2444 29be 72f3 123d d7f6 863e bff2 003e
00000230: 2997 963e a76c 823d 213a c4bc 50c5 3dbe
00000240: cf84 e63e 6005 183e a1ba 19bf 2575 3abf
00000250: ed7b c93d 6a1a 9fbd 40fb 05bf 62a1 96bf
00000260: 4625 753e d592 963e b0a8 edbc 3ca3 953e
00000270: e0b4 45bd 3be0 8a3e 58ae f73d cd93 ebbd
00000280: 89cf 5dbe 56f1 fe3e 7a1d c13e 2909 21bf
00000290: 69e5 4e3e cab3 21bd 350d 8a3e 00aa 78be
000002a0: eba7 2fbe 90a3 2dbf bfd2 293f 9696 c9be
000002b0: eb99 b4bd d3ca f33c 674e 323d fa46 a43e
000002c0: 2bfc a13e 11df 91bf 62a1 f63d d871 323c
000002d0: 1f4d 8dbe 8943 76be 7a6d 06be bce7 64bf
000002e0: 35ef d0be 5516 adbe 577a 41bf 19fe 5fbf
000002f0: 6418 7cbd 6a14 323e d42c 50be 9296 0a3f
00000300: 7446 543e cdce 42be dead ec3d b1fb f63e
00000310: 7a42 653c 7c9d 043e 4c89 d43e 200c 2cbe
00000320: 7d79 94c0 4147 1b3e 8334 233e 81e9 44be
00000330: 9e40 b83e 8f70 c2be 2d65 a43d ceff c33e
00000340: 685c 343f 014c d9be 7f50 af3e ef8f 1b3f
00000350: 6878 03bf 2f51 01bf fe81 223f ebd1 8a3c
00000360: acaf 89bc ad6e f5bd 4488 3bbe 3123 5cbe
00000370: 4cfc 313d 626a 13bf dc0d 76bf e831 8abc
00000380: c842 153c ff09 663f cd1f 533e 319a 35bf
00000390: 6ad9 aebf de3d a03e 1422 80be c0ae 063e
000003a0: 0edc 61be 09f9 a83e bbb5 74bf 8a94 163e
000003b0: 276c 233f e415 383e d61e 663e 132c 523f
000003c0: d55c 6ebe 9373 e23e 325a c73e bd55 373e
000003d0: 87e0 c03e be11 f5be 4552 b1bd cff5 7d3f
000003e0: b51a 5ebf 1aa7 e13d 59bf 393f fe9c e2bd
000003f0: ead1 0e3c ba15 62bd 2dec 853f 6762 dabd
0.29329 -0.218654 -0.549183 0.22792 -0.114775 0.113745 -0.070574 0.0224154
0.762545 0.0477132 -0.127271 0.000213102 -0.342519 0.0566823 0.0840251 -0.000594736
0.0995126 0.109976 0.213004 0.0833588 -0.265225 -0.191404 0.157173 -0.0320786
0.00409382 -0.182032 0.326567 -0.357178 0.640777 0.215446 -0.196507 0.122053
0.206608 0.497091 -0.131647 0.00659788 -0.343404 -0.118135 -0.0213549 -0.395837
0.037264 0.308757 0.0341949 -0.144027 -0.302195 -0.139866 0.0270174 0.251558
-0.359226 0.470901 1.24949 1.08846 0.367508 -0.253265 0.156709 0.368132
-0.335936 -0.165754 0.15152 -0.121147 0.780214 -0.28483 -1.30203 0.389581
0.109342 -0.0411583 0.330815 1.05821 -0.424809 -0.1078 -0.490332 0.832573
0.280489 -0.0111262 -0.0437485 0.303693 0.24413 0.498489 0.148951 0.444397
-0.109783 0.627072 1.04431 0.22518 -3.00848 0.334879 -0.261703 -0.581005
-0.838798 -0.0375312 0.0430156 -0.0293076 0.41049 -0.669078 -0.28665 -0.50927
0.816973 0.604573 -0.0510528 0.485696 0.516689 0.188573 0.1539 0.0683803
-0.0218735 0.37739 -0.321765 -0.623313 0.0879568 -0.294029 0.0859447 -0.0386633
-0.201001 -0.442731 0.990714 -0.0429968 -0.168209 -0.399614 -0.0590701 0.211837
-0.0147021 -0.458955 -0.252123 -0.0306582 0.0172476 0.15906 0.329446 0.498418
-0.262215 0.249915 0.276292 -0.420737 -0.430038 0.142035 0.0571227 -0.232666
-0.165299 0.0358767 0.263602 0.125926 0.294122 0.0636838 -0.0239535 -0.185323
0.450232 0.148458 -0.600504 -0.72835 0.0983809 -0.0776871 -0.523365 -1.1768
0.2394 0.294089 -0.0290111 0.292261 -0.0482682 0.271242 0.120938 -0.115028
-0.216612 0.497935 0.377178 -0.629046 0.202047 -0.0394781 0.269632 -0.242836
-0.171539 -0.678277 0.663372 -0.393727 -0.0881842 0.0297598 0.0435318 0.320854
0.316377 -1.13962 0.120425 0.0108914 -0.275979 -0.240492 -0.131277 -0.894161
-0.408075 -0.338061 -0.755773 -0.874971 -0.0615467 0.173906 -0.203296 0.54136
0.2073 -0.190242 0.115566 0.482389 0.0139929 0.129507 0.41511 -0.168015
-4.63983 0.151639 0.15938 -0.192297 0.359868 -0.379765 0.0802711 0.382811
0.704535 -0.424408 0.342411 0.607665 -0.513556 -0.505145 0.634796 0.0169458
-0.0168074 -0.11984 -0.183137 -0.214978 0.0434535 -0.575842 -0.961149 -0.0168695
0.00911016 0.89859 0.206176 -0.709384 -1.36601 0.312972 -0.25026 0.131526
-0.220566 0.330025 -0.955898 0.147051 0.638369 0.179771 0.224727 0.820985
-0.232776 0.442288 0.38936 0.179038 0.376713 -0.478651 -0.0865827 0.992032
-0.867595 0.110182 0.725576 -0.110651 0.00871704 -0.0551965 1.04627 -0.106633

layers.6.bias f4 [50]
00000000: 4eb9 aa3e 2fa3 a83e ae2e cf3e 45d9 6bbf
00000010: 0bf1 a8be f0f9 e9bf 1cab 79bd 78b4 27c0
00000020: 4547 a63f baa2 dc3e d179 91bf 55d7 c63c
00000030: 7c65 0e3e e8a4 09c0 da8d ee3e 179a 83bf
00000040: 0d1b c53e db6d c7bf d2bc 2dbd a670 8ebc
00000050: 3f52 303f 3f6f ea3e 5665 0bbf 9e95 d43d
00000060: a577 1ebc e696 26be 2c48 bbbe 8ab0 85bf
00000070: 7992 0640 938c 74c0 4c6c 81c0 8cd7 f4be
00000080: fc35 a5bf 8f36 223f 0647 a1bf 942e 7d3f
00000090: bed9 2cc0 e292 03bd fdbf 4a3e a6f1 2b3f
000000a0: 0fcc 76bd 105d ccbf b263 b3bf 666b 4bc0
000000b0: a3e9 a0bf 71af f43e 6c95 e8bf 66bd 8c3f
000000c0: 562b 8fbf f67a 9bbf
0.333445 0.32937 0.404653 -0.921284 -0.329964 -1.82794 -0.0609542 -2.62039
1.29905 0.430929 -1.13653 0.0242726 0.139059 -2.15069 0.465926 -1.02814
0.384972 -1.55804 -0.0424164 -0.0173877 0.688755 0.45788 -0.544515 0.103801
-0.00967208 -0.162685 -0.365785 -1.04445 2.10269 -3.82108 -4.04447 -0.478207
-1.29071 0.633645 -1.25998 0.988992 -2.70079 -0.0321225 0.197998 0.671656
-0.0602532 -1.59659 -1.40148 -3.17843 -1.25713 0.477901 -1.81706 1.09953
-1.11851 -1.21469

layers.6.weight f4 [50, 50]
00000000: e63c 8b3e ad13 033f 105d d83e 8a7e 03bd
00000010: f5f7 52be 8a57 c93e 3be5 4d3f f65e bc3e
00000020: 9e87 493c 739e 413e d882 4e3e 28d6 1d3f
00000030: aa54 dabc e157 76bb bb28 a23e 88a0 f23e
00000040: 5545 1dbc 9e40 583e af9d 03bd 2826 943c
00000050: fd2e ec3c 035b e5bf 350c 5fbe 6490 d3be
00000060: 28b7 1d3e 95b9 91be 672b 1fbe 66db f13e
00000070: fc18 33be 3606 d5be 2537 af3c 1e6e e7be
00000080: 8482 f23e 9b3d 9c3f 26df 12c0 e9bb b6bc
00000090: c632 85be 3d81 703e ebfd 763e db86 a13e
000000a0: 0058 8d3e af71 873c 9e3f a5be 5f70 87bd
000000b0: b6b9 3d3f 96e8 d13c ad8a 4b3c e4bb 443f
000000c0: 5ef4 253f 4237 05bd 051a 7c3e 2286 c2bc
000000d0: d388 293e 3dc0 aebd 1486 c73d 3d39 943c
000000e0: 2172 9fbc 53ae 953b 1c15 6e3c 2f69 2cbe
000000f0: e3d6 be3d 431a babc fb9b 463d fc03 233c
00000100: d174 8b3d 26e3 08be 257a 19be 01e0 333d
00000110: 75fa cb3c e929 f2bd 9979 57bd 3f48 e03c
00000120: bfea 0dbd 85f3 643d d15d f23d 7632 88be
00000130: 0955 a5bd c05f 6cbe e57a 5bbe bda6 ccbd
00000140: cd1f 53be 7572 9b3d 17f4 7ebe fc6f 153e
00000150: 74ce cfbe 78ea b6bc 2577 18be f6b7 afbd
00000160: 9416 1ebe 5ccc ef3d a7de 4cba bdcb 20bb
00000170: 2e75 303e 0221 83bd f447 b23d 8101 293d
00000180: aaf7 2f3d 1dc0 6c3c 11df ae3c f591 6abd
00000190: 7235 b23e 5c01 8d3e 56b8 8dbe 2d79 dc3e
000001a0: 90d9 293e e135 1c3c ce28 a73c c9fd 73bd
000001b0: a475 2fbd 560c c73e be3e 29bd 4bcc a3be
000001c0: aad7 25bf 8a90 babb 5518 3b3e 7e8c d9bd
000001d0: 9f6c 343d 7d06 3c3f 1192 20bd dd53 b3bd
000001e0: 8b75 453d eb3a d43d 8cdb 943f 25cd 4f3e
000001f0: ff06 ed3d 97a6 0abc 88d8 e0bd 90c1 0e3f
00000200: c32c f43d 2a87 bbbc e101 2f3c 382f 2ebe
00000210: 31b1 e1be f164 cfbe cfbf 2dbe c988 d53c
00000220: 4dda d4be 5cd2 2cbc 823c f33e 2c47 183e
00000230: c408 213d f0ad c03b 0404 3b3f 6b57 32bc
00000240: a49c c93d 47c8 80bc 7973 183d 5dbf 8c3f
00000250: 8f60 99bc fe9c 9abe 813f 14bf 9609 c33f
00000260: 0740 dcbc 4d15 e0bf 861b e4bf cea5 38bf
00000270: ebe2 a63f 9725 b5bd 9ef6 af3c 889d cd3f
00000280: b493 91bf 643f a3be 2481 1ebf 4919 ccbc
00000290: 861b 903f 84d3 babe 3fe3 d2bf 473d f83f
000002a0: 8b94 1cbd dc9d bdbf 0da7 cc3c ae0d 9d3f
000002b0: 033e dbbf 90dc 62bf c351 c83d ac1b 2fbe
000002c0: 49da 7dbe f8de a73e 87c2 773f 58ff 13bf
000002d0: dfa3 42bf b3f5 a73c 1c2b 9cbd edbb bebf
000002e0: babd 6440 16e7 c13b 3198 dfbe 6c98 3d3f
000002f0: 94bd 113f e640 5fbe 78d3 1d3f ce6d c2bc
00000300: 08e3 ef3e 5e9d b3bd 6bf2 68bf 6452 48bd
00000310: 1a49 073d ea5c 49bf 57ed 5e3f 6aa0 713f
00000320: 1711 a5be 6824 92bd 5001 1c3f 42b2 14bf
00000330: 9417 793e 77da 4a3e 0f97 a03f dcbb 263d
00000340: 5c1b 0f3d a019 94be 3466 c23e 3206 f1bc
00000350: f817 613d 40f1 08bd 7cb6 0abf a5d8 e9be
00000360: ad82 7dbd 9981 8a3c 5893 223d 4276 a63e
00000370: 8a5d 36bc 7cd5 b23e 952b 18bf cffe 9bbc
00000380: 13f4 553b 97e1 0f3f 5070 41bf dd95 b5be
00000390: 7db2 2e3f 6f0c 413f 0876 1c3e 15e2 213e
000003a0: 8ae9 f23e f3fd c93d 1bd8 48c0 4431 f93c
000003b0: 4562 a2bd 8c81 bd3e b4c8 06be b840 02bd
000003c0: db6a 06bf 24d9 3e3d 630c 183f 51c9 bf3d
000003d0: d28b 6abe 1ed4 8f3c 6615 b23a a0dd f9be
000003e0: e882 0ebf 315c cdbe 3cbc b7be fdf6 893f
000003f0: 6363 3e3f 65e4 083f 923f a43f bcb1 1c3f
0.271949 0.512019 0.422585 -0.0321031 -0.206024 0.393246 0.804279 0.367912
0.0123004 0.189081 0.201671 0.616549 -0.0266517 -0.0037589 0.316717 0.473881
-0.00959905 0.211184 -0.0321328 0.0180846 0.028831 -1.79184 -0.21782 -0.413211
0.154019 -0.284619 -0.155439 0.472377 -0.1749 -0.416063 0.0213886 -0.452012
0.473652 1.22063 -2.29487 -0.0223064 -0.260153 0.234868 0.241203 0.315482
0.276062 0.0165337 -0.322751 -0.0661323 0.741115 0.0256236 0.0124232 0.768492
0.64826 -0.0325234 0.246193 -0.0237456 0.165561 -0.0853276 0.0974237 0.0180937
-0.0194636 0.0045679 0.0145314 -0.16837 0.0931833 -0.0227176 0.0484886 0.00994968
0.0680939 -0.133679 -0.14988 0.0439148 0.0248997 -0.118244 -0.0526062 0.0273782
-0.0346477 0.0558963 0.118343 -0.26601 -0.0807286 -0.230834 -0.214336 -0.0999274
-0.206176 0.0759019 -0.248978 0.145935 -0.405872 -0.0223286 -0.148892 -0.0858001
-0.154383 0.117089 -0.000781516 -0.00245355 0.172322 -0.0640278 0.0870513 0.0412612
0.0429608 0.0144501 0.0213466 -0.0572681 0.348064 0.275401 -0.276797 0.430612
0.165869 0.00953433 0.0204052 -0.0595682 -0.0428368 0.388766 -0.0413196 -0.319918
-0.647822 -0.0056935 0.18271 -0.106225 0.0440489 0.734474 -0.0392018 -0.0875623
0.0482078 0.103628 1.16295 0.202931 0.115736 -0.00846257 -0.109788 0.557641
0.119226 -0.0228916 0.0106816 -0.170102 -0.440805 -0.405067 -0.169677 0.0260662
-0.415728 -0.0105482 0.475071 0.148709 0.039315 0.00588011 0.73053 -0.0108851
0.0984433 -0.0157205 0.0372195 1.09959 -0.0187228 -0.301979 -0.579094 1.52373
-0.026886 -1.75065 -1.78209 -0.72128 1.3038 -0.0884506 0.0214799 1.60637
-1.13732 -0.318843 -0.619158 -0.0249144 1.12584 -0.364895 -1.64756 1.93937
-0.0382276 -1.48138 0.024982 1.22698 -1.71283 -0.886178 0.0978122 -0.171004
-0.247903 0.327873 0.967812 -0.578115 -0.760313 0.0205029 -0.0762541 -1.49011
3.57408 0.00591744 -0.436708 0.740607 0.569299 -0.218021 0.616508 -0.023734
0.468529 -0.0877025 -0.909949 -0.0489067 0.0330287 -0.786574 0.870809 0.943854
-0.322396 -0.0713585 0.609395 -0.580845 0.243254 0.198099 1.25461 0.0407065
0.0349382 -0.289258 0.379686 -0.0294219 0.0549545 -0.0334332 -0.541847 -0.456731
-0.0618922 0.0169075 0.0396913 0.325121 -0.0111307 0.349285 -0.594415 -0.0190424
0.00326467 0.562036 -0.75562 -0.354659 0.682411 0.754096 0.152794 0.158089
0.474438 0.0986289 -3.13819 0.030419 -0.079289 0.370129 -0.131625 -0.0318
-0.525068 0.0465938 0.593939 0.0936457 -0.229049 0.0175572 0.00135867 -0.488019
-0.556685 -0.401094 -0.358858 1.07785 0.743704 0.534735 1.28319 0.612087

layers.8.bias f4 [50]
00000000: 3351 50bf bd35 dc3f 26c6 9a3e 6631 9d3f
00000010: de59 0fc0 f706 8fbf 139e 483f 9c4f 293f
00000020: 7cd3 083f 2a1d 84bf ab5b 0140 1a17 ae3f
00000030: ae7e b43e e7c3 1b3f e78c 943f 596c 13be
00000040: 5325 1a3f e1d5 9dbd 82ff 853e 75ab 073e
00000050: 69e5 be3e 207b fd3f c288 4dbf b42c 6ebd
00000060: 6a67 34bf 8d97 22bf 3999 18be 5c5a cd3e
00000070: fab3 a33f baf7 9c3f 4c8e 8bbf d3f6 3f3f
00000080: 0d1d 733f b091 cc3e 8f52 553f 6423 24bf
00000090: bceb 3cbf e126 673f c8ee 7e3f 3d63 7fbf
000000a0: a301 2ac0 df8b df3e 6842 433e da38 9abf
000000b0: 66da 6ebf 6939 58bf efa8 09bf 2c48 bb3f
000000c0: 5ab7 c13e bcb1 443f
-0.813739 1.72039 0.302293 1.22807 -2.23986 -1.1174 0.783662 0.661371
0.534477 -1.03214 2.02122 1.36008 0.352529 0.608458 1.16055 -0.143968
0.602132 -0.0770681 0.261715 0.13249 0.372844 1.98032 -0.802868 -0.0581481
-0.704703 -0.635125 -0.149022 0.40108 1.27893 1.22631 -1.09028 0.74986
0.949662 0.399549 0.833291 -0.641165 -0.737972 0.902937 0.995831 -0.997608
-2.65635 0.436614 0.190683 -1.20486 -0.93302 -0.844626 -0.537734 1.46314
0.378352 0.768337

layers.8.weight f4 [50, 50]
00000000: 9eb5 2b3e 5beb 8b3f 8fc5 863e e42f 95be
00000010: c68b 953e 9c15 c9be bb0b b53b 0800 7ebe
00000020: 677e 55bd 8ab0 413e a73d e53d 86aa 043f
00000030: 74f0 a43e 1c25 77bf 6a6a c13e ead6 46bd
00000040: de02 b9be 882e 98be 5131 cebe 82dd 553c
00000050: bf26 703d 2cf3 16be 3675 8e3e 9b83 11bd
00000060: 7e63 193d 0989 34be f850 2a3f e21e eb3e
00000070: 0cb1 1a3e d190 11be ee21 a1be 2c11 283e
00000080: 65a7 c73e f149 0bbf 33fd 623e 431f f4be
00000090: 92eb 9ebe f776 68bb 82ff 953e a646 883e
000000a0: 58c7 893e 8523 08be bf0b 833e 4000 a43d
000000b0: d61a 6abd 522a e1bd 9a5f cd3c 255b 9d3e
000000c0: c413 f03c d5ec e1bd ea78 80bf e42c d83f
000000d0: 6076 8bbf 0c57 47bf 821f 21bf 80b7 f83f
000000e0: bbd2 823e f241 ffbf 1425 b1be 93f0 ae3d
000000f0: 6c5b 28c0 e910 b8bc d15d 4abf 49a2 db3f
00000100: d76d a0be 2fdb 0ebf 8990 dfbc 2653 9dbf
00000110: bb45 14bf 13a4 883c 6c98 e93e d36a a0bf
00000120: 3c87 623e a4df 9abf 2841 243c a2d2 d0be
00000130: e04c 003f 355e b2bf dc7e 693e 9ab3 7ebe
00000140: 8960 143f e65d f53d 98dd bbbe 3047 1940
00000150: 9faa 253b a8fe f9be f278 b23e a3f3 d03c
00000160: 324b 0c3d e080 36bf 6eca 0b3d de3d 743f
00000170: 9085 e83e a930 16c0 1924 b83d 44fa adbf
00000180: 5261 883f c2f9 f4be 6459 f03e 880d 163e
00000190: 1d93 b53e 7099 abbf a7b0 4ebf 3ab0 7cbe
000001a0: 2a1f 123e 2409 663f 7f85 6c3e ddef 883f
000001b0: 6265 acbe 6073 ce3d 88f5 06be 3239 153e
000001c0: 9564 5dbe 1687 8f3f 2008 40be 2041 c93f
000001d0: 4cdf cbbe d48f 973c 5d7f 5cbc 40d2 b1bc
000001e0: 147d 993c 9e5e 99be 815b 333f 53cc 313e
000001f0: 8098 a93c aa0f e43e 44a2 d0bd 27ab fd3c
00000200: c991 963e 69c7 313f 1d20 bac0 b324 b0be
00000210: 8718 033f cd3f 1a3f 62ac 053d 2ee4 413e
00000220: 5394 6b3e 04af 113d 849a f13e 9b5a bebf
00000230: 0c40 abbe 8b6b dcbd ce6f 1c3f 4f94 18bf
00000240: ce19 21be 105a 973e 41b7 ffbe 30d6 dfbe
00000250: 2463 01bf f4a3 513e 20f7 c83d e275 80c0
00000260: fe7d 80c0 d235 83bf 8c4a 2ec0 ceaa 5bc0
00000270: 7922 283e 44a3 35c0 a340 973f e197 3ec0
00000280: cde9 be3f af08 723f c279 b73d a3cc 8640
00000290: 191c 2f40 ae47 2b40 5b5d ee3d 6a4d 80c1
000002a0: 0b41 a0c0 d3f6 af3c dec8 4ac0 6c3e ba3f
000002b0: b3b5 e2bf 75ec fbbc 0725 8cbc 05fa 1840
000002c0: 780c 533f 85ec ec3e ccf4 a6bc 3d0a c33f
000002d0: ff95 b53f fe60 a83f 8120 70bf 1aa3 a7c0
000002e0: 5f98 14c0 e620 10bf 1a6e 50c0 662c 3f3c
000002f0: 53ae e8bf 780b 8cc0 596d 5ebe 0c93 07c0
00000300: 6477 39bf d09b ca3f b83b 8bbf 16f9 fd3e
00000310: 05e5 ae39 7368 2bc0 4165 ccbf 630b c5bf
00000320: 80b7 58bf 8ab0 853f 95b9 a93e c6c3 fb3d
00000330: 13bb b63e 1f80 8cbf 581a 80be 876d 17c0
00000340: 0729 083f 1f65 103f 4208 a8be 0c1f 25c0
00000350: a09c b23c 3a23 12c0 043b 7ebe 0ea1 82bf
00000360: c234 ecbe 751f a8bf 6935 a03f dec0 8d3b
00000370: ff3e 3dc0 0576 cb3d 3a79 513f c729 3640
00000380: 16fd fcbc cbbb 523f 95ba bcbe f67f b6be
00000390: 64c9 1c3e 809a da3e 1283 0ac0 3cc0 33bf
000003a0: cc63 713f 0668 5b3c a6b8 aa3e 67d2 063f
000003b0: 8aab 10c0 a251 f0bb 41f3 39bd 0052 673f
000003c0: edbb 423f ed2a 18c0 ab81 9c3c 8715 3ebf
000003d0: 556a 863f fb06 063f 1a50 6fbe 9abb a13d
000003e0: 5b60 ff3e c6fd c73e 41c5 a73c 7c29 04bf
000003f0: cc96 143f 6dc5 debd 4537 f1bc 4f90 80be
0.167685 1.09312 0.263226 -0.291381 0.292082 -0.392743 0.00552508 -0.248047
-0.0521225 0.18915 0.111934 0.518227 0.322147 -0.96541 0.377765 -0.0485448
-0.36135 -0.29723 -0.40272 0.0130533 0.0586307 -0.147412 0.278238 -0.0355259
0.0374484 -0.176304 0.665298 0.45922 0.151066 -0.142154 -0.314712 0.164128
0.389949 -0.544097 0.221669 -0.476801 -0.310391 -0.00354713 0.292965 0.266164
0.269099 -0.132948 0.255949 0.0800786 -0.0571545 -0.109944 0.02507 0.307336
0.0293063 -0.110315 -1.00369 1.68887 -1.08955 -0.778672 -0.629387 1.9431
0.255514 -1.9942 -0.345986 0.0854198 -2.63058 -0.022469 -0.790494 1.71589
-0.313338 -0.558032 -0.0272906 -1.2291 -0.579189 0.0166798 0.456241 -1.25326
0.221219 -1.20995 0.0100253 -0.407857 0.501173 -1.3935 0.228023 -0.248732
0.579598 0.119808 -0.366925 2.39497 0.00252787 -0.488271 0.348579 0.0255068
0.0342514 -0.712904 0.0341286 0.954069 0.454144 -2.34672 0.0899126 -1.3592
1.06547 -0.478468 0.469432 0.146536 0.354638 -1.34062 -0.807383 -0.246766
0.142697 0.898577 0.230978 1.06982 -0.336711 0.100806 -0.131796 0.145726
-0.216204 1.12131 -0.187531 1.5723 -0.398188 0.0185012 -0.0134581 -0.0217067
0.0187364 -0.29955 0.700615 0.173631 0.0207026 0.445432 -0.101872 0.0309654
0.294081 0.694449 -5.81642 -0.34403 0.512093 0.602536 0.0326351 0.189347
0.230058 0.0355673 0.471882 -1.48714 -0.334473 -0.107627 0.611081 -0.596013
-0.157325 0.295609 -0.499445 -0.437181 -0.505419 0.204727 0.0981276 -4.01439
-4.01538 -1.02508 -2.7233 -3.4323 0.164194 -2.83809 1.18166 -2.97802
1.49151 0.945445 0.0895877 4.21248 2.73609 2.67625 0.116389 -16.0378
-5.00794 0.02148 -3.16851 1.45503 -1.77117 -0.0307524 -0.0171075 2.39026
0.824409 0.462742 -0.0203804 1.52375 1.41864 1.31546 -0.937996 -5.23866
-2.3218 -0.563002 -3.25672 0.0116683 -1.81782 -4.3764 -0.217214 -2.11835
-0.724478 1.58288 -1.08776 0.496041 0.000333585 -2.67825 -1.59684 -1.53941
-0.84655 1.04445 0.331494 0.122932 0.356896 -1.09766 -0.250201 -2.36606
0.531876 0.564043 -0.328188 -2.58002 0.0218032 -2.2834 -0.248272 -1.02054
-0.46134 -1.31346 1.25163 0.00432597 -2.95697 0.0993462 0.818256 2.8463
-0.0308824 0.823178 -0.368611 -0.356445 0.153112 0.42696 -2.16425 -0.702152
0.942929 0.0133915 0.33344 0.526648 -2.26047 -0.00733395 -0.045398 0.903595
0.76068 -2.37762 0.0191048 -0.742516 1.05012 0.523544 -0.233704 0.0789711
0.498782 0.390608 0.0204798 -0.516258 0.580426 -0.108775 -0.0294453 -0.251101
