resources/models/onnx/acas/ACASXU_run2a_4_8_batch_2000.onnx (onnx, 54456 bytes, 14 tensors)

layers.0.bias f4 [50]
0	0x3d98a8e6	0.0745409
1	0xbccca205	-0.0249796
2	0xbea5eaab	-0.324056
3	0xbeae0ae9	-0.339927
4	0xbd06b816	-0.0328904
5	0xbd691461	-0.0569042
6	0xbe18cb08	-0.149212
7	0xbca9984a	-0.0207025
8	0x3d4a0126	0.0493175
9	0xbec51351	-0.384913
10	0x3cca4e02	0.0246954
11	0xbe977dfa	-0.295883
12	0xbf2e54e7	-0.680983
13	0x3d0fa7a8	0.035072
14	0x3e287011	0.16449
15	0x3e478466	0.194841
16	0x3c8c04bb	0.0170921
17	0x3efb67c3	0.491026
18	0xbe9a2af5	-0.301109
19	0xbc8d101e	-0.0172196
20	0xbe284a0e	-0.164345
21	0xbe26dfc6	-0.162963
22	0xbee2cd18	-0.442971
23	0xbe5a2489	-0.21303
24	0x3da58cb7	0.0808348
25	0xbef25fc8	-0.473387
26	0xbeac8ba8	-0.337003
27	0xbe355001	-0.177063
28	0xbd9208ac	-0.0713056
29	0xbca5f197	-0.0202568
30	0xbe1fc760	-0.156034
31	0xbebad3a6	-0.364896
32	0xbe29118c	-0.165106
33	0xbe9127d4	-0.283507
34	0xbf175e20	-0.59128
35	0xbe46a982	-0.194006
36	0xbc8c3746	-0.0171162
37	0x3e452e73	0.19256
38	0xbc86a825	-0.0164376
39	0xbe136f3b	-0.143979
40	0x3d7622d2	0.0600918
41	0xbe7dcf89	-0.247862
42	0x3d65d689	0.0561128
43	0x3c3b41f5	0.0114293
44	0xbce10782	-0.0274694
45	0xbf38a7c6	-0.72131
46	0xbdb1620d	-0.0866128
47	0xbcbcadd1	-0.0230321
48	0xbd64bfb8	-0.0558469
49	0xbeb79831	-0.358583

layers.0.weight f4 [50, 5]
0	0x3c07e05f	0.00829324
1	0x3d9b6ccb	0.0758911
2	0x3f8b8866	1.0901
3	0xbd7b7b87	-0.0613971
4	0x3e0e7bc4	0.139144
5	0x3b8202fa	0.00396764
6	0xbbc5da55	-0.00603799
7	0xbc81b831	-0.0158349
8	0xbb31f4af	-0.00271539
9	0x3ca28a6f	0.0198414
10	0x3d951fe0	0.0728147
11	0xbfced42c	-1.61585
12	0xbf11a101	-0.568863
13	0x3da02498	0.0781948
14	0xbdec7b89	-0.11547
15	0x3cadc7b9	0.0212134
16	0x3fa5d2f2	1.2955
17	0xbf99d0fa	-1.20169
18	0x3e48765c	0.195764
19	0xbed1804e	-0.409182
20	0xbcb3174f	-0.0218617
21	0x3e1a7547	0.150838
22	0x3ea86163	0.328868
23	0x3e97722e	0.295793
24	0xbea07f45	-0.313471
25	0x3f17d76f	0.593131
26	0x3f34f8c6	0.706921
27	0xbec2a5e8	-0.380172
28	0xbed6ccc4	-0.419531
29	0x3eceb229	0.403703
30	0x3cd75d7f	0.0262897
31	0xbfa706f7	-1.3049
32	0xbe08fcd6	-0.133777
33	0x3f5d6020	0.864748
34	0xbf927f4e	-1.14451
35	0x3c2f082b	0.0106831
36	0x3c0f481c	0.00874522
37	0xbbe07fdd	-0.00685118
38	0xbab8ef4a	-0.00141094
39	0x3c208c68	0.0097991
40	0xbc20f0b1	-0.00982301
41	0xbe6d2dcb	-0.23162
42	0xbf0ed5d0	-0.55795
43	0xbe2785f9	-0.163597
44	0xbe952589	-0.291302
45	0xbd8482d9	-0.0647027
46	0x3f3c895d	0.736471
47	0xbf77fb26	-0.968676
48	0xbdafc09d	-0.0858166
49	0x3e797204	0.243599
50	0xbd924313	-0.071417
51	0x3f670c02	0.902527
52	0xbf6aacc9	-0.916699
53	0x3e44202e	0.191529
54	0xbea1040c	-0.314484
55	0x3dab942b	0.0837787
56	0x3f92f7e4	1.14819
57	0xbf7a24ab	-0.977122
58	0x3dcdfdf0	0.100582
59	0x3c47679e	0.0121707
60	0xbd4b9dde	-0.0497111
61	0xbfe0c7e3	-1.7561
62	0x401148aa	2.27006
63	0xbdf76e61	-0.120816
64	0x3f322856	0.695928
65	0xbc5dd675	-0.0135399
66	0x3d5c22e1	0.0537442
67	0x3d6c0fd9	0.0576323
68	0xbe7f1ae3	-0.249126
69	0xbe80c3f4	-0.251495
70	0xbd8e9821	-0.0696261
71	0x3f17430f	0.590867
72	0xbe27b203	-0.163765
73	0x3f365908	0.712296
74	0xbf2dd367	-0.679007
75	0xbbcf483d	-0.00632575
76	0xbf381eef	-0.719222
77	0x3f7657a8	0.962275
78	0x3eb30b7c	0.349697
79	0xbf32aac1	-0.697918
80	0x3c28ffd4	0.0103149
81	0xbe595897	-0.212252
82	0x3d108370	0.0352816
83	0x3edb6bd3	0.428557
84	0xbf0c3f3e	-0.54784
85	0x3fd534ad	1.66567
86	0x3c1366fb	0.00899672
87	0x3d040040	0.0322268
88	0x3c3a79e4	0.0113816
89	0x3c8e58be	0.0173763
90	0xbe5096ff	-0.203701
91	0xbfbde1b1	-1.48345
92	0x3fe41301	1.78183
93	0xbdecb3a2	-0.115577
94	0x3f3cf180	0.73806
95	0xbc56b152	-0.0131038
96	0x3a5e4240	0.00084785
97	0x3b9b6231	0.00474193
98	0xbb132561	-0.00224527
99	0xbc8d4bad	-0.017248
100	0x3c598684	0.0132767
101	0x3f292029	0.660647
102	0x3f0c7fed	0.548827
103	0x3e4e2930	0.201329
104	0xbd6acf16	-0.0573264
105	0xbd21f370	-0.0395388
106	0x3f7dd1a2	0.99148
107	0x3b20a277	0.00245109
108	0x3c8e944d	0.0174047
109	0xbf10b0e2	-0.565199
110	0x3e95208e	0.291264
111	0xbf993501	-1.19693
112	0x3fb8ff97	1.4453
113	0x3e3e9f6b	0.186155
114	0xbe8c3d8a	-0.273907
115	0xbca7c10f	-0.0204778
116	0x3f51ac15	0.819032
117	0x3d76d839	0.0602648
118	0xbea0285f	-0.312808
119	0x3ddeec39	0.108849
120	0xbc864452	-0.01639
121	0xbec02ecb	-0.375357
122	0xbbbd2d1d	-0.0057732
123	0xbeab7e4e	-0.334948
124	0x3ebccdb8	0.368757
125	0x37e6e4a1	2.75246e-05
126	0xbf625626	-0.884127
127	0x3f94572a	1.15891
128	0xbdcc4695	-0.099744
129	0x3e8460cc	0.258551
130	0xc01249ba	-2.28575
131	0x3d77b289	0.060473
132	0x3b9d732d	0.00480499
133	0x3c9ac39b	0.0188921
134	0xbc2cefb8	-0.0105552
135	0xbc917eae	-0.0177606
136	0xbf551f1d	-0.832506
137	0xbf2b414a	-0.668965
138	0x3eb3cb81	0.351162
139	0xbe62ce46	-0.22149
140	0x3c454d11	0.0120423
141	0x3f1ba68b	0.60801
142	0x3f84169c	1.03194
143	0x3f166a44	0.587559
144	0xbe90abb4	-0.28256
145	0xbb284dbc	-0.00256811
146	0x3ac1f6db	0.00147983
147	0xbb8fa6bc	-0.00438389
148	0xbc85fb57	-0.0163552
149	0x3c4f7305	0.0126617
150	0x3d376bc2	0.0447805
151	0x3f9336ce	1.15011
152	0x3eeb6b09	0.459801
153	0x3f8da60d	1.10663
154	0xbfa2786c	-1.2693
155	0x3d3ea1fc	0.0465412
156	0x3f7f7cbb	0.997997
157	0xbf6b588e	-0.91932
158	0x3dd0cb29	0.10195
159	0x3d8b154a	0.0679117
160	0x3d91d997	0.0712158
161	0xbf8a0c4a	-1.0785
162	0x3ea98634	0.331102
163	0x3ee9c4db	0.45658
164	0xbf040e28	-0.515841
165	0x3bd7d427	0.00658657
166	0x3c801a37	0.0156375
167	0xbf2f4f72	-0.684806
168	0xbf56a034	-0.838382
169	0x3f69a166	0.912619
170	0xbe30e560	-0.17275
171	0xc035b9b6	-2.83946
172	0x4020e7d5	2.51415
173	0x3ed270b0	0.411016
174	0xbf1b6c8b	-0.607125
175	0xbedfcb2e	-0.437097
176	0x3fc0941d	1.50452
177	0xbff148aa	-1.88503
178	0x3da61383	0.0810919
179	0x3d8520d1	0.065004
180	0xbb8ff14f	-0.00439278
181	0x3e3def85	0.185484
182	0x3f308388	0.689507
183	0x3dea758a	0.114482
184	0xbe15e02f	-0.146363
185	0x3d5e2f2b	0.0542442
186	0xbf94ded3	-1.16305
187	0xbe4a9fbe	-0.197875
188	0x3dcb0509	0.0991307
189	0x3d280cfa	0.041028
190	0xbc0bc2ac	-0.0085303
191	0xbbeda118	-0.00725187
192	0x3ba1992d	0.00493159
193	0xbaa0618a	-0.00122361
194	0xb829f790	-4.05233e-05
195	0x3e3e51d2	0.185859
196	0x3e5eb1c4	0.217475
197	0x3e8379fb	0.25679
198	0x3e2b823d	0.167489
199	0x3de83559	0.113383
200	0xbe3fd5cb	-0.187339
201	0xbf9a7525	-1.2067
202	0x3f999360	1.19981
203	0x3e8d0acc	0.275473
204	0xbef8763a	-0.485277
205	0xbe311a97	-0.172953
206	0xbee68167	-0.450206
207	0xbe7fea3e	-0.249917
208	0xbeb9a416	-0.36258
209	0x3e2996b7	0.165614
210	0xbd5f2057	-0.0544742
211	0xbf1c37f8	-0.610229
212	0x3eab9bcc	0.335173
213	0x3efe731d	0.496972
214	0xbf005d64	-0.501425
215	0x3dbefee4	0.0932596
216	0x3f0e9df9	0.557098
217	0x3e99d94d	0.300486
218	0x3e1522ea	0.145641
219	0x3da2a3f7	0.0794143
220	0x3cf085da	0.0293607
221	0xbd3ced26	-0.0461246
222	0xbd56e829	-0.0524675
223	0x3e647c74	0.223131
224	0x3e8635a4	0.262128
225	0x3d164877	0.0366902
226	0x3dce49f5	0.100727
227	0xbd122a54	-0.0356849
228	0xbd2db7ae	-0.0424115
229	0xbff1859d	-1.88689
230	0x3c96d05c	0.0184099
231	0x3fed0f52	1.85203
232	0x3e06c3fc	0.131607
233	0x3e23508f	0.159487
234	0xbe9e106b	-0.308719
235	0xbb11b5a0	-0.00222335
236	0xba058fa1	-0.000509495
237	0xbbbc4f7c	-0.00574678
238	0xbb962f01	-0.00458324
239	0x3cd83f5c	0.0263974
240	0x3b9e5d4e	0.0048329
241	0xbf7a3583	-0.977379
242	0xbf672181	-0.902855
243	0x3f06a2a1	0.525919
244	0xbe706e5d	-0.234796
245	0x3e034480	0.128191
246	0xbfad39eb	-1.35333
247	0x3f861a61	1.04768
248	0x3d97372c	0.0738357
249	0x3e139de5	0.144157

layers.10.bias f4 [50]
0	0x3e5bacf7	0.214527
1	0xc0fba0a5	-7.86336
2	0x3d59ed7c	0.053205
3	0xbde0db27	-0.109793
4	0x3f8f0b39	1.11753
5	0xc08348fe	-4.10266
6	0xc0ffcb7d	-7.99359
7	0x3d174074	0.0369267
8	0xc0db639d	-6.85591
9	0xc0b9429a	-5.78938
10	0x3fe6f34d	1.8043
11	0x3f12e947	0.573872
12	0x40ca66ba	6.32504
13	0xc0e6594b	-7.1984
14	0xbf885879	-1.0652
15	0xc07165d4	-3.77184
16	0xc00d40a3	-2.20707
17	0x3ef2af9b	0.473996
18	0xbf67fe8f	-0.906228
19	0xc0c97050	-6.29496
20	0x3f4691c9	0.775662
21	0xc0492229	-3.14271
22	0xc0f20d06	-7.56409
23	0x3f2d06ee	0.675887
24	0x407589b5	3.83653
25	0xc10a0404	-8.62598
26	0xc0e033c6	-7.00632
27	0x3e20403a	0.156495
28	0xc0dd48e9	-6.91515
29	0x3df2ead9	0.118612
30	0x3f9c0d1b	1.21915
31	0xbe3f0846	-0.186555
32	0x3f8f3722	1.11887
33	0xc0de8ab1	-6.95443
34	0x40238ab1	2.55534
35	0xc0ded3c3	-6.96335
36	0xc0e1628d	-7.04328
37	0xbf6c4674	-0.92295
38	0xbdbf383f	-0.093369
39	0xc0d0b44e	-6.52201
40	0xbfab074a	-1.33616
41	0xbf76511a	-0.962175
42	0xc103feef	-8.24974
43	0xc053598a	-3.30234
44	0xc0d4f49d	-6.65486
45	0xc0cac9da	-6.33714
46	0x40ca7c07	6.32764
47	0xc115de89	-9.36683
48	0x3fa634ec	1.29849
49	0xbf137d85	-0.576134

layers.10.weight f4 [50, 50]
0	0xbceaf64e	-0.0286819
1	0xc087cc3a	-4.24368
2	0xbd3cd4ed	-0.0461015
3	0xc02bf972	-2.6871
4	0xbf75bc23	-0.959902
5	0xbdb55483	-0.0885401
6	0xbd75d5f5	-0.0600185
7	0x3e07b784	0.132536
8	0xbe9a3034	-0.301149
9	0x3ec623f2	0.386993
10	0xbe1dfd26	-0.154286
11	0x3e20c565	0.157003
12	0xbfda5658	-1.70576
13	0x3ebd909f	0.370244
14	0xc030d480	-2.76297
15	0xc0437ebb	-3.05461
16	0x3dd1c8eb	0.102434
17	0x3b46f217	0.00303567
18	0xbf007875	-0.501838
19	0xbf8542c4	-1.0411
20	0xbc5f62d2	-0.0136344
21	0xbeca7610	-0.395432
22	0xc0373722	-2.86274
23	0xbe259e1f	-0.161736
24	0xbe2862f6	-0.16444
25	0x3e30ded3	0.172725
26	0xbe41001d	-0.188477
27	0xc0c3afcd	-6.11521
28	0xbbe35f76	-0.00693887
29	0xc0836e98	-4.10725
30	0xbe911ada	-0.283408
31	0xbe18826b	-0.148935
32	0xc00ffac2	-2.24968
33	0x3e8e7536	0.278238
34	0xbfd087a9	-1.62914
35	0xbfb08312	-1.379
36	0xbc9caf99	-0.0191267
37	0xbea687d3	-0.325255
38	0x3ef17a03	0.471634
39	0xc09b01b8	-4.84396
40	0x3d0e4466	0.0347332
41	0x3f6ebd1b	0.932573
42	0x3ec98c7e	0.39365
43	0xbfda08af	-1.70339
44	0x3fcf91e6	1.62164
45	0xbff29d1f	-1.89542
46	0xbe8b2852	-0.271792
47	0xc0e09f17	-7.01942
48	0xbe6104d5	-0.219745
49	0xc0c018bd	-6.00302
50	0xbccce8e7	-0.0250134
51	0x3f859168	1.0435
52	0x3f7df0a2	0.991953
53	0x400c6224	2.19349
54	0xc02b4a4d	-2.67641
55	0x3eb4f441	0.353426
56	0x3fd9a661	1.70039
57	0xbf4bdda9	-0.796351
58	0x3fdbeff2	1.71826
59	0xbd671fff	-0.056427
60	0x40097cc4	2.14824
61	0x400d06f7	2.20355
62	0xbf08d888	-0.534554
63	0x3f909082	1.12941
64	0x40467525	3.1009
65	0x3f2662dc	0.649946
66	0x3f2c0c84	0.672066
67	0x3ecbb18e	0.397839
68	0x3e6e8295	0.23292
69	0x3f4b3094	0.79371
70	0xbe83a16e	-0.257091
71	0xc03b35a8	-2.92515
72	0xbfbea2b1	-1.48934
73	0x3f807e7c	1.00386
74	0x400550b1	2.08305
75	0xbf7b495a	-0.981588
76	0x3e3bfd2f	0.183583
77	0x3f092ded	0.535857
78	0x3c5ec304	0.0135963
79	0xbfaa37df	-1.32983
80	0xc10764d8	-8.46212
81	0xbedbe1eb	-0.429458
82	0x3f80a915	1.00516
83	0xc028fc26	-2.64039
84	0x3fd44524	1.65836
85	0xbf7df352	-0.991994
86	0xbd18c9fb	-0.037302
87	0x3ff156c1	1.88546
88	0x3f81768a	1.01143
89	0x3f660b2d	0.898608
90	0xbed843e5	-0.422393
91	0x3f5b649d	0.857004
92	0x3f9d2ccf	1.22793
93	0xc0041ab5	-2.06413
94	0x3f833483	1.02504
95	0xc151d0e5	-13.1135
96	0xbed2599f	-0.41084
97	0x3e6a8113	0.229008
98	0xbdd5d702	-0.104414
99	0x3ec2d59d	0.380536
100	0xbd1ae6bc	-0.0378177
101	0xc03f6ead	-2.99113
102	0xc10b1d73	-8.69469
103	0xbdd3f962	-0.103503
104	0xc0b7ec03	-5.74756
105	0xc038dbb6	-2.88841
106	0xc0b93a69	-5.78838
107	0xc04df584	-3.21811
108	0xc1065bb6	-8.39739
109	0xc09c5bd5	-4.88621
110	0xc07e3b4f	-3.97237
111	0xc096f5d8	-4.71751
112	0xbf55c27f	-0.834999
113	0x4048e7d5	3.13915
114	0xbfaa046c	-1.32826
115	0xbfe245a2	-1.76775
116	0xc00df67f	-2.21817
117	0xbf38383b	-0.719608
118	0xc0904064	-4.50786
119	0xbf3c7171	-0.736106
120	0x3f8e2974	1.11064
121	0x3ea0d456	0.31412
122	0xc0e7d25f	-7.24443
123	0xc0b6a993	-5.7082
124	0xc0384207	-2.87903
125	0xc0059970	-2.08749
126	0xbf7b2160	-0.980978
127	0xc03bbfc6	-2.93358
128	0x3c2d3fd4	0.0105743
129	0xbe7588a0	-0.239779
130	0xbff38d50	-1.90275
131	0xc05ac711	-3.4184
132	0x3f763ef3	0.961898
133	0xc0046f3f	-2.06929
134	0xbd2c508b	-0.042069
135	0xc1157180	-9.34021
136	0x3d47f745	0.0488198
137	0xc04d2f45	-3.20601
138	0xbf2bed85	-0.671593
139	0xc000d331	-2.01289
140	0xc0489596	-3.13413
141	0xc0a4a969	-5.14568
142	0xbf8388b9	-1.02761
143	0xc035590c	-2.83356
144	0xbfd4a0e4	-1.66116
145	0xc0b2fb6a	-5.59319
146	0xbe87661f	-0.264451
147	0x3fffaf10	1.99753
148	0xbf90c3a0	-1.13097
149	0xbf9a6fe7	-1.20654
150	0x3cbb2647	0.0228454
151	0xc0b9afb8	-5.8027
152	0xbfc9fb94	-1.57799
153	0xbfaea2b1	-1.36434
154	0xbfc3c654	-1.52949
155	0x3e787fcc	0.242675
156	0xbfa49a02	-1.28595
157	0xbfc8c34c	-1.56846
158	0x3f86646f	1.04994
159	0x3d3ab4b7	0.0455825
160	0x402ba6df	2.68206
161	0xc005d2f2	-2.091
162	0xc041e719	-3.02973
163	0xbfe50b0f	-1.7894
164	0xbfac1206	-1.3443
165	0xbff4db8c	-1.91295
166	0x3ea59c49	0.323458
167	0xbf84548b	-1.03383
168	0xc00a38da	-2.15972
169	0xc02f5c7d	-2.74002
170	0xbd641aac	-0.0556895
171	0x3f9a3f68	1.20506
172	0xbf81a805	-1.01294
173	0xc08b6959	-4.35661
174	0xbf8d4467	-1.10365
175	0xbe89591d	-0.268258
176	0xc09314a5	-4.59627
177	0xbff4f56f	-1.91374
178	0xbcf53785	-0.0299337
179	0x3bb1e9c8	0.00542948
180	0xbfbdf117	-1.48392
181	0x3f4e6949	0.806294
182	0xbf319a41	-0.69376
183	0xbf8ff877	-1.12477
184	0xc06bf8cb	-3.68706
185	0xc084e300	-4.15271
186	0xbc8b89a1	-0.0170334
187	0xbfa62047	-1.29786
188	0x3e85b489	0.261143
189	0xc0762b6b	-3.8464
190	0xbecb3dd1	-0.396956
191	0x3fcefd76	1.61711
192	0xc08fb218	-4.49049
193	0xc05f4b73	-3.48898
194	0xbefab8a6	-0.48969
195	0xc0313112	-2.76862
196	0xbe370154	-0.178716
197	0xbfbdf601	-1.48407
198	0xbedb75ea	-0.428634
199	0xbdf8c650	-0.121472
200	0xbaa54f85	-0.00126122
201	0xbf46836f	-0.775443
202	0xbf5685db	-0.83798
203	0xbeb686c6	-0.356497
204	0xbec29f7b	-0.380123
205	0xbe8d0332	-0.275415
206	0xbeeefb2b	-0.46676
207	0xbd610bb4	-0.0549428
208	0x3e95bced	0.292457
209	0x3d44bd4f	0.0480321
210	0x3f5b9991	0.857812
211	0xbf92ae29	-1.14594
212	0xbed6a099	-0.419194
213	0x3e943f1c	0.289544
214	0xbefe63c7	-0.496855
215	0xbf6eb94e	-0.932515
216	0xc027d6e0	-2.62249
217	0xbf528f5c	-0.8225
218	0xbe174214	-0.147713
219	0xbf0f4b84	-0.559746
220	0xbb845006	-0.00403786
221	0xbe314e3c	-0.17315
222	0xbf58b242	-0.84647
223	0xbee5a2b6	-0.448507
224	0xbd8e0d74	-0.0693616
225	0xbea4aeea	-0.321647
226	0xbced4406	-0.0289631
227	0xbfb31316	-1.39902
228	0xbd3203f4	-0.0434608
229	0xbe0ebf23	-0.139401
230	0xbf45cd92	-0.772668
231	0x3e3385c6	0.175315
232	0x3ef8c1db	0.485854
233	0xbe456473	-0.192766
234	0xbf75a7d2	-0.959592
235	0xbfd8a18c	-1.69243
236	0x3ab10f57	0.00135086
237	0xbf4f3f96	-0.809564
238	0xbf306ef4	-0.689193
239	0x3de162f1	0.110052
240	0xbd4c9ae3	-0.0499524
241	0xbfa88217	-1.31647
242	0xbe3de2ef	-0.185436
243	0xbfa520b0	-1.29006
244	0xbe4f3301	-0.202343
245	0x3e0780fe	0.132328
246	0xbdbf401c	-0.093384
247	0x3e9a83d3	0.301787
248	0xbdcc0577	-0.0996198
249	0xbe2197a2	-0.157805
250	0xbc97b9fb	-0.0185213
251	0xbf9aa0ba	-1.20803
252	0x40271de7	2.6112
253	0x403aee8d	2.92081
254	0xbf91bb5a	-1.13853
255	0x3da08510	0.0783788

layers.12.bias f4 [5]
0	0xbc6891ba	-0.0141949
1	0xbc9615b6	-0.0183209
2	0x3ca0f147	0.0196463
3	0xbc8f1c68	-0.0174696
4	0x3ca64f55	0.0203015

layers.12.weight f4 [5, 50]
0	0xbbc1356a	-0.00589626
1	0x3b625d02	0.00345403
2	0xbb785592	-0.00378928
3	0xbba6ed14	-0.00509418
4	0xbbf381ed	-0.00743126
5	0x3b9a4ff8	0.00470924
6	0x3b717751	0.00368448
7	0xbb54f032	-0.00324918
8	0x3c1a91dc	0.00943419
9	0x3bde308d	0.00678069
10	0xbbc9dec6	-0.00616059
11	0xbc9b9303	-0.018991
12	0xbc013991	-0.00788726
13	0x3bcede8a	0.00631315
14	0x3b455c15	0.00301147
15	0x3c133587	0.00898493
16	0x3b1cde73	0.00239363
17	0x3c15dc60	0.00914678
18	0x3b8f8bb9	0.00438067
19	0x3be1c2be	0.00688967
20	0xbc373f31	-0.0111845
21	0x3a0b1cee	0.000530674
22	0x3b90402a	0.00440218
23	0x37a86e40	2.00785e-05
24	0xbb936e1c	-0.00449921
25	0x3afd58b1	0.00193288
26	0x3bbd3c76	0.00577503
27	0xb9c84506	-0.000381984
28	0x3b9dce9d	0.00481589
29	0xb8277faa	-3.99348e-05
30	0x3cafd687	0.0214646
31	0xbc265ea4	-0.0101544
32	0xbd1a7023	-0.0377046
33	0x3b773d39	0.00377257
34	0xbbf8c539	-0.00759187
35	0x3bc7c729	0.00609674
36	0x3b970ccc	0.00460968
37	0x3bf24f68	0.00739472
38	0xbbea3adc	-0.00714813
39	0x3bf9655c	0.00761096
40	0xbc30a83e	-0.0107823
41	0xbbcc5a8c	-0.00623638
42	0x3a909e48	0.00110335
43	0x3bcbfb6c	0.00622504
44	0x3bd7dca0	0.00658758
45	0x3bfc79e4	0.00770496
46	0xbba6ea3a	-0.00509384
47	0x3c05d4cb	0.00816841
48	0xbbb08935	-0.00538745
49	0x3b79581b	0.00380469
50	0x3a12d334	0.000560093
51	0xba97a0c6	-0.00115683
52	0xb782fff7	-1.56164e-05
53	0x3a25622d	0.000630888
54	0x3a3afbae	0.000713284
55	0x38aa8d67	8.13257e-05
56	0xb93cfece	-0.00018024
57	0x3b5ad5a4	0.00333915
58	0xbadd0add	-0.00168642
59	0xb80511bf	-3.17262e-05
60	0x38515eb9	4.99177e-05
61	0x3ab0b468	0.00134815
62	0x3a4d58db	0.000783337
63	0x38c45d5f	9.3634e-05
64	0xb8353ac6	-4.32085e-05
65	0xb8ca6955	-9.65173e-05
66	0x39de96cf	0.000424555
67	0x38251d23	3.93662e-05
68	0xba4a2209	-0.000771076
69	0xba379bc9	-0.000700411
70	0x3a832188	0.00100045
71	0x3c8017b3	0.0156363
72	0xba907f6a	-0.00110243
73	0xba6822c7	-0.000885528
74	0xb9b335a2	-0.000341815
75	0xb8d51b36	-0.000101617
76	0x390b9b7f	0.00013314
77	0x3c12e017	0.00896456
78	0xba9d317f	-0.00119929
79	0xbacc7086	-0.00155975
80	0xb9701eea	-0.000228997
81	0x39689498	0.000221806
82	0x3ad9baf2	0.00166115
83	0x37f310a1	2.89756e-05
84	0x399f6343	0.000304008
85	0xb9dc09b4	-0.000419689
86	0xbaa09185	-0.00122504
87	0xba554c33	-0.000813666
88	0x3bb0d29b	0.0053962
89	0xba81c61c	-0.000990096
90	0x3a59e132	0.000831145
91	0x3904be0d	0.000126593
92	0x39d82c1e	0.000412316
93	0xbac28474	-0.00148405
94	0x38bbdca1	8.95795e-05
95	0xb8ce426f	-9.83522e-05
96	0x3927b1cf	0.000159926
97	0xba4cc994	-0.000781202
98	0xb8fafedc	-0.000119684
99	0xba778713	-0.000944243
100	0x3991414a	0.000277052
101	0x3a7c6b20	0.0009629
102	0xb98e4cb4	-0.000271415
103	0x3ae406fb	0.00173971
104	0x3b6a2e07	0.0035733
105	0xb9c71121	-0.00037969
106	0x3a3450f7	0.000687852
107	0x3c2733b6	0.0102052
108	0x397aa171	0.00023902
109	0x3a8e2b26	0.00108466
110	0xb8d63ebb	-0.00010216
111	0xba9200f4	-0.00111392
112	0x3988a72e	0.000260645
113	0x397763b5	0.000235929
114	0x39874494	0.000258003
115	0x3a10654f	0.000550826
116	0x3bdf9221	0.00682284
117	0x38a050b9	7.64443e-05
118	0x39f76f85	0.000471946
119	0xba296d66	-0.000646314
120	0x39ed1d4f	0.00045226
121	0xbb7786e0	-0.00377696
122	0xb76f7ea8	-1.4275e-05
123	0x3b57caad	0.00329272
124	0x3a9988a8	0.00117137
125	0xb90493e8	-0.000126436
126	0x391d646e	0.000150101
127	0x3c3c423b	0.0114904
128	0x398f38ee	0.000273175
129	0xbbc37fc7	-0.00596616
130	0x38fd0b62	0.000120661
131	0x3a2c208d	0.000656613
132	0xbade220a	-0.00169474
133	0xb8499914	-4.80647e-05
134	0xb9a5563b	-0.000315355
135	0x36d5012a	6.34803e-06
136	0x38ec8002	0.000112772
137	0x3a72e40e	0.000926555
138	0x39a9c36f	0.000323798
139	0x3a085f71	0.000520221
140	0xb8822764	-6.20622e-05
141	0x39e70099	0.000440602
142	0xb78534f7	-1.58795e-05
143	0x3a050016	0.000507356
144	0x39ccf4aa	0.000390922
145	0x3a6b0651	0.000896548
146	0x39a62af7	0.00031694
147	0xba3d373f	-0.000721801
148	0xba7bc2af	-0.00096039
149	0x37646efc	1.36157e-05
150	0x3a81b46d	0.000989569
151	0x3a1f1cef	0.000606968
152	0xb8e59cec	-0.000109488
153	0x39e515e6	0.000436946
154	0xbabdd38b	-0.00144826
155	0xb95b410c	-0.000209097
156	0x3aa93269	0.00129087
157	0x3c6f7066	0.0146142
158	0x3ad42180	0.00161843
159	0xb8624e99	-5.39558e-05
160	0xb8d2a350	-0.00010044
161	0xbb129b79	-0.00223705
162	0x3a70e93f	0.000919003
163	0xb931deb5	-0.00016963
164	0xb95c5907	-0.00021014
165	0xb5e1be55	-1.68192e-06
166	0x3a221a2d	0.000618371
167	0x39ed3e0f	0.000452504
168	0x398f7b3b	0.000273669
169	0x3a94e428	0.00113595
170	0x3a0fbafc	0.000548288
171	0x37d36082	2.51981e-05
172	0xb935367b	-0.000172818
173	0xb788fde9	-1.63307e-05
174	0x38145172	3.53618e-05
175	0x39a84efa	0.000321023
176	0x3a0c57ce	0.000535366
177	0x3c474752	0.012163
178	0xb928dc4f	-0.000161038
179	0xbc1060ab	-0.00881211
180	0x3a49f184	0.000770353
181	0x3a2745c3	0.000638094
182	0x39f7f1d8	0.000472917
183	0x39cbecca	0.000388956
184	0x39886bfd	0.000260204
185	0xb89c36ec	-7.44889e-05
186	0x3ae3e4c1	0.00173869
187	0x3a5e7bf7	0.00084871
188	0x3bbb1ea5	0.00571044
189	0x3a0c7601	0.000535816
190	0x3a0fe431	0.000548902
191	0x39cdade2	0.000392302
192	0x3b514ebd	0.00319378
193	0x39917f2a	0.000277513
194	0xb89bbc92	-7.4261e-05
195	0x3a340ba5	0.000686819
196	0x3ad3262d	0.00161094
197	0x38d59040	0.000101835
198	0xba4a5910	-0.000771896
199	0x3931b490	0.000169473
200	0x395bde15	0.000209682
201	0x3a473490	0.000759908
202	0x39ba2623	0.000355051
203	0x3b845a42	0.00403908
204	0x3b9ff365	0.00488131
205	0xba10aa4c	-0.000551854
206	0x3aa5f8f8	0.00126627
207	0x3c272f19	0.0102041
208	0x394a4759	0.000192908
209	0x3a8a631b	0.00105581
210	0xb9624345	-0.000215781
211	0xbaf865ad	-0.00189512
212	0xb8a215f3	-7.72885e-05
213	0xb950ef60	-0.000199256
214	0x39615b13	0.000214916
215	0x39f46531	0.000466147
216	0x3be6240c	0.00702334
217	0x37b4a1c4	2.1533e-05
218	0x39fa776f	0.000477727
219	0x385eac4f	5.30894e-05
220	0x3a4fc0fc	0.000792518
221	0xbb367141	-0.00278385
222	0x3a73fec8	0.000930768
223	0x3b5d02fb	0.00337237
224	0x3a892909	0.00104645
225	0x3a696b47	0.000890423
226	0xb93a5d92	-0.000177732
227	0x3c4c3f74	0.0124663
228	0x38cf5889	9.88702e-05
229	0xbbd76ea7	-0.00657447
230	0x394c01ff	0.000194557
231	0x39c04b4e	0.000366772
232	0xba85d1bc	-0.00102096
233	0xb91807eb	-0.000144988
234	0xb831a294	-4.23515e-05
235	0xb8e94065	-0.000111223
236	0x3817cecc	3.61938e-05
237	0x3a8e8e79	0.00108762
238	0xba2529ce	-0.000630048
239	0x3a5d65cc	0.000844565
240	0xb98f9c1d	-0.000273914
241	0x3934e4e0	0.000172514
242	0xb8614b2f	-5.37142e-05
243	0x3911c336	0.00013901
244	0x39e2ecca	0.000432825
245	0x39a1c6c2	0.000308564
246	0x38d38e77	0.000100878
247	0xba252a9c	-0.00063006
248	0xbaa56e64	-0.00126214
249	0xb9d095b8	-0.000397844

layers.2.bias f4 [50]
0	0xbc8321be	-0.0160073
1	0x3f91aa50	1.13801
2	0xbd4eb463	-0.050465
3	0x3f6cfa27	0.925692
4	0xbf04c78f	-0.51867
5	0xbeb9754b	-0.362223
6	0x3f1b533f	0.606739
7	0xbfb75643	-1.43232
8	0xbc1185ef	-0.00888203
9	0xbfc25365	-1.51817
10	0xbf11b8aa	-0.569224
11	0xbf71e881	-0.944954
12	0x3ec1806f	0.377933
13	0xbb98dff6	-0.00466537
14	0xbe00a41a	-0.125626
15	0xbf9d7e67	-1.23042
16	0x3f465fc8	0.774899
17	0x3e945f5b	0.28979
18	0xbfeba494	-1.84096
19	0xbe103926	-0.140843
20	0x3e32e233	0.174691
21	0xbe8499f2	-0.258987
22	0x3daedfb2	0.0853876
23	0xbc6a5d6c	-0.0143045
24	0xbd5de219	-0.0541707
25	0x3fc93dd9	1.5722
26	0x3eecfa8b	0.462849
27	0xbe9183f9	-0.28421
28	0x3fe454de	1.78384
29	0xbe917a46	-0.284136
30	0x3f515c10	0.817811
31	0x3f15d5b2	0.585292
32	0xbeb04fd3	-0.344359
33	0xbe8d3804	-0.275818
34	0x3e1ab325	0.151074
35	0x3f6fa7db	0.936155
36	0xbf5ea10e	-0.869645
37	0xbb7934e0	-0.00380259
38	0x3f1f9d2c	0.623492
39	0xbcabd2ed	-0.0209746
40	0x3f6e5508	0.930985
41	0xbc46b632	-0.0121284
42	0x3f110f1f	0.566637
43	0x3f432b99	0.762384
44	0xbc13f8f1	-0.00903152
45	0xbf417614	-0.755708
46	0xbe675148	-0.225896
47	0xbe92747e	-0.286045
48	0xbbf28e27	-0.0074022
49	0xbf2987c6	-0.662228

layers.2.weight f4 [50, 50]
0	0xbda74de0	-0.0816915
1	0x3d2433f2	0.0400886
2	0xbd15856e	-0.0365042
3	0x3d1c92f9	0.0382261
4	0xbcf7810b	-0.0302129
5	0xbca75b59	-0.0204293
6	0xbcd54831	-0.0260354
7	0xbd1ec919	-0.038766
8	0x3c381ca7	0.0112373
9	0xbc2d11b1	-0.0105633
10	0xbd534d34	-0.0515873
11	0xbd455a2d	-0.0481817
12	0x3d120ea6	0.0356585
13	0xbc8255e6	-0.0159101
14	0xbce31685	-0.0277207
15	0x3cbf81c0	0.0233773
16	0xbbfffc4f	-0.00781206
17	0x3c431310	0.0119064
18	0x3c0395ec	0.00803135
19	0xbcb0c459	-0.021578
20	0xbd1c0a72	-0.0380959
21	0xbce3e583	-0.0278194
22	0x3c6f4e6c	0.0146061
23	0xbc9792f9	-0.0185027
24	0xbd28bb40	-0.0411942
25	0x3bf47cd5	0.00746117
26	0xbc9632dd	-0.0183348
27	0x3ce338b4	0.027737
28	0xbd16440f	-0.036686
29	0x3cc68703	0.0242343
30	0xbcc0c415	-0.023531
31	0x3c7ac2a9	0.0153052
32	0xbd6d9a52	-0.0580085
33	0xbd0c0d3a	-0.0341923
34	0x3cefe890	0.0292857
35	0x3cfffd10	0.0312486
36	0xbcbb8b92	-0.0228937
37	0xb6cf2d9b	-6.17439e-06
38	0xbd313511	-0.0432635
39	0x3c159589	0.00912989
40	0xbdb8d709	-0.0902539
41	0xbd5a3261	-0.0532707
42	0xbab39faa	-0.00137042
43	0x3c378177	0.0112003
44	0xbd0821d8	-0.0332354
45	0xbcb5115a	-0.022103
46	0x3c7ef53e	0.0155614
47	0xbc010630	-0.00787501
48	0xbd9c5338	-0.0763306
49	0xbd369370	-0.0445742
50	0x3fb7ab75	1.43492
51	0xbba838ef	-0.00513374
52	0xbf37122b	-0.715121
53	0x3f590c80	0.847847
54	0xbfa5ba5e	-1.29475
55	0xbf17a0a5	-0.592295
56	0x3f999f80	1.20018
57	0x3d4dbe49	0.0502303
58	0x3ed6ad71	0.419292
59	0x3ee4a383	0.44656
60	0x3db4eb3c	0.0883393
61	0xbf2253eb	-0.634093
62	0xc00e55da	-2.22399
63	0x3ddc45cc	0.107555
64	0xbdeb96f2	-0.115034
65	0xbfb9ecd5	-1.45254
66	0xbea7ea60	-0.32796
67	0x3ea08c3f	0.31357
68	0xc04db520	-3.21418
69	0x3d23ed96	0.0400215
70	0x3fefd1cc	1.87359
71	0x3ed2a77a	0.411434
72	0x40c26888	6.07526
73	0xbfbe324d	-1.48591
74	0x3fafe719	1.37424
75	0xc0d00c9e	-6.50154
76	0x3eaa67a5	0.332822
77	0xbeb409c4	-0.351637
78	0x3f89f7a5	1.07787
79	0xb77f38c3	-1.52124e-05
80	0x3ebbca10	0.366776
81	0xbfbc3c9f	-1.4706
82	0xbf9d0918	-1.22684
83	0x3f33162b	0.699557
84	0xc12feab3	-10.9948
85	0xbfd83276	-1.68904
86	0xbf8ca090	-1.09865
87	0xc0305c14	-2.75562
88	0x3c6bd09e	0.014393
89	0x3f470ff1	0.777587
90	0xc039e2d6	-2.90447
91	0xbfb703b0	-1.4298
92	0xc05bbef5	-3.43353
93	0x3fb1c433	1.3888
94	0xbfdc7f24	-1.72263
95	0xbfe96627	-1.82343
96	0x3f09460b	0.536225
97	0xbd0d2319	-0.0344573
98	0x3e36490a	0.178013
99	0xbfc15cfb	-1.51065
100	0xbfd24f22	-1.64304
101	0xbc40c481	-0.0117656
102	0x3f9ff488	1.24965
103	0xbeb5cf68	-0.355098
104	0x3f96108c	1.17238
105	0x3ee9ef52	0.456904
106	0x3e348ba8	0.176314
107	0xbc8e2cb4	-0.0173553
108	0xbf33c340	-0.702198
109	0x3dfe44fa	0.124155
110	0xbfa1800a	-1.26172
111	0x3fbd7b74	1.48033
112	0x3e7c8798	0.246611
113	0xbd602844	-0.0547259
114	0xbe053d21	-0.130116
115	0x3d50c118	0.0509654
116	0x3f1d696e	0.61489
117	0xbe1866a1	-0.148829
118	0xbd941cb8	-0.0723204
119	0xbd1d45f7	-0.0383968
120	0xbe223dd5	-0.158439
121	0xbe9aed78	-0.302593
122	0xbe0085b2	-0.12551
123	0x3fcb14ba	1.58657
124	0x3ece6f50	0.403193
125	0xbf64256c	-0.891196
126	0xbd9ec794	-0.0775291
127	0x3ef40810	0.476624
128	0xbe570d20	-0.210011
129	0x3c49ed1e	0.0123246
130	0xbd923abd	-0.0714011
131	0xbd9f2e99	-0.0777256
132	0xbf61e3b9	-0.882381
133	0xbf2ea583	-0.682213
134	0xbe1a74c1	-0.150836
135	0xbf0fe5fb	-0.562103
136	0x3fae65bf	1.36248
137	0x3fc0d1b7	1.5064
138	0xbd064346	-0.032779
139	0xbd12e3ed	-0.0358619
140	0xbeac067d	-0.335987
141	0xc02e9f17	-2.72846
142	0x3e5fc4c1	0.218524
143	0x3f26e009	0.651856
144	0xbf119770	-0.568717
145	0xc027e6ef	-2.62347
146	0x3e848b44	0.258875
147	0xbcbe9242	-0.0232631
148	0xbf2b68f1	-0.66957
149	0xbf3fde1e	-0.749483
150	0xc1421340	-12.1297
151	0xbd2521de	-0.0403155
152	0x3fb54174	1.41606
153	0xc007465f	-2.11367
154	0xc0179210	-2.36829
155	0xbdaab5a9	-0.0833543
156	0x3f9ae72e	1.21018
157	0xbc15114a	-0.00909836
158	0x3f42a10e	0.76027
159	0xc008a4fd	-2.13507
160	0xbf29d7fe	-0.663452
161	0xc03231a5	-2.78428
162	0x3f85a75d	1.04417
163	0xbf9fcd36	-1.24845
164	0xbdb879c4	-0.090076
165	0xbfd552d2	-1.66659
166	0x3f3a93f3	0.72882
167	0x3d917ae7	0.0710352
168	0xbff18890	-1.88698
169	0x3b0efd08	0.00218183
170	0x3c0dad47	0.00864727
171	0xc00adbe0	-2.16967
172	0xc06ec860	-3.73098
173	0xc03ebce8	-2.98028
174	0x3fa20c9e	1.26601
175	0x3f955ca7	1.16689
176	0xbfa26e98	-1.269
177	0x3f09984a	0.53748
178	0xbe63cf2d	-0.22247
179	0x3d30f7d5	0.0432051
180	0xc013d806	-2.31006
181	0xc0839168	-4.1115
182	0x3fc9bf9c	1.57616
183	0xbea9ee03	-0.331894
184	0xc0081a0d	-2.12659
185	0xbf82d42c	-1.0221
186	0xc0675f9a	-3.61521
187	0x3fd89d49	1.6923
188	0x3b0a66f7	0.00211185
189	0xbd700dca	-0.0586069
190	0xbf93bdcf	-1.15423
191	0xbfdc99af	-1.72344
192	0x3d8418bc	0.0645003
193	0xbf484945	-0.782368
194	0xbf0e1523	-0.55501
195	0xc0384381	-2.87912
196	0xc03c501e	-2.94239
197	0xbd18affa	-0.0372772
198	0x3ffa4990	1.95537
199	0xbfb61a0d	-1.42267
200	0xbcc35b34	-0.0238472
201	0x3d44109b	0.0478674
202	0x3ee14ab2	0.440023
203	0xbf635ed9	-0.888166
204	0xbf6c86cf	-0.923932
205	0x3d8573c2	0.0651622
206	0xbcaca728	-0.0210758
207	0xbd5ae1ce	-0.053438
208	0xbeb17c1c	-0.34665
209	0x3fb93fd1	1.44726
210	0x3e1e4799	0.15457
211	0xbf95bdf9	-1.16986
212	0x3e3db65f	0.185266
213	0xbf20c6a4	-0.628031
214	0x3e5eacc9	0.217456
215	0xbea61f5c	-0.324458
216	0xbe7e5c0c	-0.248398
217	0x3e091794	0.133879
218	0x3e90958e	0.282391
219	0x3c8c9bba	0.0171641
220	0x3ddd987c	0.108201
221	0x3f15af3a	0.584705
222	0xbf317d4a	-0.693318
223	0xbfac6445	-1.34681
224	0xbfab3d08	-1.3378
225	0x3ef9e1b1	0.48805
226	0x3fd01062	1.6255
227	0xbd37353b	-0.0447285
228	0xbeacc37e	-0.337429
229	0x3cbef3c6	0.0233096
230	0xbdbff20e	-0.0937234
231	0xbf05ff2e	-0.523425
232	0x3d026e6f	0.0318436
233	0xbdbcb436	-0.0921406
234	0x3e8524c0	0.260046
235	0x3e323a2a	0.17405
236	0x3e8eb26c	0.278705
237	0xbe146413	-0.144913
238	0x3cb8b47c	0.022547
239	0xbee2a498	-0.442662
240	0x3daed31c	0.0853636
241	0x3f42f816	0.761598
242	0x3f09363f	0.535984
243	0x3f5ef640	0.870945
244	0x3f98f766	1.19505
245	0xc029f77b	-2.65573
246	0x3f535dff	0.825653
247	0x3ca32e38	0.0199195
248	0x3e80010c	0.250008
249	0x3ddba1b2	0.107242
250	0xbee7125e	-0.451312
251	0x3d50f3f4	0.0510139
252	0x3db32010	0.0874635
253	0x3f871bef	1.05554
254	0xbff8fc50	-1.9452
255	0x3ec1c68f	0.378468

layers.4.bias f4 [50]
0	0xbf9e0d45	-1.23478
1	0xbe87687b	-0.264469
2	0x3e89183b	0.267763
3	0xbd085f4a	-0.033294
4	0xbf054e7f	-0.520729
5	0x3f9da805	1.23169
6	0xbcb56c5e	-0.0221464
7	0xc042fdf4	-3.04675
8	0xc0029f41	-2.04097
9	0xc063e7c0	-3.56102
10	0xbd70d555	-0.0587972
11	0xbf1076e2	-0.564314
12	0x3f6bd44a	0.921208
13	0xbc99bde1	-0.0187673
14	0xbf140bed	-0.578307
15	0xbeb6bd90	-0.356915
16	0xbed78099	-0.420903
17	0xbd4c90b7	-0.0499427
18	0x3e6b9c73	0.230089
19	0x3c6df82b	0.0145245
20	0xbfe63fbc	-1.79882
21	0x3db94d36	0.0904793
22	0xbf29ede1	-0.663786
23	0xc0016a40	-2.02211
24	0xbf0697c0	-0.525753
25	0xbfcc4a62	-1.59602
26	0x3ef775b8	0.48332
27	0x3e619653	0.2203
28	0xbc8e354d	-0.0173594
29	0xbf6d8288	-0.927773
30	0xbedfae36	-0.436876
31	0xbfd4b828	-1.66187
32	0xbfba3593	-1.45476
33	0x3fbd5b57	1.47935
34	0xc0037b9e	-2.05442
35	0xbf6caa86	-0.924477
36	0xbf21346a	-0.629706
37	0xbf44df7a	-0.769035
38	0xbeda4f87	-0.426388
39	0xbfa4ae00	-1.28656
40	0xc044538f	-3.0676
41	0x3f798549	0.97469
42	0x3e9bd35f	0.304347
43	0xbf1bb2ab	-0.608195
44	0xbf8321d5	-1.02447
45	0xbd11db44	-0.0356095
46	0xbec83148	-0.391001
47	0xbbefcdd9	-0.00731824
48	0x3f6a7ec8	0.915997
49	0x3fc6be8c	1.55269

layers.4.weight f4 [50, 50]
0	0xbc8eba0d	-0.0174227
1	0xbe80650e	-0.250771
2	0x401852e7	2.38006
3	0x3bbcd9fb	0.00576329
4	0xbf69e881	-0.913704
5	0x3fbdecd5	1.48379
6	0xbda78c00	-0.08181
7	0xbef66a12	-0.481278
8	0xbd2d2491	-0.0422712
9	0xbebf7dfa	-0.374008
10	0x3f4d1d69	0.80123
11	0x3e92ef2c	0.286981
12	0xbd89e6fc	-0.0673351
13	0xbf27f2d4	-0.656049
14	0xbe45a07b	-0.192995
15	0xbe9e249a	-0.308873
16	0xbeba1c26	-0.363496
17	0x3fbae148	1.46
18	0x3fea963e	1.83271
19	0x3f853309	1.04062
20	0xbedc473d	-0.430231
21	0x3fae8588	1.36345
22	0x3ce622df	0.0280928
23	0x3c7b5287	0.0153395
24	0xbc251e9d	-0.0100781
25	0x3ea3be01	0.319809
26	0xbe435a86	-0.190775
27	0xbe8329e5	-0.256179
28	0x3f373cd5	0.715772
29	0x3f37d817	0.718141
30	0xbe3852f8	-0.180004
31	0xbd725106	-0.0591593
32	0x3f3cfd5d	0.738241
33	0x3f05b1b8	0.522243
34	0x3f688fa8	0.908442
35	0x3e78db05	0.243023
36	0x3ebf164c	0.373217
37	0xbcdc78a7	-0.026913
38	0xbdff9ad0	-0.124807
39	0x3d0b9778	0.03408
40	0xbe86e419	-0.263459
41	0x3cc6986b	0.0242426
42	0xbfc51c6d	-1.53993
43	0x3f3f544c	0.74738
44	0xbd1248d8	-0.035714
45	0xbf196217	-0.599153
46	0xbfa20179	-1.26567
47	0x3f819557	1.01237
48	0x3d25e588	0.0405021
49	0x3ea975b0	0.330976
50	0xbccfaace	-0.02535
51	0x3dd6861f	0.104748
52	0x3d388de6	0.0450572
53	0xc00fb2ab	-2.24528
54	0x3edd27a2	0.431943
55	0x3f72d7a5	0.948603
56	0x3ec8752e	0.391519
57	0x3e5ad4f6	0.213703
58	0x3c255bda	0.0100927
59	0x3eafeb07	0.34359
60	0x3ea7e4de	0.327918
61	0xbed5c422	-0.417512
62	0x3db4424f	0.0880171
63	0x3e1012e0	0.140697
64	0x3eb019f4	0.343948
65	0x3f5acd5b	0.854696
66	0xbece920c	-0.403458
67	0x3f276b1a	0.653978
68	0x3eb535eb	0.353927
69	0xbe323034	-0.174012
70	0xbbd534a5	-0.00650652
71	0x3d1f3c71	0.038876
72	0x3f0ab591	0.541833
73	0x3cf6e8ca	0.0301403
74	0xba90cc96	-0.00110473
75	0xbf4b0f6b	-0.793204
76	0xbf297daf	-0.662074
77	0xbdd90f30	-0.105986
78	0xbf3a2058	-0.727056
79	0x3ea74c4d	0.326754
80	0x3dde4b45	0.108542
81	0xbf720fa1	-0.945551
82	0x3ec2b325	0.380273
83	0xbc55b0a1	-0.0130426
84	0x3eca730c	0.395409
85	0x3de9a34d	0.114081
86	0xbe64384c	-0.222871
87	0x3cbf836e	0.0233781
88	0x3e081a9c	0.132914
89	0x3954ad6c	0.000202825
90	0xbd7c9f3d	-0.0616753
91	0xbd20cda0	-0.0392586
92	0xbf414cdb	-0.755079
93	0x3ec5f2ed	0.386619
94	0xbb417d38	-0.00295241
95	0xbdc6afb2	-0.0970148
96	0x3ebd30cf	0.369513
97	0xbe483f92	-0.195555
98	0x3c62c12b	0.01384
99	0xbe8d4d83	-0.275982
100	0xbcae63c1	-0.0212878
101	0x3fa378ab	1.27712
102	0x3f5c0735	0.859485
103	0xbfe3dfe3	-1.78027
104	0x3f85ea89	1.04622
105	0x3ede57fb	0.434265
106	0x3f8fddec	1.12396
107	0xbfab3333	-1.3375
108	0xbd23af17	-0.0399619
109	0x3f1c7736	0.611194
110	0xbc186775	-0.00930201
111	0xc04287a9	-3.03953
112	0xbedb6e50	-0.428576
113	0x3df37868	0.118882
114	0x3f408b54	0.752126
115	0x3f0e9931	0.557025
116	0xbe3a6a87	-0.182047
117	0xc010c1d3	-2.26183
118	0xc045c06e	-3.08987
119	0x3f055465	0.520819
120	0x3f8187e8	1.01196
121	0xc052063a	-3.28163
122	0xbff79f02	-1.93454
123	0xbcddcd05	-0.0270753
124	0x3d12df50	0.0358575
125	0x3e1bcdff	0.152153
126	0x3ec2146a	0.379062
127	0xbf8bf584	-1.09343
128	0x3b5dc619	0.003384
129	0xc01f95d5	-2.49352
130	0xc0b60610	-5.68824
131	0x3fa431cf	1.28277
132	0xbf950f52	-1.16453
133	0xc0bc5ef2	-5.88659
134	0x3e8b2592	0.271771
135	0xc00092cd	-2.00896
136	0xbfa59ed8	-1.29391
137	0xbc776b06	-0.0151012
138	0xbf613c47	-0.879826
139	0xbcbf320f	-0.0233393
140	0x3e950614	0.291062
141	0xbc92dc10	-0.0179272
142	0x3e12ccf7	0.14336
143	0xc0ed8e61	-7.42363
144	0xbbca38c9	-0.00617132
145	0xbff6d773	-1.92845
146	0xbe2dda49	-0.169778
147	0xc0860bf6	-4.18896
148	0x3c92432e	0.0178543
149	0xbe01da7b	-0.12681
150	0x3d127e37	0.0357649
151	0xbcd14933	-0.0255476
152	0xbc7ed634	-0.015554
153	0xbcc20777	-0.0236852
154	0x3cca3a16	0.0246859
155	0xbd276eda	-0.0408772
156	0xbba1451f	-0.00492157
157	0xbce42727	-0.0278507
158	0xbc871f0e	-0.0164943
159	0xbd08ec88	-0.0334287
160	0x3b66e09f	0.00352291
161	0xbcbafcf6	-0.0228257
162	0xbd0697ff	-0.0328598
163	0x3b9f462c	0.00486066
164	0x3cafa1ae	0.0214394
165	0x3cea8d3d	0.0286318
166	0x3a973714	0.00115368
167	0xbd4c86dc	-0.0499333
168	0x3ca2e9a4	0.0198868
169	0x3cac9c40	0.0210706
170	0xbd5b8257	-0.0535911
171	0x3b3f9ae0	0.00292366
172	0xbc8ff287	-0.0175717
173	0x3a0e2c6d	0.000542349
174	0x3d0beeec	0.0341634
175	0x3cdde15d	0.027085
176	0x3be0335c	0.00684206
177	0xbc12383c	-0.00892454
178	0xbd514ef8	-0.0511007
179	0xbd0acd69	-0.0338873
180	0x3b85a12a	0.00407805
181	0xbd5592bf	-0.0521419
182	0xbd4c471b	-0.0498725
183	0xbd4655ba	-0.0484216
184	0xbd42764d	-0.0474761
185	0x3bb1a326	0.00542106
186	0x3c7f935e	0.0155991
187	0x3d15d661	0.0365814
188	0xbc546abb	-0.0129649
189	0xbca3d7e1	-0.0200004
190	0x3bbed6eb	0.00582396
191	0x3cce4d35	0.0251833
192	0x3c8389f8	0.016057
193	0xbd7c3c0b	-0.0615807
194	0x3d0a1bad	0.0337178
195	0x3c81cfe4	0.0158462
196	0x3c7d607e	0.0154649
197	0x3cb9236d	0.0225999
198	0xbd363059	-0.0444797
199	0xbd546fdf	-0.0518645
200	0xbd1cf788	-0.038322
201	0xbe11e53b	-0.142476
202	0xbe7c8b87	-0.246626
203	0x3ea22b7c	0.316738
204	0x3f7cd38d	0.987603
205	0x3f210b31	0.629077
206	0xbf2b1002	-0.668213
207	0x3f6f2b34	0.934253
208	0x3ce1353a	0.0274912
209	0xbe7d56f3	-0.247402
210	0x3e61cfff	0.22052
211	0xbe8530cf	-0.260138
212	0x3f3c98a2	0.736704
213	0x3d360d02	0.044446
214	0xbf0a85ba	-0.541103
215	0xbea4d728	-0.321954
216	0x3ed108a2	0.408269
217	0x3f9af252	1.21052
218	0xbeb062f6	-0.344505
219	0x3f46f76e	0.777213
220	0x3ec24357	0.37942
221	0x401a3348	2.40938
222	0x3f309ecb	0.689923
223	0xbced4f59	-0.0289685
224	0xbc627830	-0.0138226
225	0x3e1a1d32	0.150502
226	0xbe5cad58	-0.215505
227	0x3eead256	0.458636
228	0x3e399e52	0.181268
229	0x3f9f65fe	1.2453
230	0xc08b84b6	-4.35995
231	0x3fa67c5b	1.30067
232	0xbfdcd940	-1.72538
233	0x3fd8ff43	1.69529
234	0x3fad03da	1.35168
235	0x3f64cd31	0.893756
236	0x3fa4dd2f	1.288
237	0xbd42897d	-0.0474944
238	0x3d24a622	0.0401975
239	0xbd1ae0f7	-0.0378122
240	0xbeb87bdd	-0.36032
241	0xbb9589c0	-0.00456354
242	0xbeaf0564	-0.341838
243	0x3f223305	0.633591
244	0x3cc5cd34	0.0241457
245	0x40192181	2.39267
246	0x3e699d02	0.228138
247	0x406e5a71	3.72427
248	0xbaed4cf5	-0.00181046
249	0x3f215150	0.630147
250	0x3cace6b3	0.0211061
251	0x3f2e36f4	0.680526
252	0x3f90ffeb	1.13281
253	0x3ed81ffb	0.422119
254	0x3f866ba5	1.05016
255	0x3f69a038	0.912601

layers.6.bias f4 [50]
0	0x3ff74784	1.93187
1	0xbfa7b795	-1.31029
2	0xbef0624e	-0.4695
3	0xbedd16fd	-0.431816
4	0x3febe187	1.84282
5	0xc0242a45	-2.56508
6	0xbe252c5a	-0.161302
7	0x3f15f40a	0.585755
8	0x3f5ad40b	0.854798
9	0x402c8ede	2.69622
10	0x403a110a	2.90729
11	0xc02dfb94	-2.71848
12	0xbd7b2321	-0.0613128
13	0xc01fef20	-2.49897
14	0x3ecef9db	0.40425
15	0xc00bffd6	-2.18749
16	0x3c158fd4	0.00912853
17	0x3e6eee52	0.233331
18	0x3e021145	0.127019
19	0xbd0cd2ac	-0.0343806
20	0x402c092d	2.68806
21	0x3eba2403	0.363556
22	0xc010007e	-2.25003
23	0xbe7bd87b	-0.245943
24	0x3f3ff0ed	0.74977
25	0x3fb73040	1.43116
26	0x3f5fc665	0.874121
27	0xbbc5696c	-0.00602453
28	0xbf05335d	-0.520315
29	0xbf3ee48f	-0.745675
30	0x4043768a	3.05411
31	0xbe8045bb	-0.250532
32	0xbef7e0ac	-0.484136
33	0x3fd4ee8d	1.66353
34	0x3f1b74ef	0.607253
35	0x408dc2a4	4.43001
36	0xbf95e743	-1.17112
37	0x3eb4af2d	0.352899
38	0xbe7c6195	-0.246466
39	0xbf47d428	-0.780581
40	0xbcb71469	-0.0223486
41	0x3fce7137	1.61283
42	0xbf53583a	-0.825565
43	0xbfab0dd8	-1.33636
44	0xbe85c465	-0.261264
45	0xbfd0ea9e	-1.63216
46	0x3d29b7f5	0.0414352
47	0x40192863	2.39309
48	0xbed311a5	-0.412244
49	0xbfa57397	-1.29259

layers.6.weight f4 [50, 50]
0	0xbec9aa61	-0.393878
1	0x3eb78423	0.35843
2	0x3f3a5b96	0.72796
3	0xbb93330e	-0.00449217
4	0x3f4f3908	0.809464
5	0xbf6ddef0	-0.929183
6	0xbcc11ee4	-0.0235743
7	0xbfa82a45	-1.31379
8	0x3db6f12e	0.0893272
9	0xbdbc2a7b	-0.0918779
10	0xbe0b0293	-0.135752
11	0xbdf612c7	-0.120153
12	0xbf00b0d1	-0.502698
13	0x3d45e354	0.0483125
14	0x3f067514	0.525224
15	0x3ecc013f	0.398447
16	0x3f2d1f92	0.676263
17	0xbceb4239	-0.0287181
18	0xbeeeb335	-0.466211
19	0xbcaf0cc8	-0.0213684
20	0xbe144f5d	-0.144834
21	0x3e16c26a	0.147226
22	0x3d8604ba	0.0654387
23	0x3ed56c51	0.416842
24	0xbf2f2af1	-0.684249
25	0xbc0cfe60	-0.00860557
26	0xbef2f6c7	-0.474539
27	0x3f007970	0.501853
28	0x3c370982	0.0111717
29	0xbe0d2392	-0.137831
30	0xbe9281ba	-0.286146
31	0xbf0c9a78	-0.549232
32	0x3e503cd1	0.203357
33	0x3cb623a8	0.0222338
34	0x3f6cd2c4	0.925091
35	0x3ddf66e8	0.109083
36	0xc014408e	-2.31644
37	0x3e52ecaf	0.205981
38	0xbf89320e	-1.07184
39	0xbf063d60	-0.524374
40	0x3e50620b	0.203499
41	0xbc20cd8b	-0.00981463
42	0x3f3d1106	0.738541
43	0x3f5c4f3c	0.860584
44	0xbef01cd6	-0.46897
45	0x3c3144b1	0.0108196
46	0xbe9dc22b	-0.308122
47	0x3e3cfb33	0.184552
48	0x3f27aecd	0.655011
49	0x3da14311	0.0787412
50	0x40257343	2.58516
51	0xbea700ce	-0.326178
52	0x3db31876	0.087449
53	0x3cb3ade2	0.0219335
54	0xbfa40dc3	-1.28167
55	0xbe6a276b	-0.228666
56	0x3d35d448	0.0443919
57	0x3f01e732	0.507434
58	0x3fffab22	1.99741
59	0x40074e90	2.11417
60	0x3f9d3f7d	1.2285
61	0xbf748c1e	-0.955263
62	0x3febb59e	1.84148
63	0xbcc026cc	-0.023456
64	0x3ea490e6	0.321418
65	0xbec9c843	-0.394106
66	0xbf74f2d0	-0.95683
67	0xbbd826f3	-0.00659644
68	0x3f35f4c3	0.710766
69	0x400ac17f	2.16806
70	0x3fbbcf81	1.46727
71	0x400842d9	2.12908
72	0x3f576ddb	0.84152
73	0x3f726b61	0.946951
74	0x3f8827a6	1.06371
75	0x4011faec	2.28094
76	0x3fa9234f	1.32139
77	0x3d85ac62	0.0652702
78	0xbb88f760	-0.00417988
79	0x3f3d014b	0.738301
80	0xbf3d7bb7	-0.740169
81	0xbfa0c155	-1.2559
82	0x3f87fb6a	1.06236
83	0xbf6d3059	-0.926519
84	0x3fbc284e	1.46998
85	0x3ea0e347	0.314234
86	0x3ff73238	1.93122
87	0x3f329186	0.697533
88	0x3f32fc16	0.699159
89	0x3f2cc8cd	0.674939
90	0x3f71e753	0.944936
91	0xbf9ade01	-1.2099
92	0x3f59376d	0.848502
93	0xbe6f7f8d	-0.233885
94	0x3f46978d	0.77575
95	0x3c90088c	0.0175822
96	0x3f507fed	0.814452
97	0x3f607e07	0.876923
98	0x3f833c0c	1.02527
99	0xbee629b7	-0.449537
100	0x3ffb3eab	1.96285
101	0xbe860115	-0.261727
102	0xbff27675	-1.89424
103	0x3d8612ac	0.0654653
104	0xbf712d34	-0.942096
105	0xbece5a9b	-0.403035
106	0xbcb5ebe0	-0.0222072
107	0xbfc1bb06	-1.51352
108	0x3facc543	1.34977
109	0x3fe35a32	1.77619
110	0x3e1c17a9	0.152434
111	0xbee4725c	-0.446185
112	0x3f6db164	0.928488
113	0xbcc5ceac	-0.0241464
114	0xbf5b7479	-0.857246
115	0xbb4ced59	-0.00312694
116	0x3ff478ea	1.90994
117	0xbcd7f2d0	-0.0263609
118	0x3f776b90	0.966485
119	0x4020b535	2.51106
120	0x3f960568	1.17204
121	0x3c5d404d	0.0135041
122	0xbf624a27	-0.883944
123	0x3fcce3bd	1.6007
124	0x3f446552	0.767171
125	0xc084150e	-4.12757
126	0x3f199e30	0.60007
127	0x3f487d80	0.783165
128	0x3c91665a	0.017749
129	0xbf2cec74	-0.675483
130	0x3f86c02f	1.05274
131	0xbf8afb7f	-1.0858
132	0x3d904337	0.0704407
133	0x3fe21523	1.76627
134	0x3fadf06f	1.3589
135	0x3feba29c	1.8409
136	0x3e566fd6	0.209411
137	0xbe11fb83	-0.142561
138	0x3ee384dc	0.444373
139	0x400411dc	2.06359
140	0x3fc03958	1.50175
141	0x3dd81494	0.105508
142	0x3edb1d50	0.427958
143	0x3e4b1184	0.198309
144	0x3fea5508	1.83072
145	0xbd1e2e54	-0.0386184
146	0xbf1559b4	-0.5834
147	0x3e520429	0.205094
148	0x3eb024b3	0.34403
149	0x3ec7ee91	0.390492
150	0x3e7a4b55	0.244428
151	0x3f17cc3a	0.59296
152	0xbfe011b2	-1.75054
153	0x3d0e42d4	0.0347317
154	0xbf973387	-1.18126
155	0xbecc3a00	-0.39888
156	0xbd2cf363	-0.0422243
157	0xbe48f4b6	-0.196246
158	0xbbdb860e	-0.00669933
159	0x3f4ada23	0.792391
160	0x3dd96399	0.106147
161	0x3e246cb9	0.160571
162	0xbfb20568	-1.39079
163	0xbca612b9	-0.0202726
164	0x3eda3487	0.426182
165	0x3f055ef2	0.52098
166	0xbfd6a5a4	-1.67693
167	0xbd06d557	-0.0329183
168	0x3eda1251	0.425921
169	0x3f3e6d16	0.743852
170	0x3f8ddbcb	1.10827
171	0xbe3e5754	-0.18588
172	0x3e6e7925	0.232884
173	0xbe13d146	-0.144353
174	0xbf45c832	-0.772586
175	0xbfffe2d6	-1.99911
176	0xbf8be76d	-1.093
177	0xbf3ec6ce	-0.745221
178	0x3ceb342c	0.0287114
179	0x3e1d7a14	0.153786
180	0x3e77d673	0.242029
181	0x3d06a0e9	0.0328683
182	0x3cb40266	0.0219738
183	0x3dd74bc7	0.105125
184	0x3f33c409	0.70221
185	0x3f450929	0.769671
186	0xbdf1f601	-0.118145
187	0x3eaea7f0	0.341125
188	0x3f2b852f	0.670001
189	0xbdeef0ae	-0.11667
190	0x3f389529	0.721026
191	0x3dae2146	0.0850244
192	0xbf092c06	-0.535828
193	0xbdd21f6d	-0.102599
194	0xbe9e9d30	-0.309793
195	0xbd042ceb	-0.0322694
196	0x3b928279	0.00447112
197	0x3e8ca559	0.274699
198	0xbf45c044	-0.772465
199	0xbf39b4dd	-0.725416
200	0xbebc9364	-0.368312
201	0x3f999557	1.19987
202	0x3d8ce896	0.068803
203	0xbd1c2b44	-0.0381272
204	0x3f161fd1	0.586423
205	0x3ed19392	0.409329
206	0xbc2c5ad2	-0.0105197
207	0x3fe9c098	1.82619
208	0x3f91018e	1.13286
209	0x3fb4d6a1	1.4128
210	0x3fb67daa	1.42571
211	0xbdbd90f0	-0.0925616
212	0xbfce4064	-1.61134
213	0x3cbc5c3c	0.0229932
214	0xbec0e001	-0.376709
215	0xbf902b95	-1.12633
216	0x403c60d4	2.94341
217	0xbb92142a	-0.00445797
218	0xbf5493d9	-0.830381
219	0x3ed7b331	0.421289
220	0x3f02d081	0.510994
221	0x3f18cf9e	0.596918
222	0xbfa657fb	-1.29956
223	0xbe93f184	-0.288952
224	0x3f243622	0.641451
225	0x3f832b56	1.02476
226	0x3eaa3d92	0.332501
227	0x3f04ee39	0.51926
228	0x3bc6ac62	0.00606303
229	0xbdbe7c2f	-0.0930103
230	0x3fb7775c	1.43333
231	0xbf98a1e0	-1.19244
232	0x3e8e1134	0.277475
233	0x3f478801	0.779419
234	0x3fd8a81a	1.69263
235	0xbe64b9cb	-0.223365
236	0xbf2ccc25	-0.67499
237	0x3ecd5b25	0.401086
238	0x3d9ebcef	0.0775088
239	0x3f4e42e1	0.805708
240	0x3f7eca68	0.995276
241	0xbf8b7af6	-1.08969
242	0xbfa5d1f6	-1.29547
243	0xbe8efe72	-0.279285
244	0x400e17c2	2.2202
245	0xbc861771	-0.0163686
246	0xbf6752db	-0.903608
247	0x3e8d7aff	0.276329
248	0x3f20ee7c	0.628639
249	0x3ee874c9	0.454016
250	0x3e5a5eff	0.213253
251	0x400b537a	2.17697
252	0x3f47aebc	0.78001
253	0x3d300cbd	0.0429809
254	0x3f51b489	0.819161
255	0xbf00aba4	-0.502619

layers.8.bias f4 [50]
0	0xbca1a3bf	-0.0197314
1	0xbe32c387	-0.174574
2	0x3fcc5293	1.59627
3	0x3ee345d0	0.443892
4	0x3fcdc67e	1.60762
5	0x3e9e1998	0.308789
6	0x3e983ada	0.297324
7	0x40380b4e	2.87569
8	0x3fa2602d	1.26856
9	0x3fde5311	1.73691
10	0x3f536f2a	0.825915
11	0x3f7b18db	0.980848
12	0x4005f30e	2.09296
13	0x402905a7	2.64097
14	0xc0203348	-2.50313
15	0xbfaf8df8	-1.37152
16	0x3fef913f	1.87162
17	0xbe4249a1	-0.189734
18	0x3f462a4e	0.774083
19	0x3f0aa23c	0.541538
20	0x405e01cd	3.46886
21	0x3f4d625a	0.802282
22	0x3ee5612c	0.448007
23	0x3fca540d	1.58069
24	0x4068b94e	3.63631
25	0xbfc1259a	-1.50896
26	0x3fb60bf6	1.42224
27	0xbe8a7efa	-0.2705
28	0xbcf5c28f	-0.03
29	0xbf633eab	-0.887675
30	0x400ebf5d	2.23043
31	0xc005cc3a	-2.09059
32	0xbef784cb	-0.483435
33	0x404c01f7	3.18762
34	0x3fcbb6ed	1.59152
35	0x3fab08ee	1.33621
36	0xbbafea94	-0.00536854
37	0xbf674906	-0.903458
38	0x3efcaec9	0.493521
39	0x3ef15a08	0.47139
40	0xc097fb01	-4.74939
41	0x4016b392	2.35471
42	0x3fbad7c7	1.45971
43	0xc03941c8	-2.89464
44	0x3fb6b7aa	1.42748
45	0xbec3c8e2	-0.382392
46	0xbf41d851	-0.757207
47	0xbc0dd2dc	-0.00865623
48	0xc02e1dfc	-2.72058
49	0xbf60257d	-0.875572
