resources/models/onnx/acas/ACASXU_run2a_5_8_batch_2000.onnx (onnx, 54456 bytes, 14 tensors)

layers.0.bias f4 [50]
00000000: 62a0 a3be 8351 a1be c345 c3bd c9c7 1ebe
00000010: 95a5 0c3d f2d0 d7be 228c af3d ee60 ecbe
00000020: 1ec6 34be 1ff4 6cbd b426 b1bc dba6 983e
00000030: 721a 52be 0075 8bbe b31f 4ebd 34bc d93d
00000040: cb4d 14be cf4b adbe b8d3 71bd 65e6 fe3b
00000050: cc27 5bbe 1078 d8be cbbc 753e d6fe 1ebe
00000060: aaf4 f3bd 5b7c fabe bf1a 96bc b845 14bd
00000070: 3f8c d8be 2271 1fbf 1de3 6fbd 4771 0e3e
00000080: 0b0e 9fbe a0e4 e93c 25ca aebe 821a 1ebd
00000090: a67c e83d e09d acbe 0ce8 c5be 221b a8be
000000a0: 64c9 4cbe 29ce d1bd ad88 3a3e 6cce 81be
000000b0: fe59 38bd 9619 a0bd dec9 afbe 6780 eb3d
000000c0: 2ba3 c13e 47e7 4cbe
-0.319583 -0.315075 -0.0953479 -0.155059 0.0343376 -0.421516 0.0857165 -0.461677
-0.176537 -0.05785 -0.0216249 0.298148 -0.205179 -0.272377 -0.0503232 0.106316
-0.144828 -0.338469 -0.0590398 0.00777893 -0.214019 -0.422791 0.239978 -0.155269
-0.119119 -0.48923 -0.0183233 -0.0361993 -0.422945 -0.62282 -0.0585662 0.139104
-0.310654 0.0285514 -0.341386 -0.0385995 0.113519 -0.337142 -0.386536 -0.328332
-0.199987 -0.102444 0.182162 -0.253528 -0.0450077 -0.0781738 -0.343337 0.114991
0.378198 -0.200101

layers.0.weight f4 [50, 5]
00000000: 3ca0 9cbf 84af 1abc c975 4fbf d529 8a3d
00000010: 6296 073d a725 a6be 27a5 2040 40d9 50c0
00000020: 1b40 89bc 87c3 0e3f ca17 34be 12da ce3f
00000030: 8ba6 d7bf 0861 a4bc e7e4 21bf 1328 e2bd
00000040: b307 8a3f a3e9 9c3f 3be2 003f dcd8 3cbe
00000050: f170 31bd 6b63 0c3f 86ac be3f f4e1 19be
00000060: b341 163e 475a 253d 0ce9 103f 300f 09bf
00000070: 81c5 ab3c be9f 96bf 2993 2abe f564 9e3e
00000080: 629e f53d 28f3 afbe 2db4 d33e f10d 4cba
00000090: d4b7 a43f 7446 ccbf 94fe 19bd caa9 f53e
000000a0: 0c3d c23d 2063 92bf eef0 723d b75f 9e3e
000000b0: 965a f7be f11d 8b3d f951 68bd f316 f43c
000000c0: 8cf5 a5be 83a1 3ebe fd13 83b8 6fdb 1e39
000000d0: b4fa cf3c f05f 6abc 415a 0c3b a1b9 8a3f
000000e0: 91fe 4d3c 27e2 04bc 2925 a43d b9a9 613d
000000f0: 942d 87bd c572 8b3f c32e ca3d 8331 323e
00000100: 3d10 793e c91c b03c d9ce abbf b37b 9abf
00000110: e676 133f 425d 64be 118d eebd fe29 1dbf
00000120: d8bc 2e3f 34ff 3fbb d0f1 51be f371 8ebb
00000130: 6610 0fbf 02d2 93bd b807 513e 0778 52bc
00000140: e09d 0cbe db50 cdbf 8c9d a0be b760 69be
00000150: 6990 f23e 1947 abbd efc9 1bc0 c1ff de3f
00000160: 2e23 503d 36b0 bdbe aea0 243d 9833 f3be
00000170: 9775 5fbf 37e2 b93e 7aa9 c8be 23ad e7bc
00000180: ab53 4f3d 8d60 833e e7e3 52bf 0950 533f
00000190: 3563 91bf f2eb 57be f6fa b93d 5e83 96be
000001a0: 0c6e 703d b9c2 fb3d a1a1 9fbf d95f 863f
000001b0: 6f80 293e 3cc0 33be 8fba 273d 317d 3b3f
000001c0: cd06 a9bf ad86 c4be badc 603e 30d6 f73d
000001d0: 9cbf c53f 2b89 0cbe 59dd b23e 9d2f 02bf
000001e0: 5bea a03e 5263 da3e a1a0 bc3e d771 97bc
000001f0: fab5 853d cb8f 2ebd f86b b6bf eba8 d63f
00000200: 188d 06bd 0891 043f be2e 643b 289c 113f
00000210: be87 97bf aa43 d63e b801 cfbe 499c d53c
00000220: dfc3 0740 0fb7 23be 95bb f73e 5dbf 20bf
00000230: 4d31 42bd 9967 71bf fcc6 8b3f 63f2 46bd
00000240: e4a3 553e 622e 29bc 0ed4 2ebd 3ccf 293d
00000250: 94e2 3ebc 3b53 d8bf 8ba1 81bd b56c e1bf
00000260: 2f8f 10bd dd27 af3e 586f 08bf 1929 6abd
00000270: 221a 11bf 17d7 00bf fa47 9fbe a4fc 443e
00000280: 255f a4bd 7cd5 aa3f 8880 dbbf 861b 70bd
00000290: 3f35 f63e 9d3f b7bc c45d edbe 1821 b0bf
000002a0: b211 e8bd c361 093e 8aa6 983c 1634 1d3f
000002b0: 4f03 4abf fb92 1dbe 828f 993e 7dd1 b9bd
000002c0: 44f8 67be 5d70 61bc 677f e03e 8961 03bf
000002d0: 1003 2d3e 4451 983f 2cf1 503e cfba 023f
000002e0: 7170 2ebd 7e50 bc3d 1ec2 483f dbbf 9ebf
000002f0: 9978 a2b9 d144 c3bd 809f 11c0 a470 fd3d
00000300: cd76 05be 3f29 693d d0c5 45ba 36b3 f1bb
00000310: 2ee7 9e3f 87a6 5cbf 7c53 05bc 295f 103e
00000320: 3057 50bd 0c1f e93f d158 fb3d 48ec e6bb
00000330: 3f8b a5be 2fbf 53bf 8483 3d3e bd67 293d
00000340: 38c0 bc3d 11ff 40be 7343 783c 331a d93e
00000350: 5d16 c3be be6a 893f 8ae5 9ebf ca8d 12be
00000360: 382d a8bf 7975 c63f 063a 49bd 2195 023f
00000370: 6d16 543c f7b1 9abe 3b22 fa3c 9b02 d93e
00000380: 573e 1b3e 0ce5 e4bd 9e7a 543f e012 703e
00000390: c68b 493f 0ce9 54bf baa0 04c0 67b4 f5bd
000003a0: cadd 073e 36b0 753d 64ce c938 a98f 16bd
000003b0: 926b 343d 5e68 a2bf b051 9b3d 38dc 073e
000003c0: 8927 d33e e812 86be 793a 5b3f 897e 753f
000003d0: 3815 95bf 45f2 b53d a586 563e 61c6 9c3e
000003e0: aef0 6e3e 9eec 1e3f
-1.22364 -0.00944126 -0.810391 0.0674626 0.0331024 -0.324506 2.51008 -3.26326
-0.0167542 0.557671 -0.175872 1.61603 -1.68477 -0.0200658 -0.632399 -0.110428
1.07836 1.22588 0.503452 -0.184421 -0.0433206 0.548392 1.48964 -0.150276
0.146735 0.0403693 0.566056 -0.535388 0.0209682 -1.17675 -0.166577 0.309364
0.119931 -0.343652 0.413484 -0.000778406 1.28686 -1.5959 -0.0375963 0.479811
0.094843 -1.14365 0.0593118 0.309324 -0.483113 0.0679282 -0.0567188 0.0297961
-0.324139 -0.186163 -6.25029e-05 0.000151498 0.0253881 -0.0143051 0.00214161 1.08379
0.0125729 -0.00811056 0.080149 0.0550935 -0.0660049 1.08944 0.098722 0.174017
0.243226 0.0214981 -1.34225 -1.2069 0.576033 -0.223012 -0.11648 -0.613922
0.682569 -0.00292964 -0.205024 -0.00434708 -0.558844 -0.0721779 0.204131 -0.012846
-0.137321 -1.60403 -0.313702 -0.227908 0.473758 -0.0836317 -2.4342 1.74218
0.0508148 -0.370485 0.0401923 -0.475003 -0.872888 0.363054 -0.391918 -0.0282808
0.0506169 0.256596 -0.82379 0.82544 -1.13584 -0.210861 0.0908107 -0.293971
0.0586987 0.12293 -1.24712 1.0498 0.165529 -0.175538 0.0409494 0.732379
-1.32052 -0.38384 0.219592 0.121014 1.54491 -0.137242 0.349345 -0.508539
0.314288 0.426539 0.368413 -0.0184869 0.0652885 -0.0426176 -1.42517 1.67703
-0.0328494 0.517838 0.00348179 0.568789 -1.18383 0.418485 -0.40431 0.0260755
2.12133 -0.159878 0.483853 -0.62792 -0.0474103 -0.942987 1.09201 -0.048571
0.208633 -0.010326 -0.0426827 0.0414574 -0.0116507 -1.69004 -0.0632964 -1.76113
-0.0352928 0.342101 -0.532949 -0.0571681 -0.566805 -0.503282 -0.311096 0.19237
-0.0802596 1.33464 -1.71486 -0.05862 0.480875 -0.0223692 -0.463606 -1.37601
-0.113315 0.134162 0.0186341 0.614076 -0.789113 -0.153881 0.299923 -0.0907316
-0.226533 -0.0137597 0.438472 -0.513207 0.168957 1.18998 0.204045 0.510663
-0.0425877 0.0919504 0.784212 -1.24023 -0.000309889 -0.0953461 -2.27536 0.12375
-0.130336 0.0569241 -0.000754443 -0.0073761 1.24143 -0.861916 -0.00813758 0.140988
-0.0508644 1.82126 0.122728 -0.00704721 -0.323328 -0.827136 0.185072 0.0413587
0.0921635 -0.188473 0.0151528 0.424028 -0.38103 1.07357 -1.24138 -0.143119
-1.31388 1.55046 -0.0491276 0.510088 0.0129448 -0.302139 0.0305339 0.423848
0.151605 -0.111765 0.829996 0.234447 0.787289 -0.831681 -2.07231 -0.119973
0.132682 0.0599825 9.62287e-05 -0.0367581 0.0440479 -1.26881 0.0758394 0.132676
0.412411 -0.261863 0.856361 0.958962 -1.16471 0.088841 0.209498 0.306201
0.23334 0.620798

layers.10.bias f4 [50]
00000000: 7bdb 183f e258 5140 b3ef 3abf ba4e b340
00000010: 86d2 6d3d 499d 62c0 d656 4040 76d8 09bd
00000020: 315e ebbe 5bce 5bc0 2506 e13f 020c 433f
00000030: 2cb7 7ac0 dafe b13f 27da 8d3f 2445 ccbf
00000040: 7c9c 49be 726d 1ec0 f180 22be 9b72 09c0
00000050: 7f6a 3a40 5f0c 0fc0 89d2 89c0 d23b f0bc
00000060: 6576 71bc aef0 90c0 9811 833d e943 8140
00000070: 6687 183f 1557 3d40 7a55 af3e e04a ca3f
00000080: 624e e83e ae47 9d3f 3b37 353f 74d1 e03e
00000090: 3b70 e440 a800 90bf 6d1c 3dc0 d027 86bf
000000a0: e4da 06c0 0d37 dc3f 75c8 a9bf d943 5b3f
000000b0: dcda fa3e ae81 c9bf d36a a03f 60ea 53c0
000000c0: 1557 f13f 75b0 52bf
0.597099 3.27105 -0.73022 5.60336 0.0580621 -3.54085 3.0053 -0.0336537
-0.459703 -3.43447 1.758 0.761902 -3.91743 1.39059 1.10822 -1.59586
-0.196886 -2.47543 -0.158695 -2.14762 2.91275 -2.23513 -4.30695 -0.0293254
-0.0147377 -4.52938 0.0639984 4.03954 0.595816 2.95844 0.342449 1.58041
0.453723 1.22875 0.707874 0.439098 7.1387 -1.12502 -2.95486 -1.04809
-2.10711 1.72043 -1.32643 0.856504 0.489951 -1.57427 1.25326 -3.31118
1.88547 -0.823005

layers.10.weight f4 [50, 50]
00000000: 50e4 6dc0 446f ccbd dc77 163d 2ffa 42c0
00000010: 44a8 0ac0 65a5 c1bf c1a8 883f addc 5fbf
00000020: 7cb8 20c0 478f 27c0 70e9 0cbf 408a 823e
00000030: 2714 80c0 1118 0bbd bcae 2fc0 31eb 87c0
00000040: 60ab 20bf 6277 0d3c 6b0d 51bf b752 593d
00000050: 94d9 52c0 e38d 88bf 234b 46be 15b4 5fbd
00000060: a6d5 d0bf 9869 01c0 03a6 dd3c 3350 d93d
00000070: 7d41 c9ba ce8d ad3f b211 5ec0 e1b5 83be
00000080: c90d 95bd 1765 bebf d00a 56c0 0740 acbe
00000090: c7a6 2bbd 04d0 01bc f8c2 88c0 ec4c 67c0
000000a0: 506f d63e 448b 30c0 d140 943e f0a7 663d
000000b0: efe1 3ec0 3cda 28bf 2107 c5bf 0725 90bf
000000c0: 8ca1 ccbf 8594 bbbf 76fa 71be 6b2b adc0
000000d0: 3fc9 05bf 5b99 b0bf e597 69bf cf2c 1bc0
000000e0: 8318 643f a7ec fcbe 8907 91c0 aa45 5cbf
000000f0: 541c 4bbf 3cbd 52c0 37fc 72bf 416b 993c
00000100: 2cf1 0ac0 91d0 22c0 ea09 a0c0 376c 81c0
00000110: 0dff 99be bf9a 9fbf 5af5 dec0 b3b5 04c0
00000120: 7e18 d1be 1618 febf 13b5 243e 9be6 79c0
00000130: eba7 6fbf 2634 693d cd06 09c0 4642 afbf
00000140: 27c2 9a3f 7008 f1bf edbb 26c0 2c65 adc0
00000150: 334e 43be 4964 bfbe 0282 13c0 d521 0fc0
00000160: fb79 9dc0 b325 13bf 1635 4ec0 edd8 84c0
00000170: 2db2 c53e 18b3 353e 1765 9bc0 a5a0 c3bf
00000180: 8a8e 40c0 8848 9dbe a4c2 44c0 c51b d1bf
00000190: 0f81 d3be 6859 7f3f eba8 4440 e822 afbd
000001a0: 7e74 fe3f b570 45bf e354 233f e02a 67bf
000001b0: 8a3d d43e 917c 593f de05 2abe 4209 3bc0
000001c0: 53cb 0a40 fda0 1ebe e203 9bbe 8060 c23f
000001d0: f510 59bf 1286 493f 247e 453f f67f 0c40
000001e0: c899 123f 65b4 643d 5917 9b3f f239 8c3d
000001f0: 8b89 7d40 c4eb 92c0 7a1b 13bf 0394 56be
00000200: 1c42 b13f 21b0 ca3f 7bbd 0540 300d 1740
00000210: c381 883f 35b3 c63e ef03 a83f 0e12 babe
00000220: 0517 0740 1558 e83e 2041 d93f 4608 0d40
00000230: 67d5 41c0 e275 0dc0 93c6 94bf 2d3e c93f
00000240: 6e86 35c0 cbba 1fbe 66a0 4040 b5c6 643f
00000250: 823b 603f 2bfb 2840 8a02 8dbf e466 6cc0
00000260: 5ce7 9fbe 7c2c a2c0 24f2 55bf 0b0a 133f
00000270: edbb ba3f fcfb 6ac0 6406 38c0 3012 96c0
00000280: fd13 fcbd b807 e93e 7077 d5c0 eab3 3ebd
00000290: b840 0ec0 d9ce e3bf e71d 82c0 3563 a1bf
000002a0: eca3 bbbf f69a 5a3f ba83 883f 1809 9ac0
000002b0: 7c42 46be edf1 0e3f 2db2 dcc0 e258 3fc0
000002c0: cee3 d0bd a2d1 05c0 f4f8 95c0 50df aebf
000002d0: 59dd 98c0 b684 9dc0 1904 de3e d68b 3dc0
000002e0: 9f59 16c1 bfd4 c3bf 8889 01bd 90f5 443e
000002f0: 0e95 00c1 1c99 cfbf 87a8 da3e 9d11 57c0
00000300: 3ec3 823b c959 84bf 38f8 4ec0 b402 33c0
00000310: 9109 183e 9d4b d6c0 4703 30c0 4260 9ec0
00000320: 6803 d0bd 603b c03e 3eb3 0cbf 05e1 12bf
00000330: 6972 b1be dec7 813e 4ed5 7dbe c30c 6d3e
00000340: 759e 67bc 62a1 bebe 5cc4 cc3d ce6c b7be
00000350: 8f8b 1e3f 3009 9b3b b9c3 de3e 74ea eebf
00000360: 067f 3f3d 9483 1dbf bb06 82bd c409 ec3d
00000370: e737 243f d3be f9be cfa0 21be 5c4e c33d
00000380: d3ec bbbd ab79 2abf ccb4 21bf 0f26 0d3f
00000390: 13ef 503e 971a c1be 6403 393e 0455 13be
000003a0: 66dc 08bf d56d 9a3d bbec 7bbf 6f45 e2bd
000003b0: 8c84 82bf 005b 99bd 0ea1 b2be 7027 813e
000003c0: 7844 d5be ae67 00bf ba11 d6bd 3eea ffbe
000003d0: bdc2 973d b2b7 b93c 38f3 933f 8414 fa3a
000003e0: 15ac 2dbf 1c42 c9bf 2d0b 16be 72fe 5240
000003f0: b75d 2240 5ed8 1e3f 5795 bd3f 168a 743d
-3.71706 -0.0998216 0.0367354 -3.04652 -2.16652 -1.51286 1.06765 -0.874461
-2.51126 -2.61812 -0.550437 0.254961 -4.00246 -0.0339585 -2.74504 -4.24746
-0.627615 0.00863442 -0.816611 0.0530574 -3.29453 -1.06683 -0.193646 -0.0546151
-1.63152 -2.02207 0.0270567 0.10611 -0.00153546 1.35589 -3.46983 -0.257247
-0.0727802 -1.48746 -3.34441 -0.336426 -0.0419071 -0.00792313 -4.2738 -3.61407
0.418818 -2.7585 0.289557 0.0563125 -2.98254 -0.65958 -1.53928 -1.12613
-1.59868 -1.46547 -0.236307 -5.41155 -0.522602 -1.37968 -0.912474 -2.42461
0.890999 -0.493993 -4.53217 -0.860438 -0.793401 -3.2928 -0.949161 0.0187279
-2.17097 -2.54398 -5.00121 -4.04446 -0.300774 -1.24691 -6.96745 -2.07359
-0.40839 -1.98511 0.160847 -3.9047 -0.936156 0.0569345 -2.14104 -1.36921
1.20905 -1.88307 -2.60522 -5.4186 -0.190728 -0.373812 -2.30481 -2.23644
-4.92114 -0.574794 -3.22199 -4.15148 0.386125 0.177441 -4.85609 -1.52834
-3.0087 -0.307194 -3.07438 -1.63366 -0.413094 0.997458 3.07281 -0.0855158
1.98793 -0.771251 0.638014 -0.902998 0.414532 0.849557 -0.166038 -2.92244
2.16866 -0.154911 -0.302764 1.51857 -0.847915 0.787202 0.771456 2.19531
0.572659 0.0558361 1.21165 0.0684699 3.96152 -4.59128 -0.574638 -0.209549
1.38483 1.5835 2.08969 2.36018 1.06646 0.388086 1.31262 -0.363419
2.11078 0.453797 1.6973 2.20363 -3.02865 -2.21032 -1.16231 1.57221
-2.83633 -0.155986 3.00979 0.893657 0.875908 2.64033 -1.10164 -3.69378
-0.312312 -5.06793 -0.835726 0.574372 1.45886 -3.67163 -2.87539 -4.68972
-0.123085 0.455137 -6.67083 -0.0465583 -2.2227 -1.77975 -4.06615 -1.26084
-1.46594 0.853927 1.06652 -4.81361 -0.193613 0.558379 -6.89675 -2.9898
-0.101997 -2.09092 -4.68664 -1.36619 -4.77702 -4.92245 0.433625 -2.96166
-9.39688 -1.52993 -0.0316253 0.192343 -8.03639 -1.62186 0.427067 -3.36045
0.00399056 -1.03399 -3.2339 -2.79704 0.148474 -6.69673 -2.7502 -4.94925
-0.101569 0.375453 -0.54961 -0.573746 -0.346576 0.253478 -0.247884 0.231494
-0.0141369 -0.372325 0.0999839 -0.358252 0.619317 0.00473132 0.435087 -1.86653
0.046752 -0.615289 -0.0634894 0.115253 0.641478 -0.487784 -0.15784 0.0953643
-0.0917603 -0.665919 -0.631665 0.551362 0.204037 -0.377156 0.180677 -0.143879
-0.534613 0.0754048 -0.984081 -0.110484 -1.01967 -0.0748806 -0.348885 0.252254
-0.416538 -0.501582 -0.104526 -0.499834 0.0741019 0.0226706 1.15586 0.00190796
-0.678407 -1.57233 -0.146527 3.29678 2.53697 0.620489 1.48112 0.059702

layers.12.bias f4 [5]
00000000: 1f8e a4bc 6f8f 943c 67ba 97bc c7c3 963c
00000010: ebfb 95bc
-0.0200873 0.0181348 -0.0185215 0.0184039 -0.0183086

layers.12.weight f4 [5, 50]
00000000: ed31 6cbb 5d85 56bb 3ff1 ce3b 580e 23bc
00000010: 85f9 00bc 2325 283b f4fd 54bb 1c5c df3c
00000020: cea0 083b fa17 773b dd07 c13b c40c ff39
00000030: ed28 b13b 7179 873b 9134 ac3b 1c0d 3f3b
00000040: 6965 8c3b c1c2 8b3a 70d2 72bb d097 a03b
00000050: b372 543c 5560 92bc db0a 0a3b c70e 64b7
00000060: 6fc8 a5bd e5ef a03b fe57 a5bb f07a 9bbb
00000070: ae3c 54b9 bb3f e2bb 57fe a5ba 6c72 3ebb
00000080: e45b 69bc ffcb 35bc 509f 6c3b a623 c63b
00000090: b2dd 98bb bf1b 9c3b dd46 e23b 68e5 e23a
000000a0: 121c 0f3b 114f 7abb f005 5a3b f3ed 38bc
000000b0: 3dcd f23a ca20 d23a fdf1 c1bb 9967 213b
000000c0: bebb 783b ca6f 72bb 8f55 a53a 622c 02b9
000000d0: f459 2537 5f5c e2b9 9a53 7739 ecc1 2439
000000e0: 1ee5 1539 abe7 893c 35dd 42bb 6d7e 3a37
000000f0: d518 cb38 3fcf 7a3b 2723 92b8 2bd5 aa3a
00000100: ffae 033a 69fa 16b9 72b4 3fb9 e690 ca39
00000110: a10b 5b39 6d84 8f3a 7550 7eb9 6c96 aabb
00000120: b2ee 6a39 3184 12bd 2876 59bc a9bb 023a
00000130: 057f 17b9 0166 a53a c8c8 023c 8c17 05b8
00000140: 28bc 63bb d667 7c3a 2549 1b39 b8c9 87ba
00000150: e3ba a4b8 2769 3037 b961 29b9 86c6 bd39
00000160: f915 41b9 9a13 2c39 a675 59b8 7ad4 a93a
00000170: b316 263a f953 1939 dd65 373b 305b 90b7
00000180: b189 ccb9 9c4a b539 120c 313c dc5f 62ba
00000190: 1f6e 3c3a 3da6 9f39 8e1b 52ba 7293 363a
000001a0: 6970 cd39 1be8 83b9 47f8 9039 ae8e 0e3c
000001b0: f040 0f3c b0eb 98b9 e5f2 c1b7 036f 543a
000001c0: 8428 63ba 8ef9 0339 3e2a 55b8 3e10 43b9
000001d0: 711c 9eb9 cc10 d139 f132 4d39 c9b7 5cba
000001e0: abf2 c3b9 d18b a43b 2c5a 0db9 6433 51bc
000001f0: e77d 52bc 652f 26ba da2c a3b7 cb43 d038
00000200: 56d1 c43b 8c6c 2a3a af5a db3b faec 4739
00000210: cff1 1c39 3bf9 353a e4ef 83b9 76b0 d5b9
00000220: 13dd fc39 7de5 83ba 92ac 093a 1f46 acb8
00000230: d768 803a de38 ce3a 40c7 a2ba 8558 cd39
00000240: 75e3 823a b9e9 3eb7 f546 0239 fc8b 5dba
00000250: ddba 34ba 333e 1eba b1f0 dc3a 7c35 0e39
00000260: 5b61 93b8 bda5 91b8 1a6b 9fb8 9678 a839
00000270: fa4d ceb8 8ef1 97bc c690 35bb 987e 37b9
00000280: 1413 7438 3038 563b 5294 eb38 eedb ff3a
00000290: ca34 7f38 9c84 9839 7102 79b9 beca 36b8
000002a0: ab9e 23b9 5293 a63a 543e 8cb8 07d5 44bb
000002b0: 9171 8fb9 f0eb 563d 1b83 4ebc 8589 b33a
000002c0: f7b7 dbb8 e4ed ea38 78bd 0d3c 396a bf3a
000002d0: 4121 a3b7 a70b bf38 a627 d638 e325 27ba
000002e0: 14b2 4a38 c3f2 bd36 86a0 a7b7 b5a8 4639
000002f0: c17f 3839 86b7 7a3a 92d6 02b9 13a6 ae39
00000300: 9261 113a d61a 113a 7213 563b 0cb8 be3a
00000310: 1932 df38 ea70 06b9 3bdc 333c b300 37ba
00000320: 4c4f 9a3a 1d5b 8dba b928 bf39 48f9 dc39
00000330: c1a9 ca38 ed95 6eb9 c2e2 5039 9e47 a03c
00000340: 477d ccba fe29 bcb7 7766 a8b9 e540 113c
00000350: 62fc e836 6a48 c33a 3521 eab9 4cd3 903a
00000360: 4ac3 ee38 540a d33a 55eb a337 9503 2db9
00000370: c3b9 acb9 8fae 3639 1886 d439 4605 733c
00000380: fbc5 113d e324 833a 0611 703a c11c 20b9
00000390: 5bd6 f53b b912 18ba 6d80 843b 5071 f6b9
000003a0: d705 b939 3af0 c53a 02d1 0939 5750 9fb9
000003b0: 5c4d 2bba 59c7 b4b9 7da9 27bb 2d65 bb39
000003c0: 305f e23a 5abb 0a3b 0cd8 4439 2148 b53a
000003d0: 98da f33b 7541 d83a 5f84 5338 ae9f 203a
000003e0: e113 1cba 0e6d e4b9
-0.00360405 -0.00327333 0.00631538 -0.00995215 -0.00787199 0.00256569 -0.00325 0.0272656
0.00208478 0.00377035 0.00589083 0.000486469 0.00540649 0.00413435 0.00525529 0.00291521
0.00428455 0.00106629 -0.00370517 0.00490091 0.0129668 -0.0178682 0.00210636 -1.35933e-05
-0.0809487 0.00491141 -0.00504589 -0.00474488 -0.000202405 -0.00690457 -0.00126643 -0.00290599
-0.0142431 -0.011096 0.00361057 0.00604673 -0.0046651 0.00476405 0.00690542 0.00173108
0.00218368 -0.00381941 0.00332677 -0.0112872 0.00185243 0.00160315 -0.00591874 0.00246284
0.00379537 -0.00369929 0.0012614 -0.000124143 9.85571e-06 -0.000431749 0.000235869 0.000157125
0.000142951 0.0168341 -0.00297339 1.11159e-05 9.68442e-05 0.00382705 -6.96837e-05 0.00130335
0.000502333 -0.000143984 -0.000182824 0.000386364 0.000208898 0.00109495 -0.000242533 -0.00520592
0.000224049 -0.0357706 -0.0132728 0.000498707 -0.000144478 0.00126189 0.00798244 -3.17316e-05
-0.00347496 0.000962851 0.000148092 -0.00103598 -7.85494e-05 1.05149e-05 -0.000161535 0.000361968
-0.000184141 0.000164105 -5.18464e-05 0.0012957 0.000633578 0.000146225 0.00279843 -1.72086e-05
-0.000390125 0.000345786 0.0108061 -0.00086355 0.000718804 0.000304507 -0.000801497 0.000696472
0.000391844 -0.000251592 0.000276508 0.00870101 0.00874351 -0.000291673 -2.31205e-05 0.00081037
-0.00086654 0.000125861 -5.08225e-05 -0.000186027 -0.000301573 0.000398761 0.000195693 -0.000841972
-0.000373741 0.00502155 -0.000134804 -0.0127686 -0.0128474 -0.000633946 -1.9452e-05 9.93084e-05
0.0060064 0.000650116 0.00669416 0.000190664 0.000149674 0.000694174 -0.00025165 -0.00040758
0.000482299 -0.00100629 0.000525185 -8.21466e-05 0.000979687 0.00157335 -0.0012419 0.000391666
0.0009986 -1.13793e-05 0.000124242 -0.000845134 -0.00068943 -0.000603649 0.00168564 0.000135621
-7.02764e-05 -6.94501e-05 -7.60166e-05 0.000321333 -9.83737e-05 -0.0185478 -0.00277047 -0.000174994
5.81919e-05 0.00326873 0.000112333 0.00195205 6.08459e-05 0.000290905 -0.000237474 -4.3581e-05
-0.00015604 0.00127087 -6.68733e-05 -0.00300342 -0.000273597 0.0524711 -0.0126045 0.00136976
-0.00010477 0.000112023 0.00865113 0.00146038 -1.94466e-05 9.10976e-05 0.000102117 -0.000637619
4.83264e-05 5.6609e-06 -1.99827e-05 0.000189456 0.000175952 0.000956409 -0.000124777 0.000333116
0.000554585 0.000553531 0.00326654 0.00145507 0.000106428 -0.000128213 0.0109778 -0.0006981
0.00117729 -0.00107846 0.000364607 0.000421474 9.66373e-05 -0.000227533 0.000199209 0.0195654
-0.00156013 -2.24309e-05 -0.000321198 0.00886557 6.94352e-06 0.00148989 -0.000446567 0.00110493
0.000113851 0.00161011 1.95407e-05 -0.000164999 -0.000329448 0.000174219 0.000405357 0.0148328
0.0355892 0.00100055 0.000915781 -0.000152695 0.00750236 -0.000580113 0.00404363 -0.000470052
0.000352903 0.00151015 0.000131432 -0.000303867 -0.000653466 -0.000344808 -0.00255832 0.000357428
0.00172708 0.00211688 0.000187725 0.00138307 0.00744183 0.0016499 5.04296e-05 0.000612731
-0.000595389 -0.000435688

layers.2.bias f4 [50]
00000000: 4850 543f 0d17 19bd 419f fcbf 07d3 8cbf
00000010: 7138 c3bf a513 6dbf 925c 20c0 9591 c4bc
00000020: b0ca 653e 96cf 623e bada 7a3e b58d 2f3f
00000030: 7ae2 19be 4888 4a3f 0d54 babf 8813 40bf
00000040: ffb9 43bc c619 6fbf 40f6 aa3e 7b3e b5bb
00000050: 1adf 0b3f cb60 31bc 9f93 923f 338a 953f
00000060: 03b2 bb3f 09d3 41bc b439 e63e 417d 533f
00000070: 4f36 0a3d 1286 61be 74b5 19bf 5d35 43bf
00000080: 10e8 ecbd db36 9c3d a228 0c3f 3c14 b9bf
00000090: c633 e0be 473d 343e 6360 cdbe 2283 26bc
000000a0: de9b 353d 211b abbb c93c c63f 1d77 a6bf
000000b0: 06a0 71bf be13 5bbf cd1c f7bc 691a 94be
000000c0: 2139 1fbc 0c76 d33e
0.82935 -0.0373755 -1.97361 -1.10019 -1.52516 -0.926081 -2.50565 -0.0239952
0.224406 0.221495 0.244975 0.685756 -0.150278 0.791142 -1.45569 -0.750298
-0.0119462 -0.933987 0.33391 -0.00553113 0.546373 -0.0108263 1.14513 1.16828
1.46637 -0.0118301 0.449659 0.82613 0.0337432 -0.220238 -0.600425 -0.762533
-0.115677 0.0762765 0.547495 -1.44593 -0.437895 0.176015 -0.401126 -0.0101631
0.0443381 -0.00522174 1.54873 -1.30051 -0.943848 -0.85577 -0.0301651 -0.289264
-0.00971821 0.41301

layers.2.weight f4 [50, 50]
00000000: b43c 8f3e 28bb 69bf ed99 e5be 3277 cd3d
00000010: 1536 733e 3a23 fa3f 5f81 633d fb74 0cc0
00000020: 8386 be3f 1bf6 eb3e 0829 0fbc 978b 8c3f
00000030: 84bb f33d 59fa b8be 7ba0 d9bf 350b 44be
00000040: 34da 4a3e 6611 6dbb 399b 163f 6d58 ebbe
00000050: d3d8 1e3d df6c d7bf fb29 493d 5244 d63f
00000060: cd23 ffbf c217 a6bf 3ace 0dbf 8462 db3e
00000070: 2d3f 54bf f59e eabe 92e9 e83e b344 57be
00000080: 2cd4 96bf d786 323f c004 b6be dc2e 0ac0
00000090: c0ea e83d f46f cf3e 01a3 0b3f 287e a4bf
000000a0: 450d fe3e 1e99 a8bd e205 013e fc35 89bf
000000b0: ebe1 0b3e 7d77 63bf 0af6 c73e d252 c13f
000000c0: 7d06 84be b136 363f 93e8 403c 79ee 78bd
000000d0: 13ae 91ba 2067 f5bc 2455 25bd 07c8 3c3c
000000e0: cb4f c33a 8f6b 68bc 3a64 f9bc 4977 023c
000000f0: e0b9 1cbd 4d06 d13c 8f80 1bbd 9137 0abd
00000100: 9b14 103d 7289 e3bc 378b b8bb 7795 bfbc
00000110: 853e fdbc 5de4 19bd 3fdb 0fbd 1dd1 98bc
00000120: bb7c ab3c 9426 6f3c fe6a 843d e545 263c
00000130: 0f1d ed3b 8dfa 3abd 6326 313d 1233 bbbc
00000140: 67b0 8e3c 5a5c caba 0721 65bd b134 f0bc
00000150: 7009 00bc a59b 693c 8ec0 a93c ced3 293b
00000160: 975e 56bd 7049 063c 442a 36bd be67 44bd
00000170: e3fb a23c 6fb8 8fbc 4382 53bd 6cd5 093d
00000180: b5fe 51bd 5fe5 753c 8614 2dbd 0389 37bd
00000190: 8c68 033f d272 e0bd 64b1 b53e 685c 883f
000001a0: 4f1e 9a3f 7446 b43f 90a0 b0bf cae6 c53d
000001b0: 4068 7d3e 5f7b ce3f e74c ffbc 9a08 873f
000001c0: 7fa4 a03f 8122 263f 85cf 563f d5b4 3fbf
000001d0: 546f 0dc0 0ca0 2d3b 815a ec3e 83c2 e8be
000001e0: 1cec b53e 5f7c 813e 4fc9 e93e 71c9 e13e
000001f0: 1630 493f 3f1c 583f ff7a 653e d7a4 a33e
00000200: ce8d e93f 7407 813f b762 7fbf a016 3f3f
00000210: 31b7 bbbe 42ea 46be 5fd1 5d3e 6092 4a3f
00000220: b554 02bf 1101 47be 3e96 1e3e 567d d63f
00000230: 17d9 c2bf 0072 92bd bd8f 233e 0cac c8bd
00000240: b0ca 8d3e 1732 a23d fbac 12be 2b86 b3be
00000250: cf4a d2be 9c69 eabe 363f 463f 2795 7a3d
00000260: 541b c4be 7099 8b3f e8bb eb3e 04e6 193f
00000270: f530 943e 6c7a d83e 0214 7e3d fe43 3240
00000280: d7e9 b6bc e448 bf3e b6a1 8ebf 4d2d afbf
00000290: 543a b03e 2384 93bf a71f 9cbe d3f7 3abe
000002a0: a69b bc3f b213 42bf 3b1b e23e 42ee 823e
000002b0: fd6a 2abf 8d0c d23e 1699 ca3b e17f cb3e
000002c0: 7ea8 743e afec 06bf 3928 f53f 745e b33f
000002d0: d368 42be cf14 eebf b6b9 093f f487 16be
000002e0: 8bfc 4abe 73be 383e 569e 003e 853f 433e
000002f0: 5184 603f 4d32 cabe 48bf e5c0 b4b0 833f
00000300: cf69 463e 04d9 fcbc 226c 88bf 92ce 403f
00000310: a5a0 0bbe bb98 5a3f 64cd a8be 552f 3fbe
00000320: d23a c2bf c77f 2d3f 0e67 9a3f b459 a1bf
00000330: 8599 e6bf 51f7 b1bf d0b8 b0bf 3a04 423f
00000340: af5a 1dc0 c2fa cbbf 18d7 d3bc 0586 8cbe
00000350: 9866 bf3d 4a7d e9be 1b81 68be 1344 05c0
00000360: a183 1ebf 8547 963d 6f2f b9be 5ef7 22bf
00000370: 3c66 10c0 2896 3ebb 85d2 573e 88f6 413e
00000380: 4243 3bbf 1e9b 6e3d 33dd 7b3e 8528 d73e
00000390: 43c4 6e3b 9f3c 89c0 14ea e9be 73f4 b8bf
000003a0: 4a96 3b3f 1078 58bf febf 853d 3960 27be
000003b0: 5fd2 a03f 2b6a 1e40 b4ab bcbf 1006 f23f
000003c0: 2731 a8bf d7a2 653f 5c1f d6be e944 423d
000003d0: 2ae3 13bf 1491 26bd c347 e8bf 103c 4ebe
000003e0: bf81 193e c808 b0be c7f4 34be 40a1 86be
000003f0: a1be 39bf 5c58 0fbf 07b1 0bbf 08aa 9e3e
0.27976 -0.913012 -0.44844 0.100325 0.237511 1.9542 0.0555433 -2.19464
1.48848 0.460862 -0.00873781 1.09801 0.11901 -0.361285 -1.70021 -0.191449
0.198098 -0.00361737 0.588306 -0.459659 0.038781 -1.68301 0.0491123 1.67396
-1.99328 -1.2976 -0.553928 0.428486 -0.829089 -0.458244 0.454907 -0.210223
-1.17835 0.69737 -0.355505 -2.15911 0.113729 0.405151 0.545456 -1.2851
0.496195 -0.0823233 0.125999 -1.07196 0.136604 -0.888542 0.390549 1.51034
-0.257862 0.711772 0.0117742 -0.0607743 -0.00111145 -0.0299564 -0.0403644 0.0115223
0.00149011 -0.0141858 -0.0304433 0.00796301 -0.0382632 0.0255157 -0.0379644 -0.0337444
0.0351759 -0.0277755 -0.00563183 -0.0233867 -0.0309136 -0.0375713 -0.0351212 -0.0186544
0.0209335 0.0145966 0.0646572 0.0101485 0.00723613 -0.0456491 0.0432495 -0.0228515
0.0174181 -0.00154389 -0.0559397 -0.029322 -0.00781475 0.0142583 0.0207217 0.00259136
-0.0523363 0.00819622 -0.0444739 -0.0479505 0.0198955 -0.017544 -0.0516379 0.0336508
-0.0512683 0.0150083 -0.0422559 -0.0448084 0.513314 -0.109594 0.354869 1.06532
1.20405 1.4084 -1.3799 0.0966316 0.247468 1.61314 -0.0311646 1.05495
1.25502 0.648964 0.839104 -0.748853 -2.20992 0.00264931 0.461628 -0.454609
0.355317 0.252902 0.456614 0.44099 0.78589 0.844181 0.224102 0.319617
1.82464 1.00804 -0.9976 0.746439 -0.366632 -0.194253 0.216619 0.791296
-0.509105 -0.19434 0.15487 1.6757 -1.52225 -0.0715065 0.159728 -0.0979844
0.276937 0.0791971 -0.143238 -0.350633 -0.410727 -0.457837 0.774402 0.0611774
-0.383021 1.09062 0.460418 0.601166 0.289436 0.422809 0.0620308 2.7854
-0.0223283 0.373603 -1.11431 -1.36857 0.344195 -1.15247 -0.304929 -0.182586
1.4735 -0.758113 0.441614 0.255724 -0.665695 0.410252 0.0061828 0.39746
0.238924 -0.527049 1.91529 1.40132 -0.189853 -1.86001 0.53799 -0.147003
-0.198229 0.180414 0.125604 0.190672 0.877019 -0.394915 -7.1796 1.02883
0.193763 -0.0308652 -1.0658 0.753152 -0.136355 0.853893 -0.329692 -0.186704
-1.51742 0.677731 1.20627 -1.26055 -1.80156 -1.39036 -1.38064 0.757877
-2.45866 -1.59359 -0.0258594 -0.27446 0.0934574 -0.456034 -0.227055 -2.08228
-0.619196 0.0733786 -0.36169 -0.636587 -2.25624 -0.00290812 0.210764 0.189417
-0.731495 0.0582534 0.245961 0.420231 0.00364329 -4.28865 -0.456864 -1.44496
0.732762 -0.845582 0.0653076 -0.163453 1.25642 2.47523 -1.47399 1.89081
-1.314 0.897016 -0.418208 0.047429 -0.577685 -0.0406657 -1.81469 -0.201401
0.149909 -0.343817 -0.176715 -0.262949 -0.725565 -0.559942 -0.54567 0.309891

layers.4.bias f4 [50]
00000000: a54d 1d3f 7b49 93bf 8fc7 c03f a3ea b2bc
00000010: 73ba 8c3f 2b31 273f 3fe4 2dbf ff09 16bf
00000020: b1a4 9c3e 459f 7fbf a9de a6bf 09fe 9b3f
00000030: 6492 9dbf 99bc 89be d367 07be d89a 25bf
00000040: 840d ffbf f392 6fbf 43e2 2ac0 18d0 2f3f
00000050: b285 ecbf 5000 61bf b48e 92bf 91ed 24bf
00000060: 029c 0ebf 3f70 15be 32c9 14c0 a86f d93f
00000070: 987d 08bd b0af 693f fcff 18be 9300 29c0
00000080: ecac ccbc 899a 44bf 0052 a73f e76f b6bf
00000090: f0a3 fabd c223 60bc 43c5 44bf 06a0 11be
000000a0: fd6c 34be be87 87bf 13d5 c3bf fd87 3cbf
000000b0: 1075 57bf bad1 31bd 6a6a a9bf 7ac2 a23f
000000c0: 4a07 93bf 2a52 d5bf
0.614466 -1.15068 1.50609 -0.0218404 1.09944 0.653094 -0.679264 -0.58609
0.305944 -0.998524 -1.30367 1.21869 -1.23103 -0.269017 -0.132232 -0.646894
-1.9926 -0.935836 -2.67006 0.686769 -1.84783 -0.878911 -1.14498 -0.64425
-0.557068 -0.145936 -2.32478 1.69872 -0.0333229 0.912837 -0.149414 -2.64066
-0.0249848 -0.767983 1.30719 -1.42529 -0.122383 -0.0136804 -0.768635 -0.142212
-0.176197 -1.05883 -1.52994 -0.73645 -0.84163 -0.0434129 -1.32356 1.27156
-1.14866 -1.66657

layers.4.weight f4 [50, 50]
00000000: f8f9 cfbd 8ccd 583d 5778 0b3f 0778 7a3f
00000010: c094 05bf 001f 14bf 5fff 5fbd dcdf f43c
00000020: e9f0 c0be 3886 4c3f ae2a b33e 575d 03bf
00000030: 08e9 c13e af21 00bf 912c 50be 00a8 12be
00000040: 1aba 02bc 033e 1b40 ee4e bdbd 3b56 29bd
00000050: 26fc f23d 30a9 503d 9d0d d9be 7b30 59be
00000060: 3fe6 13be 9250 443d b4c9 0d3f 1d55 95bf
00000070: 20ee 223f 0308 f73e 959a c13f 9e45 33bf
00000080: 1363 89be 880e 053f bbd2 d23d f09c 123c
00000090: 8881 363f be12 e8be f7ad f63d ef4f 2ebd
000000a0: 766f fdbe e888 97bc 467a 61be d00b 373e
000000b0: a297 89bf 1f14 34be 925d 69be eacf ca3f
000000c0: 3754 ebbb 9fc7 0c3f dbdd 733e cb9c eebc
000000d0: cd3b 86bf d1dc 943c 724d 21be c32d 2fbe
000000e0: cc7b 3c3f 43d9 25bb 7e8c 6bc0 f71d 83be
000000f0: 5798 66bf 7fa2 82be a73f d3bf d68f 853e
00000100: 488b 533e 3141 2d3e 037f 15bb 3602 5dc0
00000110: afe7 a0bd ca44 9b3c 1adc a63e 8f6e e33b
00000120: 9bff 17bd e608 793d f5fe c53d bf89 17bd
00000130: 38b5 d8bc 68eb 7c3f c51a 2a3f bd18 7abe
00000140: 4144 c23e 7171 f4be d6c8 0e3f 1f80 82c0
00000150: 32b0 2e3e b456 603f 0265 c7bf 8aae 5bbe
00000160: 5f14 b3bd b807 01bd 9982 09bf 8cd1 1f3d
00000170: eb52 433e 7a50 40be f5f6 2bbf d7f7 613f
00000180: c361 053f deb0 15c0 6a42 443d f437 55c0
00000190: b521 8a3d 55d4 05bd 3f90 973d 990f 58be
000001a0: 1250 e13e 494b 153e dcb8 21bf 02f3 903c
000001b0: bd3a a73f f640 bfbf a8ab 37bf 490e d0be
000001c0: 2e56 8c3f 988a 7dbe 99d3 d1bf 1ae1 ad3e
000001d0: 0c20 df3a 3b72 fcbe 2331 813e e292 00bc
000001e0: a359 d9bd 5064 183c 2199 093d 9773 79be
000001f0: 3716 243e 229d d538 bc74 633e 7afd 993e
00000200: 3d0a 77be 3107 4dbf d5cb 13bf dbc4 b93f
00000210: 40c1 c5be 630c 24bf 44fa 2d3e 0e83 79bf
00000220: 4e80 31be b279 91bd f298 8dbf 3da9 20bd
00000230: a8a7 6fbe 00d0 37bd 95d8 19bf 67f3 78be
00000240: 58e2 e53f d47f 5a3f b48e 8ebf f5f4 61be
00000250: 0355 88bc 7d23 da3d d846 bcbc 6f7d dc3b
00000260: 8532 83bc 971d 623c b2bd 963c 45e1 29bd
00000270: 07ab 3bbd 8d2a 433c 8dad 11bd b94e 48bd
00000280: 5bb0 b93c 7708 2dbd e4a0 c43c e45e 2abd
00000290: 765a 6d3c 1f2d 4ebd 222d 5fbd 4f37 b53c
000002a0: 4c5b 52bd f64e 5bbd a230 9e3c 6528 383d
000002b0: b033 89bb 6371 893c ebd8 523c 294f 2a3d
000002c0: 5aee 71bc 600e b13c 6fbc 3b3c 49f8 b93c
000002d0: f47a e6bc 86ff 94bd 6e5a 9fbc 8d86 423c
000002e0: bef5 e1bc f7cc 123d 83a7 6bbd d83a 62bd
000002f0: c4ee b73b b0e2 b73b 0e56 52bd 1eb0 41bd
00000300: 0e6f b1bc c5e0 06bd 31bb 213c 86ef 133d
00000310: d5e0 033c 094e 223c 678f a1bc 8ec3 aa3c
00000320: 4f07 d2bd 6fbf d7bc 4d68 fa3e 46d1 b3be
00000330: a791 86be 6d67 b93d 7348 b23e cf3d da3b
00000340: 7d3d 0b3f a7ca 9fbe b536 8dbe f8c4 b23e
00000350: 8fc2 953e 670e 993e 5a12 b0be f775 88be
00000360: 9e34 033c 9d9d 0c40 e212 91bd a0ac f33c
00000370: dbbe 173f 613e 343d 0a11 b03d 14a2 07c1
00000380: dd23 0b3e e039 8a3c 6936 2f3e 3b56 79be
00000390: a166 18bf ce80 b43d f914 d03f 36ac d1be
000003a0: 6ec2 49bf ef38 b53d ea03 91be 9a77 c43f
000003b0: 73ba 9c3f 9c51 27bf 5e66 28be e2bc 89bc
000003c0: 481b ef3e 7a67 39bd d6ff d9be 467a 11be
000003d0: c878 a43e c7b9 013f 1a09 e33c 75e5 8fbf
000003e0: 6688 febc 1288 773e 3084 e4be 6b2d a7bc
000003f0: df70 8f3e e883 2dbf 01c1 a83f 5493 abbd
-0.101551 0.0529304 0.544805 0.978394 -0.521801 -0.578598 -0.0546869 0.0298919
-0.376838 0.798923 0.349935 -0.513143 0.378731 -0.500514 -0.203295 -0.143219
-0.00797894 2.42566 -0.0924357 -0.041342 0.118645 0.0509426 -0.423932 -0.212099
-0.144433 0.0479284 0.553859 -1.16666 0.636446 0.482483 1.51253 -0.700281
-0.268334 0.519753 0.102941 0.00894855 0.712914 -0.453268 0.120449 -0.0425567
-0.494991 -0.0184979 -0.220193 0.178756 -1.07494 -0.175858 -0.227896 1.58447
-0.00718167 0.549921 0.238151 -0.0291275 -1.0487 0.0181717 -0.157522 -0.171073
0.736264 -0.00253065 -3.68045 -0.256088 -0.900762 -0.255146 -1.65038 0.260863
0.206586 0.169194 -0.00228113 -3.45326 -0.0785669 0.0189537 0.325898 0.00694067
-0.037109 0.0607995 0.0966777 -0.0369966 -0.0264536 0.987967 0.664471 -0.244235
0.379427 -0.477428 0.557752 -4.07814 0.170594 0.876323 -1.55777 -0.214533
-0.0874412 -0.0315015 -0.537149 0.0390182 0.190746 -0.187807 -0.671737 0.882688
0.521023 -2.33892 0.0479149 -3.33154 0.0674471 -0.0326732 0.0740056 -0.210997
0.440064 0.145795 -0.631727 0.017694 1.30648 -1.49417 -0.717463 -0.406359
1.09638 -0.247599 -1.63927 0.339608 0.00170231 -0.493059 0.252328 -0.00784752
-0.106128 0.00930126 0.0335933 -0.243605 0.160241 0.000101859 0.222125 0.300762
-0.24125 -0.800891 -0.577329 1.45132 -0.38624 -0.640814 0.1699 -0.974656
-0.173341 -0.0710329 -1.10623 -0.0392239 -0.234038 -0.0448761 -0.600961 -0.243116
1.79597 0.853513 -1.11373 -0.220661 -0.0166421 0.106513 -0.022983 0.00672882
-0.0160153 0.013801 0.018401 -0.0414746 -0.0458174 0.011912 -0.0355659 -0.0489032
0.0226671 -0.0422444 0.0240025 -0.0415944 0.0144869 -0.050336 -0.0544864 0.0221211
-0.0513566 -0.0535421 0.0193103 0.0449604 -0.00418707 0.0167777 0.0128691 0.0415794
-0.0147663 0.0216133 0.0114585 0.0227014 -0.0281348 -0.072753 -0.0194523 0.0118729
-0.027583 0.03584 -0.0575328 -0.0552319 0.00561318 0.00561174 -0.0513516 -0.0472871
-0.0216594 -0.0329292 0.00987129 0.0361171 0.00804921 0.0099063 -0.0197217 0.0208452
-0.102553 -0.0263364 0.489077 -0.351206 -0.26283 0.0905293 0.348209 0.0066602
0.543907 -0.312093 -0.275808 0.349159 0.2925 0.298938 -0.34389 -0.266525
0.00800815 2.19712 -0.0708368 0.0297454 0.592756 0.0440048 0.08597 -8.47707
0.135879 0.0168733 0.171106 -0.243493 -0.595316 0.0881363 1.62564 -0.409517
-0.788123 0.0884875 -0.283233 1.5349 1.22444 -0.653589 -0.164453 -0.0168137
0.467005 -0.0452647 -0.42578 -0.142068 0.321234 0.506741 0.0277143 -1.12419
-0.0310709 0.24173 -0.446321 -0.0204074 0.280158 -0.677794 1.31839 -0.0837771

layers.6.bias f4 [50]
00000000: b6da 333f 09a7 b13f 3c4a ad3e afce e93f
00000010: 5f29 673f 3867 c8bf 3064 2f40 7901 22c0
00000020: 89ea 81bf f67f d6be effe a43f d196 83bf
00000030: 20ef 9f40 69c9 4f3f f7cc eabf 6c43 1540
00000040: 0779 fd3d 4e5f 4fbe 6af6 983f d7a5 563f
00000050: a452 243f 2983 fa3b ec34 10c0 0399 353f
00000060: bef8 22bd c4ce 443f a648 7abf a836 583e
00000070: d460 56bf 0473 e0bf 088e cb3e feee d5be
00000080: 88d7 9d3f 77be d73f 0316 8a3d e9b7 1940
00000090: 678b dabc 7f30 1cc0 a933 873e 9a77 24bf
000000a0: 58c5 833f 7f6d 593f ed45 703f d7dd a83f
000000b0: f90f c9bf b30a 573f 42b3 5f3f f758 2abe
000000c0: 1edc bd3f cefe 7c3f
0.702556 1.38791 0.338457 1.82662 0.902975 -1.56565 2.74049 -2.53134
-1.01497 -0.418945 1.28903 -1.02804 4.99794 0.811667 -1.83438 2.33224
0.123766 -0.202512 1.19502 0.838468 0.641886 0.00764503 -2.25323 0.709366
-0.039788 0.76878 -0.977671 0.211146 -0.837415 -1.75351 0.397568 -0.417839
1.23314 1.6855 0.0674248 2.40185 -0.0266778 -2.44046 0.264066 -0.64245
1.02946 0.849327 0.938567 1.31927 -1.5708 0.840007 0.873829 -0.166355
1.48328 0.988263

layers.6.weight f4 [50, 50]
00000000: 4165 fcbf 8f36 2c40 68ae 4bbf a5f3 a1bc
00000010: 062c c9be f4bf d4be 82ab 70bf 57b2 97bf
00000020: 5d6d 853f 7dcb c0bf 82ff b13f 6362 0940
00000030: 9dba 0440 7e94 6c3d 9b5a e23f 616c 95bf
00000040: 4c52 19be f180 f63f 67f2 5f40 feb8 edbe
00000050: f703 3e3f b30c b93f 153c bdbe 9d68 c33f
00000060: 7b49 e33f 0b29 973f 0057 e23f 85ce 873f
00000070: 0e5e 01bc 9e96 b7be 9f59 f23f 83c0 1240
00000080: 7116 803c ae64 0340 5407 103c 2c65 d93f
00000090: bbf2 9d3f d606 c23c 1cb6 c5bf 1f45 92bd
000000a0: 0935 373f ce70 eb3f 317b 993e 84ba b8be
000000b0: 05fa d43f 62ce fdbc 6215 e73f 4cbd 83bd
000000c0: 3e79 843f 166a cd3f f415 04c1 79e9 963f
000000d0: dfc3 2dc0 4919 2c3d 3bfc 693f ace3 98be
000000e0: 5306 b6be 55c2 533e 9eee 103f 73d5 843e
000000f0: 6284 84bf f759 613f a0a5 373f 2e3a 61bf
00000100: 5bce 253e 2fca 92bd f433 15be edf4 233d
00000110: ed2d 353e a9bc fd3d 4165 843f c5ca 08be
00000120: f320 cd3e 07ce 913f 6d36 563e 76c3 be3e
00000130: 58fe f4be a78a 733b 2243 7d3d 6b7d 61be
00000140: 2a58 1f3f cae2 1a3f 64a7 04bd 40c3 6b3e
00000150: 9ce1 ce3e 2330 223f 541c 33bf f3ae 5a3d
00000160: d6e2 c33f 9083 9a3f 9ab6 b73e 98dd 83be
00000170: 234d a43e 1809 99bf c8b2 343f 17ec 2bbc
00000180: 745f 7e3f 060d dd3d ab1a c93d 4e0a d3bd
00000190: c16e 98bf 61a7 64bf c40a 97be af04 f73c
000001a0: a323 41bf 32c6 57be df1e 3f3d 85b0 3e3f
000001b0: a71f 2c3f c5ff 393f ccf2 d03c 95b7 f33f
000001c0: c0e7 efbf 5eda 403e 0a6a f8bc 1573 f8be
000001d0: 90f8 453e 7b6a 19bf de1e 283f 30b8 1e3f
000001e0: 1d03 4abf 30bb dbbf 86c6 fbbe 2aff 16bf
000001f0: b7a7 f9bb 4161 00bf c58d 4b3f b439 5ebf
00000200: 3227 83bc 9e7d 453e 8542 85c0 e21e 5fc0
00000210: 9c25 32bd a722 6d3f a86d ab3e 4bab c13f
00000220: 876f d9be 06ba 763c 3676 0340 cc40 19bf
00000230: 47aa 673f 53cf e23d 287e dc3e 8620 9bbf
00000240: efe1 28c0 9c5e f33c c2f6 073f fe64 ecbe
00000250: 33dc f83e 12c2 a73f 4e7a fb3f c32a 3ebe
00000260: 81b1 de3e 4dc9 e83c e89f 0e40 f0eb b1bd
00000270: 0d1b 253e 2fe0 25bf e8de af3f 274c 983c
00000280: 6d71 dd3e e605 1e40 4625 3f40 d179 6dbd
00000290: bda9 e4bf 6afb b3bf c2de 043f 779f 73be
000002a0: 55f9 8ebd d0b9 1bbe e077 9d3d a512 c63e
000002b0: 8731 f1be e718 2a40 779d 2d3f e10b db3f
000002c0: e162 5d3f 68ae d33f d62a 8b3c 179d 94be
000002d0: e17f 0b40 04c7 0d3f a8ce 7ebc 382d 8c3f
000002e0: 1e19 233f 0587 efbe 9fe7 3b3f 6773 a63c
000002f0: 26e1 cabe 7654 c53f 5457 e63e 85e9 77bf
00000300: 0de0 81bf f5b9 da3f 6614 8f3f 05cf f33c
00000310: 8e74 3a3f a3af b8be f88b 69be 713d 12c0
00000320: df15 1b41 f2e9 c93e 15c8 483f a9a2 3a3b
00000330: 098a 5fbe ffcb 35bf 6e6b 3b3e 5130 c3be
00000340: c349 763f 9527 00be 22fa 093f 249c 963f
00000350: ea04 1040 6979 793d 9bc9 573e a69a c13e
00000360: d454 60bc e90b 6d3f 5188 d83f be68 7fbf
00000370: e9d4 313f cc0b dc3f f792 66be a56b 8a3f
00000380: 575b 853f c0ec 8e3f 09c4 633f 5038 673f
00000390: e427 5abd a776 2ebf 7d09 693f 4ab5 9bbf
000003a0: 6877 083d 30d6 37bf d68b 11c0 d509 903f
000003b0: bd52 6a3f fb85 0d3d d74c 9e3f 51a5 de3f
000003c0: a12f 8dbe 43e5 b73e 0b43 ec3e c0eb 8b3e
000003d0: 51a5 9540 9c9b 80bc c18d 343e 595a 7c3b
000003e0: f6ee 8b3f bd3a 073f d3c1 e23f 8c85 f9be
000003f0: 1973 1fc0 5a9a 213c 4d14 053f 3467 fdbd
-1.97184 2.69083 -0.79563 -0.0197695 -0.392914 -0.415527 -0.940117 -1.18513
1.0424 -1.50621 1.39061 2.14663 2.07389 0.0577588 1.76839 -1.16737
-0.149728 1.92581 3.49917 -0.464302 0.742248 1.4457 -0.369599 1.52663
1.77568 1.18094 1.76828 1.06099 -0.00789596 -0.358571 1.89336 2.293
0.0156357 2.05302 0.00879081 1.6984 1.23397 0.0236849 -1.54462 -0.0714209
0.715653 1.83938 0.299768 -0.360798 1.66388 -0.0309822 1.80534 -0.0643259
1.03495 1.6048 -8.25536 1.179 -2.71508 0.0420163 0.914005 -0.298612
-0.355517 0.206796 0.566141 0.259441 -1.03529 0.880279 0.717371 -0.879794
0.16192 -0.0716747 -0.145706 0.0400285 0.176933 0.123895 1.03434 -0.133586
0.400642 1.1391 0.209192 0.372585 -0.478503 0.00371615 0.0618316 -0.220205
0.622439 0.605023 -0.0323862 0.230237 0.404065 0.633547 -0.699651 0.0533895
1.53036 1.20714 0.358815 -0.25755 0.320901 -1.19559 0.705853 -0.0104933
0.993644 0.107935 0.0981954 -0.103047 -1.19088 -0.893179 -0.295004 0.0301536
-0.75445 -0.210717 0.0466603 0.744881 0.672358 0.726559 0.0255064 1.90404
-1.87426 0.188333 -0.030324 -0.485253 0.193331 -0.599281 0.656721 0.619998
-0.78911 -1.71665 -0.491749 -0.589831 -0.00761887 -0.501484 0.795132 -0.868068
-0.0160099 0.192862 -4.16437 -3.48626 -0.0434929 0.92631 0.334821 1.51304
-0.424679 0.015059 2.05409 -0.598645 0.904942 0.110747 0.43065 -1.21193
-2.63879 0.0297082 0.531109 -0.461708 0.486055 1.31061 1.96467 -0.18571
0.434948 0.0284163 2.22851 -0.0868758 0.161236 -0.647952 1.37399 0.018591
0.432506 2.46911 2.98665 -0.0579775 -1.78643 -1.40611 0.519024 -0.237913
-0.0698115 -0.152076 0.0768888 0.386861 -0.471081 2.65777 0.678184 1.7113
0.86479 1.65376 0.0169882 -0.290261 2.17968 0.553818 -0.0155522 1.09513
0.637102 -0.467827 0.734003 0.0203187 -0.396249 1.54164 0.449885 -0.968407
-1.01465 1.7088 1.11781 0.0297618 0.728341 -0.360715 -0.228073 -2.285
9.69284 0.394363 0.784303 0.00284783 -0.2183 -0.710144 0.183027 -0.381228
0.962063 -0.125151 0.538973 1.17664 2.2503 0.0609068 0.21073 0.378133
-0.0136921 0.925963 1.69166 -0.997692 0.694655 1.71911 -0.22517 1.08141
1.04185 1.1166 0.88971 0.903203 -0.0532607 -0.681498 0.910301 -1.21647
0.033317 -0.718112 -2.27416 1.1253 0.915325 0.0345516 1.23672 1.73942
-0.275754 0.359171 0.461449 0.273283 4.67643 -0.0156992 0.176322 0.0038506
1.09323 0.52824 1.77154 -0.487347 -2.4914 0.00986346 0.519841 -0.123732

layers.8.bias f4 [50]
00000000: 97c5 48c0 a0a6 d2bf 61a6 c9bf c619 8bbe
00000010: 7c9c f93e 11df c53f 1826 8bbf 48ef c5bd
00000020: cb84 b33f 86af 573f 016a 2a3f dd5e 82bf
00000030: 43ff 903f 0c1f 1f40 1ea5 263f f7b6 2fbd
00000040: 82a8 9bbf 7502 3cc0 747b d53f 795d 6bc0
00000050: 1bbe 213f c0b3 f5be e5d5 2740 9a08 8c40
00000060: 282c f93e 541d 3cc0 eb02 febe ca4f 1240
00000070: 05a3 cabf 575b d1bf 3e5c 1ac0 2fa3 98bf
00000080: c1ca 29c0 185c 2f3f 05e0 733f ab09 9ebf
00000090: 8143 0c40 249c 96c0 734b f3be 8a56 a63e
000000a0: a818 933f 9161 11bf ffe7 62c0 df32 fb3f
000000b0: c8cc 6abd e8f6 babf 1613 e33f 012f f33d
000000c0: 76e0 c4bf af42 8ac0
-3.13706 -1.64571 -1.57539 -0.271681 0.487522 1.54587 -1.0871 -0.0966478
1.40249 0.842522 0.66568 -1.01852 1.13279 2.48627 0.650957 -0.0428991
-1.21608 -2.93765 1.66783 -3.67758 0.631807 -0.479887 2.62243 4.37605
0.486665 -2.93929 -0.496116 2.28612 -1.5831 -1.6356 -2.41188 -1.19248
-2.653 0.684999 0.952637 -1.23467 2.19162 -4.70656 -0.475185 0.324879
1.14919 -0.567895 -3.54541 1.96249 -0.0573242 -1.46066 1.77402 0.118742
-1.5381 -4.32064

layers.8.weight f4 [50, 50]
00000000: 6fd8 c7c0 1904 0ac0 8065 8d3e 933a 3fc0
00000010: 15a9 e03f 1345 b83e 1c7c 31c0 1153 7ac0
00000020: 5a2a 01c0 4e0b cfc0 b8cc 14c1 1daa 153f
00000030: dd0a 79bf baa0 20c0 8e92 4140 af42 2e40
00000040: 27f9 51be 82ad d23f 6e69 e9bf e63f ecbf
00000050: 417d 9bbf d238 44bf 72c4 e6bf 97a8 e23f
00000060: b572 8a3c 6952 9e3f 81cf 4fc0 ba4e c6c0
00000070: ef03 52c0 8121 a0c0 19e4 1ebf decc 54bf
00000080: 46d3 91c0 a987 0c3f f8df 00c0 5857 25bf
00000090: 61e0 393d e624 543f 1478 373f 61a6 7dc0
000000a0: d61c 3ac0 965b be3f f8aa 45c0 08c9 76c0
000000b0: 50df 1ac0 7d58 6b3f f54a 1fc0 7715 febf
000000c0: 72e1 3cc0 b0d7 853d 76e0 e4be 4b3b 293f
000000d0: 5029 803d 2c61 0dbf 7766 523e 51bd f5bd
000000e0: 113a a0be eb37 a3bd b803 8d3e cfda 7d3e
000000f0: 99f2 a9be 6b83 8bbe 098c a53e 321c 1fbe
00000100: 4e26 9e3e d175 c9be 49f4 823f 8e3d 2b3f
00000110: 9e5c 233f 48dc 8bbf c8b1 d53d bfed 2ebd
00000120: 4887 273f 7ee0 6ebf cb3b fdbc 774a 37be
00000130: 9528 bbbe be30 c1bf 4816 a83f ca52 db3e
00000140: 4755 8fbf 46d3 19be 17f1 ad3e 304b 9bbd
00000150: 6d1c 8d3f c729 da3d 441f e2bc b117 123f
00000160: ca54 893f d5e8 853e 1283 84bf d602 1b3e
00000170: 6e35 d3be 2788 9ebf dc80 1f3f 2ec7 ebbd
00000180: f59c b43f 6913 4cbc a725 d63e 6aec 3c3d
00000190: 2f35 66bf 126b 5bc0 e8bc c6bf 5a29 48bf
000001a0: 43e2 58c0 ef8f 03c0 7784 a7bf 9643 973f
000001b0: 4581 4ac0 fed2 e23d 280f 87bf 8e20 593f
000001c0: 2e39 0ebf 80f2 133f ba66 fabf 2041 35c0
000001d0: 064c f8bf 3e21 3bbe 84d6 17bf 6d53 9cbe
000001e0: c630 bfbe f4fd 72c0 e679 9cbf 151d 7dbf
000001f0: b443 d7bc 5457 28c0 3334 fe3e a306 b7bf
00000200: d044 6cc0 4607 e43c f050 b4bf 2c48 973f
00000210: 38f3 25c0 4588 863b 707d 08bf 562b a7bf
00000220: 3b12 39bd 0cea c7bf d4bb 583e ba6b b9bf
00000230: 452a 36c0 b246 213f 7903 08bf 55a4 42c0
00000240: 5839 9ec0 f50e 333f ad31 28bf b08c 7dbe
00000250: 56ba 2b3f 08c9 923f 2d08 553e afb2 163f
00000260: c6c4 223f d6a9 aa3e 9868 88be b953 cabf
00000270: cf9e d33e 6492 a1be 3194 fbbf 43ca 6b3f
00000280: 618a 823e cd73 d4be 9e77 c8bd 35ef d8bd
00000290: 7828 c2c0 bc1b 933b 93ab c83e 253d 20bf
000002a0: d5a0 aebd fb3f 073e 0377 503e 1fb9 b5be
000002b0: 12be 0b3f 4584 7f3e b026 253d 09df 833e
000002c0: a54f 773f 6328 933f 126b b1be 8e8e d0bc
000002d0: a661 903f 971b 2cbe ec51 243f cd2d 03bd
000002e0: 221a 15bf 8412 8ebf 4aab 2bbd 23fa 503d
000002f0: 4eee fbbf 96b3 bf3e 9dba d23d bfd0 48ba
00000300: cfdb b8bd 4513 683e 37a6 a9c0 9528 fb3e
00000310: 4a9b ca3e 3b72 3cbf d518 3ebc 3734 253d
00000320: f0c4 c4bf 53b3 e3bf 0ccd bdbe aed3 bcbf
00000330: 72f9 2fc0 c971 d3bf 7dae bebe d639 92bf
00000340: d061 e6bf 61c3 13c0 e128 8ec0 eeb1 f03f
00000350: b212 a33e ff06 1d3f 2fdd 943f 95d3 7ebf
00000360: 5778 77bf a5f7 b1bf d712 f63f 5f98 24bf
00000370: cc9b 5b3f 1f3c 64bd 9a08 ff3f 87a2 9c3f
00000380: 8e65 10bd dd7b 903f 5b23 263f 8cf4 52be
00000390: fc1c bf3e ab21 09bf 4694 3ac0 ca4f 18c0
000003a0: 0e4f e7bf 3207 bcbd 5969 c2bf 467c dbbf
000003b0: e4a1 8cbb 3bfd b03e 357b 143f f5b9 923e
000003c0: aa45 ec3e 535b 623f 84d8 41c0 aa65 15c0
000003d0: 8ae6 753f f0f9 99bf f452 99be 8109 cc3f
000003e0: e7fb 593e 6774 813d dacb 16be 61de 573f
000003f0: e469 693f a0a7 d93e 3ca3 05bf ab76 61bf
-6.24517 -2.1565 0.276165 -2.98795 1.75516 0.359902 -2.7732 -3.91132
-2.01821 -6.47013 -9.29998 0.584627 -0.972822 -2.50981 3.02457 2.72282
-0.205052 1.64592 -1.82353 -1.8457 -1.21476 -0.766492 -1.80287 1.77077
0.0169004 1.23689 -3.24704 -6.19711 -3.28149 -5.00409 -0.620668 -0.831251
-4.55704 0.548945 -2.01367 -0.645864 0.04538 0.828688 0.716676 -3.96328
-2.90801 1.48717 -3.08856 -3.85602 -2.41988 0.919319 -2.48895 -1.98503
-2.95126 0.0653528 -0.447025 0.661061 0.0625788 -0.552264 0.205469 -0.11999
-0.312943 -0.0796965 0.275419 0.247905 -0.331929 -0.272487 0.323334 -0.155381
0.308886 -0.393477 1.02308 0.668908 0.638132 -1.09266 0.104343 -0.0427072
0.654408 -0.933113 -0.0309123 -0.178995 -0.365544 -1.5093 1.31318 0.428366
-1.11979 -0.15022 0.33973 -0.075827 1.10243 0.106525 -0.0276028 0.570674
1.0729 0.261542 -1.03525 0.151378 -0.412517 -1.23853 0.62306 -0.115126
1.41104 -0.0124558 0.418256 0.0461239 -0.899249 -3.42841 -1.55264 -0.781881
-3.38881 -2.05566 -1.30873 1.18175 -3.16414 0.110754 -1.05515 0.848153
-0.55556 0.577919 -1.95626 -2.8321 -1.93982 -0.182744 -0.593117 -0.305324
-0.373419 -3.79675 -1.22247 -0.988725 -0.0262774 -2.63033 0.496492 -1.42989
-3.6917 0.0278355 -1.40872 1.18189 -2.59297 0.0041056 -0.533164 -1.30601
-0.0451834 -1.56183 0.211654 -1.4486 -2.84633 0.629985 -0.531303 -3.04128
-4.9445 0.699447 -0.657008 -0.247607 0.670812 1.14676 0.208039 0.588664
0.635815 0.333327 -0.266423 -1.58068 0.413321 -0.31557 -1.96546 0.921055
0.254962 -0.414946 -0.0978844 -0.105925 -6.06744 0.00448939 0.391934 -0.625933
-0.0852677 0.13208 0.203579 -0.354928 0.545869 0.249528 0.0403201 0.257561
0.966059 1.14967 -0.34652 -0.0254586 1.12798 -0.168074 0.641875 -0.0320261
-0.58243 -1.10994 -0.0419114 0.0510198 -1.96821 0.374417 0.102895 -0.00076605
-0.090263 0.226636 -5.30154 0.490544 0.395716 -0.736118 -0.0116026 0.040333
-1.53726 -1.77891 -0.370705 -1.47521 -2.7496 -1.65191 -0.372425 -1.14239
-1.79986 -2.3088 -4.44249 1.88043 0.318502 0.613388 1.163 -0.995416
-0.96668 -1.39037 1.92245 -0.64295 0.857846 -0.0557214 1.99245 1.22371
-0.0352531 1.12878 0.648977 -0.206011 0.373268 -0.53567 -2.9153 -2.37987
-1.8071 -0.0918106 -1.51884 -1.71473 -0.00429176 0.345682 0.580005 0.286575
0.461469 0.884206 -3.02884 -2.33433 0.960549 -1.20294 -0.299461 1.59404
0.212875 0.0632103 -0.147262 0.843237 0.911772 0.425107 -0.522022 -0.880717
