resources/models/onnx/acas/ACASXU_run2a_4_3_batch_2000.onnx (onnx, 54456 bytes, 14 tensors)

layers.0.bias f4 [50]
0	0xbe9f557a	-0.311199
1	0x3e8c05d5	0.273482
2	0x3efb1e3a	0.490465
3	0x3dd71194	0.105014
4	0xbef4332f	-0.476953
5	0x3ea56020	0.322999
6	0x3e72f449	0.23726
7	0x3e55ea25	0.208901
8	0x3d171da3	0.0368935
9	0xbf5b3ade	-0.856367
10	0x3d524be2	0.0513419
11	0xbdf89ce5	-0.121393
12	0xbec6ba8c	-0.388142
13	0xbc5f78a1	-0.0136396
14	0xbdcdab19	-0.100424
15	0xbedd147f	-0.431797
16	0xbe7f42bb	-0.249278
17	0xbe0622c4	-0.130992
18	0xbed0fc0d	-0.408173
19	0xbe77310a	-0.241398
20	0xbe9cb7b3	-0.306089
21	0x3dc8c048	0.098023
22	0x3d42b826	0.0475389
23	0x3e8232f4	0.254295
24	0xbf0e3162	-0.555441
25	0xbe91dc51	-0.284884
26	0x3dee72da	0.11643
27	0x3e87d007	0.265259
28	0xbe150acc	-0.145549
29	0xbf3277f7	-0.697143
30	0x3e15f890	0.146456
31	0x3d09a607	0.0336056
32	0x3cd4416b	0.0259101
33	0xbf3beb9e	-0.734064
34	0xbe2fea3e	-0.171792
35	0x3d0b579d	0.0340191
36	0xbf2036eb	-0.625838
37	0xbe053d64	-0.130117
38	0xbeebf291	-0.460835
39	0xbe953d21	-0.291482
40	0x3e9a92c5	0.301901
41	0xbf0541d9	-0.520536
42	0xbef196b7	-0.471853
43	0x3ead1266	0.338031
44	0xbf396c2f	-0.724307
45	0x3df1233e	0.117743
46	0xbe6161a2	-0.220099
47	0x3cb0dba0	0.0215891
48	0xbda30a9f	-0.0796101
49	0xbe5df2ed	-0.216747

layers.0.weight f4 [50, 5]
0	0xbcf85180	-0.0303123
1	0xc011dacf	-2.27898
2	0x40121301	2.28241
3	0xbe73f91e	-0.238255
4	0x3eeceb79	0.462734
5	0x3c3aaaf7	0.0113933
6	0xbdb1cab3	-0.0868124
7	0x3db68796	0.0891258
8	0x3f008d5c	0.502157
9	0x3f6915cf	0.910489
10	0xbc2b97c9	-0.0104732
11	0xbd3473c0	-0.0440557
12	0x3d2ac47f	0.0416913
13	0x3f833483	1.02504
14	0xbf2a55f3	-0.665374
15	0xbd26ed3f	-0.0407536
16	0xbd0f9b64	-0.0350603
17	0xbf2b177a	-0.668327
18	0x3e09cbef	0.134567
19	0xbe86a4ec	-0.262977
20	0xc004c1d3	-2.07433
21	0xbc10695a	-0.00881418
22	0x3be311b3	0.0069296
23	0x3c794a03	0.0152154
24	0xbca98a73	-0.0206959
25	0x3f8452e7	1.03378
26	0x3b216f7c	0.00246331
27	0xbc7c53a3	-0.0154008
28	0x3d9c3dab	0.0762895
29	0xbdcf3ecd	-0.101194
30	0x3cde01a8	0.0271004
31	0xbf14eb57	-0.581716
32	0x3f885e0b	1.06537
33	0x3ecd01e2	0.400405
34	0xbf21a1dc	-0.631376
35	0x3afd956d	0.00193469
36	0xbb469d89	-0.00303063
37	0x3d0f4583	0.0349784
38	0x3f5055eb	0.813811
39	0xbf41d5e5	-0.75717
40	0x3e0a84be	0.135272
41	0x402f913f	2.74324
42	0xbe32d906	-0.174656
43	0x3dc603a0	0.0966866
44	0xbd9e73a3	-0.077369
45	0x3d274f4a	0.0408471
46	0xbdb615df	-0.0889089
47	0xbd1946c3	-0.037421
48	0xbf3364ae	-0.700755
49	0xbfa1aa50	-1.26301
50	0x3e3cfb76	0.184553
51	0xc02755c5	-2.61461
52	0x3dba6f75	0.0910329
53	0x3d106b38	0.0352585
54	0xbdefe154	-0.117129
55	0xbf58520d	-0.845002
56	0x3ee3a16e	0.444591
57	0xbea23ca7	-0.316869
58	0x3dde4d5e	0.108546
59	0xbe1705c9	-0.147483
60	0xbbc14d12	-0.00589908
61	0x3e45ecc4	0.193286
62	0xbe183340	-0.148633
63	0xbfdf0942	-1.74247
64	0x3f5fedd9	0.874723
65	0xbba10a51	-0.00491456
66	0xba87879e	-0.00103401
67	0xbb56f011	-0.00327969
68	0xbaeff922	-0.00183085
69	0x39aaea0a	0.000325993
70	0x3ec5f30e	0.38662
71	0xbe78ee28	-0.243096
72	0x3ea09071	0.313602
73	0x3ecf3d3a	0.404764
74	0xbfb53cde	-1.41592
75	0x3b25f649	0.00253238
76	0x3ba360c3	0.0049859
77	0x3d317390	0.0433231
78	0xbfa7635e	-1.30772
79	0xbeb4a2fd	-0.352806
80	0xbfc586ec	-1.54318
81	0x3dcb39c8	0.0992313
82	0xbdc1154c	-0.0942789
83	0x3cc27acf	0.0237402
84	0xbc90cca1	-0.0176757
85	0xbc836da8	-0.0160435
86	0xbee93ee6	-0.455558
87	0x3e3d7300	0.185009
88	0x3ed839ce	0.422316
89	0xbf88ad58	-1.06779
90	0xbd9bb63f	-0.0760312
91	0x3e6dbd30	0.232167
92	0xbe80a244	-0.251238
93	0xbe2201cd	-0.15821
94	0xbfbf39c1	-1.49395
95	0xbd8ff35d	-0.0702884
96	0xbf0ec9c1	-0.557766
97	0x3ee7689d	0.45197
98	0xbe83ed74	-0.257671
99	0xbfe2cca3	-1.77187
100	0xbf4738e7	-0.778212
101	0x3eb4f313	0.353417
102	0xbddd07c8	-0.107925
103	0xbee3fab1	-0.445272
104	0xbf8b1b9b	-1.08678
105	0x3d0e94b9	0.0348098
106	0xbedcb5dd	-0.431075
107	0xbe788ca4	-0.242724
108	0xbe5a8d22	-0.213429
109	0x3e021038	0.127015
110	0x3c6c92d0	0.0144393
111	0x3e0ad2dd	0.13557
112	0xbdc9389b	-0.0982525
113	0xbf261240	-0.648716
114	0x3f1be671	0.608985
115	0x3b594328	0.00331516
116	0xbf398e54	-0.724828
117	0x3f013b2a	0.504809
118	0x3d5f4ace	0.0545147
119	0x3d5d996e	0.0541014
120	0x3ddd09e1	0.107929
121	0xbfaab702	-1.33371
122	0x3fb7c116	1.43558
123	0xbde9ae4f	-0.114102
124	0x3e6bda94	0.230326
125	0xbfe2fe1e	-1.77338
126	0xbe169878	-0.147066
127	0x3dd8cb08	0.105856
128	0x3c746dfc	0.0149188
129	0xbcf962f8	-0.0304427
130	0x3e864c51	0.262301
131	0xc014c1d3	-2.32433
132	0x3fc82de0	1.5639
133	0x3dbbd33d	0.0917115
134	0xbe4161a2	-0.188849
135	0xbc80f8ef	-0.0157437
136	0xbe239d1b	-0.159779
137	0x3e502795	0.203276
138	0x3d79fa62	0.0610298
139	0xbfa9db77	-1.32701
140	0xbbe4c3a4	-0.00698133
141	0xbf4dc22b	-0.803744
142	0xbf6d6085	-0.927254
143	0x3f1236e3	0.57115
144	0xbd245514	-0.0401202
145	0x3d4c5ff5	0.0498962
146	0xbe8bcada	-0.273032
147	0xbe09e4d6	-0.134662
148	0xbcf38569	-0.0297267
149	0xbff7876a	-1.93382
150	0x3d783622	0.0605985
151	0x3ecc6046	0.399172
152	0xc006cb29	-2.10615
153	0x3d84bb86	0.0648108
154	0x3dfab29e	0.122411
155	0xbd01495c	-0.0315641
156	0x3eacadde	0.337264
157	0xbe9a2a6f	-0.301105
158	0x3e964192	0.293469
159	0x3ee63d3e	0.449686
160	0x3d76480b	0.0601273
161	0x3f3ee925	0.745745
162	0x3f5e8416	0.869203
163	0x3dde8dda	0.108669
164	0xbd408363	-0.0470003
165	0xbd26df83	-0.0407405
166	0x3cf70e8a	0.0301583
167	0x3cf27096	0.0295947
168	0xbf22a25e	-0.63529
169	0xbfabb6ed	-1.34152
170	0xbf4c8638	-0.798923
171	0xbe85362f	-0.260179
172	0xbede8dda	-0.434676
173	0x3e0f23cd	0.139785
174	0x3d179929	0.0370113
175	0x3d15a25e	0.0365318
176	0x3d164297	0.0366846
177	0xbecc74fb	-0.39933
178	0x3e89d389	0.269192
179	0xbf377c67	-0.716742
180	0x3dfd33d3	0.123634
181	0xbc01e9c5	-0.00792927
182	0x3e905c03	0.281952
183	0xbed5c316	-0.417504
184	0xbfb1844d	-1.38685
185	0xbd8a2b9d	-0.067466
186	0x3f752fd3	0.957761
187	0x3f4f2f66	0.809317
188	0x3ecc8c2e	0.399507
189	0xbe8350f4	-0.256477
190	0x3de7d6f9	0.113203
191	0x3fde4a38	1.73664
192	0xbfaef640	-1.36689
193	0xbabc2b14	-0.00143561
194	0x3e788b11	0.242718
195	0xbf5881d4	-0.845731
196	0xbece6128	-0.403085
197	0xbe65c0fd	-0.224369
198	0xbee3c515	-0.444863
199	0x3e8478ea	0.258735
200	0x3d44cdc5	0.0480478
201	0xbf32ccd5	-0.698438
202	0x3f288430	0.658267
203	0xbe1126a6	-0.141749
204	0xbc98933f	-0.0186249
205	0xbfc3d567	-1.52995
206	0xbcafdd3d	-0.0214678
207	0xbc17c3b6	-0.00926297
208	0xbe22f7b1	-0.159148
209	0xbeb41a8b	-0.351765
210	0x3be1c644	0.00689009
211	0xbd1c3b1a	-0.0381423
212	0x3d2b6000	0.0418396
213	0xbf18c4bd	-0.596752
214	0xbfc5b61c	-1.54462
215	0x3f796b76	0.974296
216	0xba9eec14	-0.00121248
217	0xb8fc5f95	-0.000120341
218	0xbe08ace2	-0.133472
219	0x3e2b5808	0.167328
220	0xbd9bebac	-0.0761331
221	0xbe18d717	-0.149258
222	0x3d2245f6	0.0396175
223	0xbf9a002a	-1.20313
224	0xbf264788	-0.649529
225	0x3a0cab05	0.000536606
226	0xbda34c86	-0.0797358
227	0xbf79f8a1	-0.97645
228	0x3db168de	0.0866258
229	0x3c465a57	0.0121065
230	0xbf80b828	-1.00562
231	0xbe5d7bea	-0.216293
232	0x3f81d53d	1.01432
233	0x3cd1665a	0.0255615
234	0x3e9177ea	0.284118
235	0xbd1fdc24	-0.0390283
236	0xbeeff045	-0.46863
237	0x3ef5c161	0.479991
238	0xbf3ffa3c	-0.749912
239	0xbdaa20d0	-0.0830704
240	0xbd91a37c	-0.0711126
241	0x3ed58128	0.417001
242	0x3e2b3cc5	0.167224
243	0xbec2fc26	-0.38083
244	0x3e201b43	0.156354
245	0xbc82971f	-0.0159412
246	0xbce177ea	-0.027523
247	0x3d00a21c	0.0314046
248	0xbf2de450	-0.679265
249	0xbfdc90d6	-1.72317

layers.10.bias f4 [50]
0	0x3ec7d5aa	0.390302
1	0x3d0ff144	0.0351422
2	0x3ef9e647	0.488085
3	0xbf48fbca	-0.785092
4	0x3ecf62b7	0.40505
5	0x3eb55001	0.354126
6	0xc01ec78f	-2.48093
7	0x3ef88d4c	0.485453
8	0x3d8398c1	0.0642562
9	0xbf2938ac	-0.661021
10	0x3c0a3dd1	0.00843759
11	0xbccb7bff	-0.0248394
12	0x3e8ed02d	0.278932
13	0xbde6bce8	-0.112665
14	0x3f12fcdf	0.574171
15	0x3d16cd1c	0.0368167
16	0x3eb5171e	0.353692
17	0x3f93d4bf	1.15493
18	0x3e8336df	0.256278
19	0x3eea2f06	0.45739
20	0x3dd5b899	0.104356
21	0x3f121049	0.570561
22	0x3f659408	0.89679
23	0xbd0162bc	-0.0315883
24	0xbf1f1338	-0.621387
25	0x3ec584f5	0.38578
26	0x3e703c4b	0.234605
27	0x3f8182fd	1.01181
28	0xbe2d5779	-0.169279
29	0x3e723183	0.236517
30	0xbedb41e1	-0.428237
31	0xbf0de3eb	-0.554259
32	0x3eb5870e	0.354546
33	0xbc45267b	-0.0120331
34	0x3f1ea476	0.619697
35	0x3e8f1151	0.279429
36	0xbf9e49e4	-1.23663
37	0xbebc488c	-0.367741
38	0x3e1fdb4d	0.15611
39	0xbe8337a8	-0.256284
40	0xbc3e3f6b	-0.0116118
41	0x3edaf599	0.427655
42	0xbe905be2	-0.281951
43	0x3eac0af2	0.336021
44	0x3d4ce739	0.0500252
45	0x3e64b2fb	0.223339
46	0x3ef0038a	0.468777
47	0xbfaac860	-1.33424
48	0x3e296fa8	0.165465
49	0x3e4702e6	0.194347

layers.10.weight f4 [50, 50]
0	0xc00dea60	-2.21743
1	0x3adc06d2	0.00167867
2	0x3eb59a95	0.354695
3	0xbdb1e266	-0.0868576
4	0x3f75fe65	0.960913
5	0x406eecc0	3.7332
6	0x3ea295a7	0.317548
7	0x3f1d03ea	0.613341
8	0x3ea7609e	0.326909
9	0x3dbb134c	0.0913454
10	0xbd922cd9	-0.0713746
11	0xbe82ea10	-0.255692
12	0xbee0ef35	-0.439325
13	0xbee1bae4	-0.440879
14	0xbcf67f83	-0.0300901
15	0xbdb0c8c0	-0.0863204
16	0x3e550b52	0.208051
17	0xbf55da6a	-0.835364
18	0xbeab8045	-0.334963
19	0xbdd248d8	-0.102678
20	0x3e99b5c8	0.300215
21	0xbe7d141a	-0.247147
22	0xbcfcc65a	-0.0308563
23	0x3ec6b1e6	0.388076
24	0x3caa2751	0.0207707
25	0x3e10a5f0	0.141258
26	0xbecddedf	-0.402091
27	0x3dc18754	0.0944964
28	0xbd86f969	-0.0659054
29	0xbd68c5bc	-0.0568292
30	0xbe2fa11b	-0.171513
31	0xbebf64d0	-0.373816
32	0x3e168f4b	0.147031
33	0xbf262eb2	-0.64915
34	0x3b7328d7	0.00371032
35	0xbf257e89	-0.646462
36	0xbe72f662	-0.237268
37	0x3debc48f	0.115121
38	0x3f5739d2	0.840726
39	0x3ccdd393	0.0251253
40	0xbf12da23	-0.573641
41	0x3f54c6e7	0.83116
42	0xbef13ccd	-0.471167
43	0x3d732485	0.059361
44	0x3e0ee99a	0.139563
45	0x3e53db7f	0.206892
46	0xbe969e5e	-0.294177
47	0x3fd045cc	1.62713
48	0x3d367f9e	0.0445553
49	0xbedcb1ab	-0.431043
50	0x3c1e9d5a	0.00968107
51	0xbc2e726f	-0.0106474
52	0x3dcf42ff	0.101202
53	0x3d4a460a	0.0493832
54	0xbf01ce8e	-0.507058
55	0xbe4d477c	-0.200468
56	0x3eb0d4bb	0.345373
57	0x3e820f2c	0.254022
58	0x3e27ef5b	0.163999
59	0xbd0b9976	-0.0340819
60	0x3d5eb39a	0.0543705
61	0xbe1deefe	-0.154232
62	0xbdbba550	-0.0916239
63	0xbe626677	-0.221094
64	0xbe1aab04	-0.151043
65	0x3d5df3ec	0.0541877
66	0xbe6de7ea	-0.23233
67	0x3ca3f466	0.020014
68	0xbde6a1a5	-0.112613
69	0xbe5de226	-0.216683
70	0x3e0ea748	0.13931
71	0xbd7dae31	-0.0619337
72	0x3e72f230	0.237252
73	0xbd991687	-0.07475
74	0x3d2ad638	0.0417082
75	0x3c905e87	0.0176232
76	0xbd4e2d1f	-0.050336
77	0x3e3bc1f0	0.183357
78	0xbe62ed35	-0.221608
79	0xbdb91156	-0.0903651
80	0x3ed01ffb	0.406494
81	0xbd3c2367	-0.0459322
82	0xbd065534	-0.0327961
83	0xbee7ffbd	-0.453123
84	0x3e540d0b	0.207081
85	0x3e91641f	0.283967
86	0xbe01c609	-0.126732
87	0x3ded18d2	0.11577
88	0x3df6d656	0.120526
89	0xbc2a2355	-0.0103844
90	0xbbb73536	-0.00559106
91	0xbe86c871	-0.263248
92	0x3e80b503	0.251381
93	0x3b06fbdd	0.00205969
94	0xbc42d34f	-0.0118912
95	0xbdcce465	-0.100045
96	0xbe174aba	-0.147746
97	0x3e81e96c	0.253734
98	0x3ca1932d	0.0197235
99	0xbe3720c9	-0.178836
100	0x3e08d9b6	0.133643
101	0x3eb88e15	0.360459
102	0x3d4a9ade	0.0494641
103	0x3ed8ae32	0.423204
104	0x3f89f30e	1.07773
105	0x3e871c11	0.263886
106	0x3e552503	0.208149
107	0x3e3f0e0b	0.186577
108	0xbfae1dfc	-1.36029
109	0x3e439e28	0.191033
110	0xbf751772	-0.957389
111	0x3dd00ef1	0.101591
112	0xbb94df35	-0.00454321
113	0xbb9d3936	-0.00479808
114	0x3ebf74ef	0.373939
115	0xbf02ec39	-0.511417
116	0xbf2d1b3f	-0.676197
117	0xbebb0e80	-0.365345
118	0xbf4f7fae	-0.810542
119	0xbd1e2295	-0.0386072
120	0xbb913abb	-0.00443205
121	0xbe251937	-0.161229
122	0x3a9be54e	0.00118939
123	0x3e4af102	0.198185
124	0xbcace2ed	-0.0211043
125	0xbe87b678	-0.265064
126	0xbfdb5c7d	-1.71376
127	0xbeba6634	-0.364061
128	0xbd574470	-0.0525555
129	0xc04c053e	-3.18782
130	0x3f7d8762	0.990347
131	0xbf82f933	-1.02323
132	0xbf4f14ba	-0.80891
133	0xbf1f4246	-0.622105
134	0xbe79c8c9	-0.24393
135	0xbdefae79	-0.117032
136	0x3b82be8c	0.00399
137	0xbe979011	-0.296021
138	0xbeb900c5	-0.361334
139	0x3d21cde6	0.039503
140	0xbf811538	-1.00846
141	0x3fd33cb4	1.65029
142	0xbe122fad	-0.14276
143	0xbd724d24	-0.0591556
144	0xbe72c5e3	-0.237083
145	0x3f47193f	0.777729
146	0xbf1d46a2	-0.614359
147	0x3e5a4ce8	0.213184
148	0xbf2186db	-0.630964
149	0xbf09dfb9	-0.53857
150	0x3d74242a	0.0596048
151	0xbe052eb6	-0.130061
152	0x3f0e2e4d	0.555394
153	0x3d6f1c4d	0.0583766
154	0x3eeace25	0.458604
155	0x3eb149a5	0.346265
156	0x3ec6d091	0.38831
157	0x3ec6c6de	0.388236
158	0xbe363950	-0.177953
159	0xbdb54a65	-0.0885208
160	0x3ea53dea	0.322738
161	0xbcd91835	-0.0265008
162	0x3befd28b	0.0073188
163	0xbeb2f89c	-0.349553
164	0xbe8232d3	-0.254294
165	0x3c20832d	0.0097969
166	0xbdc8a017	-0.0979616
167	0xbe846e2b	-0.258653
168	0x3ef94b5a	0.486903
169	0x3d95a591	0.0730697
170	0x3e241893	0.16025
171	0xbe8d5fbb	-0.276121
172	0x3e950269	0.291034
173	0x3f174bf9	0.591003
174	0x3b7e2abe	0.00387828
175	0xbecc6195	-0.399182
176	0xbfaa3d71	-1.33
177	0xbede2b28	-0.433923
178	0xbe8295a7	-0.255048
179	0xc05da9a8	-3.46348
180	0x3eccd39e	0.400052
181	0xbf487cd9	-0.783155
182	0x3d7c556b	0.0616049
183	0xbe279fa9	-0.163695
184	0x3eb97508	0.362221
185	0x3ef737da	0.482848
186	0xbe94a31e	-0.290307
187	0x3e5038a0	0.203341
188	0xc000f12c	-2.01472
189	0xbc47cf37	-0.0121954
190	0xbe8dbc88	-0.276829
191	0x3ed0a698	0.407521
192	0x3f0aba6b	0.541907
193	0xbccdf7a5	-0.0251425
194	0x3deec6bd	0.11659
195	0x3dd58d9b	0.104274
196	0xbe3fb763	-0.187223
197	0x3f497c91	0.787057
198	0xbe957f73	-0.291988
199	0xbf4b82c3	-0.794964
200	0xbd9150a5	-0.0709546
201	0x3db6c4fb	0.0892429
202	0xbe385f07	-0.18005
203	0x3e30c88a	0.17264
204	0xbdac418d	-0.0841094
205	0x3ddea9a4	0.108722
206	0xbc0c4bd3	-0.008563
207	0xbcd954d0	-0.0265297
208	0x3e9526d9	0.291312
209	0x3e122899	0.142733
210	0x3defdc16	0.117119
211	0xbe47a8d6	-0.19498
212	0xbd45fa9b	-0.0483347
213	0x3d71de34	0.0590498
214	0xbd9ca4a4	-0.0764859
215	0x3d829069	0.063752
216	0x3c0a276b	0.00843225
217	0x3bbcbd4b	0.00575987
218	0xbe39231c	-0.180798
219	0x3c926776	0.0178716
220	0xbd8a45fc	-0.0675163
221	0xb933d289	-0.000171492
222	0xbd2d8fa0	-0.0423733
223	0xbc90fdea	-0.0176992
224	0xbb928e4d	-0.00447253
225	0xbbb9d29f	-0.00567086
226	0x3dbecf06	0.0931683
227	0x3e54aa54	0.207681
228	0x3b7e24b4	0.00387792
229	0x3a350278	0.000690497
230	0xbd90ecb7	-0.070764
231	0xbcb07d0b	-0.021544
232	0xbc8333fd	-0.016016
233	0x3ce6baea	0.0281653
234	0xbe351d69	-0.17687
235	0xbd78987d	-0.0606923
236	0xbbb72eeb	-0.00559031
237	0xbba82e72	-0.00513249
238	0xbe786013	-0.242554
239	0x3b8d6975	0.00431555
240	0xbd3cb634	-0.0460722
241	0xbe0d4281	-0.137949
242	0xbe991687	-0.299
243	0xbce88d88	-0.0283878
244	0xbe867b5f	-0.26266
245	0xbdf6da88	-0.120534
246	0xbd86323c	-0.0655255
247	0xbdaeb0e0	-0.0852983
248	0xbd8f04a8	-0.0698331
249	0x3d85d950	0.0653559
250	0xbb616cc2	-0.00343971
251	0xbe73a472	-0.237932
252	0x3e1cfa27	0.153298
253	0xbe1cb429	-0.153031
254	0x3ef157ef	0.471374
255	0x3f1058cd	0.563855

layers.12.bias f4 [5]
0	0xbca74081	-0.0204165
1	0xbc9c26a7	-0.0190614
2	0x3c975c73	0.0184767
3	0xbc9791ed	-0.0185022
4	0x3c9e6d3e	0.0193392

layers.12.weight f4 [5, 50]
0	0xbcb18abd	-0.0216726
1	0x3d02d100	0.0319376
2	0x3acbdc8d	0.00155534
3	0xb79738e7	-1.80271e-05
4	0x3c97279a	0.0184515
5	0x3c1a7313	0.00942685
6	0x3c9b97d6	0.0189933
7	0x3c6ca5b0	0.0144438
8	0x3c9cf249	0.0191585
9	0xbc764f12	-0.0150335
10	0x3c4643b1	0.0121011
11	0x3cf063ab	0.0293444
12	0xbc0dded0	-0.00865908
13	0x3d0a4569	0.0337576
14	0x3cc3b7b0	0.0238913
15	0xbbe48c9d	-0.00697477
16	0x3c151bc6	0.00910086
17	0xbc8442bb	-0.0161451
18	0x3d9d7d6f	0.0768994
19	0x3d0962b5	0.0335414
20	0x3c9d38f6	0.0191922
21	0x3db761d9	0.0895421
22	0x3c53ea63	0.0129343
23	0xbb9c541f	-0.00477077
24	0x3d4deffd	0.0502777
25	0x3bb512f2	0.00552594
26	0xbde2a23c	-0.110661
27	0xbb9df1c3	-0.00482008
28	0xbbb9158b	-0.00564832
29	0x3cc2dbb2	0.0237864
30	0x3b937121	0.00449957
31	0xbc3959be	-0.0113129
32	0x3d494bf4	0.0491447
33	0x3c971ce8	0.0184464
34	0x3ca26586	0.0198238
35	0xbc3e8145	-0.0116275
36	0x3c9b460c	0.0189543
37	0x3c7ccdb1	0.0154299
38	0xbc27d8f7	-0.0102446
39	0xbc1e84db	-0.00967523
40	0x3be2e6aa	0.00692447
41	0x3c85260f	0.0162535
42	0x3d045b0e	0.0323134
43	0x3d099f86	0.0335994
44	0x3d29f5b8	0.0414941
45	0x3b8ba7e9	0.00426196
46	0xbca971b4	-0.0206841
47	0x3d86fb5a	0.0659091
48	0x3bace43a	0.00527623
49	0x3d3b1855	0.0456775
50	0xbc96f6bd	-0.0184282
51	0x3d34d5e5	0.0441493
52	0xbbcbe343	-0.00622216
53	0xbc8738a4	-0.0165065
54	0x3ca16e0f	0.0197058
55	0xbb678205	-0.00353253
56	0xbc5649b9	-0.0130791
57	0xba34dd5c	-0.000689944
58	0x3d2426a0	0.0400759
59	0xb922348d	-0.000154691
60	0x3bcfef57	0.00634567
61	0xbd03f87d	-0.0322194
62	0x3bee4f13	0.00727261
63	0x3d011b89	0.0315204
64	0x3cf33a8a	0.029691
65	0xbb764dd0	-0.0037583
66	0x3cd2f53b	0.0257517
67	0xbc97aa76	-0.0185139
68	0x3d977095	0.0739452
69	0x3d0f85ca	0.0350397
70	0xbce38393	-0.0277727
71	0xbb1e0b18	-0.00241155
72	0x3d43cb31	0.0478012
73	0x3cd949b3	0.0265244
74	0x3d4509c0	0.048105
75	0x3c095ece	0.00838442
76	0x3bc1a14b	0.00590912
77	0x38adc942	8.28677e-05
78	0xbb5bd72c	-0.0033545
79	0x3c73e5ab	0.0148863
80	0xbb475c20	-0.00304199
81	0xbcb7d9f7	-0.0224428
82	0xbba43ffb	-0.00501251
83	0x3c31fc67	0.0108634
84	0x3cdca5f3	0.0269346
85	0xbcb454d1	-0.0220131
86	0xba2b393a	-0.000653166
87	0x3c0d7096	0.0086328
88	0xbbf058ae	-0.00733479
89	0xbca7f4dc	-0.0205025
90	0x3ca57936	0.0201994
91	0x3ca59bd1	0.0202159
92	0xbaeb158d	-0.00179355
93	0x3c9602a1	0.0183118
94	0x3d2a2ea8	0.0415484
95	0x3d5e0e8e	0.0542131
96	0x3caed388	0.0213411
97	0x3d82fc26	0.0639575
98	0x3ca9faa5	0.0207494
99	0x3d14524d	0.0362113
100	0xbc881f1e	-0.0166164
101	0x3cbdc70b	0.0231662
102	0x3b92886e	0.00447183
103	0xbc66a4e5	-0.0140774
104	0x3c915a9b	0.0177434
105	0x3c887b9a	0.0166605
106	0x3bc4037b	0.00598186
107	0x3d4a6d5c	0.0494207
108	0x3cc249bc	0.0237168
109	0xba0ae48f	-0.000529834
110	0x3c4d6289	0.0125357
111	0x3c296554	0.0103391
112	0x3a92b2cb	0.00111922
113	0x3ce8b1d0	0.0284051
114	0x3cd1f23b	0.0256282
115	0x3ce1fc09	0.027586
116	0x3cbcdeae	0.0230554
117	0xbc2a0e5c	-0.0103794
118	0x3d9d52c1	0.076818
119	0x3d0fa707	0.0350714
120	0x3c9ced41	0.0191561
121	0x3b339873	0.00274041
122	0xbc217d7e	-0.00985658
123	0x3cb80d58	0.0224673
124	0x3d501d84	0.0508094
125	0xbc662f09	-0.0140493
126	0x3648c8f7	2.99193e-06
127	0xbc316136	-0.0108264
128	0xbbad15cd	-0.00528214
129	0x3cb38822	0.0219155
130	0x3c27e663	0.0102478
131	0x3b1a133c	0.002351
132	0x3a721e9f	0.000923613
133	0xbb44664c	-0.00299682
134	0x3bfcdf7a	0.00771707
135	0xbb9c8257	-0.00477628
136	0x39ebbb1c	0.000449621
137	0x3c302638	0.0107513
138	0xbcae8fcb	-0.0213088
139	0xbc9ae163	-0.0189063
140	0xbc2bf0b4	-0.0104944
141	0x3ceb9006	0.0287552
142	0xbae57e74	-0.0017509
143	0x3d137070	0.0359959
144	0x3d359726	0.0443336
145	0xba9cc878	-0.00119616
146	0xbc6fc1c4	-0.0146336
147	0x3d7f8cf9	0.0623903
148	0xbca1dd35	-0.0197588
149	0x3d72d82f	0.0592882
150	0xbc2d54cd	-0.0105793
151	0x3cec300a	0.0288315
152	0xbccdde0f	-0.0251303
153	0x3cb1890f	0.0216718
154	0xbb330322	-0.00273151
155	0xbc360bc0	-0.0111112
156	0x3ca7f4a6	0.0205024
157	0xbb91bbaa	-0.00444742
158	0x3aef47f7	0.00182557
159	0x3a2e34cb	0.000664544
160	0x3d49fb61	0.049312
161	0x3bd80c1b	0.00659324
162	0x3b950662	0.00454788
163	0x3ce2bcf9	0.027678
164	0x3cb94383	0.0226152
165	0xbba8b907	-0.00514901
166	0x3c89d104	0.0168233
167	0xbb9829ed	-0.00464367
168	0x3d8b0a8b	0.0678912
169	0x3cce4b1c	0.0251823
170	0xbab99461	-0.00141586
171	0xbb3c38ab	-0.00287203
172	0x3d8a2299	0.0674488
173	0xbce62889	-0.0280955
174	0x3d64290a	0.0557032
175	0x3d6cc7a9	0.0578076
176	0x3ac31615	0.00148839
177	0x3c95dce1	0.0182938
178	0x3ce45ca1	0.0278762
179	0xbb36d0e2	-0.00278955
180	0xbbf00866	-0.00732522
181	0xbd4ebf30	-0.0504753
182	0x3ab2b219	0.00136334
183	0x3b8acce3	0.00423585
184	0x3ba7de96	0.00512297
185	0xbc95237e	-0.0182054
186	0xba48453a	-0.000763971
187	0xbc529b43	-0.0128544
188	0xba667073	-0.000879056
189	0x3a6fb6b2	0.000914435
190	0x3d031833	0.0320055
191	0x3cdff6e1	0.0273394
192	0x3cd8abc8	0.0264491
193	0xba6e2551	-0.000908454
194	0x3d22b4b0	0.0397231
195	0xbb85025e	-0.00405912
196	0x3d17ad15	0.0370303
197	0x3d709ceb	0.0587434
198	0xbc8cef67	-0.017204
199	0x3c25dd09	0.0101235
200	0xbc47bd99	-0.0121912
201	0x3c4c3a00	0.012465
202	0x3c88d7aa	0.0167044
203	0xbbecfec6	-0.00723252
204	0x3c18364d	0.00929029
205	0x3cb0a442	0.0215627
206	0x3c3fd1a7	0.0117077
207	0x3d2ba692	0.0419069
208	0x3c284960	0.0102714
209	0xba3f37c1	-0.000729438
210	0xbb6ab368	-0.00358125
211	0x3d11b189	0.0355697
212	0x3a81b250	0.000989506
213	0x3cf2d93b	0.0296446
214	0x3cb72f0c	0.0223613
215	0x3d45aa49	0.0482581
216	0x3c9ad498	0.0189002
217	0xbb111e20	-0.00221432
218	0x3da1ec41	0.0790639
219	0x3d06ecef	0.0329408
220	0x3ca668eb	0.0203137
221	0x3af48929	0.00186566
222	0xbd1f7c67	-0.038937
223	0x3bf1f24b	0.00738362
224	0x3d542e3b	0.0518019
225	0xbc9d27c4	-0.019184
226	0x399a9680	0.000294853
227	0xbd027957	-0.031854
228	0xbc8269d2	-0.0159196
229	0x3c897021	0.0167771
230	0x3c9680e0	0.018372
231	0x3c044204	0.00807238
232	0x3ade987c	0.00169827
233	0x3cd2af9b	0.0257185
234	0xbd0d007f	-0.0344243
235	0x3bec0851	0.00720314
236	0xba81bed4	-0.000989879
237	0x3cc43a8d	0.0239537
238	0xbce5e171	-0.0280616
239	0xbc0db0cd	-0.00864811
240	0xbcdcd4ed	-0.026957
241	0x3d020c4a	0.03175
242	0x3b05ee16	0.00204361
243	0x3d44ade5	0.0480174
244	0x3d2ff3ae	0.042957
245	0xbb0cf7f6	-0.00215101
246	0xbc89ab45	-0.0168053
247	0x3d6dc627	0.0580503
248	0xbcdbdbc9	-0.0268382
249	0x3d321ee6	0.0434865

layers.2.bias f4 [50]
0	0xbea8e7de	-0.329894
1	0xbecf14db	-0.404456
2	0xbcbe9857	-0.023266
3	0xbf3dd50b	-0.741532
4	0xbec24639	-0.379442
5	0x3e7f8ceb	0.249561
6	0xbd74bb43	-0.0597489
7	0x3fb0dae4	1.38168
8	0x3fde20ef	1.73538
9	0xbe95cdb3	-0.292585
10	0xbf13cc5c	-0.577337
11	0xbe4aaf79	-0.197935
12	0xbda4cf58	-0.0804736
13	0xbf8d0efe	-1.10202
14	0xbbf65201	-0.0075171
15	0xbe450b95	-0.192427
16	0xbd347e57	-0.0440658
17	0xbf95c726	-1.17014
18	0x3e008f65	0.125547
19	0xbef9c23b	-0.48781
20	0xbe91fe65	-0.285144
21	0xbc24dbed	-0.0100622
22	0x3e20e5a3	0.157126
23	0xbf980789	-1.18773
24	0x3f01adeb	0.50656
25	0x3f0aeb81	0.542656
26	0xbf37bf94	-0.717767
27	0xbc75b44d	-0.0149966
28	0x3f59d020	0.850832
29	0x3fb0ae53	1.38032
30	0xbf0a4aae	-0.540202
31	0x3f0081f5	0.501983
32	0xbed44e0e	-0.414658
33	0xbec99a20	-0.393754
34	0x3f1942b3	0.598674
35	0x3ece05cd	0.402388
36	0xbf817f63	-1.0117
37	0x3d9e2790	0.0772239
38	0xbebcad36	-0.368509
39	0xbe3cd078	-0.184389
40	0xbc25ed65	-0.0101274
41	0xbf8ab65b	-1.08369
42	0xbf9ee4e2	-1.24136
43	0x3f21afc0	0.631588
44	0xbc8e12e8	-0.017343
45	0xbf247d2c	-0.642535
46	0xbd8dd60a	-0.0692559
47	0x3ea332ad	0.318746
48	0xbe07fe09	-0.132805
49	0xbccb3ec3	-0.0248102

layers.2.weight f4 [50, 50]
0	0x3b7bbf54	0.00384136
1	0xbeee0d24	-0.464944
2	0x3f4f0729	0.808703
3	0xbf9b890d	-1.21512
4	0x3faf6ddb	1.37054
5	0xc034786c	-2.81985
6	0xbc6d9168	-0.0145
7	0x3f4c55fc	0.798187
8	0x3f89e7ea	1.07739
9	0xbeca1a72	-0.394733
10	0xbfa185f0	-1.2619
11	0x3eb20ec7	0.347769
12	0xbf682adc	-0.906904
13	0x3cc3914f	0.023873
14	0xbf470ced	-0.777541
15	0xbf5d21bc	-0.863796
16	0xbdf47304	-0.11936
17	0xbf02b93d	-0.510639
18	0x3f21600f	0.630372
19	0x3ec506bc	0.384817
20	0xbf79f97b	-0.976463
21	0xbf3d5a08	-0.739655
22	0xc01691fb	-2.35266
23	0xbfd19653	-1.6374
24	0xbf2138bd	-0.629772
25	0x3efdb63d	0.495531
26	0xbee27eb7	-0.442373
27	0x3e0197e5	0.126556
28	0xbf1bfe8f	-0.609353
29	0xbe8ec3db	-0.278838
30	0xbecb8540	-0.397501
31	0xbf9def74	-1.23387
32	0x3f5be09c	0.858896
33	0x4033c23b	2.80873
34	0xbe2ddb98	-0.169783
35	0x3fb5b036	1.41944
36	0xbdea4873	-0.114396
37	0x3f067504	0.525223
38	0xbf1a59f3	-0.602935
39	0xbec85dfb	-0.391342
40	0xbf340de5	-0.703337
41	0x3f5d081c	0.863405
42	0x3ec06c66	0.375827
43	0x400410b6	2.06352
44	0x3e423ab0	0.189677
45	0xbef58fd6	-0.479613
46	0x3f23d7e4	0.640013
47	0xbf6d4b16	-0.926927
48	0xbe1b9cb7	-0.151965
49	0x3f3fcbe6	0.749205
50	0x3e974107	0.295418
51	0xbee4cc68	-0.446872
52	0xbfe55c53	-1.79188
53	0x3f27bc7f	0.65522
54	0x3f50efbb	0.816158
55	0x3e736007	0.237671
56	0x3ddcc31a	0.107794
57	0xc03644fa	-2.84796
58	0x3e945b4b	0.289759
59	0x3f842de0	1.03265
60	0xbce39998	-0.0277832
61	0xbe406706	-0.187893
62	0x3f09e7b8	0.538692
63	0x3d1b56ee	0.0379247
64	0xbec32831	-0.381166
65	0xbeb6a6c2	-0.356741
66	0xbcb7d0bc	-0.0224384
67	0xbdcc4c24	-0.0997546
68	0x3eaeba28	0.341264
69	0xbf0a2691	-0.539651
70	0x3ef251e3	0.473281
71	0xbdf8a6db	-0.121412
72	0xbe9028a2	-0.28156
73	0x3e7af70a	0.245083
74	0x3d9b913b	0.0759606
75	0xbead19bd	-0.338087
76	0x3e796b76	0.243574
77	0xbe619ef9	-0.220333
78	0xbf255c85	-0.645943
79	0x3f40f3cb	0.75372
80	0xbe4e646f	-0.201555
81	0xbcb35639	-0.0218917
82	0x3e14cdfb	0.145317
83	0x3d911b6e	0.0708531
84	0xbe8fce74	-0.280872
85	0x3e4bca10	0.199013
86	0x3faf31e4	1.36871
87	0x3fbd0dae	1.47698
88	0x3f1fde1e	0.624483
89	0xbe6a22b4	-0.228648
90	0x3e670f7c	0.225645
91	0xbf4a9be1	-0.791441
92	0x3ea6f284	0.326069
93	0xbe488334	-0.195813
94	0xbe0e28aa	-0.138827
95	0x3e1eeed9	0.155208
96	0x3eca89db	0.395583
97	0x3d1b8c68	0.0379757
98	0xbeee2307	-0.465111
99	0x3ced79eb	0.0289888
100	0xbc264869	-0.0101491
101	0xbc2bedc5	-0.0104937
102	0x3c1c2916	0.00953128
103	0x3d047fc2	0.0323484
104	0xbc93a48d	-0.0180228
105	0xbd833b61	-0.0640781
106	0x3c4a59c0	0.0123505
107	0xbd1ef0d7	-0.0388039
108	0x3c89ee2b	0.0168372
109	0xbd3b927d	-0.045794
110	0x3c4e4f18	0.0125921
111	0x3b0a18f3	0.0021072
112	0x3cd0ed23	0.0255037
113	0x3d27f14b	0.0410016
114	0x3cac3837	0.0210229
115	0x3d392c21	0.0452081
116	0xbc939fba	-0.0180205
117	0xbd38701e	-0.0450288
118	0xbcae79fb	-0.0212984
119	0xbd0f132e	-0.0349304
120	0x3c04f4a7	0.00811497
121	0xbd6b5fe5	-0.0574645
122	0xbd7c6b71	-0.0616259
123	0x3d0952e0	0.0335263
124	0xbd4ec439	-0.0504801
125	0xbad142fe	-0.00159654
126	0x3d353a8f	0.0442453
127	0xbd24e867	-0.0402607
128	0xbd28231a	-0.0410491
129	0xbc387cb4	-0.0112602
130	0xbb354399	-0.00276587
131	0xbc3d4215	-0.0115514
132	0xbd3bbf94	-0.045837
133	0xbcdc9e9c	-0.0269311
134	0xbcfce2df	-0.0308699
135	0xbcc4534c	-0.0239655
136	0xbc78388b	-0.0151502
137	0xbd5058a8	-0.0508658
138	0xbc521b56	-0.0128239
139	0xbd0970a7	-0.0335547
140	0xbd028c87	-0.0318723
141	0xbd0655ba	-0.0327966
142	0x3d072dd7	0.0330027
143	0x3b44e19c	0.00300417
144	0x3cffd42b	0.0312291
145	0xbcb40230	-0.0219737
146	0xbbf3160d	-0.0074184
147	0xbd4503ab	-0.0480992
148	0xbc478dc9	-0.0121798
149	0x3d71cc2b	0.0590326
150	0x3e924ca5	0.285741
151	0x3e41c68f	0.189234
152	0xbe980779	-0.296932
153	0x3ea500b4	0.322271
154	0x40bbfc7a	5.87457
155	0xbead5c53	-0.338595
156	0x3f1a3f46	0.602528
157	0xbf1f3786	-0.621941
158	0x3e99b9b6	0.300245
159	0xbf0c2c4d	-0.547551
160	0x3f3d69c2	0.739895
161	0x3f27979a	0.654657
162	0xbcf895de	-0.0303449
163	0xbd2ed74e	-0.0426858
164	0xbe82a2c2	-0.255148
165	0xbf07cf81	-0.53051
166	0x3f92363b	1.14228
167	0xbd2eb555	-0.0426534
168	0xbe9e9036	-0.309694
169	0xbe730a91	-0.237345
170	0xbe9aca36	-0.302324
171	0x3dd72c52	0.105065
172	0x3ebc404a	0.367678
173	0x3ed83a97	0.422322
174	0x3f3c4828	0.735476
175	0x3f530132	0.824237
176	0xbe53d039	-0.206849
177	0x3eebd09e	0.460576
178	0xbe550375	-0.208021
179	0xbf323b04	-0.696213
180	0xbdac0a07	-0.0840035
181	0x3f7b7553	0.982259
182	0xbe29d3cc	-0.165847
183	0xbe9e9b5a	-0.309779
184	0x3e8e4f12	0.277947
185	0x3d9f8346	0.0778871
186	0xbccb2456	-0.0247976
187	0xbe57d1bb	-0.210761
188	0x3edc46d8	0.430228
189	0xbdad0587	-0.0844832
190	0x3e336da8	0.175223
191	0x3f85a36e	1.04405
192	0xbdf49279	-0.11942
193	0xbf6114a1	-0.879221
194	0xbee27935	-0.442331
195	0x3d81eb27	0.0634368
196	0x3f00aa65	0.5026
197	0xbe45ae60	-0.193048
198	0x3e92e211	0.286881
199	0x3ef72d1b	0.482766
200	0xbd6afb71	-0.0573687
201	0xbf2bb060	-0.67066
202	0x3f5b39d2	0.856351
203	0xbfc16430	-1.51087
204	0x3f6c88b5	0.923961
205	0xbe186445	-0.14882
206	0x3ee8f12c	0.454965
207	0xbef41aef	-0.476768
208	0x3cf4ec05	0.0298977
209	0xc01c5c92	-2.44315
210	0xbd8bd8e7	-0.0682848
211	0xbb9b871a	-0.00474633
212	0x3e2c829d	0.168467
213	0xbc9f4469	-0.0194418
214	0xbf420557	-0.757894
215	0x3f3c403a	0.735355
216	0x3fb08659	1.3791
217	0x3ee18809	0.440491
218	0x3ca0a41a	0.0196095
219	0xbe10c6b5	-0.141383
220	0x3d581c3c	0.0527613
221	0x3d0bad7d	0.034101
222	0x3f5b2bfe	0.85614
223	0xbe6f3238	-0.23359
224	0xbe8a8e2e	-0.270616
225	0x3f35b5fa	0.709808
226	0x3f1a8662	0.603613
227	0xbfb14318	-1.38486
228	0xbe89ce07	-0.26915
229	0xbfe13d32	-1.75968
230	0xbf2e0557	-0.679769
231	0xbd062ad7	-0.0327557
232	0x3ddb2c41	0.107018
233	0xc0073190	-2.1124
234	0xbf17b1d1	-0.592557
235	0xbe453587	-0.192587
236	0x3f8aa1b6	1.08306
237	0xbd38d2e5	-0.045123
238	0x3e25ad10	0.161793
239	0x3f4f58c1	0.809948
240	0xbcd3dc8c	-0.025862
241	0x3f2a4e59	0.665258
242	0xbed11969	-0.408397
243	0xbe95759f	-0.291913
244	0xbf06605f	-0.524908
245	0x3d181cdd	0.0371369
246	0x3f3112ba	0.691692
247	0x3ec55e8d	0.385487
248	0x3ebf4f51	0.373652
249	0x3f0469d7	0.51724
250	0xbd27fe67	-0.0410141
251	0x3f07e048	0.530766
252	0xbd431fc0	-0.0476377
253	0x3f990c0b	1.19568
254	0xbd4425e5	-0.0478877
255	0x3e62fd33	0.221669

layers.4.bias f4 [50]
0	0xbff3ecab	-1.90566
1	0xbea18138	-0.315439
2	0xbf85acef	-1.04434
3	0xbfba3dc5	-1.45501
4	0x3e83502b	0.256471
5	0xbe175d57	-0.147817
6	0x3ebc2396	0.367459
7	0xbe1a12b6	-0.150462
8	0x3f4cfc93	0.800729
9	0x3f02cc71	0.510932
10	0xbf38a9ef	-0.721343
11	0xbebf559b	-0.3737
12	0xbeaed352	-0.341456
13	0xbf55f655	-0.83579
14	0xbeb6fb2b	-0.357385
15	0xbf761230	-0.961215
16	0x3dc51d91	0.0962478
17	0xbf617332	-0.880664
18	0xbf478b7a	-0.779472
19	0xbed36e2f	-0.41295
20	0xbf9a3498	-1.20473
21	0x3d78e98b	0.0607696
22	0xbe92deec	-0.286857
23	0xbf63b95a	-0.889547
24	0x3ecd25ab	0.400678
25	0x3fb5bb06	1.41977
26	0xbe9b8540	-0.303751
27	0xbed0cef6	-0.407829
28	0xbf589332	-0.845996
29	0xbf470f06	-0.777573
30	0xbe807379	-0.250881
31	0xbf5160fa	-0.817886
32	0xbf499e95	-0.787576
33	0x3f808ede	1.00436
34	0xc00d4730	-2.20747
35	0x3e3df58c	0.185507
36	0xbf286ca9	-0.657908
37	0xbf2d3dd9	-0.676725
38	0x3eb48e8a	0.35265
39	0x3e89697f	0.268383
40	0x3f006c22	0.50165
41	0xbec1a826	-0.378236
42	0xbef096bc	-0.4699
43	0xbfe07358	-1.75352
44	0xbe95946c	-0.292148
45	0xbe866299	-0.262471
46	0xbfe6a0ba	-1.80178
47	0x3eb314ec	0.349769
48	0xbef85575	-0.485027
49	0xbf9da661	-1.23164

layers.4.weight f4 [50, 50]
0	0xbe126202	-0.142952
1	0x3f39f6ec	0.726424
2	0x3ca6205b	0.0202791
3	0x3d99e724	0.0751479
4	0xbe3db76b	-0.18527
5	0x3ae32e38	0.00173325
6	0x3ddd449a	0.108041
7	0x3fa3bbd8	1.27917
8	0x3f20f16f	0.628684
9	0x3e4a37ac	0.197478
10	0x3f7dbe2b	0.991183
11	0x40095df6	2.14636
12	0xbe8a4ca5	-0.270116
13	0x3f19e54b	0.601155
14	0xbcb5d108	-0.0221944
15	0x3dd4dad3	0.103933
16	0xbf558b82	-0.83416
17	0xbf9f9970	-1.24687
18	0xbf385dc8	-0.720181
19	0x401adefc	2.41986
20	0x3e941701	0.289238
21	0xbce18d4e	-0.0275332
22	0xbcd2486d	-0.0256693
23	0x3f101f32	0.562976
24	0xbb0e8819	-0.00217486
25	0x3f9f1fde	1.24316
26	0x3f167115	0.587663
27	0x3ca8bc82	0.0205977
28	0xbf5d7e78	-0.865211
29	0x3dec9b84	0.115531
30	0xbf0ed81b	-0.557985
31	0x3cf68ad7	0.0300955
32	0x3f09a74c	0.537709
33	0x3f08444a	0.532292
34	0xbf0b9160	-0.545187
35	0x3e55703f	0.208436
36	0x3f24da3c	0.643955
37	0xbe93a4f8	-0.288368
38	0x3e819d67	0.253154
39	0x3f896777	1.07347
40	0x3c88c211	0.0166941
41	0x3e6fa2ad	0.234019
42	0x3ff07747	1.87864
43	0x3e7a044b	0.244157
44	0x3cf2bbaa	0.0296305
45	0x3f0d898b	0.55288
46	0x3deb6391	0.114936
47	0xbe907bfe	-0.282196
48	0x3ff05b6c	1.87779
49	0xbb63cfc9	-0.00347613
50	0xbde79d4e	-0.113093
51	0xbf1ed528	-0.62044
52	0x392868e2	0.000160608
53	0xbeb707e1	-0.357482
54	0xbf3555e7	-0.708342
55	0xbf2307c0	-0.636837
56	0xbb5070c6	-0.00318055
57	0x3da90108	0.0825215
58	0xbf07b9f1	-0.530181
59	0x3e2c95c0	0.16854
60	0x3d66e1ec	0.0563678
61	0xbe423cc9	-0.189685
62	0xbea0285f	-0.312808
63	0x3eb7b82c	0.358827
64	0xbcc694da	-0.0242409
65	0xbf2c0d6f	-0.67208
66	0x3eca3c00	0.394989
67	0x3f0056d6	0.501325
68	0xbf15e95b	-0.585592
69	0xbf844ab6	-1.03353
70	0xbd1c6e45	-0.0381911
71	0xbc7335ed	-0.0148444
72	0xbe6fbb0e	-0.234112
73	0xbe5796c0	-0.210536
74	0x3e2fdeb5	0.171748
75	0x3d24cd24	0.0402347
76	0xbf9e5bea	-1.23718
77	0x3c6d8ab2	0.0144984
78	0x3e898d47	0.268656
79	0x3eb6a2d3	0.356711
80	0x3e5cfd09	0.215809
81	0xbb700f47	-0.00366302
82	0xbe839842	-0.257021
83	0x3efe3822	0.496522
84	0xbda9b92a	-0.0828727
85	0x3ca0776f	0.0195882
86	0x3f435ec8	0.763165
87	0x3f9be47a	1.21791
88	0x3eb8c005	0.36084
89	0x3f38f3ba	0.722469
90	0xbbd125b7	-0.00638267
91	0xbea0548b	-0.313145
92	0xbe441d4b	-0.191518
93	0xbd687a22	-0.0567571
94	0xbd21a4cb	-0.0394638
95	0x3e334eba	0.175105
96	0xbd4804cc	-0.0488327
97	0x3e46ec9e	0.194262
98	0x3eea0579	0.457073
99	0x3c42de37	0.0118938
100	0x3da7d384	0.0819464
101	0x3e9f852f	0.311563
102	0xbd2c6d7c	-0.0420966
103	0x3f6045bb	0.876064
104	0x3f0bb3ea	0.545714
105	0x3e73c2db	0.238048
106	0x3e2ea0ba	0.170535
107	0xbe10984e	-0.141206
108	0xbe806962	-0.250804
109	0x3edf9874	0.43671
110	0x3f50b6c8	0.815289
111	0xbfc26a01	-1.51886
112	0xbe06e86c	-0.131746
113	0x3e2a1555	0.166097
114	0xbbdf32d6	-0.00681148
115	0xbf6b5d03	-0.919388
116	0x3f0f7af6	0.56047
117	0xbf07e1b9	-0.530788
118	0xbe2edd48	-0.170766
119	0x3ebee1df	0.372817
120	0xbf79ba91	-0.975503
121	0x3cb253da	0.0217685
122	0xbcc35fd1	-0.0238494
123	0xbf89a9a8	-1.07549
124	0xbe9f939a	-0.311673
125	0xbdc166d3	-0.0944344
126	0xbed1bbf1	-0.409637
127	0x3c522b46	0.0128277
128	0x3f152232	0.582553
129	0x3e1c4ac7	0.152629
130	0x3e8313be	0.25601
131	0xbef112fd	-0.470848
132	0x3eddf71f	0.433526
133	0x3f8e2292	1.11043
134	0xbf401ace	-0.750409
135	0xbf5c8ba8	-0.861506
136	0x3e536eb5	0.206477
137	0xbd29adae	-0.0414254
138	0x3d806b02	0.0627041
139	0x3f5f6588	0.872643
140	0x3c7122ed	0.0147178
141	0x3ec9c5e7	0.394088
142	0xbe650614	-0.223656
143	0xbe9055da	-0.281905
144	0x3d07a3b3	0.0331151
145	0x3e0ebd90	0.139395
146	0x3db82690	0.0899173
147	0x3c542b66	0.0129498
148	0x3ee1d020	0.441041
149	0x3d3ef0d7	0.0466164
150	0x3e5ccc8a	0.215624
151	0xbc25d72a	-0.0101221
152	0x3cfdf747	0.0310017
153	0x3d51c8eb	0.051217
154	0x3ecae2b9	0.396261
155	0xbe00b780	-0.1257
156	0x3c90a244	0.0176555
157	0x3e37ffde	0.179687
158	0xbd7984bc	-0.0609176
159	0xbd47f852	-0.0488208
160	0x3f0725b3	0.527919
161	0xbfb2da66	-1.39729
162	0xbef2f61f	-0.474534
163	0xbf13c9bc	-0.577297
164	0x3d36c26a	0.044619
165	0x3e739b02	0.237896
166	0xbfb08c93	-1.37929
167	0x3dd93ee6	0.106077
168	0xbf6cd984	-0.925194
169	0x3e50ec31	0.204026
170	0xc0417b74	-3.02316
171	0xbce7d094	-0.0282977
172	0x3e8e9857	0.278506
173	0xbf7275ef	-0.947112
174	0x3f03ab11	0.514329
175	0x3f2401b4	0.640651
176	0xbf07e942	-0.530903
177	0xbc985cb8	-0.0185989
178	0xbebe3fff	-0.371582
179	0xbe1394fb	-0.144123
180	0x3e8ecb96	0.278897
181	0x3f090870	0.535285
182	0x3f572cc7	0.840527
183	0xbf835b2d	-1.02622
184	0xbebb1184	-0.365368
185	0x3f486f9c	0.782953
186	0xbfd68cbd	-1.67617
187	0x3f8e27d0	1.11059
188	0xbf45d14e	-0.772725
189	0x3f80f084	1.00734
190	0xbd564edc	-0.0523213
191	0x3fb59ddc	1.41888
192	0x3f11b7bf	0.56921
193	0x3f044f1a	0.516832
194	0xbd43690b	-0.0477076
195	0xbbb153f5	-0.00541162
196	0xbd1d6d13	-0.0384341
197	0x3d14310f	0.0361796
198	0xbef15486	-0.471348
199	0x3d20913a	0.039201
200	0xbe94b9aa	-0.290479
201	0xbd1391e3	-0.0360278
202	0xbcc9836c	-0.0245988
203	0x3c114f7e	0.00886905
204	0x3e343d04	0.176014
205	0x3d8b7fc6	0.0681148
206	0xbcaad886	-0.0208552
207	0x3e9b9d3d	0.303934
208	0x3babd65d	0.00524406
209	0xbf2bd2fa	-0.671188
210	0xbe138a7e	-0.144083
211	0x3f33b731	0.702014
212	0x3f0a0d02	0.539261
213	0x3e375e63	0.179071
214	0x3cac1609	0.0210066
215	0x3e293e1d	0.165276
216	0x3ea23055	0.316775
217	0xbf04f15e	-0.519308
218	0x3ba265db	0.00495599
219	0x3d9051bd	0.0704684
220	0xbe49ccb8	-0.19707
221	0xbc9193a6	-0.0177706
222	0x3e2bd7b2	0.167815
223	0x3e5a78f2	0.213352
224	0xbeffd34e	-0.499659
225	0xbe50828c	-0.203623
226	0xbe2985ad	-0.165549
227	0xbb16226c	-0.00229087
228	0xbed20a74	-0.410236
229	0xbe1d4b6a	-0.153608
230	0x3e2ae89f	0.166903
231	0x3e55f677	0.208948
232	0xbf89dd1a	-1.07706
233	0xbec087ec	-0.376037
234	0xbef7b97c	-0.483837
235	0xbbdf8185	-0.00682086
236	0x3bf00fb2	0.00732609
237	0x3f77e1a8	0.968287
238	0xbe9e5e24	-0.309312
239	0xbd260609	-0.0405331
240	0xbd0f9f7b	-0.0350642
241	0x3db7fd9d	0.0898392
242	0xbe2fbb95	-0.171614
243	0x3e911d58	0.283427
244	0xbd171ccd	-0.0368927
245	0x3e7faca3	0.249682
246	0xbd4212ca	-0.0473812
247	0xbd944666	-0.0723999
248	0x3fa0afa3	1.25536
249	0xbd09e3af	-0.0336644
250	0xbea1439e	-0.314969
251	0xbeac7a18	-0.336869
252	0xbd1110e4	-0.0354165
253	0xbde0ad04	-0.109705
254	0x3ddba451	0.107247
255	0x3ee585e0	0.448287

layers.6.bias f4 [50]
0	0xbcbad264	-0.0228054
1	0x3f0b4891	0.544076
2	0x3f839e06	1.02826
3	0xbedd6388	-0.4324
4	0xbf9eb40f	-1.23987
5	0x3f048f54	0.517812
6	0xc03d7b9e	-2.96067
7	0xbf573fea	-0.840819
8	0xbf0fae14	-0.56125
9	0xc019d1a2	-2.40342
10	0x3ca9f6a9	0.0207475
11	0xbf8d3b3a	-1.10337
12	0x3f4f3e25	0.809542
13	0xbf3fe804	-0.749634
14	0xbdf35760	-0.118819
15	0xbfaac80c	-1.33423
16	0x3e11d1d4	0.142402
17	0xbff58cd2	-1.91836
18	0xbeb216c6	-0.34783
19	0x3e9425f2	0.289352
20	0xbfb485b2	-1.41033
21	0x3f0e5aab	0.556071
22	0xc0126517	-2.28742
23	0x3f956db1	1.16741
24	0x3e1daec5	0.153987
25	0x3f3e9457	0.744451
26	0xbf454db6	-0.770717
27	0xbee37cfe	-0.444313
28	0xbf8e07b3	-1.10961
29	0x3d199a05	0.0375004
30	0x3edb3d6c	0.428203
31	0xbfb66128	-1.42484
32	0x3dc2a356	0.0950381
33	0x3f86c519	1.05289
34	0x3f2bdc7b	0.671333
35	0xbf700315	-0.937547
36	0x3f3938ce	0.723523
37	0x3fb5ca19	1.42023
38	0x40009a02	2.0094
39	0xbf3b2639	-0.731052
40	0x3f0e350d	0.555497
41	0xbfafcddd	-1.37347
42	0x3e13dff4	0.144409
43	0xbde29bf1	-0.110649
44	0xbf489e77	-0.783668
45	0x3f931d3f	1.14933
46	0xc09ed1a2	-4.96309
47	0xbe1b020c	-0.151375
48	0xbecedbf9	-0.404022
49	0xbc91ca63	-0.0177967

layers.6.weight f4 [50, 50]
0	0xbd2ee3c9	-0.0426977
1	0xbb42519f	-0.00296507
2	0x39d134c4	0.000399029
3	0x3d1b9212	0.0379811
4	0xbb948dc1	-0.0045335
5	0xbd77cd2c	-0.0604984
6	0x3cee4b6d	0.0290887
7	0x3cff399c	0.0311554
8	0x3b446677	0.00299683
9	0x3c6fa036	0.0146256
10	0x3c5d3133	0.0135005
11	0xbd7941d6	-0.0608538
12	0x3be0aa4f	0.00685624
13	0x3c8441ae	0.0161446
14	0x3be25911	0.00690759
15	0xbd6de9ce	-0.0580843
16	0xbc442fdb	-0.0119743
17	0x3bdbee28	0.00671174
18	0xbd02a023	-0.031891
19	0xbcc4874e	-0.0239903
20	0xbd4f8d8c	-0.0506721
21	0x3c863b18	0.0163856
22	0xbbcd3d35	-0.0062634
23	0xbbfbf13d	-0.00768867
24	0x3c291171	0.0103191
25	0xbd214a68	-0.0393776
26	0xbc302993	-0.0107521
27	0xbcf8444a	-0.030306
28	0x3c4fd885	0.0126859
29	0x3cb38c8a	0.0219176
30	0xbc57e458	-0.013177
31	0xbcd7d5aa	-0.026347
32	0x3cddfa87	0.027097
33	0xbd3ccc39	-0.0460932
34	0xbd09bd9e	-0.0336281
35	0xbcbc3ae4	-0.0229773
36	0xbc96f5e6	-0.0184278
37	0xbc819dc5	-0.0158223
38	0xbb1d474e	-0.00239988
39	0xbd0dd617	-0.034628
40	0x3c461523	0.01209
41	0xbbcd5bfe	-0.00626707
42	0x3c05bb56	0.00816234
43	0xbcfbf361	-0.0307557
44	0xbd38660d	-0.0450192
45	0x3d043fcb	0.0322874
46	0xbca12798	-0.0196722
47	0xbc9f08da	-0.0194134
48	0xbcd324a0	-0.0257743
49	0xbce1d24d	-0.0275661
50	0x3e0eb5f6	0.139366
51	0x3ddaf428	0.106911
52	0xbe7ff3f1	-0.249954
53	0x3f1b3fc8	0.606442
54	0xbf87020c	-1.05475
55	0xbefcfe58	-0.494128
56	0x3d9cb70b	0.076521
57	0xbd518330	-0.0511505
58	0x3dd8b264	0.105809
59	0xbd9db651	-0.0770079
60	0xbef0112c	-0.468881
61	0x3d127fe5	0.0357665
62	0x3e01bc12	0.126694
63	0xbf0bc9ef	-0.54605
64	0x3d3a4200	0.0454731
65	0x3ebfc3f8	0.374542
66	0x3df35fc4	0.118835
67	0xbe379e17	-0.179314
68	0x3eca68f5	0.395332
69	0xbe831e5c	-0.256091
70	0xbec68577	-0.387737
71	0x3d90266e	0.0703858
72	0xbc5919e2	-0.0132508
73	0x3ca81fda	0.020523
74	0xbe1b9d80	-0.151968
75	0x3e8adb1f	0.271203
76	0xbf31919b	-0.693628
77	0x3f12f49d	0.574045
78	0xbfc6ffc1	-1.55468
79	0xbf064b45	-0.524586
80	0x3f1c382a	0.610232
81	0xbd1312cd	-0.0359066
82	0x3ec3f402	0.382721
83	0x3d0c71ae	0.0342881
84	0xbefe3e8e	-0.496571
85	0xbdf2ec6c	-0.118615
86	0x3f1b225b	0.605993
87	0x3c568258	0.0130926
88	0x3e24fb98	0.161116
89	0xbd3714ef	-0.0446977
90	0x3e186b16	0.148846
91	0x3ef7f024	0.484254
92	0xbeea08c0	-0.457098
93	0xbe0f6c27	-0.140061
94	0x3fa03809	1.25171
95	0xbd75ea17	-0.0600377
96	0x3d3102d7	0.0432156
97	0x3e2e6aba	0.170329
98	0xbd98b787	-0.0745688
99	0xbd15a8df	-0.036538
100	0x3e99578a	0.299496
101	0x3ebf63e5	0.373809
102	0xbe4066c3	-0.187892
103	0xc021613d	-2.52156
104	0xbf045825	-0.51697
105	0xbe401f75	-0.18762
106	0xbe8b7c13	-0.272431
107	0xbe86da45	-0.263384
108	0xbe7db552	-0.247762
109	0x3eabd48d	0.335606
110	0xbe796313	-0.243542
111	0xbe959514	-0.292153
112	0x3e679032	0.226136
113	0xbf391eb8	-0.723125
114	0x3d8cb586	0.0687056
115	0xbe2dce7d	-0.169733
116	0x3e19656f	0.149801
117	0x3edd60c8	0.432379
118	0xbebfecdd	-0.374854
119	0xbe0db2f6	-0.138378
120	0xbf1b8822	-0.607546
121	0xbe255d1c	-0.161488
122	0xbdf9274e	-0.121657
123	0x3e61d191	0.220526
124	0xbec6eac8	-0.38851
125	0x3e7c73ef	0.246536
126	0x3eb1ce07	0.347275
127	0x3da3595e	0.0797603
128	0xbf0974e6	-0.53694
129	0xbdbc1136	-0.0918297
130	0xbb2abcad	-0.00260524
131	0x3f69be2b	0.913058
132	0x3d48a09e	0.0489813
133	0xbe3d3911	-0.184788
134	0x3e0af534	0.135701
135	0xbe276b7f	-0.163496
136	0x3ede16d7	0.433768
137	0xbedad667	-0.427417
138	0xbe5c3c5c	-0.215074
139	0xbbad6797	-0.00529189
140	0x3a7050e9	0.000916733
141	0xbe9c388f	-0.305119
142	0xbcc2769d	-0.0237382
143	0x3ed2a800	0.411438
144	0xbdd44fe3	-0.103668
145	0x3dd2e8c0	0.102983
146	0xbf30054f	-0.687581
147	0xbcaa821f	-0.020814
148	0xbe6d0397	-0.231459
149	0x3df9bb28	0.121939
150	0xbeba3a4b	-0.363726
151	0x3efbf3e0	0.492095
152	0xbbbba100	-0.00572598
153	0x3e10531a	0.140942
154	0xbe9b5265	-0.303363
155	0xbea9743f	-0.330965
156	0xbe4be5da	-0.199119
157	0x3dbbf51c	0.0917761
158	0x3f0b7baf	0.544856
159	0xbc8d4c4f	-0.0172483
160	0x3e9b24a7	0.303014
161	0x3e8d39b9	0.275831
162	0xbdb3d84c	-0.0878149
163	0x3e356f33	0.177182
164	0x3dd38bce	0.103294
165	0x3e9e59b0	0.309278
166	0xbd573a0e	-0.0525456
167	0x3ecbf78c	0.398373
168	0xbf348777	-0.705192
169	0x3dbb26b2	0.0913824
170	0xbe06b65b	-0.131555
171	0x3ee04103	0.437996
172	0x3e094c44	0.13408
173	0x3da6db29	0.0814727
174	0xbf0005c4	-0.500088
175	0x3e34141f	0.175858
176	0x3deef2c7	0.116674
177	0xbe259ddc	-0.161735
178	0x3caf0861	0.0213663
179	0xbd7d8adb	-0.0619
180	0xbd3ad9d6	-0.0456179
181	0x3df9b2c4	0.121923
182	0x3f8a410b	1.08011
183	0x3e0fcdab	0.140433
184	0xbed04641	-0.406786
185	0x3e83ef07	0.257683
186	0x3f1742cc	0.590863
187	0x3ee95e5b	0.455798
188	0xbee40aaf	-0.445394
189	0x3ea37de9	0.31932
190	0x3e1d0d8d	0.153372
191	0x3eb3c969	0.351146
192	0xbf3df645	-0.742039
193	0x3efadc6e	0.489963
194	0xbebe310e	-0.371468
195	0x3f464a7b	0.774574
196	0x3f42bfec	0.760741
197	0x3e8b5419	0.272126
198	0x3f304d98	0.688684
199	0x3d443b64	0.0479082
200	0x3f6649d4	0.899564
201	0xc019b646	-2.40175
202	0xbf569889	-0.838265
203	0xbfeeadd6	-1.86468
204	0xbece6afd	-0.40316
205	0x3e503b3f	0.203351
206	0xc0279d0a	-2.61896
207	0xbec7737e	-0.389553
208	0xbd3170a0	-0.0433203
209	0xbf3c8dd2	-0.736539
210	0x3f52ceee	0.82347
211	0xbf690abb	-0.91032
212	0x3e390108	0.180668
213	0x3f4d7dd0	0.802701
214	0xc018c80c	-2.38721
215	0xbd92d16c	-0.0716885
216	0xbe087f88	-0.133299
217	0x3e287f88	0.164549
218	0x3fe510f5	1.78958
219	0x3fa842d9	1.31454
220	0x3fcf0e2c	1.61762
221	0xc01b19ce	-2.42345
222	0x3eb148dc	0.346259
223	0xbfac9afe	-1.34848
224	0x3f9d6873	1.22975
225	0xbf543ab8	-0.829021
226	0x3f01d8b6	0.507213
227	0x3fead384	1.83458
228	0xbf972767	-1.18089
229	0x3eb36523	0.350381
230	0x3f4907ea	0.785277
231	0x3ff93c8a	1.94716
232	0xc0161cd6	-2.34551
233	0x3f112902	0.567032
234	0x3c23f10b	0.0100062
235	0xbfc3d178	-1.52983
236	0x3f912ec7	1.13424
237	0xbf3ac2df	-0.729536
238	0x3f75103d	0.957279
239	0xc0148b97	-2.32102
240	0xc087c116	-4.24232
241	0xbf64daa1	-0.893961
242	0xc04e26fe	-3.22113
243	0xc007421c	-2.11341
244	0x40497fe1	3.14843
245	0xc0530f28	-3.2978
246	0x40078df8	2.11804
247	0xbf938f47	-1.15281
248	0xc042245f	-3.03347
249	0x3dd86877	0.105668
250	0xbd3d7bdc	-0.0462607
251	0x3d9f3fe7	0.0777586
252	0xbcb7fc5b	-0.0224592
253	0x3dc8b058	0.0979926
254	0xbdf2fb1a	-0.118643
255	0xbe70fa9c	-0.235331

layers.8.bias f4 [50]
0	0x402d822c	2.71107
1	0x3ebf5fb3	0.373777
2	0x3f1231d7	0.571073
3	0x3eaa517e	0.332653
4	0xbfac0d6f	-1.34416
5	0xc002cd21	-2.04377
6	0x3ec642c0	0.387228
7	0xc027a494	-2.61942
8	0x3f8b4730	1.08811
9	0xbf86d528	-1.05338
10	0xbead095b	-0.337962
11	0x3f7d33a0	0.989069
12	0x3fddab9f	1.7318
13	0xc015f099	-2.34281
14	0x3f217b31	0.630786
15	0x3e92e903	0.286934
16	0x3f95f7a5	1.17162
17	0xbfba0275	-1.4532
18	0x3f935b81	1.15123
19	0x3eb4a6ec	0.352836
20	0x3f3175e2	0.693205
21	0x3f6a5f74	0.915519
22	0xbd971fd7	-0.0737912
23	0xbf339097	-0.701425
24	0xbc233691	-0.00996174
25	0x3f2d8bc6	0.677914
26	0xbec01c93	-0.375218
27	0xc0426ad3	-3.03777
28	0xbfb6e4e2	-1.42886
29	0xc07b56c1	-3.92717
30	0x3fd532b5	1.66561
31	0x3f67928e	0.90458
32	0x3e91df98	0.284909
33	0x3d0e9c96	0.0348173
34	0x3f97f195	1.18706
35	0xc0052c28	-2.08082
36	0x3e2eee95	0.170832
37	0x400143e9	2.01977
38	0xbff27c5b	-1.89442
39	0xbd38cfdb	-0.0451201
40	0x3fb6caff	1.42807
41	0x3f3f02b4	0.746135
42	0xbf8c13a9	-1.09435
43	0xbf745c68	-0.954535
44	0x3e8f4949	0.279856
45	0xbf92415f	-1.14262
46	0x3eaeb724	0.341241
47	0xbfbd6484	-1.47963
48	0xbe5801f7	-0.210945
49	0xbf8ce758	-1.10081
