resources/models/onnx/acas/ACASXU_run2a_5_1_batch_2000.onnx (onnx, 54456 bytes, 14 tensors)

layers.0.bias f4 [50]
000000 ff 97 8b 3e 50 fb 39 bf 15 36 47 bf 81 96 7e 3e
       0.272644 -0.726491 -0.778169 0.248621
000010 0e be 30 3e ce 27 01 3d f9 69 ac bd 89 e2 8f 3d
       0.1726 0.0315321 -0.0841865 0.0702563
000020 3f 38 87 be 70 5a b2 bb 07 95 90 3e 83 da 1f bf
       -0.264101 -0.00544291 0.282387 -0.624428
000030 f4 52 1d bf a6 74 fa bc b6 f4 80 3e f0 35 38 bf
       -0.614547 -0.0305732 0.251867 -0.719573
000040 7d ea d0 be 36 59 43 3e f1 d9 ea be ea ea ee 3d
       -0.408039 0.19077 -0.458694 0.116659
000050 ed 3e ac 3c ec dd 5f be 83 c9 23 3d 11 8a 35 bf
       0.0210261 -0.21862 0.0399871 -0.709138
000060 17 a6 b5 bd 27 23 78 3c 72 dd 18 bf 36 04 bf be
       -0.0886957 0.0151451 -0.597129 -0.373079
000070 83 a1 7e be 60 e8 e9 be 9c 9d f1 bc 9f 05 01 bf
       -0.248663 -0.456851 -0.0294941 -0.503992
000080 80 9e e6 be 71 71 c4 be 2c 70 07 bc fb e6 06 3f
       -0.450428 -0.383678 -0.00826649 0.526962
000090 93 73 0a bf 76 67 72 bd 3f e6 83 be 0e d1 92 bd
       -0.540826 -0.0591807 -0.257616 -0.0716878
0000a0 49 49 33 bf b5 a7 34 be 96 5b b2 be 64 05 87 3e
       -0.700337 -0.176421 -0.348355 0.263713
0000b0 08 e2 1f bb 31 94 d3 3d 55 e1 ea 3c 6b f2 08 bf
       -0.00243962 0.10331 0.0286719 -0.534949
0000c0 bb 46 cb bc a3 74 e1 3e
       -0.024814 0.440343

layers.0.weight f4 [50, 5]
000000 41 a5 a1 3b e9 2b c8 bc 81 69 27 3d 55 4d 88 3f
       0.00493303 -0.024435 0.0408721 1.06486
000010 ce 38 39 3f fe b4 96 3d 14 cf 49 3e 65 e2 86 bd
       0.723523 0.0735874 0.197079 -0.0658615
000020 b8 40 8a bf 17 d4 97 bf c9 96 a0 bd 67 1a 20 ba
       -1.0801 -1.18616 -0.0784126 -0.000610745
000030 7b 6f a9 3a 72 dd 50 bf 7a de 69 bf 5e a1 2f be
       0.00129269 -0.815879 -0.913551 -0.171514
000040 54 e4 34 3f 2d 5e 50 bf 7e 71 39 3e b2 a0 b8 be
       0.706609 -0.813937 0.181097 -0.360601
000050 a9 11 9f bc c4 7c 51 3f e7 18 94 bf 49 63 14 3e
       -0.0194176 0.81831 -1.15701 0.14491
000060 80 49 fa be 4c c7 10 bf c7 bb fb 3e 1c 5d 05 3d
       -0.488842 -0.565541 0.491667 0.0325595
000070 0c ff 10 3c dc 12 94 3c b7 97 14 bf 68 03 b0 3e
       0.00884987 0.0180754 -0.58044 0.343776
000080 4f cb 0f 3d 7d 77 6b 3e ab 20 0a bc c9 ac de 3c
       0.035106 0.229948 -0.00843064 0.027182
000090 0d c3 db bf 87 c4 e1 3f 29 66 a3 3d 93 55 89 be
       -1.71689 1.76381 0.0797847 -0.268231
0000a0 e9 70 be bc 30 1e 14 3d a5 68 86 3b d0 b8 94 bf
       -0.0232472 0.0361616 0.00410183 -1.16189
0000b0 bb 63 29 3f f1 62 1d bf bb 30 4d 3d 3a e6 40 bf
       0.661678 -0.614791 0.0500953 -0.753513
0000c0 ba 10 ab 3c 2c 4a 59 3e da 31 bb bb 41 7d 8b bc
       0.020882 0.212197 -0.00571273 -0.0170275
0000d0 f5 df 9e 3d 4c 7c a4 bc 09 a7 9d bf d8 2d 82 3c
       0.0775756 -0.0200788 -1.23166 0.015891
0000e0 b7 d5 4c 3e 00 52 8b bf ce fe e0 3e e8 9f 58 bf
       0.200034 -1.08844 0.439444 -0.84619
0000f0 7d 7a 74 bf c5 77 3d 3c 50 e4 89 bc 6a 6c 23 bf
       -0.954994 0.0115642 -0.0168325 -0.638373
000100 25 90 82 be 5d b0 8a 3c 96 75 24 bc d1 e6 9d 3c
       -0.255006 0.0169298 -0.0100378 0.0192751
000110 0a 5f 06 3c 89 e5 e5 b9 10 b2 0c be be 4d ab 3f
       0.00820137 -0.000438493 -0.137398 1.33831
000120 a7 58 fd 3e c9 71 87 3e 3a 5b 90 be 2d 8e af bc
       0.494817 0.26454 -0.281946 -0.0214301
000130 f4 81 4b bb 6b 27 0f bd c7 47 f3 be c1 a8 a0 bf
       -0.00310528 -0.0349497 -0.475157 -1.25515
000140 67 c6 ac 3d b1 e1 d9 3f 63 47 c3 be aa bb 82 be
       0.0843628 1.7022 -0.381404 -0.255338
000150 63 97 58 be 57 ed b2 be f2 51 73 3b 29 42 45 3c
       -0.211515 -0.349467 0.00371277 0.0120397
000160 77 8d 9c bd 92 ee 62 3d d3 bf 94 bd 59 17 23 3f
       -0.0764417 0.0554033 -0.0726315 0.637075
000170 1c ec 1d 3e eb c7 3e bf 6c 75 5e 3c 6f 5e a1 3d
       0.154221 -0.745238 0.0135778 0.0787934
000180 5d fa 27 3f ac 3c 11 3f 18 b3 8d be e1 46 ea 3d
       0.656164 0.567332 -0.276757 0.114393
000190 9f 66 f7 3c 90 65 1d bf f9 f8 7c bf fb e8 04 3e
       0.0302003 -0.614831 -0.988174 0.129795
0001a0 ad 4b 9d bd 53 53 97 bd 36 1e 5c bf ca fd 3e bf
       -0.0768045 -0.0738894 -0.859836 -0.74606
0001b0 86 90 17 3f ff cc 00 bf 07 c1 79 3d d0 2d ae 3a
       0.592049 -0.503128 0.0609751 0.00132888
0001c0 f5 d6 e4 bf 72 57 cc bb ce 78 95 3b d3 6a 8c bf
       -1.78781 -0.00623601 0.00456152 -1.09701
0001d0 7b 6f 67 3c fd 77 33 bc 64 04 f4 be 99 d9 e7 be
       0.0141257 -0.0109539 -0.476596 -0.452832
0001e0 f5 11 28 bf ea 35 87 bc ec a5 20 3a 5a 68 03 bf
       -0.656524 -0.0165052 0.000612824 -0.513311
0001f0 68 e8 df 3d 9c 53 f4 38 28 a1 b2 3b 6c 51 b0 bc
       0.10933 0.000116504 0.00545134 -0.0215232
000200 cb db f5 bf 38 85 49 3f 65 51 08 be ed 0f 54 be
       -1.92077 0.787189 -0.133123 -0.207092
000210 af c5 b8 3d 0f 45 ad bf 09 ff 12 be 25 cc e0 bf
       0.0902208 -1.35367 -0.143551 -1.75623
000220 99 65 3f be f6 28 2c 3e b9 05 a2 3b c9 f5 c0 bc
       -0.186911 0.168125 0.00494453 -0.0235547
000230 1a 6c 4a bd 6c b2 9e 3f 82 e7 9a 3f ce c4 18 3f
       -0.0494195 1.23982 1.21019 0.596753
000240 f8 fe d6 be ab 26 0a c0 e8 2d c3 3c ed 7f c0 bc
       -0.419914 -2.15861 0.0238256 -0.0234985
000250 ae 8f bd bc 24 8f d0 3a 87 72 7d bc 91 a2 29 bc
       -0.0231398 0.00159118 -0.0154692 -0.0103537
000260 13 8c c7 38 5a fe f0 3b fd e4 5e 3c 4a 46 f6 bf
       9.51515e-05 0.00735454 0.0136044 -1.92402
000270 6f f3 c6 bd d0 e4 2c 3c 24 ce 0f bd 77 ed 17 3d
       -0.097144 0.0105526 -0.0351087 0.0370917
000280 ba 31 e9 bf 28 11 3c 3c 5c 73 27 be 51 85 0f 3e
       -1.82183 0.0114787 -0.163526 0.140157
000290 cc 0b d0 be c5 9c 56 bc 82 e4 1d 3e c9 ac 0e be
       -0.40634 -0.0130989 0.154192 -0.139331
0002a0 c7 11 db bf bc 22 40 bf 0a 6d d4 bc f5 4a d9 3f
       -1.71148 -0.75053 -0.0259309 1.6976
0002b0 96 43 d3 bf 16 a5 c4 bc 76 e1 1b bf 8a ca 96 3e
       -1.6505 -0.0240045 -0.608909 0.294514
0002c0 87 34 76 3f 46 7b 58 bf 9a e3 81 bd 28 0a 59 3d
       0.961739 -0.845631 -0.0634224 0.0529882
0002d0 e3 a5 df bf 19 38 20 3b 4e 72 f2 ba 6a 91 44 bb
       -1.74725 0.00244475 -0.00184972 -0.00299939
0002e0 6b bc 70 bb 1a de 0c bf 53 ed 62 3a 73 84 04 3f
       -0.00367334 -0.550264 0.000865658 0.517646
0002f0 fb e3 33 ba 80 ee c0 3d 45 f0 87 bf 00 f5 8f bb
       -0.000686228 0.0942049 -1.06202 -0.00439322
000300 21 1e 51 bf d1 23 c6 bc f0 19 49 3e b0 e6 5c bf
       -0.816866 -0.024187 0.196388 -0.862895
000310 b6 b3 d4 bc 59 f7 ef bd 6a 07 9d 3d 86 ad c1 be
       -0.0259646 -0.117171 0.0766743 -0.378277
000320 98 5a b5 bd 38 a1 50 be 37 c5 63 3e 45 62 22 bf
       -0.0885517 -0.20374 0.222432 -0.634312
000330 62 f8 c0 bf c3 f0 b1 bf 84 af c9 bd bb 1a 4f 3d
       -1.50758 -1.39016 -0.0984793 0.0505626
000340 e7 6c e6 bc 06 bd 87 3d 00 36 e0 3d b5 4f cf 3f
       -0.0281281 0.0662785 0.109478 1.61962
000350 8b fd d9 bf ee 7c 2f be 45 2e 1c 3f 6e 11 3d 3c
       -1.70305 -0.171375 0.610081 0.0115398
000360 94 d3 e8 bc 95 67 aa b9 e4 6a a4 3e 44 34 92 bf
       -0.0284212 -0.000325021 0.321128 -1.14222
000370 dd 58 b5 3c f3 59 12 40 94 fb bd bd 20 c4 9f 3c
       0.0221371 2.28674 -0.092765 0.0195027
000380 aa be 8e 3d 97 ff a0 be a2 a4 d9 3b b1 0f 77 bd
       0.0696996 -0.31445 0.00664194 -0.0603177
000390 19 e2 0c bf 75 cb ee bd e3 c7 13 3d 83 30 7f bf
       -0.550325 -0.116599 0.0360793 -0.996834
0003a0 c2 fa 1b bf 78 de bc 3d 31 3f d7 bd 62 46 1b bc
       -0.609295 0.0922212 -0.105101 -0.00947723
0003b0 58 2b a4 3b 2c 7d c0 3f 53 08 94 be 64 95 52 be
       0.00501005 1.50382 -0.289126 -0.205648
0003c0 79 26 d1 bb 54 dc 40 3b ab f0 80 3b c3 5b 0c 3b
       -0.00638276 0.00294282 0.00393494 0.0021417
0003d0 69 96 7c bb 44 24 79 bc 3e 5a f4 be 4c 6e 84 3e
       -0.00385418 -0.0152064 -0.477251 0.258654
0003e0 63 26 d1 bd 5e d9 39 3f
       -0.102124 0.725973

layers.10.bias f4 [50]
000000 b2 f7 50 ba 1c 42 91 bf e0 a2 6e bc ff f5 90 bd
       -0.000797148 -1.13483 -0.0145652 -0.0707817
000010 2a e0 5a bf f7 ca 3c 3d 30 80 c8 be b1 c4 63 be
       -0.854983 0.046092 -0.391603 -0.22243
000020 97 7a 11 bd fd a4 55 bd 4f 9f 83 bd d7 69 9c 3e
       -0.0355173 -0.0521593 -0.0642687 0.305495
000030 bf 2b f2 be ab 95 79 3e 30 d7 e2 3d b8 3c 66 be
       -0.47299 0.243735 0.110762 -0.224841
000040 9a 25 11 c0 43 e4 1c bf d2 8c 45 3e 5a 2d d0 bd
       -2.26792 -0.612858 0.19292 -0.101649
000050 54 00 c4 be 3b 51 e2 be a0 6c 82 bf 0f b9 99 bf
       -0.382815 -0.442026 -1.01894 -1.20096
000060 90 66 8c bf c2 6b 63 bf 89 a2 86 bd 70 84 3b 3d
       -1.09688 -0.888363 -0.0657397 0.0457806
000070 1c 45 16 be 3f e3 b2 bd 73 2a 89 3d d6 ad 99 bd
       -0.146748 -0.0873475 0.0669755 -0.0750386
000080 2a 54 b7 3c 2a 8c a5 be 79 07 78 be d0 9a 0b bf
       0.022379 -0.323335 -0.242216 -0.545331
000090 54 eb 58 3c 00 74 08 3e dd 63 c4 3d d8 ba 54 be
       0.0132397 0.133255 0.0958936 -0.207744
0000a0 dc b8 25 be 20 0c 48 bf d7 86 e2 be ca 1a 05 3e
       -0.161838 -0.781435 -0.442435 0.129985
0000b0 8d 5e 4d be f8 e0 b5 3c b2 4b 8c bf f6 25 fb 3d
       -0.200556 0.022202 -1.09606 0.122631
0000c0 24 32 22 3d 9f 75 1d 3e
       0.0395986 0.153769

layers.10.weight f4 [50, 50]
000000 58 5d a2 3d 29 38 61 3d 1b b8 bb be bb 09 5e be
       0.0792796 0.0549852 -0.366639 -0.216834
000010 da 55 b8 be fa 24 98 bb d6 ad 1e 3d 1d c3 a8 3d
       -0.36003 -0.00464308 0.03874 0.0824034
000020 10 3e 94 bb db fc 1f 3d b1 97 37 bd 79 51 b0 bd
       -0.004524 0.0390595 -0.0448224 -0.0860929
000030 f1 99 71 bd bd 13 58 bd 4e f1 08 3e 3b 37 cd 3d
       -0.0589847 -0.0527532 0.133733 0.100203
000040 4b 56 a5 bd 4b b0 08 be ed 13 fe 3a 21 53 43 3d
       -0.080731 -0.133485 0.00193846 0.0476867
000050 f3 d7 9a bc 8f c7 e7 3c c6 e6 7e 3d d7 47 0c 3d
       -0.0189018 0.0282934 0.0622318 0.0342482
000060 d9 5f de 3e 05 1f 5e bc 05 db 88 3c 43 37 db 3d
       0.434325 -0.0135572 0.016706 0.107039
000070 97 97 32 bd 2c b8 5f 3e e8 de 43 3e 0b 2b 70 bc
       -0.0436016 0.218476 0.19128 -0.0146587
000080 08 cf 5f bd f5 b4 28 bd 1a ae e5 bb 44 e8 c6 bd
       -0.0546408 -0.0411882 -0.00700928 -0.0971227
000090 2e f4 d6 bb 29 66 13 bd 81 cd 81 be 33 4b b7 3d
       -0.00655987 -0.0359861 -0.253521 0.0894989
0000a0 cc 45 5c 3e e9 4b 2a bd a2 05 8d bc df f6 09 3d
       0.21511 -0.0415763 -0.0172146 0.0336827
0000b0 7e c3 04 bc 5b 95 64 3e cd ab fa bc e5 e3 b4 3d
       -0.00810325 0.223226 -0.0305995 0.0883253
0000c0 5c 78 19 bd ae 87 0c bc 62 30 ff be 34 4b 02 3e
       -0.0374683 -0.00857727 -0.498416 0.12724
0000d0 34 bf 6e bf b7 b3 cf 3d b9 ec 46 3c 7d b2 3e bf
       -0.932605 0.101417 0.0121414 -0.744911
0000e0 38 c2 7d 3c d7 33 24 3e 74 42 e8 bc 23 4c 31 3e
       0.0154882 0.160354 -0.028352 0.173142
0000f0 54 e4 88 3e 95 49 ed bd da 56 d3 bd 89 14 39 bd
       0.267367 -0.115863 -0.103193 -0.0451856
000100 fc 71 03 3f 4a ef 1b bd 9b a4 1e 3b 9c 16 90 bf
       0.513458 -0.03807 0.0024207 -1.12569
000110 be a4 61 be ef 26 6e 3d da fc c4 bd 9f 37 3a 3d
       -0.220355 0.0581426 -0.0961854 0.0454632
000120 19 4c ec bb 45 85 85 3c 39 b8 d4 bd 07 b3 49 bf
       -0.00721122 0.0162989 -0.103867 -0.787888
000130 0d 19 af 3d 44 86 f5 3d 45 a9 53 bd c5 1a 14 37
       0.085497 0.119885 -0.0516751 8.82772e-06
000140 29 59 9e 3e 55 51 7c 3e 61 36 79 bf 98 c3 4e 3e
       0.309274 0.246404 -0.973486 0.201918
000150 ef 90 52 be a4 88 94 bf 61 34 93 be 05 32 5b 3e
       -0.205631 -1.16042 -0.287509 0.214058
000160 65 36 cc bf c8 9d 8d 3d 5c 59 12 bf d3 69 85 be
       -1.59541 0.0691486 -0.571676 -0.260573
000170 fa 47 e7 be dd 46 8e 3d a7 83 ab bc 98 34 c2 bf
       -0.451721 0.0694711 -0.0209368 -1.51723
000180 41 9d b2 3d c3 5b 2c bd 15 05 35 bd 7f f6 43 be
       0.087214 -0.0420797 -0.0441943 -0.19137
000190 0d 8c 6c be e3 e2 a8 bd ad d9 af 3c 0f 0b cd 3e
       -0.231003 -0.082464 0.0214661 0.400475
0001a0 3b 96 6d 3d c1 13 02 3c d5 09 b8 bd 22 96 c3 bc
       0.0580046 0.00793928 -0.0898625 -0.0238753
0001b0 7e c3 54 3e 52 93 09 bc 21 2b 2e bc 26 b7 97 3d
       0.207777 -0.00839694 -0.0106304 0.0740798
0001c0 27 bc 84 bc 62 fd aa bd d4 46 05 be ee b5 a0 be
       -0.016203 -0.0834911 -0.130153 -0.313888
0001d0 ab 41 04 3f 94 a0 3f bd 12 43 bc bc 9e ec e6 3d
       0.516627 -0.046784 -0.0229812 0.112756
0001e0 70 57 d4 bc f2 e8 2b bd 63 0e 9d bd 7d dc 48 3d
       -0.0259206 -0.0419702 -0.0766876 0.0490384
0001f0 5d 55 91 bc a9 69 47 be 6c a1 8a 3d 63 3d ba bd
       -0.0177409 -0.194739 0.0676907 -0.0909374
000200 47 c7 55 3e a6 27 3c 3e c7 24 9d 3d 7a 0a 6f bc
       0.208768 0.183745 0.0767303 -0.0145899
000210 5b 63 9b bd c4 83 dc bc f8 67 ab 3c 09 53 ac 3e
       -0.0758731 -0.0269183 0.0209236 0.336571
000220 9c a5 e4 bd 00 01 ab 3c da ca fb 3e d0 6e b3 3d
       -0.111644 0.0208745 0.491782 0.0876137
000230 9c 8c 1a be 61 c4 c6 be f8 0e 48 3c 8c d9 82 3e
       -0.150927 -0.388217 0.0122106 0.255566
000240 16 7b 1a 3c 6a c0 f0 3e 0d 22 bd 3d 60 55 02 3d
       0.00942876 0.470218 0.0923501 0.0318197
000250 62 3d b4 bd 2b 4a 0d 3b 27 f6 30 3e 42 e1 9e bb
       -0.0880077 0.00215591 0.172814 -0.00484863
000260 68 db ba bc cb 82 29 be c6 c4 8f c0 f8 db 83 3c
       -0.0228097 -0.165538 -4.49277 0.0160961
000270 57 7b 38 3e da ae b0 be 76 37 6f be fe 7b 00 be
       0.180158 -0.345084 -0.23361 -0.125473
000280 d5 06 17 be 20 09 db bd 4b 5d 8d bd 98 a5 3d 3e
       -0.147487 -0.106951 -0.0690256 0.185202
000290 e1 5f 14 3e 1f 2e 19 be 42 99 0a 3f ad 03 c6 bd
       0.144897 -0.14959 0.541401 -0.0966867
0002a0 0d 14 db bb 09 89 54 3e a1 69 49 be 71 5d cc 3c
       -0.00668574 0.207554 -0.196692 0.0249469
0002b0 bb fe 2e 3d b7 0a 0e bf 82 02 33 bf 27 be 3a be
       0.0427234 -0.554851 -0.699257 -0.182366
0002c0 0b 46 9d 3e d8 9d 4e be 7e c7 60 be a6 f0 d0 be
       0.307175 -0.201774 -0.219511 -0.408086
0002d0 91 44 3f be 9f b0 04 3e 57 21 e5 bd 9c f9 f5 bd
       -0.186785 0.12958 -0.11188 -0.120105
0002e0 26 ab 22 be 54 35 65 bf 60 d0 dd bc 02 26 b5 bd
       -0.158856 -0.895345 -0.0270769 -0.0884514
0002f0 81 24 50 3f 95 62 af 3e ff 59 ab be de 3c 01 3f
       0.813057 0.342549 -0.334671 0.504835
000300 0c af 9c be 2a e0 3e 3e b2 41 8b 3d da 8f 40 3f
       -0.306023 0.186402 0.0679964 0.752195
000310 6e f3 6b bc 7d cd f2 bd 47 c6 5a be d0 77 8c 3d
       -0.0144013 -0.118556 -0.213647 0.0685879
000320 4d ca 83 bd 25 17 4d 3d f8 a4 c3 3e b8 ce 7f 3e
       -0.0643507 0.0500709 0.382118 0.249812
000330 08 1e 07 3f d0 b3 b5 bf 84 d8 f9 3d e1 51 84 bd
       0.527802 -1.41955 0.121995 -0.0646093
000340 02 f5 d6 be 02 3a b2 3d 50 0c bf bd 50 8a 16 be
       -0.419838 0.0870247 -0.0932852 -0.147012
000350 6f f4 99 be 25 b7 81 bc 3f 6f 2a be 43 8d c2 3e
       -0.300693 -0.0158344 -0.16644 0.379984
000360 52 62 a7 be e0 4d 57 be 71 18 31 3d 82 f2 ed 3c
       -0.326922 -0.210258 0.0432362 0.0290463
000370 d6 9f 8e 3c a6 47 13 3d 2e c6 00 be a9 30 f6 3c
       0.0174102 0.035957 -0.125756 0.0300525
000380 0c 59 dd bd 14 b6 8a bd 37 80 88 bc 8f e9 b4 3d
       -0.10808 -0.0677301 -0.0166627 0.0883361
000390 bf b5 58 bd bb 7b 30 be 2b 51 f6 3d d2 c6 51 be
       -0.0529077 -0.172347 0.120272 -0.20486
0003a0 46 ef 9f 3d ad eb 86 bc 7d 09 45 3e 09 f9 94 bf
       0.0780931 -0.0164698 0.192419 -1.16385
0003b0 d9 3e 74 be e7 fc 74 3e 45 63 b5 be 9f 5a a5 3e
       -0.238521 0.239246 -0.354273 0.322957
0003c0 9f 02 90 be df c0 dc 3e e6 e9 54 bf 3a 13 09 bd
       -0.28127 0.431159 -0.831694 -0.0334656
0003d0 87 d0 f7 3c 0e 49 21 3f a5 31 0a 3e f4 0a d5 bc
       0.0302508 0.630021 0.134955 -0.0260062
0003e0 8c ce b3 3d dd 9a 24 be c6 19 d3 be 97 1b 4c 3e
       0.0877963 -0.160747 -0.412306 0.199324
0003f0 18 e8 bf 3d 41 f6 d5 bc f5 36 ac bd 1d 1e 42 bc
       0.0937044 -0.0261184 -0.0840892 -0.011848

layers.12.bias f4 [5]
000000 00 7c a6 bc 44 2a 96 3c 81 d6 97 bc c2 9a 94 3c
       -0.0203228 0.0183307 -0.0185349 0.0181402
000010 2c a1 96 bc
       -0.0183874

layers.12.weight f4 [5, 50]
000000 78 41 04 3e b2 c1 5d 3d 09 5a 9c 3c 49 d3 25 bd
       0.129156 0.0541398 0.0190859 -0.0404847
000010 f9 5f 58 3d 68 2d 7d 3b 9e bd 0e 3c ec 75 41 3c
       0.0528259 0.00386318 0.0087122 0.0118079
000020 68 36 59 3c a9 87 68 bc 07 d7 b7 3c a7 7f 24 bc
       0.0132576 -0.0141925 0.0224414 -0.0100402
000030 22 33 bc bc 0e 84 85 3b c2 90 b0 3c d3 54 ea 3c
       -0.0229736 0.00407458 0.0215534 0.0286049
000040 5b 9f 98 3d 05 9d 5a bc 06 47 c9 3c 04 6c 0c 3d
       0.0745227 -0.0133431 0.02457 0.0342827
000050 cb fb 53 3d e3 a7 b1 bc e5 a8 d2 bc 2e 53 f6 bb
       0.0517538 -0.0216865 -0.0257153 -0.00751724
000060 53 f9 a8 3c 6c 38 31 3d de 95 f8 3c 8a d1 4e bc
       0.0206267 0.0432667 0.0303449 -0.0126232
000070 7f 9e bb 3d a5 1a 91 bc 9c 2a 49 3d e5 40 11 bc
       0.0916109 -0.0177129 0.0491129 -0.00886557
000080 1c ba 51 3b ff ed 8d 3c 71 05 14 be e4 ed 32 bd
       0.00320018 0.0173254 -0.144552 -0.0436839
000090 e8 e9 2f 3b 25 e7 04 3d 5b bd 79 3c 57 50 a2 bc
       0.00268423 0.032447 0.0152429 -0.0198137
0000a0 60 01 8e bb 44 09 24 bd 6a 3c 07 3d 49 82 11 3b
       -0.00433366 -0.0400479 0.0330166 0.00222029
0000b0 39 eb 58 3d ca 6e 16 3e 61 46 22 3d f0 42 c4 3c
       0.0529587 0.146907 0.0396179 0.0239577
0000c0 36 78 df bc f0 ce 10 3b ea 23 d0 3d 70 b2 6d 3d
       -0.027279 0.0022096 0.101631 0.0580315
0000d0 25 4c 87 3c f2 98 81 bc 99 d6 66 3d 96 04 4d bc
       0.0165158 -0.01582 0.056357 -0.0125133
0000e0 93 5f b5 3c 84 6d 3c bb c7 fc d2 bc 36 c2 ac bc
       0.0221403 -0.00287518 -0.0257553 -0.0210887
0000f0 5d b8 12 ba 80 30 8b bc 5f 6d 16 bd 9c 33 e2 3c
       -0.000559693 -0.0169909 -0.0367254 0.0276125
000100 d9 60 fc 3c 9c 57 10 3d bc 6d ec 3b 25 ab c7 ba
       0.0308079 0.0352398 0.00721523 -0.00152335
000110 f1 7c 9b 3d b6 7f 0a 3d 15 73 50 3d 7b 90 d4 bc
       0.0759219 0.0338132 0.050891 -0.0259478
000120 b7 77 b2 bc 07 ff cb bb 6b 99 8c 3c a8 68 13 3c
       -0.0217856 -0.00622547 0.017163 0.00899712
000130 df f0 0c 3d f9 3b ca bc 97 47 56 b9 23 ae 92 bc
       0.0344094 -0.0246868 -0.000204353 -0.0179053
000140 2f 09 e1 3c a2 46 21 3d 5f 47 98 bb 08 ce f4 3c
       0.0274702 0.039374 -0.00464718 0.0298834
000150 ee 43 39 3c 90 b1 24 bd 8c 53 63 3c f6 70 93 3b
       0.0113077 -0.0402084 0.0138749 0.00449955
000160 41 cb 64 3d fb 60 b4 bc 94 44 80 3c aa 53 d4 bc
       0.0558579 -0.0220189 0.0156577 -0.0259188
000170 38 0e 01 3d a4 d4 f3 ba a6 8a 98 3d dd 98 1e 3b
       0.0315077 -0.00186028 0.0744832 0.00242
000180 bd f4 20 3d 40 30 47 bc 2a 00 c6 bc bc 62 c2 bb
       0.0392959 -0.0121575 -0.02417 -0.00593218
000190 75 e9 df 3d de 16 81 3d 01 1e ac 3c d4 c6 05 bc
       0.109332 0.0630319 0.0210104 -0.00816508
0001a0 bc 55 5c 3d c2 7f 00 bb 13 4f ac bc e5 19 aa 3c
       0.0537927 -0.00196074 -0.0210338 0.0207643
0001b0 b9 0e 1f bd b1 5a 0f 3d 3f c4 86 bc 50 73 4d bc
       -0.0388324 0.0349986 -0.016451 -0.0125397
0001c0 e9 4e 49 3b 94 86 dc 3b 67 78 58 bc 4d b1 f4 3c
       0.00307172 0.00672991 -0.0132123 0.0298697
0001d0 f2 13 de b9 4c e4 1d bd ff 82 c3 3d 82 3d 41 3d
       -0.00042358 -0.0385478 0.0954647 0.0471778
0001e0 d3 81 51 3d 97 41 90 bc a6 6b dc bc b1 53 ac bc
       0.0511492 -0.0176094 -0.0269068 -0.021036
0001f0 9f 2c 88 3b 65 9e c3 3b d7 1a e3 3b 03 70 1a 3b
       0.00415571 0.00596981 0.00693069 0.00235653
000200 d0 f9 be 3b 0a a1 c3 bc b4 33 71 3c c1 e2 cf bb
       0.00582812 -0.0238805 0.0147218 -0.00634417
000210 50 31 b5 3a 2b 8a 32 3d 7f 6f ee 3c 9f 0e 1a bd
       0.00138239 0.0435888 0.0291059 -0.0376116
000220 3c 4b 10 bb af 9d 03 3b ff eb 7c 3d af 1b c0 bc
       -0.00220175 0.0020083 0.0617485 -0.0234507
000230 a7 ef d2 bb bc 62 41 bd b6 64 35 3d 08 30 f6 3c
       -0.00643726 -0.0472133 0.0442855 0.0300522
000240 07 62 14 3d 9e 81 4b bb 55 29 27 3d de 0b 07 bd
       0.0362263 -0.00310526 0.0408109 -0.0329703
000250 f3 21 e8 bc ab b7 02 bb bf 4b a4 3d 7e 61 88 3d
       -0.0283365 -0.00199459 0.0802226 0.0665922
000260 e7 f9 78 3c 10 2e 32 bb a7 bd 57 3d 95 29 06 3d
       0.0151963 -0.00271881 0.0526711 0.0327545
000270 7b 74 d9 3c e1 a8 e6 bc 37 8a 0c 3d eb 8c 0f bd
       0.0265448 -0.0281567 0.0343115 -0.0350465
000280 cb 05 f8 bc 98 8a 08 bd 7c b9 2f bd 9e b4 30 3d
       -0.0302762 -0.0333353 -0.0429015 0.043141
000290 85 29 45 3d 30 cd 1e 3d 79 c0 86 3b e2 4e b3 3c
       0.0481353 0.0387699 0.0041123 0.0218882
0002a0 f3 32 9f 3d 85 d8 0f 3d 1b 67 13 3d 0c 3d 02 bd
       0.0777339 0.0351186 0.035987 -0.0317965
0002b0 76 96 8f bc 3a 65 07 3c 64 da 0d 3d d5 ee 11 3a
       -0.0175278 0.00826388 0.0346321 0.00055669
0002c0 4d 53 1f 3c 6b f6 1b bd 16 fa 31 39 2d 9c 7f bc
       0.00972445 -0.0380768 0.000169732 -0.0156012
0002d0 06 d5 0b 3d 93 74 48 3d c5 22 c0 3a d0 ca 02 3d
       0.0341387 0.0489393 0.00146588 0.0319317
0002e0 cd 2a 2b ba 6f c0 c2 bc c4 77 87 3c c0 4f 66 bc
       -0.000652951 -0.0237734 0.0165366 -0.0140571
0002f0 4d 30 7c 3d a4 ef 7f bc 33 41 23 3d db 9b 67 bb
       0.0615695 -0.0156211 0.0398571 -0.00353407
000300 1a 92 49 3c 2e 52 0d bd 3a 04 ce 3d 56 d4 bf 3b
       0.0123029 -0.0345022 0.100594 0.00585417
000310 ad df 2c 3d 21 52 3a 3b b7 f8 8a bc 26 10 20 bd
       0.0422055 0.00284303 -0.0169643 -0.0390779
000320 78 f0 83 3d 45 92 8a 3d be f1 5a 3d ce 22 0c bc
       0.0644235 0.0676618 0.0534532 -0.00855322
000330 47 38 32 3d 7c 59 04 bd c9 8d 07 bd 95 02 3c 3d
       0.0435107 -0.0323119 -0.0330942 0.0459009
000340 ff 3c 32 3c d5 f2 f9 3c d7 bf eb 3c c3 2d dd 3b
       0.0108788 0.0305113 0.028778 0.00674984
000350 4f 32 24 bb 7b 03 9f 3b 80 01 0e bd 40 0a aa 3b
       -0.00250544 0.00485271 -0.0346694 0.00518921
000360 8a 64 40 bb b3 f1 8b bd f5 63 73 3d 95 ad 3f 3d
       -0.00293568 -0.0683321 0.0594215 0.0467964
000370 61 a4 5c 3d 4f d4 ad 3c f5 3d b4 bc 52 83 84 3c
       0.0538677 0.0212194 -0.0220022 0.0161759
000380 f7 26 01 bd ab d0 dd bb dd a7 74 3b 9d dc 4a 3c
       -0.0315313 -0.00676926 0.00373315 0.0123817
000390 20 04 09 bc 38 55 ad bc 62 9b 79 3c 6e 31 c3 3b
       -0.0083628 -0.0211588 0.0152348 0.00595682
0003a0 be eb 1d bd 0b fd 9d 3c d0 a1 e3 3b 0e a9 9a 3b
       -0.0385549 0.0192857 0.00694678 0.00471986
0003b0 25 f5 34 bd ec d7 42 bc c0 a4 92 3d 39 ab cf bc
       -0.0441791 -0.0118923 0.0716033 -0.0253502
0003c0 fe d6 ce bc 39 44 dc ba 34 0a 0e 3d c3 b4 34 3d
       -0.025249 -0.0016805 0.0346777 0.0441177
0003d0 37 6e 31 bd e7 a1 1b 3c 6d d6 2a 3d 8c a5 6e 38
       -0.043318 0.00949905 0.0417084 5.68978e-05
0003e0 d7 f2 ef bc 52 bc 45 3d
       -0.0292906 0.0482753

layers.2.bias f4 [50]
000000 2f c1 31 3f a8 c4 55 be 07 99 ac be 94 86 ca 3e
       0.694354 -0.208758 -0.337105 0.395558
000010 8d 9c 85 bf 95 a0 9a 3d 19 56 95 bf d5 04 d1 3d
       -1.04384 0.0755016 -1.16669 0.10206
000020 06 2a 53 be 69 1b 7f be cf bf 95 be 64 cc 95 bf
       -0.206215 -0.249128 -0.292479 -1.1703
000030 dc f4 a3 bf 52 64 45 bf c0 59 6f bc 17 f2 18 be
       -1.28091 -0.771062 -0.0146088 -0.149361
000040 fe 61 43 bf 2b 30 8c 3f 9a 24 56 3e 99 d8 b8 3f
       -0.763214 1.09522 0.209124 1.44411
000050 39 f0 3a 3e e1 7a ec 3e 03 cf 95 bf 30 da 27 3f
       0.182557 0.461875 -1.17038 0.655673
000060 1c 76 64 bd 41 b8 fa be e1 7f 8b 3f ef ad 58 3e
       -0.0557767 -0.489687 1.08984 0.211601
000070 40 a2 09 3f 67 8b 5a bc 9b fe 94 bf ad 6b d4 be
       0.537632 -0.0133389 -1.16402 -0.414884
000080 3e 3d fe be ce ae 96 bc 24 b6 6b 3e b1 16 df bd
       -0.496561 -0.0183939 0.230187 -0.10893
000090 60 1f 3d bf b8 c7 c7 3d 68 3d dc 3e 3b d5 6b bc
       -0.73876 0.0975489 0.430156 -0.0143941
0000a0 85 5d 16 bc ad 85 09 3e 72 2d 7f bc 40 fb 49 bf
       -0.00917757 0.134299 -0.0155748 -0.78899
0000b0 1e 6b 16 be 03 97 5b bf b8 58 a1 bf 11 8c 1f bf
       -0.146893 -0.857773 -1.26052 -0.623231
0000c0 aa 0d f6 be 0d 1c 5c 3f
       -0.480573 0.859803

layers.2.weight f4 [50, 50]
000000 76 1c 2b bf c3 f5 a0 3f e9 60 5b 40 1e 6f 42 3e
       -0.668403 1.2575 3.42779 0.189877
000010 13 d2 6a be 94 bc e2 3e cd e4 7b 3e 13 58 4a 3d
       -0.229317 0.442845 0.24599 0.0494004
000020 b9 8c db 3e 1b 47 0c 3e 10 cd 94 3e 2d 05 54 3e
       0.428808 0.13699 0.290627 0.207051
000030 8b 71 2c 40 a4 ca 0b 3d 3c a0 8c be 20 2a 95 3e
       2.69443 0.0341288 -0.27466 0.291337
000040 28 2a d3 3e d5 12 c0 bb 5d c2 2d bf e3 23 18 3d
       0.412431 -0.00586162 -0.678747 0.0371436
000050 36 03 0c 3f eb 38 3e be c2 c1 a6 be 30 47 19 40
       0.546924 -0.185764 -0.325697 2.39497
000060 26 53 09 bf f6 44 f7 be 80 7e ff be fa d5 38 3f
       -0.536425 -0.482948 -0.499012 0.722015
000070 5d e5 84 bd a3 3b b8 3f 3e 53 94 3c 1f 2e 8d 3f
       -0.0648906 1.43932 0.0181061 1.10297
000080 35 41 24 be 8d d0 07 3f ea b9 a0 bd 5b 40 08 be
       -0.160405 0.530526 -0.0784796 -0.133058
000090 a4 19 a3 3f ad 31 48 3e ab 79 ae bd 91 ef 62 3e
       1.27422 0.195502 -0.085193 0.221617
0000a0 31 b1 91 3f 55 6a 46 3e eb 48 bf bc eb ff 6c be
       1.13822 0.193765 -0.0233502 -0.231445
0000b0 cd f9 93 3d f0 34 49 be cf af b7 3c f8 e0 1d 3f
       0.0722538 -0.196491 0.0224227 0.616714
0000c0 83 17 1d 3d 36 78 53 bf 2f 14 d0 3d fe 65 17 3e
       0.0383525 -0.826053 0.101601 0.14785
0000d0 9a 0b fc 3d 8e b2 ee 3e a0 4e e9 3e ac 37 ea be
       0.123069 0.466206 0.455678 -0.457456
0000e0 54 02 52 3f e9 44 42 be 75 ca 5b bf 1e 19 b3 3e
       0.820348 -0.189716 -0.858558 0.349801
0000f0 0e 9f 9c be 49 a0 89 be 18 d1 f6 bd 38 ff 05 3d
       -0.305901 -0.268801 -0.120516 0.0327141
000100 da 01 0f bf ba 31 a7 c0 f9 9d c6 3e 15 37 ce bd
       -0.558622 -5.22482 0.387924 -0.100691
000110 99 38 28 3b a4 c2 94 3f 2a fe e7 3e 4d 65 b6 bc
       0.00256685 1.16219 0.453111 -0.0222651
000120 42 96 9d 3e fb cb 12 40 ca 17 14 bd ec 50 7d 3e
       0.307787 2.2937 -0.0361555 0.247379
000130 9f f5 ba bc e4 de 97 3d 4a 42 02 3e b3 7b 8a 3f
       -0.0228222 0.0741556 0.127206 1.0819
000140 2c 92 40 bd 55 1c a0 bb 2b 85 30 be 16 6b 04 bf
       -0.0470144 -0.00488619 -0.172383 -0.517259
000150 69 19 d9 be 67 46 5f be d2 6f 67 c0 8f df eb bf
       -0.424022 -0.218042 -3.6162 -1.84276
000160 d9 05 0f 3f a5 67 4a be 5a 68 bf 3e 06 be 42 3f
       0.558683 -0.197661 0.373843 0.760712
000170 40 79 ce bc b1 15 74 bd 4b ab 01 be ae 81 3d 3e
       -0.0252043 -0.059591 -0.12663 0.185065
000180 9a 0b 84 3e 1b ef 83 bd 86 07 28 bc bd 8e a8 be
       0.257901 -0.0644209 -0.0102557 -0.329214
000190 83 fa 06 3f 34 ba c7 3f 4e 99 9b be 90 a3 79 be
       0.52726 1.56037 -0.303904 -0.243788
0001a0 ad 6d fa 3e d1 79 7d 3e 63 0b b1 bf 0e a3 e0 3d
       0.489118 0.247535 -1.38316 0.109686
0001b0 62 12 36 bf f1 80 8a 3e d1 41 47 3f da 56 57 bf
       -0.711218 0.270515 0.778348 -0.841169
0001c0 1c 96 56 bf 88 59 b9 bc 60 58 76 bf ff b0 65 3e
       -0.838228 -0.0226257 -0.962286 0.224308
0001d0 dc 65 73 3f 4d 10 85 3e b2 62 9d bc 81 ce dc 3e
       0.950773 0.25989 -0.0192121 0.431263
0001e0 0d c3 af 3f 08 ae a2 3e d2 fe 67 be 22 1a ad 3f
       1.37314 0.317734 -0.226558 1.35236
0001f0 67 0a 6d 3e 10 e0 7e bd 4f 5d 75 c0 aa 99 ed be
       0.231485 -0.0622254 -3.83382 -0.464063
000200 e5 0c 0d bf a7 06 92 be b3 9d 0a 3d 5d e9 eb 3c
       -0.550978 -0.285207 0.0338418 0.0287978
000210 10 e8 d4 3e 19 58 17 bf b4 20 70 bf 28 d4 53 bf
       0.415833 -0.591188 -0.937999 -0.827456
000220 37 6c 45 40 ab 08 b7 bd 1f 69 20 be 91 9d ef 3e
       3.08473 -0.089372 -0.156651 0.467999
000230 e9 26 f9 be e8 55 53 3d 98 33 5b 3e 44 85 42 3f
       -0.486625 0.0515956 0.214064 0.759846
000240 ce 6d 56 3f d6 02 5b bf 58 57 4d 3f 77 48 b1 be
       0.837613 -0.855512 0.802114 -0.346256
000250 64 f0 cb 3c c2 d0 b4 3c 23 67 87 c0 83 18 c0 be
       0.0248949 0.0220722 -4.23134 -0.375187
000260 84 0d 03 40 1c ea 17 bf 8c be 0e 3f 25 5a 62 be
       2.0477 -0.593416 0.557595 -0.221047
000270 68 96 c4 3e 96 96 51 3e 0c 20 20 3f d3 32 e2 be
       0.38396 0.204676 0.625489 -0.441794
000280 30 2f 40 3e 1f 2b 38 3e 37 8e a4 bf 0d 49 18 bb
       0.18768 0.179852 -1.28559 -0.00232369
000290 8c 68 eb 3e 23 67 a9 bf a0 fc 5d be f4 6a 98 be
       0.459782 -1.32346 -0.216784 -0.297691
0002a0 5d bf 84 bf 00 55 94 be 34 f2 b9 3e 07 d3 84 3f
       -1.03709 -0.289711 0.363176 1.03769
0002b0 6b 88 05 bc fe ee dd be 43 f2 9f bc 39 ee 88 3f
       -0.0081502 -0.433464 -0.0195247 1.06977
0002c0 2b f9 3c 3f 4a 7d 19 3e 9f ca 19 3e 9e 99 c8 be
       0.738177 0.149892 0.150187 -0.391797
0002d0 24 25 e2 bc 57 b5 cc 3e 95 49 8d 3e 69 1d 85 bf
       -0.0276056 0.399821 0.275952 -1.03996
0002e0 84 bd e9 3d c1 38 64 bf f0 8b 57 bf db fd 36 bf
       0.114131 -0.891491 -0.841979 -0.714811
0002f0 54 3b 13 be e0 66 11 3e 25 e6 11 bf d4 99 3b 3e
       -0.143781 0.141994 -0.569918 0.183204
000300 4b 77 df be 81 59 f9 3e a9 2f 4b 3e b2 ba d5 3d
       -0.436457 0.487011 0.198424 0.10436
000310 dc d6 ce be 61 54 da be 23 5a a1 bc 71 93 75 bf
       -0.403983 -0.426425 -0.0196963 -0.959281
000320 b1 35 fb 3d 02 f2 b5 be de b0 35 40 01 df 7d be
       0.122661 -0.355362 2.83892 -0.247921
000330 d1 23 26 be 20 44 32 be 03 82 c4 3d 12 da 2a bf
       -0.162246 -0.174088 0.0959511 -0.66739
000340 9c 15 4d 3f 96 08 08 bf 0d 37 20 3e 9c e1 c6 be
       0.801111 -0.531381 0.15646 -0.38844
000350 f7 e9 90 be 3a a5 8d 3c b3 9a 9e be 71 c9 bd 3f
       -0.283035 0.0172907 -0.309774 1.48271
000360 03 5c 18 3f 4d 2a 3a 39 4b cd f2 bf 1b bb 5c 3f
       0.595154 0.000177541 -1.89689 0.86223
000370 32 b0 12 3f c2 cf 49 bd c5 71 5c 3f eb 00 18 bf
       0.573001 -0.0492704 0.861111 -0.593764
000380 3a 94 21 3e 25 92 e8 be 45 47 92 bf 17 63 00 3e
       0.157792 -0.45424 -1.1428 0.125378
000390 40 f7 3d bf c5 54 c2 be 5f f2 fd bb e0 84 0a 3f
       -0.742054 -0.379553 -0.00774984 0.54109
0003a0 5a 06 06 3d 8f 33 39 3f 24 09 d2 3e 5c c9 ce bc
       0.0327209 0.723443 0.410226 -0.0252425
0003b0 70 ea 33 3e 71 ac 93 bf 30 1a a8 3d 74 28 cb 3e
       0.175699 -1.1537 0.0820812 0.396793
0003c0 95 b7 33 bf ca f1 94 bd a8 1e 29 3f 13 2a 28 3f
       -0.70202 -0.0727268 0.660624 0.656892
0003d0 29 eb a7 be 35 29 89 3f 81 3f 0c 3f d7 bf 3b 3f
       -0.327966 1.07157 0.547844 0.733396
0003e0 44 a0 9f 3c c5 38 2f be 9d 68 1a c1 83 6e 3f 3f
       0.0194856 -0.171115 -9.65054 0.74778
0003f0 fd 2d c1 bc 5e a3 c0 3c 19 85 ae 3c 13 b8 01 bf
       -0.0235815 0.0235154 0.0213037 -0.506715

layers.4.bias f4 [50]
000000 bb 61 8b 3e 33 f9 86 bf 15 57 c9 3f 5b eb b7 3f
       0.27223 -1.05448 1.57297 1.43687
000010 b7 27 d8 be bc 06 7d bf d6 08 b3 bc d3 6c 96 be
       -0.422178 -0.988384 -0.0218548 -0.293799
000020 fe 26 8c 3f 1a 3b fc bc 36 f5 80 bd d8 11 57 bf
       1.09494 -0.0307899 -0.0629677 -0.840116
000030 2a 01 01 3f 0d 8c 6c 3e 15 66 eb bc c9 c8 91 3f
       0.503924 0.231003 -0.0287352 1.13894
000040 03 5c 3c 3f 6f 12 e3 3d 5a 81 81 bf f6 b3 18 be
       0.735779 0.110875 -1.01176 -0.149124
000050 ed 99 81 bf 36 ea 8d bf c2 51 b6 3f 06 9d 98 3e
       -1.01251 -1.10871 1.42437 0.298073
000060 75 91 b2 3e 34 2c 8e 3e c8 41 a1 bf a8 1d 86 be
       0.348766 0.277681 -1.25982 -0.261945
000070 16 a2 13 3e 74 9b 98 be 0b d2 88 bf 67 e2 6c bd
       0.144173 -0.298061 -1.06891 -0.0578331
000080 02 d3 19 3f 1d 1e 1e 3f c3 44 27 3f f4 89 32 c0
       0.600876 0.617647 0.653393 -2.78967
000090 86 74 14 3f 6d e5 f5 3e ce aa af 3e b4 3b 24 bc
       0.579903 0.480266 0.3431 -0.010024
0000a0 98 50 89 be 44 79 95 bd 1b f6 bb bd c0 95 e4 3e
       -0.268193 -0.0729852 -0.091778 0.446455
0000b0 97 c5 10 3f 96 5e 0b bf 0e 9f 74 3e 35 68 3e 3d
       0.565515 -0.544412 0.238888 0.0464861
0000c0 ee 24 0e 3f 7e da c2 3d
       0.555251 0.0951433

layers.4.weight f4 [50, 50]
000000 aa 2e 9e bb 31 ce 83 3f ab 07 20 bf 5f 41 8e 3f
       -0.00482734 1.02973 -0.625117 1.11137
000010 01 6c e0 3d 03 78 bb bf 2f c0 aa 3f 18 24 7d 3e
       0.109581 -1.4646 1.33399 0.247208
000020 8a cb 15 bf fa b9 9c bd ca 70 8c 3d b8 3b 05 c0
       -0.585137 -0.0765266 0.0685745 -2.08177
000030 2f 6e 04 c1 b5 a7 68 bf e6 c4 43 39 54 e4 d0 bd
       -8.2769 -0.908809 0.0001867 -0.101998
000040 20 7d bb be 25 e9 8a bf 54 1c 3f 3f 25 03 2c bf
       -0.366189 -1.08524 0.746526 -0.671923
000050 9e 5e a5 bf 01 18 8b 3f 6c 05 29 bf 65 e4 1c be
       -1.29195 1.08667 -0.660239 -0.153215
000060 00 e4 68 3f 48 f8 8e 3e cb f8 2b c0 a2 6b a5 3d
       0.909729 0.279238 -2.68706 0.0807717
000070 2f 34 9f 3f 77 d0 d1 bc 15 74 f7 bf 52 5f 3a 3f
       1.24378 -0.0256121 -1.93323 0.728017
000080 bd 6d 4a 3f 75 5a 17 bd b5 de 2b 3f c3 f0 d1 bf
       0.790737 -0.0369515 0.671367 -1.64016
000090 ed 49 14 bf e4 f5 60 bf 62 03 78 bd f3 68 f4 3c
       -0.579253 -0.878752 -0.0605501 0.0298352
0000a0 68 e6 c9 3c ec a6 50 bf 49 1f e9 3c 0e 4b ab 3e
       0.024646 -0.815047 0.0284573 0.334557
0000b0 74 41 ad bf 4d bb 68 bf 7d 07 1f be 03 b0 49 bf
       -1.35356 -0.909108 -0.155302 -0.787842
0000c0 8f c2 cd be eb c9 5c be 2a 43 bf 39 71 51 b2 3d
       -0.401875 -0.215614 0.000364804 0.0870694
0000d0 0c 56 3c bd 78 3b 97 3d 07 0a fc bd 84 f0 d0 be
       -0.0459805 0.0738439 -0.123066 -0.408085
0000e0 96 42 e0 bd 74 50 18 bd 18 87 09 3d 28 9e 03 be
       -0.109502 -0.0371861 0.0335761 -0.128533
0000f0 41 b9 0d 3d 82 ac 17 be 64 bb 91 bd ad b1 3a bd
       0.0346005 -0.148119 -0.0711582 -0.0455796
000100 4d 54 8a 3c d0 09 61 3e 2b 35 d3 3f d0 08 19 3c
       0.0168859 0.219764 1.65006 0.00934048
000110 1d ac af 3e eb ad a1 bd b3 cd 12 3d 74 d0 25 3c
       0.34311 -0.078945 0.0358407 0.0101205
000120 66 a1 dd bd b6 d7 e2 3d 64 d8 b4 bb 26 8c 26 3e
       -0.108218 0.110763 -0.00551896 0.162644
000130 a6 ca 91 bd 6e 61 c7 3d 48 33 06 be 3f a2 53 3c
       -0.0711873 0.0973538 -0.131055 0.0129171
000140 87 14 2f bf f8 8b 17 bb 4c 6d e9 3d 20 6c 47 3d
       -0.683907 -0.00231242 0.113978 0.0486871
000150 7e c3 84 be 67 2a e4 3d 27 69 8e bd 66 71 7a 3d
       -0.259304 0.111409 -0.0695365 0.0611433
000160 9c 50 90 3e 1c a7 32 bc 5e 7a 25 3d c7 9c c7 3e
       0.281865 -0.0109041 0.0403999 0.389868
000170 52 a5 ec b9 c5 c8 f2 3d 6a fb 8f 3e de e2 c6 bd
       -0.000451366 0.118547 0.281215 -0.0971124
000180 52 b7 f3 3d 69 fd a5 3e d0 98 49 be c3 f4 bd 3c
       0.119002 0.324199 -0.196872 0.023188
000190 72 37 88 be 3b 60 2d bd 0b 98 80 3f a1 2d b3 bf
       -0.266048 -0.0423281 1.00464 -1.39983
0001a0 03 26 44 bf ab 78 87 3f b4 e5 94 c0 41 2a 8d 3e
       -0.766205 1.05837 -4.65304 0.275713
0001b0 ea 21 96 bf 28 0d 09 bf 7d 09 0d bf a3 01 fc bf
       -1.17291 -0.535357 -0.550926 -1.9688
0001c0 5d c4 49 c0 05 fa c4 bf 39 af d6 3c 0a 2f 11 3e
       -3.15261 -1.53888 0.0262066 0.141781
0001d0 b5 f6 23 3d c2 34 9c 3f a5 6a cb 3e 47 38 c5 3f
       0.0400302 1.22036 0.397298 1.54078
0001e0 73 85 a7 3f 33 6d a7 bf 01 13 a8 3f c0 93 26 bf
       1.30876 -1.30802 1.31308 -0.650692
0001f0 77 10 13 bf 3f a6 7a bd 80 2b 91 3f ec 12 15 3e
       -0.57447 -0.0611937 1.13414 0.14558
000200 98 a2 9c be fe b4 13 3b 4a 08 4a 3f f6 60 2e bf
       -0.305928 0.00225383 0.789189 -0.681167
000210 06 47 01 c0 2b c6 34 3d 68 ae a3 bf a0 88 75 3f
       -2.01996 0.0441343 -1.27876 0.959116
000220 47 ea 38 bd 02 bc f5 bf de 56 2a 3e e7 01 2c bc
       -0.0451453 -1.9198 0.166347 -0.0104985
000230 c5 6a 38 bd 8f 00 4e bf c1 2e f1 bb 25 ad 0c bf
       -0.0450237 -0.804696 -0.00736031 -0.549517
000240 cc d4 34 3f 58 1e 64 3d c3 d8 22 bf 9b cd 21 bc
       0.706372 0.055693 -0.63612 -0.00987568
000250 bb 0b 4c bf 0c e5 94 bf 5a 7e 80 3e 53 40 0e bf
       -0.797054 -1.16324 0.250964 -0.555669
000260 a2 42 35 3e 26 fc 42 bf e1 09 45 bf d8 29 12 3f
       0.177012 -0.76166 -0.769682 0.570951
000270 68 91 2b c0 79 07 d0 be b8 ac 1e bf bd c2 fa be
       -2.68075 -0.406307 -0.619823 -0.489767
000280 80 46 81 be bf ef 5f 3e 99 12 ed bf 8b 6c 97 be
       -0.252491 0.218688 -1.85213 -0.29575
000290 a4 9a 23 bd b6 f3 fd 3d 01 33 df bd 0b b4 67 3f
       -0.0399424 0.124 -0.108984 0.905091
0002a0 f3 68 84 3d 2a fd 04 be 44 c1 00 bf 38 14 0e be
       0.0646533 -0.129872 -0.502949 -0.138749
0002b0 c2 34 90 3f ed 9b d3 be 3d 9a ea 3d 14 42 97 be
       1.12661 -0.413299 0.114552 -0.295426
0002c0 21 05 2f be 2a 74 fa 3f 76 fc 77 3e 08 05 a5 bc
       -0.170918 1.95667 0.242174 -0.020144
0002d0 aa ef 94 3e 2a a8 c8 be d6 56 1c 3e 96 73 2e bd
       0.290891 -0.391908 0.152675 -0.0425907
0002e0 c0 09 05 3f 5d 53 20 be e1 eb bb 3e 4f 22 72 be
       0.51968 -0.156568 0.367034 -0.236459
0002f0 7d af 09 3f 10 c1 00 3c 88 0d 3b bc 57 78 a7 bf
       0.537834 0.00785853 -0.0114168 -1.30836
000300 5f c8 2f 3d 91 09 08 bf 77 d7 b1 be 70 b3 50 bf
       0.0429157 -0.531396 -0.347347 -0.815238
000310 62 f3 b9 bf f0 a6 7b be 06 81 65 be 38 bc 44 bf
       -1.45274 -0.245754 -0.224125 -0.768497
000320 a1 84 4d bf d2 c6 bd 3f 8a c8 2c bf 70 ec 49 be
       -0.802805 1.48263 -0.674935 -0.197191
000330 9f c8 e3 3f 36 cd 07 bf 2e c5 25 3f df 8a 14 3e
       1.77956 -0.530475 0.64754 0.145061
000340 a2 d4 06 bf 08 00 96 be a9 a5 2d 3f 05 1a 28 bf
       -0.526682 -0.292969 0.678309 -0.656647
000350 32 c8 25 bf 5e 4b e0 3f 52 f7 5c bd 81 94 48 3e
       -0.647586 1.7523 -0.0539468 0.195879
000360 ae e0 6d 3d 3b 01 a5 bf 9c 78 3d 3d 5f 99 17 3f
       0.0580756 -1.2891 0.0462576 0.592184
000370 dd b5 10 c0 37 6c 9f bf e5 9b 01 c0 a2 63 3b bf
       -2.2611 -1.24549 -2.02514 -0.731989
000380 33 a6 20 bf 1f 10 c8 be 1b 47 e0 bf 03 23 4b bf
       -0.627536 -0.390748 -1.75217 -0.793503
000390 ce 6c 1b bf 54 b6 dd ba 76 f4 e8 3b 35 79 42 bf
       -0.607129 -0.00169153 0.00710922 -0.759662
0003a0 c8 e7 3a 3c 3a 0e 72 bc a9 87 88 3f f1 d5 7e 3e
       0.0114078 -0.0147739 1.06664 0.248863
0003b0 96 5a 8f 3e 5f b2 51 be 64 77 c1 be f0 19 e4 3c
       0.279988 -0.204782 -0.377864 0.0278444
0003c0 0a 1b 54 3c 8b 8c 12 3f cc 35 bb 3c 15 e3 e0 3f
       0.0129459 0.572457 0.0228528 1.75693
0003d0 a1 f8 e1 bf ee b3 ea be 63 41 21 3e c6 98 05 3d
       -1.7654 -0.458404 0.157476 0.0326164
0003e0 65 fc 92 c0 03 23 97 be a3 ae 41 bf 0b 62 a0 3e
       -4.59331 -0.295189 -0.756571 0.313248
0003f0 20 63 ce 3e f6 ce 18 bf de cc 90 3e 8c 15 11 3f
       0.4031 -0.596908 0.282813 0.566735

layers.6.bias f4 [50]
000000 99 2e 10 bf e0 72 ab bd 23 f8 8f bf e4 da 12 c0
       -0.563211 -0.0837152 -1.12476 -2.29461
000010 6c 78 72 3f ff eb 2c 3f 21 a1 f7 bc d0 97 de bc
       0.94715 0.675476 -0.0302282 -0.027172
000020 40 95 99 3d 80 0b 8a 3e ee 42 97 bf 06 2c e9 be
       0.0749917 0.269619 -1.18173 -0.455414
000030 17 d3 e4 3e 1c 61 6c bd 25 3b ce 3f 14 d0 1a c0
       0.446923 -0.0577098 1.61118 -2.41895
000040 8e cc e3 bf 53 22 a5 3f 8f 8d b8 3e de 91 49 bf
       -1.77968 1.29011 0.360455 -0.787382
000050 00 c4 1d 3e 4e 9c ac 3f b1 c4 db 3e 96 3e 68 bf
       0.154068 1.34852 0.429235 -0.907205
000060 44 48 c2 bc 2a a8 b0 3e be 14 3e be d5 ec 89 bf
       -0.0237161 0.345033 -0.185626 -1.07754
000070 9a 44 75 3f 88 66 de bd 9e 7b 33 3f f6 f1 2b bd
       0.958078 -0.108594 0.701105 -0.0419788
000080 8e 58 67 3f d0 28 fd 3d dd 7b 24 c0 ac ac 3d 3e
       0.903695 0.123613 -2.57006 0.185229
000090 f8 fb 3d 3f 3e 3d 0a 3f db c0 b5 be 5d 33 a9 3f
       0.742126 0.539997 -0.354987 1.32188
0000a0 9c 33 fa bf ad dc 3f 3f 5c 1f ae be 93 bd 4a bc
       -1.9547 0.749461 -0.340083 -0.0123743
0000b0 2d 3e 27 c0 23 67 89 be 64 3c 3e bf 21 ea 1a c0
       -2.61317 -0.268365 -0.743109 -2.42054
0000c0 d2 54 5b bf 2a c6 41 bf
       -0.856763 -0.75693

layers.6.weight f4 [50, 50]
000000 df 51 33 be 7d cc 77 3f 8e 39 54 bd 16 89 69 be
       -0.175117 0.967964 -0.0518127 -0.228062
000010 dc 4e f8 ba cd 1f f3 3d 92 e4 2f 3a 74 7e 1a 3e
       -0.00189444 0.118713 0.000670978 0.150873
000020 50 e0 95 3e 2f c4 ea 3c e2 c0 75 bc f7 cc 12 be
       0.292727 0.028658 -0.0149996 -0.14336
000030 7c 29 fc 3e a1 a2 92 be 7b 16 54 be ac 19 e9 3e
       0.492504 -0.286397 -0.207117 0.455274
000040 56 64 d4 3d 78 b8 5d 3d c1 8e 0f 3e 20 26 f9 3e
       0.103707 0.054131 0.140193 0.486619
000050 22 38 3e 3e 07 56 ba 3d 16 72 b0 bd 9c 18 0e bf
       0.185761 0.0909844 -0.0861551 -0.555063
000060 46 79 46 be 2f 4f d7 be e7 c8 b2 3e cf 67 a0 be
       -0.193822 -0.420526 0.349189 -0.313292
000070 99 9c 4a be d6 e2 17 c0 fe 61 57 bf 83 de 4b 3e
       -0.197863 -2.37322 -0.841339 0.199091
000080 42 ea 56 3e 1b bc ef bc d9 c6 b4 3d 48 52 2a 3f
       0.209878 -0.0292645 0.0882699 0.665318
000090 38 bd eb 3d 8b c3 a9 be 24 61 ff 3d 17 41 28 3d
       0.115107 -0.33157 0.124697 0.0410777
0000a0 ee 2c 90 3d 6a 88 9a 3d 4c fe e7 3d be d4 34 3d
       0.0703982 0.0754555 0.113278 0.0441482
0000b0 95 2a 91 be 64 b2 e8 3e 15 00 9b be 3d 83 00 3c
       -0.283528 0.454486 -0.302735 0.00784379
0000c0 04 ff 0b be d0 2b c6 3e fe 2b eb bd cc 0c 1b 3e
       -0.136715 0.387053 -0.11483 0.151416
0000d0 93 aa 5d be 88 4d bf 3d c0 5b 30 be 44 30 1e be
       -0.216471 0.0934096 -0.172225 -0.154481
0000e0 9d 5a a6 bb 21 bb 61 3d 84 44 9f bd 3e be b3 3c
       -0.00507672 0.0551101 -0.0777674 0.0219413
0000f0 7d ca 29 3f 08 21 20 be ff b2 db 3d d7 87 cd 3e
       0.663246 -0.156376 0.107275 0.401427
000100 98 c1 48 3e 31 50 08 bd 32 0a dd bc b4 91 6b 3e
       0.196051 -0.0332796 -0.0269824 0.230048
000110 df e2 51 be 90 2b da 3c 93 c7 73 bd e6 cf 87 be
       -0.204967 0.0266321 -0.0595165 -0.265258
000120 2c 28 0e bc f6 99 f3 bd c2 87 82 3e ea 7f c4 bd
       -0.00867657 -0.118946 0.254942 -0.0959471
000130 d9 1b a6 3d 7b 13 03 3e b3 be 97 bd c5 91 57 be
       0.0811078 0.128004 -0.0740942 -0.210517
000140 58 09 0c bd 0a f8 45 3e 01 da 66 be 03 42 6b 3e
       -0.0341886 0.193329 -0.225441 0.229744
000150 4d c0 2f be cb 2e f8 3d 96 31 4f bc 6f 2f d1 3e
       -0.171632 0.121183 -0.0126461 0.408565
000160 23 54 e3 3b 88 78 35 bd 3c 31 8b be b7 9a 35 3e
       0.00693752 -0.0443044 -0.27186 0.177348
000170 de 65 15 3d fd bc 19 3e a2 02 0c 3d c9 aa e8 3d
       0.0364741 0.150135 0.0341822 0.113607
000180 3b a2 27 3d f5 6e 07 3d 83 eb 9b bc 82 3b 70 3e
       0.0409262 0.0330648 -0.0190332 0.234602
000190 9e b5 8b bf fd 9f 3f c0 8e e9 ed bf 91 f2 23 c0
       -1.09148 -2.99414 -1.85869 -2.56168
0001a0 95 82 80 c0 f0 8b e3 3e bd 6c 60 bc 16 4d 0d c0
       -4.01594 0.444427 -0.0136978 -2.20783
0001b0 ee 05 46 3e a0 eb 31 bc fb 91 52 be aa 66 4a 3f
       0.193382 -0.0108594 -0.205635 0.790629
0001c0 b2 2e 96 3f 6c 3d 13 3f 14 5c ac 3f 25 3f 12 3f
       1.1733 0.575156 1.34656 0.571276
0001d0 c4 5a 02 40 a1 a1 87 bf 5a f1 41 3f 21 1f fc bf
       2.03679 -1.05962 0.757589 -1.9697
0001e0 e0 11 25 3f c9 ab 23 3e 1d 03 1a 40 f6 ee a7 bf
       0.644804 0.159835 2.40644 -1.31198
0001f0 d6 e5 04 3f af ea a4 be b5 54 60 40 51 56 e3 3b
       0.519132 -0.322103 3.50517 0.00693778
000200 3c 88 a1 3f 2b de bb c0 7d 3c d4 3e 82 8b d9 bf
       1.26197 -5.87087 0.414524 -1.69957
000210 46 5f 89 bf 2e 20 44 3e 61 c4 5e bf b3 b5 2a c0
       -1.07322 0.191529 -0.870184 -2.66734
000220 7d 3c 44 be 5c 05 39 bf a1 67 af bf a1 14 88 bc
       -0.191637 -0.722738 -1.37035 -0.0166114
000230 96 cf ba 3f dc bc 25 bf 88 d7 d5 bf be a4 c1 bf
       1.45946 -0.647413 -1.67064 -1.51284
000240 60 cd 05 c0 20 63 94 40 57 60 e0 c0 6f 9e c6 bf
       -2.09066 4.6371 -7.01176 -1.55171
000250 78 7f a4 c0 ba 14 99 c0 88 f2 ed 3e 79 58 c8 bf
       -5.14056 -4.78378 0.464741 -1.5652
000260 01 86 75 3e 61 ec b1 3b ed f0 af be 22 6e 86 3e
       0.239769 0.00542979 -0.343635 0.262559
000270 d6 98 08 3c c7 0f 45 3f c0 eb 93 3e 1b 23 03 3d
       0.00833722 0.769772 0.288908 0.0320159
000280 3d 82 2b 3f 0a ba 01 c0 42 3e 8c 3f e1 bd c9 3d
       0.669956 -2.02698 1.09565 0.0985067
000290 48 de b1 be 11 67 2f bd c5 a9 ee be 94 31 3e 3e
       -0.347399 -0.0428229 -0.466139 0.185736
0002a0 c8 41 59 3e d8 f4 80 3d 34 bc 49 3e c0 cc b7 bc
       0.212165 0.062967 0.197007 -0.0224365
0002b0 43 c8 09 be 6f 9b 21 3f 55 c2 8b be c9 76 c6 be
       -0.134553 0.631278 -0.272967 -0.387625
0002c0 45 84 0f 3f dd cd c7 bf ba 59 b2 bd 61 16 62 bf
       0.560612 -1.56097 -0.0870852 -0.883154
0002d0 41 63 d6 be 27 68 03 be 51 f8 3c 3e 54 6e 72 be
       -0.418726 -0.128327 0.184541 -0.236749
0002e0 f2 60 93 be 78 d4 a0 be 52 61 f0 bf aa 85 ed 3c
       -0.287849 -0.314121 -1.87797 0.0289944
0002f0 ea 77 61 3e 67 e9 2f bc ae 80 0e 3f cc dc 12 3d
       0.220184 -0.0107368 0.556651 0.0358551
000300 31 eb b5 bf 3d bb a4 be 02 fe 5f 3c ea 78 6c 3e
       -1.42124 -0.321741 0.0136714 0.23093
000310 27 11 11 be 63 28 47 3e 86 04 dc 3e 7c d2 a9 be
       -0.141667 0.19449 0.429722 -0.331684
000320 3b e5 89 3e ae f0 aa bf e5 64 ba 3e e1 f0 92 3e
       0.269327 -1.33547 0.364051 0.286994
000330 95 f4 f0 3d c1 a7 7e 3d c6 6f ca 3c 26 fd 8d 3e
       0.117654 0.0621717 0.0247115 0.277322
000340 ce a9 54 3e 6b a1 bf 3c 82 ff e5 3e ec 2f 5b be
       0.207679 0.0233924 0.449215 -0.21405
000350 c2 c9 6c bb 1e fb 0d bf e1 3a 6b bc ce 8c fe 3e
       -0.0036131 -0.554613 -0.0143573 0.497168
000360 69 00 1f 3f 26 e1 02 bf 4a 7c de 3e c9 aa 2d bd
       0.6211 -0.511248 0.434542 -0.0423992
000370 ce 6d 1a 3f 84 47 6b be 4c a8 98 3e 19 e3 13 be
       0.603238 -0.229765 0.298159 -0.144421
000380 5d 93 64 3d e2 5c 8b be 2d b3 18 be a3 e4 ba 3d
       0.0558046 -0.272193 -0.149121 0.0912564
000390 42 e9 8b 3e 8b c6 da be d9 d3 a9 3c 20 d9 b7 ba
       0.273264 -0.427296 0.0207309 -0.00140265
0003a0 bb 3e 18 bd ed 8a 4f 3b aa d9 1e bd 55 da 36 bf
       -0.0371692 0.00316685 -0.0387818 -0.714269
0003b0 56 cc 82 3d 54 01 8f be 8e af 9d be bd 52 36 3d
       0.0638663 -0.279307 -0.30798 0.0445125
0003c0 82 c8 42 be 0d e1 a0 3e 53 ee b9 bd 8b 0b d1 3c
       -0.190218 0.314217 -0.0907866 0.0255182
0003d0 22 52 8b 3e 94 ee 98 3d 17 65 56 3e 8a 8f 4f be
       0.272111 0.0746738 0.20937 -0.202696
0003e0 83 30 27 be 3e e7 7e be b1 18 15 bd 7e 52 05 bf
       -0.163271 -0.248929 -0.0364005 -0.52079
0003f0 ce ee 5a bc f0 86 44 be 3f ad 22 bd 4a 62 b9 be
       -0.0133626 -0.191921 -0.039716 -0.362078

layers.8.bias f4 [50]
000000 85 cd 10 be e6 21 43 3e 23 dc d4 be b3 b3 f8 be
       -0.141409 0.190559 -0.415742 -0.485746
000010 2c bc 23 bf c9 e8 10 3e 80 f3 6e bf f6 b2 01 bf
       -0.63959 0.141513 -0.933403 -0.506637
000020 4b 00 86 be 8a 3c c9 3e c8 7b 17 bc 05 c2 1e be
       -0.261721 0.39304 -0.00924582 -0.155037
000030 38 9f 6a be 52 05 b8 3d 0f 7b 41 3e f5 d8 16 3e
       -0.229123 0.0898539 0.188946 0.147312
000040 9e 24 1d be 75 af 3f bf 25 78 f3 be e5 7e e7 3e
       -0.15346 -0.748771 -0.475526 0.45214
000050 27 c1 07 3f 1e 81 c9 bc c5 c9 ad 3f e1 7d 09 3f
       0.530291 -0.0245977 1.35772 0.537077
000060 ae 64 17 3e 88 4b 8e bf 49 d8 67 3f 7d b3 bd 3e
       0.147845 -1.11168 0.905644 0.37051
000070 75 58 39 bf a0 8c 11 bf 09 c3 98 3e 49 85 01 be
       -0.724006 -0.568552 0.298363 -0.126485
000080 70 61 d5 be 80 4a bd be 81 95 e7 bf ec 69 09 c0
       -0.416759 -0.369709 -1.80925 -2.14709
000090 14 95 fd 3e 71 41 51 bd 08 21 40 bf 0d 51 c5 3e
       0.495278 -0.0510878 -0.750504 0.385384
0000a0 ec 2e 40 be cf 49 43 bf 79 93 87 be 64 3b 1f c0
       -0.187679 -0.762845 -0.264797 -2.488
0000b0 13 7a a2 bc 7a 52 0a bf 40 13 01 be 76 6e da bd
       -0.0198336 -0.540321 -0.12605 -0.106656
0000c0 97 00 ec 3e 21 76 8e bf
       0.460942 -1.11298
