resources/models/onnx/acas/ACASXU_run2a_1_3_batch_2000.onnx (onnx, 54456 bytes, 14 tensors)

layers.0.bias f4 [50]
00000000: 9087 0ebe 5438 a23e 5e1a b5bc ca15 1e3e
00000010: 99b8 753e 31d1 18bf bf0a 60be 302e 05bf
00000020: a451 81be 99d3 8dbe d073 953c feb2 c13b
00000030: b8ed d63b 172d 903d 5b7b 2fbe 3d7c b13e
00000040: 751c 64bd 8998 e2be f5f4 c1be ca33 13bf
00000050: c87b adbe b343 ac3d a3e7 d6bd ca70 b83b
00000060: 63ec 0cbf 1c45 163e 26d6 b33d 29c2 d7bc
00000070: 5228 4b3e 2063 c63e 584a a0bc 57dd 343c
00000080: cddf ce3c 656d 07bf 0f93 35bd f946 993d
00000090: 05df f4bd 062e 4fbe 3ae7 87be 452c 123e
000000a0: 0856 553e bf75 0b3c b03a b2be ea22 b5be
000000b0: 0bd2 8cbe 6900 07bf 1123 3f3d b550 323c
000000c0: 5727 273e 6538 de3d
-0.139189 0.316836 -0.0221073 0.15438 0.239962 -0.596942 -0.218791 -0.520236
-0.252576 -0.277005 0.0182437 0.00591123 0.0065591 0.0703985 -0.171369 0.346651
-0.0556912 -0.44257 -0.378822 -0.575009 -0.338835 0.0841135 -0.104934 0.00562868
-0.550482 0.146748 0.0878108 -0.0263377 0.198396 0.387475 -0.0195667 0.0110391
0.0252532 -0.529013 -0.0443297 0.0748424 -0.119566 -0.202324 -0.265436 0.142747
0.208336 0.00851196 -0.348104 -0.353782 -0.27504 -0.52735 0.0466643 0.0108835
0.163236 0.108506

layers.0.weight f4 [50, 5]
00000000: 2e38 53be c3e2 46bd 8a17 55bc cf68 bbbe
00000010: 3b56 a9be c70f 7d3f 0ac9 973a 29d2 e6b7
00000020: b84c 9cb9 b901 faba 3d98 39bc 90aa 81bb
00000030: 604a 933c c5d4 4c3c a113 be3a a321 a33e
00000040: 8314 e43e 48e0 bf3e 5a9d dcbd 1c44 eb3d
00000050: 0075 83bd 2ee3 aa3b 8cdf 36ba 3b35 d7be
00000060: a7ae 803f 3c21 2a3d 50c5 cdbd 0b7c 35be
00000070: bd1d b5bf 6c5b 84be d80e 9ebe 2b18 85bf
00000080: 2905 993f 87dc ec3d e605 803e 3925 403e
00000090: efb9 223d 33b5 363d 61c1 3dbe 338a 9dbf
000000a0: dbfa a9be 2b4d 823f dbdc 84bf d734 6f3e
000000b0: e11e b03d 95ec bd3d 1d55 9dbf 5a2f 8e3f
000000c0: 9770 683e 8bc0 38be 09cf ba3c fdbf 523f
000000d0: 7f85 103f c499 073f 6a4f 81be 162f 16be
000000e0: 25ea 6dbf 1bbb 54bf 2de8 093f cfc6 20bd
000000f0: 1af9 b4be 19e7 ef3d fed4 bc3f 8867 693e
00000100: c27f bfbd 6aa0 1d3f e0bb ed3e ba16 a83d
00000110: 1106 b9bd 0803 6f3e 66bf cebd e607 3ebf
00000120: 965f 66bf ff7a ed3e 7b66 2ebd ab5a 563f
00000130: 910a dbbf 7d96 07be 1569 873d ea50 17bb
00000140: eedc ca3d cf67 14bf 52d4 093f e734 2b3e
00000150: 8141 1abf 062a c33d d49a b6bf 0057 d23f
00000160: a303 023e 2f88 083e 4398 36bc b3fb df3c
00000170: 170f 6f3d f983 053f c499 dfbf 87c1 0cbf
00000180: aa6a 5d3c 2b7d 323c 6b10 0ebf 3c30 28bf
00000190: 9756 9bbf e21f b6ba 8f8f 54ba f7ab 2aba
000001a0: 7e57 e3b8 6764 203e ce6e 85be 8f8c b53e
000001b0: 8f6c 733d 3ca2 d23e e319 f43d 414a 643f
000001c0: c269 853f 93fc e83e 5193 af3d 2ead 463e
000001d0: 58ff 8bbf f7ca 9cbe 8f51 b63e c9c6 c8bd
000001e0: ffd1 723d 4963 b8bf 3203 b93f 6952 2f3b
000001f0: 14ae 873e bf94 463d ff95 51bf 1f53 4dbd
00000200: c7d0 36bd 8c86 6c3d d654 063e 51f9 1bbf
00000210: ee5a 6ebf dbb7 24bd ecea 3f3d 0ab4 a0bc
00000220: 1deb 3dbc 1351 36ba 5fe7 cb3c d152 a23a
00000230: 45bd c83e 65dd 44bd c281 b5bc ba2f 0f3f
00000240: a4a5 52bf 1059 683f 9797 573d 4867 05bd
00000250: 1e46 d23c 0ad6 d8bd f1d3 9dbc 05ed 9fbc
00000260: fcdc 91b9 93f2 a83b 530b c23a 2b4f c0be
00000270: dec1 193d 9be5 f23c 834e 483e 1825 38be
00000280: 2041 01be 35f7 c63c bea2 1b3e 47b6 a93d
00000290: f3aa 6e3e 2303 af3d bd8c b23f 5a2f c2bf
000002a0: 43b5 b73c 82e4 953e f489 fc3d 6761 cbbf
000002b0: 844a 303f 187d c53c b150 d3be 664f 123e
000002c0: eae7 b23d aec7 0ebd d193 f23d 4be8 4e3d
000002d0: da00 50bf 2bdb dfbe 3b01 28bd e1b4 003e
000002e0: 9d59 3c3d ef57 e13d 6f14 15bc 9582 b9b8
000002f0: 84b5 f33b 4b94 553f 8352 f4bd 2d3e c13f
00000300: f775 d4bf 569f 5b3e 1ea6 edbe d76d 2b3d
00000310: 2c86 463d 3b36 b23f bbb5 4cbe 1af9 043f
00000320: 1d59 653f 43e3 693f db8d 793d 8f13 4b3d
00000330: 4359 28be 03cc a13d f4f3 70bd 553d ae3b
00000340: da3b 5fbf e9b7 4b3f 62a0 0bbe 1288 a73f
00000350: 9e29 9c3f cadf bd3e fd16 ddbd bf65 a2bf
00000360: 3c05 8abb 4d6e 903a c26d 6d3c f5e4 90bc
00000370: 7497 ac3e 2c7d 9c3f 1cb1 a2bf 9f59 023e
00000380: 9cc2 2a3e c617 1d3e d061 963f 5452 a3bf
00000390: d0f4 adbc d9eb 3d3e e999 febd 4a95 98bd
000003a0: 7ced 89bf bea0 453d a214 b33d 0fef 113f
000003b0: 454a 633e a25e 043f 5308 b4be 20d1 44be
000003c0: 58cb 2d3e 3dc7 913c d639 443b 328f f43e
000003d0: 38f5 61be 7959 c3bd 8496 dabc a395 56bc
000003e0: 7b82 08bf 5f94 62bb
-0.206269 -0.0485561 -0.0130061 -0.366034 -0.330736 0.988522 0.00115803 -2.7516e-05
-0.000298118 -0.0019074 -0.0113278 -0.0039571 0.0179798 0.0125019 0.00145017 0.318616
0.445469 0.374758 -0.107722 0.114876 -0.064188 0.00521507 -0.000697606 -0.420328
1.00533 0.0415356 -0.100474 -0.177231 -1.41497 -0.25851 -0.308707 -1.0398
1.19547 0.115655 0.250045 0.187642 0.0397281 0.0446064 -0.185308 -1.23078
-0.331992 1.01798 -1.03799 0.2336 0.0859964 0.0927364 -1.22916 1.11082
0.226992 -0.180422 0.0228038 0.823242 0.564537 0.52969 -0.252559 -0.146664
-0.929354 -0.83098 0.538699 -0.0392521 -0.353463 0.11714 1.47525 0.227934
-0.0935054 0.615729 0.464324 0.0820746 -0.0903436 0.23341 -0.100951 -0.742308
-0.899896 0.463829 -0.0425782 0.837321 -1.71126 -0.13241 0.0661184 -0.0023089
0.0990542 -0.579709 0.538396 0.167194 -0.602562 0.095295 -1.4266 1.64328
0.126967 0.133332 -0.0111447 0.0273417 0.058364 0.521545 -1.74688 -0.549828
0.0135142 0.0108941 -0.554938 -0.656986 -1.21358 -0.0013895 -0.000810855 -0.000651061
-0.000108405 0.156633 -0.260611 0.354588 0.0594297 0.411394 0.11919 0.891758
1.04229 0.455052 0.0857302 0.19402 -1.09373 -0.306236 0.356091 -0.0980354
0.0592823 -1.44053 1.44541 0.0026752 0.265 0.0484817 -0.818695 -0.0501281
-0.0446327 0.0577455 0.131183 -0.609273 -0.931075 -0.0402144 0.0468549 -0.0196171
-0.0115917 -0.000695483 0.0248906 0.00123843 0.392069 -0.0480627 -0.0221566 0.559322
-0.82284 0.907609 0.0526348 -0.0325692 0.0256682 -0.105877 -0.0192661 -0.0195222
-0.000278212 0.00515587 0.00148044 -0.375604 0.0375384 0.0296505 0.195612 -0.179829
-0.126225 0.0242878 0.151988 0.0828672 0.233074 0.0854552 1.39492 -1.51707
0.0224253 0.292759 0.12331 -1.58891 0.688637 0.0241075 -0.412725 0.142881
0.0873564 -0.0348584 0.118446 0.0505145 -0.812513 -0.437219 -0.0410168 0.12569
0.0459839 0.110031 -0.00909911 -8.84581e-05 0.00743741 0.834294 -0.119298 1.50971
-1.65985 0.214475 -0.464158 0.0418528 0.0484678 1.39228 -0.199912 0.519426
0.895891 0.913624 0.0609263 0.0495792 -0.164403 0.0790024 -0.0588264 0.00531737
-0.872007 0.795775 -0.136354 1.30884 1.22002 0.370848 -0.107954 -1.26873
-0.00421205 0.00110192 0.0144915 -0.0176873 0.337093 1.22257 -1.27103 0.127295
0.166758 0.153411 1.17486 -1.27595 -0.0212349 0.18547 -0.124317 -0.0745035
-1.07756 0.048249 0.0874417 0.570054 0.221963 0.517069 -0.351626 -0.192204
0.169721 0.0177952 0.00299417 0.477655 -0.220662 -0.0953855 -0.0266831 -0.0130972
-0.533241 -0.00345733

layers.10.bias f4 [50]
00000000: f6b3 703f 1d03 b63f 0a67 6b3f 3255 983f
00000010: 9a42 c73f d0f2 803f 9a25 fdbf b211 b4bf
00000020: 62db 9abf 0187 c43f 52f2 22bf 3256 fb3d
00000030: dae4 003f 0b98 683f c4d1 753f 21c8 e93f
00000040: 1635 9cbf 6e33 313f a1f2 6f3f c347 c43f
00000050: 6f81 4ac0 567d e2bf 8447 0740 7b16 383f
00000060: 55c1 1cc0 bcb3 96bd d1e8 1440 d7dd 343f
00000070: 75cd c0bf 88ba 873f e84f 0b3f e886 663f
00000080: 25b2 bfbe 637e 1e3e 90d8 ce3e 80b8 3b3e
00000090: e76f a6bf 19ca b93f 4a07 d73f 5530 b23f
000000a0: 3409 28bd d460 e2bf f701 883f a73d a53e
000000b0: 6611 2a3f e8fa d63e fd30 963f f92e 853e
000000c0: 61d0 d7bb fa7e a63f
0.940246 1.42197 0.919541 1.1901 1.55672 1.00741 -1.97771 -1.40679
-1.20982 1.53537 -0.63651 0.122723 0.503492 0.90857 0.960232 1.82642
-1.22037 0.692191 0.937296 1.53344 -3.16415 -1.76945 2.11374 0.719093
-2.4493 -0.073585 2.32671 0.70651 -1.50627 1.06038 0.544188 0.900496
-0.374406 0.154779 0.403996 0.183321 -1.30029 1.45148 1.67991 1.3921
-0.0410244 -1.76858 1.06256 0.322736 0.664328 0.419883 1.17337 0.260124
-0.00658612 1.30075

layers.10.weight f4 [50, 50]
00000000: db5f a83b a1f3 2a3e 18d0 5bbe 3290 673e
00000010: d87b a63d 58ac e13c c05f ab38 5193 af3d
00000020: 8cb9 ebbc 7539 09bf 4833 36be 6352 8dba
00000030: e410 51bd f244 80bd 82bf 84bc 96d0 d5be
00000040: c0ac a5bd e11f 1d3b 62ee 7f3c 473e 8f3e
00000050: 3bef 95bd 43cb fabd 91b9 9abe 092d a03d
00000060: 6f47 f83e 1d96 a13c 2ec5 d53d d046 0ebe
00000070: aa46 4fbf b1fc 893d e92c 63be 7993 af3e
00000080: 795d dfbd ab69 4d3d 8c09 a63d 126b b9be
00000090: 06da 383d e4bb 5c3f 0713 b53c eace 533e
000000a0: 2b30 a4bc 3fc7 373e 5bea 20be 0cc8 0ebe
000000b0: 7bb3 77bd 5a80 063f 5115 07bf 4a32 81bd
000000c0: 5c91 48be 5dfa d7bd a1a2 5a3e b9e0 0cbe
000000d0: c079 01be 5d6c b2be aa0d eebd a513 e13e
000000e0: ac53 453e aa7f 04bf b21d 223d dfa9 983e
000000f0: 0fdd 82bd 6b4a a2bd 0a59 973d 35eb 4e3b
00000100: fc91 1dbd b5e2 9b3d d66e 0bbf ab28 a93d
00000110: 9dc5 813d bc02 513e b37b 4ac0 772d 11be
00000120: 673e 4c3d 4a80 f53c 1ded 933c 7d3d 423b
00000130: 59c2 1abe 88bd 8ebb 53ae 30be 8c10 123f
00000140: 433b 13bf 80d4 863e 6892 08be 3ac9 a63e
00000150: ec14 4bbe dcf3 2c3e 8636 06bc 2e1e 0e3e
00000160: 9d45 34bd 6bab a33c 1f80 34bd 2864 b7be
00000170: 527c fc3d 63b6 64be 6627 0dbd 54c6 5fbd
00000180: 7827 82bb 03b9 7fbd 1424 9e3e 1537 1ebe
00000190: 46cc d1bc 62d7 e63e 7e21 1e3c 4685 a03d
000001a0: 9a7d 79bc 6222 9f3d 6084 3abc f4fd 98bf
000001b0: 917d ce3b d196 93be 2f0a ccbc 09ec 003d
000001c0: 73cd cb3a b831 273d c304 debb 3b84 16bb
000001d0: aba9 b63d 1348 2abb 26fc d23b 6b55 dcbb
000001e0: 18ff 93bd dba2 dc3e 4729 b6bb 1500 deb8
000001f0: 5f7d d9bb 4cf4 033c 3e18 42bc 30b2 4ebd
00000200: 7479 983d 8101 0c3c 10ec 133d ea7b 0d3e
00000210: aae3 e7bc 5b48 9bbd cdc2 56ba 1bc9 2f3d
00000220: 12e0 4f3c 50a0 39bd 978a b2bc 6119 1bbd
00000230: 99d2 9fbc 9b7f ea3c 6be1 e8bc 2ba2 76be
00000240: e226 1e3d a049 8bbb 464d 2a3c edeb 65bc
00000250: 1ca1 b5bd 502b 96bc 90c9 78bd dba6 e03e
00000260: 05a4 d53e c939 61be 69a4 aa3d 0f64 19bf
00000270: d504 813e bb43 4a3f 4e66 173d 14af a23e
00000280: 05de 813e 07dc 993d 1f4d f53d 4861 a83c
00000290: a661 10c0 6dc9 1ebf a4fe fa3d 8463 f63d
000002a0: ae0f 9b3e edf4 333e d15c 8f3f ecdf a53e
000002b0: a6ba 803c a268 393d 39eb f8bb aec6 88bc
000002c0: 3dff 2cbd 66b0 18bd 07b3 d1be 516a 6fbf
000002d0: 035d 93be 919d d7be 4c88 a9be fd86 193e
000002e0: 94cb 75bd 3b2d 69bd 2289 0e3e 40a2 29be
000002f0: 3e21 db3d 355f edbe b2ed 993d 8fe4 cabf
00000300: 195b 933d d104 3e3f 5e19 8fbd 04c6 fa3e
00000310: 2494 83bd 6d1b 36be d602 5f3f 7653 1abe
00000320: 79af 06bf 1c29 3fbf efae 53be 3833 553c
00000330: 9d3f c7bd c0e7 8bbf 40bd 05bf 6210 8040
00000340: 36b7 b8bc 1170 d43f 7ea9 a73e 6e15 3cbf
00000350: 1407 203e 3124 9fbe 1e95 713d fad4 313e
00000360: 1eea 6dbd 23d3 843b cff4 2a3f 88f4 7bbe
00000370: e621 cb3e 1343 3e3f da17 b7ba b44f 9c3d
00000380: 1e56 b3bd 6479 b7bd de18 973d 281b b0bd
00000390: d350 c3be 90f7 86bf 47cb a93e 3a79 a13e
000003a0: aeb6 82be 726a 083b e605 283e 9ad0 743e
000003b0: 130a 91be bb1c 40bd 6cc1 1cbd 7768 f83d
000003c0: b4e0 2abd 96e7 81be 78a4 f0bc 984c b53f
000003d0: 0683 0bbe 5513 8c3f bae4 9ebd 828b ddbe
000003e0: f278 7a3f d42c a03d 1232 d0bd 234c b93e
000003f0: 1fc3 1ebd b4bc 8c3d 53b0 e6bd 0a11 f0bd
0.00513838 0.166945 -0.214661 0.226136 0.0812909 0.027548 8.17175e-05 0.0857302
-0.028775 -0.536033 -0.17793 -0.0010782 -0.0510415 -0.0626315 -0.0162046 -0.417607
-0.0808959 0.00239753 0.0156208 0.279772 -0.0732102 -0.122458 -0.302197 0.0782109
0.48492 0.0197249 0.10438 -0.138942 -0.809672 0.0673765 -0.221851 0.342922
-0.109065 0.0501496 0.0810729 -0.362145 0.0451298 0.862242 0.0221038 0.206844
-0.0200425 0.179471 -0.157144 -0.139435 -0.0604739 0.525396 -0.527669 -0.0630842
-0.195867 -0.105458 0.213511 -0.137576 -0.126441 -0.348483 -0.116237 0.439603
0.192702 -0.517573 0.0395791 0.298171 -0.0638982 -0.0792435 0.0739003 0.00315733
-0.0384693 0.076116 -0.54466 0.0825971 0.0633652 0.204112 -3.1638 -0.141775
0.0498642 0.0299684 0.0180574 0.00296387 -0.151132 -0.00435609 -0.17254 0.570565
-0.575123 0.26334 -0.133371 0.325754 -0.198322 0.168899 -0.00819171 0.138787
-0.0440117 0.0199792 -0.0440675 -0.358186 0.123284 -0.223352 -0.0344614 -0.0546325
-0.00397199 -0.0624323 0.308869 -0.154507 -0.0256101 0.450862 0.00965154 0.0783792
-0.0152277 0.0777023 -0.0113841 -1.19525 0.00630159 -0.28826 -0.0249072 0.0314751
0.00155489 0.0408189 -0.00677547 -0.0022967 0.0891908 -0.00259829 0.00643875 -0.00672405
-0.0722639 0.43093 -0.00555912 -0.000105858 -0.00663726 0.00805385 -0.0118466 -0.0504629
0.0744504 0.00854528 0.0361138 0.138168 -0.0283068 -0.0758216 -0.000819248 0.0429164
0.0126877 -0.0453189 -0.0217946 -0.037866 -0.0195096 0.0286253 -0.0284278 -0.240853
0.0386113 -0.00425072 0.0103944 -0.0140333 -0.0886862 -0.0183312 -0.0607391 0.438773
0.417267 -0.219947 0.0833214 -0.599183 0.25199 0.790096 0.0369628 0.317742
0.253647 0.0751267 0.119776 0.0205542 -2.25596 -0.620261 0.122556 0.120307
0.302854 0.175739 1.12002 0.323974 0.015714 0.0452658 -0.0075964 -0.0166963
-0.0422356 -0.0372776 -0.409569 -0.935216 -0.287819 -0.421124 -0.331118 0.149929
-0.0600086 -0.0569279 0.139195 -0.165658 0.106997 -0.463617 0.0751604 -1.5851
0.0719511 0.742261 -0.0698726 0.489792 -0.0642474 -0.177839 0.871137 -0.150709
-0.526115 -0.746721 -0.206722 0.0130127 -0.0972893 -1.09301 -0.522419 4.002
-0.0225483 1.65967 0.327465 -0.734702 0.156277 -0.310823 0.0589801 0.173664
-0.0580846 0.00405349 0.667798 -0.24605 0.396743 0.743211 -0.00139689 0.0763239
-0.0875666 -0.089587 0.0737779 -0.0859893 -0.381476 -1.05443 0.331629 0.315378
-0.2553 0.00208154 0.164085 0.239077 -0.28328 -0.0469024 -0.0382704 0.121293
-0.0417182 -0.25372 -0.0293753 1.4164 -0.136242 1.09434 -0.0775847 -0.432705
0.978408 0.0782105 -0.101658 0.361909 -0.0387603 0.0687193 -0.112641 -0.11722

layers.12.bias f4 [5]
00000000: 79b3 61bc 3c98 9ebc a827 a2bc 384a 9ebc
00000010: 9437 9bbc
-0.0137757 -0.0193597 -0.0197943 -0.0193225 -0.0189474

layers.12.weight f4 [5, 50]
00000000: 8046 c8ba e4e7 143c 44a5 d13c d531 383d
00000010: 172e 2b3b b92e 213d 50f1 49bc d9bf 213b
00000020: b037 1dbf ff64 423c 23bf 7ebe bd84 d03b
00000030: 8633 e43c 2933 0e3c a397 4dbb 4343 773b
00000040: d300 a6b9 462e 0f3c e453 db3c 83e5 be3c
00000050: bb78 01ba 6260 633b ad93 e93a d3b4 d53c
00000060: 4452 8bbc 2a71 ddbd 87e8 c63b aa65 083c
00000070: 34d1 8c3c 8ce3 38bb 609e 043d 2b6e 3b3b
00000080: 2f3c c83b 07da f43b 39da 4c3c 76fb 0cbd
00000090: 999b 6f3c 73f8 e23b c27f 243d 59a5 953b
000000a0: c013 693c 95d5 743c bde0 b23b f2ab 033b
000000b0: fdfd 1c3b 266e 99ba 3079 e83c ee1d 5a3c
000000c0: f3e3 d03b 8e1a 7a3b 77aa 91bb 8ed3 a9bb
000000d0: 8e70 ff3c ceec 293d 8cc8 28bb ebb8 ab3c
000000e0: 33f2 43bc d709 1c3c b264 d6be 27a2 5f3c
000000f0: ca8d aabe e026 c83b 8d8f 9e3b 991f 893c
00000100: 8f1c 86ba fa4a 1b3d d876 243c d7e3 7839
00000110: 1928 df3c f261 913c 8067 30ba 1916 ab3b
00000120: ce1f dd39 c1c7 003d 3f02 7fbc 99f5 12be
00000130: c047 f53a 1bc6 933c 0a60 0e3c ed92 9fbb
00000140: 955f 2b3d 7049 e53b 4cc5 c63b ecc9 153c
00000150: 7c55 fc3b b9ed 4e3b 79e9 e43b 1b55 3c3c
00000160: b34d 203d c411 9c3b bbce c83b 9379 bf3c
00000170: 83f8 c03a 258b 453c d249 da38 d547 b7ba
00000180: 92ad 2e3d e1c9 b83c 7029 423c cbcc 66b8
00000190: 33f3 ee3c 4523 693c b6a5 093d 9f60 3a3d
000001a0: aa43 d1ba 65dd e43c ede6 73bc 1421 d8bb
000001b0: 3b35 0fbf 361e 0f3c 7ec3 b4be 5f83 573b
000001c0: 91da 7e3b 2f4e bc3c 1b42 3a3c d66c 8a3a
000001d0: 2f33 3eb8 4fb6 9c3c 2cd4 da3c 0f05 583c
000001e0: fabd 07bb 036f d43a 3586 6f3c 7aac 143d
000001f0: 8516 a3bc 6809 12be e5da 2b3c a1e7 abb8
00000200: 4b10 643c 0125 53bb b208 2a3d 767a b5bb
00000210: e8e5 c53b c678 c13b 1197 143c dbe7 c63a
00000220: 60b1 a1bc f1ee ed3b 6389 1d3d d69a 9c3a
00000230: 4bdd 5fbc b513 ca3c 52f8 873c 88e2 443c
00000240: dfee b83b 94f5 403c da19 0b3d b36d a23c
00000250: fdeb 09bb 6152 9d3b b5f8 ee39 912d 053c
00000260: a056 ac3c 96af 303d 8396 e43b 96c1 223d
00000270: bfb3 01bc ea46 333c 4a7b 733e b9e9 09bc
00000280: e833 a83e 236c d73b 6d7e dd39 407a 543c
00000290: 476f febb ee98 153d 9a56 2f3c 092f c93a
000002a0: 3d23 b63c 07d4 b63c 53ce 973b cd1f b23b
000002b0: d179 333a 79a8 163b cb2b 7cbc 84d6 e3bd
000002c0: 09f7 6fbc f486 bb3c fa61 843c 1514 47ba
000002d0: b837 043d 52c9 083c 4de0 6f3b 290a d33b
000002e0: 7db3 283c de32 0e3b b77e 9a3d a546 cd3c
000002f0: 030c 063d 440a 2f3c a988 743b 6556 ca3b
00000300: 3ae9 7dbc f33e 0c3c 72c0 2ebc 4a6b 82bc
00000310: 9f76 d73b 2fa1 a3bb 3dd8 3d3c 62f9 efbb
00000320: 0e28 003d 4396 fd3b f50f a23c 612a 473d
00000330: 3611 6c3c c680 163d b592 8cbc f88b 59bc
00000340: d909 2fbf 9f39 6b3c 5709 36be a0f9 ff3b
00000350: 65e6 29ba 1fcd a23c 911f 3b3c be2b e0b8
00000360: 72f1 bf3a f988 b33c 7dab da3c d8e5 e73b
00000370: c726 603a ee56 f9ba 0393 9b3c 015e 0f3b
00000380: b4f7 73bc 8941 803e 3839 323c 4193 4c3b
00000390: 8de6 6d3c dea5 7d3b 75e9 1a3d 7090 d63b
000003a0: b9a4 0b3c 5df0 75bb 8351 893c 449a 003b
000003b0: d512 01bd 6fef 3fbc a91e 1f3d 11df 0bbc
000003c0: c83b acbc d8a4 f43b cee4 763c 7e40 fb3b
000003d0: d741 af3c e834 663c 35a9 323c 38ff 48bb
000003e0: 9425 84bc 8e8f 163c
-0.00152798 0.00908849 0.0255915 0.0449694 0.002612 0.0393512 -0.0123256 0.0024681
-0.614131 0.0118649 -0.248776 0.00636348 0.0278566 0.00867919 -0.00313709 0.00377293
-0.000316626 0.00873906 0.0267734 0.0233028 -0.000493895 0.00346949 0.00178205 0.0260872
-0.017007 -0.108126 0.0060702 0.00832502 0.0171896 -0.00282118 0.0323776 0.00285996
0.00611069 0.00747228 0.0125032 -0.0344195 0.0146245 0.00692659 0.0401609 0.00456683
0.0142259 0.0149435 0.00545892 0.00200915 0.00239551 -0.00117058 0.0283781 0.0133128
0.00637483 0.00381628 -0.00444537 -0.00518269 0.0311816 0.0414856 -0.00257543 0.0209622
-0.0119596 0.00952383 -0.418737 0.0136495 -0.333113 0.00610815 0.00483889 0.0167387
-0.00102319 0.0379133 0.0100381 0.00023736 0.0272408 0.0177469 -0.000672929 0.00522114
0.000421761 0.0314405 -0.0155645 -0.143515 0.00187134 0.0180388 0.00868989 -0.00486981
0.0418392 0.00699728 0.006066 0.00914238 0.00770062 0.00315748 0.00698584 0.0114949
0.0391366 0.00476286 0.00612816 0.0233734 0.00147225 0.0120571 0.000104088 -0.00139832
0.042646 0.0225572 0.0118507 -5.5027e-05 0.0291687 0.0142296 0.0336053 0.0455023
-0.00159656 0.0279376 -0.0148866 -0.00659574 -0.559406 0.00873523 -0.353054 0.00328847
0.00388876 0.0229865 0.0113683 0.0010561 -4.53472e-05 0.0191299 0.0267125 0.0131848
-0.00207126 0.00162074 0.0146194 0.0362973 -0.0199082 -0.142614 0.0104892 -8.19706e-05
0.0139199 -0.00322181 0.0415122 -0.00553828 0.00603937 0.00590429 0.00906922 0.00151753
-0.0197379 0.00726115 0.0384611 0.0011948 -0.0136636 0.0246676 0.0165979 0.0120169
0.00564371 0.0117773 0.0339602 0.0198277 -0.00210452 0.00480108 0.000455802 0.00812854
0.0210374 0.0431362 0.00697595 0.0397354 -0.00791639 0.0109422 0.237775 -0.00841754
0.328521 0.00657417 0.000422466 0.0129686 -0.00776473 0.0365228 0.0107018 0.00153491
0.0222336 0.0223179 0.00463275 0.00543592 0.000684646 0.00229886 -0.0153913 -0.111249
-0.0146463 0.0228915 0.01616 -0.000759424 0.0322797 0.00834878 0.00366022 0.00644042
0.0102967 0.00216978 0.075437 0.0250581 0.0327263 0.0106836 0.00373129 0.00617485
-0.0154975 0.00855993 -0.010666 -0.0159203 0.00657542 -0.00499358 0.0115872 -0.00732343
0.0312882 0.00773886 0.019783 0.0486244 0.0144084 0.0367439 -0.0171598 -0.013278
-0.683744 0.014357 -0.17777 0.00781174 -0.000648117 0.0198732 0.0114211 -0.000106893
0.00146441 0.0219159 0.0266931 0.00707696 0.00085507 -0.00190231 0.018991 0.00218761
-0.0148906 0.2505 0.0108779 0.00312157 0.0145203 0.00387036 0.0378203 0.00654798
0.00852316 -0.00375273 0.0167625 0.00196232 -0.0315121 -0.0117148 0.0388476 -0.00853707
-0.0210246 0.00746594 0.0150692 0.0076676 0.0213937 0.0140507 0.0109046 -0.00306697
-0.0161312 0.0091895

layers.2.bias f4 [50]
00000000: 6809 b23e fbb0 0a3f c972 423e cd91 f53e
00000010: 3579 f2be 526d 263d bc91 4dbf 57b1 58be
00000020: 145e 923d 2efa 2f3d 8d5f f83e c5de eebb
00000030: 9963 093e 7b37 71bc 4f76 33be 1131 4abc
00000040: 986e 123e 4d32 a23d a4e2 17bf 1810 90bc
00000050: e38d 64bf fbb1 913e 83db babe ca8b 0abc
00000060: b47a c2bd c0ed 293e 9cdc 3f3e 7250 3e3f
00000070: 9a84 ddb9 42f9 acbd 1900 46bf f6c8 103d
00000080: c557 fb3e 89ef 143e 89ce 32be 39d5 4a3e
00000090: a5f7 39bf 4a7b e6bb ceaa e73e 5a7f b33e
000000a0: c3f2 573e 37e3 f43d 191f debe 8bad fbbc
000000b0: a567 cabe 52d7 f23e ef53 d53d 1f14 103f
000000c0: b35f 2bbf 341a afbc
0.347728 0.541763 0.189891 0.479628 -0.473581 0.0406316 -0.803005 -0.211614
0.0714685 0.0429632 0.485104 -0.00728974 0.134169 -0.0147227 -0.175256 -0.0123408
0.143 0.0791975 -0.593302 -0.0175858 -0.89279 0.284561 -0.364956 -0.00845618
-0.0949606 0.165946 0.187365 0.743415 -0.000422512 -0.0844598 -0.773439 0.0353479
0.490904 0.145445 -0.174616 0.198079 -0.726435 -0.00703374 0.452475 0.350581
0.210887 0.119574 -0.433831 -0.0307224 -0.395322 0.474299 0.104164 0.562807
-0.669429 -0.0213748

layers.2.weight f4 [50, 50]
00000000: 9356 c43e a6ed 933f 870a 9f3c 0aa1 933e
00000010: 9565 58bf fd16 8dbe 361e c4be 4642 bf3f
00000020: 10ca 073f 00e3 093f 2907 0b3f 33c0 9d3e
00000030: 3350 55bf 70d0 4ebf 9dbd 57bf 72bf e33d
00000040: 97ca fbbd b681 db3d 683f 32be 1349 903f
00000050: 802b c6c0 bce8 3b3e 0a9e 72bf 8ae8 53bf
00000060: 1c7c dd3f 9f3e 823e 0729 68be 6b32 3e3c
00000070: cc04 283d ace6 593f 2717 a3bc 3c14 75be
00000080: a531 2a3f 56b6 3f3f 81ed 103e 1955 063e
00000090: 3331 adbe 282c 813f 8db6 d2be c9ad 293d
000000a0: f31e df3e 4b90 e1be 6404 443e dae1 a5c0
000000b0: 5e12 a73e 4d10 15c0 1172 2ebe 2cf3 8ebe
000000c0: f4dc 4abf a819 06bf 4147 ebbd 8601 633f
000000d0: 2f6f a9bc 23bb 123f a034 303f 68e7 443f
000000e0: 4ed0 52bf d3c1 86bf 9626 8dbf dbf9 96bf
000000f0: 9c4f 713f f06d 0a3f adc2 be3e feb4 d9be
00000100: 5c90 053f 601d 6fbf 70eb 8ebe a4c2 12c0
00000110: 60ea 8fbe d9ce 07bf ec51 70bf f870 e93d
00000120: 7cb6 6e3f c494 14bf 6458 3dc0 18ff 43bd
00000130: c9e6 0abe 3ce4 673a c365 0dbf ac71 3e3f
00000140: f887 92bc 2e1a e2be 036f d4ba 60c8 1ac0
00000150: 9eea 88bf aebc 743e 3ae6 c4be 93e2 4fbf
00000160: edd8 c0bf c70e 023f 7031 853d 6ec2 2d3f
00000170: 18cf 083f c768 cdbf 5e9d afbf 8386 aebf
00000180: 111e f5bf 3332 edbb 8a5b c5bc 93e2 5f3f
00000190: 8979 36be 17bc a83e 676b f3bc dbfa 59be
000001a0: 0951 0ebe 4bcb 08be b22d 17bf d47c fd3e
000001b0: 9c50 803f 5b7b 23bf 5c57 7c3e 304a 60be
000001c0: ff5d dfbd 03b1 7c3e abb2 97be 6614 dfbf
000001d0: 863d 1d3e 31ce ab3f 58c9 df3e 7c29 0c3f
000001e0: 55a6 a8be a757 0fbd 74b7 43bf 2107 2dbf
000001f0: 3997 b63f aca8 b1bf 302e 45be b461 3c3a
00000200: 1d1d ff3e 9b5a 2e3f 34bf dabc ee7c ffbd
00000210: 384c 14bf f5a1 c73f 06bc 74bf 8711 e73c
00000220: bef9 71bf 6827 9ebd 0dfc f03e 44dd 9f3e
00000230: 34d6 2ebe 8b54 88be ffb2 873f a08d 943e
00000240: 4853 3d3f 6af6 883f b211 a83d aaf4 4b3f
00000250: 7f6c 523d 1a4d f6be c158 6f3e f7cc 763f
00000260: 4c93 88bb f4dc 66bf d316 e7be 7522 39bf
00000270: 0282 59be d999 0a40 86d1 023d 7cf2 a83e
00000280: dcb7 bfbd bbee 7dbe e42c acbe 8a39 703f
00000290: 51de 8fbe fbcb cabf af3f 79be 5a65 623f
000002a0: 200d cf3e 4f3c 373f 9c32 13bf b894 abbe
000002b0: 98e2 05bd 6b1c 20bd 2dd1 453f a19f e93e
000002c0: b18b fabe 50b1 003d 1d90 bc3e 96cf 8a3f
000002d0: 8c5a 2b3c 793f 0e3f f44d 06bf 5986 a0be
000002e0: d122 9bbf 936f 563d cb82 313f 8638 963f
000002f0: dba2 ac3e 2bbe 893e a7ca 03bf 6360 45bf
00000300: 3a58 bbbf bb0a c9bf fdc3 b13c e146 06bf
00000310: 4966 25be 42d1 b43e 06be 923e 1d77 66bf
00000320: 67ef b4be d4f3 52bf 8066 abbc 9be6 cdbf
00000330: cfba 3abf 7860 70bf 614f 7b3d c042 363f
00000340: 0da6 f13f 7a17 f73e 58e2 f9bf 6e13 2ebe
00000350: 9b57 b53d e469 1d3f e50a bfbf ae67 283e
00000360: 09c6 0d3f 6683 4640 97fe 553e 4b90 913e
00000370: 16c1 e7bf 78c1 36bd 01f6 91bf f52a 9a3e
00000380: 3272 2a40 77a3 1f3e 93a9 9abf 7558 21bd
00000390: 2255 3c3f 38be 9e3e 6fc2 f3bc 3c67 733f
000003a0: 92cf 2bbe ae81 c3c0 4e5e 383f 0611 19be
000003b0: 8313 013e 38db f43e b30c 953f 8c30 9d3e
000003c0: 1c7c e9be 0262 12bf d2fb 3abf 7d77 573f
000003d0: 9817 4ac0 f1d7 1cc0 1a6e e8bf 605d 70bc
000003e0: 1bda 443f 6093 35bf b186 0bbf 79c9 df3e
000003f0: 557d b8bc aadb 113c 6cbd c53d ac58 acbe
0.383473 1.15569 0.0194142 0.288338 -0.8453 -0.275566 -0.383043 1.49421
0.530427 0.53862 0.543078 0.308107 -0.833255 -0.807868 -0.842737 0.111205
-0.122945 0.107181 -0.17407 1.12723 -6.19281 0.183505 -0.947724 -0.827767
1.73035 0.254384 -0.226719 0.0116087 0.0410202 0.851176 -0.0199085 -0.239335
0.66482 0.748876 0.141531 0.131184 -0.338266 1.00916 -0.411549 0.0414255
0.435783 -0.440554 0.191423 -5.18382 0.326312 -2.32912 -0.170357 -0.279199
-0.792434 -0.523829 -0.114882 0.886742 -0.0206829 0.573168 0.688303 0.769156
-0.823491 -1.05279 -1.10274 -1.1795 0.942621 0.54074 0.372579 -0.425209
0.521734 -0.934042 -0.27914 -2.29313 -0.281085 -0.5305 -0.93875 0.113985
0.932472 -0.580395 -2.95852 -0.0478507 -0.135646 0.000884596 -0.552334 0.743922
-0.0178871 -0.441606 -0.00162074 -2.41848 -1.06966 0.239001 -0.384569 -0.812051
-1.50662 0.508038 0.0650357 0.678748 0.53441 -1.60476 -1.37199 -1.36348
-1.91498 -0.00723865 -0.0240915 0.874551 -0.178198 0.32956 -0.0297143 -0.212871
-0.138981 -0.133588 -0.590541 0.495093 1.00246 -0.638601 0.246427 -0.219033
-0.109066 0.246769 -0.296285 -1.74281 0.153555 1.34223 0.437083 0.547508
-0.329394 -0.0349957 -0.764518 -0.67589 1.42649 -1.38796 -0.192559 0.000718619
0.498269 0.68107 -0.0267025 -0.12475 -0.579288 1.55963 -0.955994 0.0282066
-0.945217 -0.0772236 0.470673 0.312235 -0.170739 -0.26627 1.06015 0.290143
0.739552 1.07002 0.082065 0.796702 0.051373 -0.481057 0.233737 0.964065
-0.00416795 -0.901809 -0.451346 -0.723182 -0.21241 2.16564 0.0319381 0.329975
-0.0936124 -0.247981 -0.33628 0.938378 -0.280993 -1.58435 -0.243407 0.884359
0.404397 0.715764 -0.574991 -0.335119 -0.0326868 -0.0390896 0.772723 0.456296
-0.489347 0.0314191 0.368287 1.08446 0.0104586 0.555656 -0.524627 -0.313525
-1.212 0.0523525 0.693402 1.1736 0.33718 0.269029 -0.514811 -0.771002
-1.46363 -1.57064 0.0216999 -0.524519 -0.161523 0.353159 0.286606 -0.900255
-0.353389 -0.824033 -0.0209229 -1.6086 -0.729413 -0.938972 0.061355 0.711956
1.88788 0.482601 -1.95222 -0.169996 0.088546 0.614897 -1.49252 0.164458
0.553803 3.10177 0.208979 0.284304 -1.81058 -0.0446181 -1.14032 0.301109
2.66322 0.155897 -1.2083 -0.039391 0.735674 0.310045 -0.0297558 0.950794
-0.167784 -6.10958 0.720189 -0.149479 0.126051 0.478235 1.16445 0.307011
-0.456025 -0.571808 -0.730405 0.841667 -3.15769 -2.45068 -1.81586 -0.0146707
0.768953 -0.70928 -0.545024 0.437084 -0.0225207 0.00890247 0.0965527 -0.336614

layers.4.bias f4 [50]
00000000: d8b6 28be ad4e 22bf 5e11 103f 27dc bbbe
00000010: e5c4 68bc 1a17 bebf 0ad7 93be e981 2fbe
00000020: f75b 0bbe 2c89 023d b745 a9be ebe0 40be
00000030: f9ba 043f 7c99 3c3f 63b7 7f3e cadd cf3e
00000040: 20ec 543e fab3 93bf 7978 8fbc 20eb 49bf
00000050: c91e 35bf d0d1 12bf 58ac 81be 45bc 35bf
00000060: 20f1 3b3e 7a50 00be 10e8 30bf 10ec a83e
00000070: c6f4 29bc 0cb2 ad3e a4cd e7bc 514b b3be
00000080: 3a51 fdbb 65e2 1abf ce88 a6bf 0e9e 213f
00000090: 0779 3d3e a680 18bf b307 18c0 094f 483e
000000a0: 7cd1 b63e 554e fb3d cd59 6fbf 5f0a 0fbe
000000b0: ff1f 2b3f ed96 09bc 44a8 b23e 37a7 92be
000000c0: ae47 f13f d9e9 bfbe
-0.16476 -0.634013 0.562765 -0.366914 -0.0142071 -1.48508 -0.28875 -0.171394
-0.136093 0.0318691 -0.33061 -0.188358 0.518478 0.736717 0.249723 0.405989
0.207932 -1.15393 -0.0175135 -0.788744 -0.707501 -0.573514 -0.253268 -0.709904
0.183537 -0.125307 -0.691041 0.329926 -0.0103733 0.339249 -0.0282963 -0.350184
-0.00773063 -0.605017 -1.30105 0.631318 0.185032 -0.595713 -2.37547 0.195614
0.357067 0.122708 -0.934964 -0.139688 0.668457 -0.0083978 0.34894 -0.286432
1.885 -0.374831

layers.4.weight f4 [50, 50]
00000000: aa9a 20be 863c 9abe 5116 4e3e 9181 6c3e
00000010: 8a74 cfbe 27b6 e7bc 64af 173e ed9b 2b3e
00000020: c347 843e 1732 323d 3c9d 90bd 48fd b5be
00000030: 2519 c3bd 04c9 bbbc f50e cf3e 62cf e83c
00000040: 1ac3 a4be e0da d13e 9eb6 36be 9824 003d
00000050: ce29 12bd 4546 acbc 022c d2bd 841d d03c
00000060: fee9 8a3a 6d28 8b3d 04bc 363d e4a7 0c3d
00000070: df0d 133d 910f 8ebf 492e 1f3e 3333 8b3e
00000080: a131 83be 8317 c53e 67f1 dabe 20d9 b7bd
00000090: 4fb0 df3e 9906 2fbd 83c0 1abe 9851 6cbe
000000a0: eeb2 1fbe db14 cf3d 8108 d1bd 3684 593d
000000b0: 4ada 43bc 2b35 d63c 261d 853e 06d4 bb3e
000000c0: b6ca 82bd 1d33 35bd e9b6 14bf a454 5e3f
000000d0: 77a1 5d3f 030b e83e 8864 583f f12f 323f
000000e0: 249a 14bf 465b 153e 7a6f fc3e 5c59 72be
000000f0: 7dcb a03f 00a8 02bf 0a80 f9bf 7398 543d
00000100: 8106 cbbd 62e7 1c3d ef8f cbbf c3ba 41be
00000110: db85 96bf b94e 083d e92b d8be 4aec 463f
00000120: a41c 44bf 8ec7 31bd 4304 7c3f 7a50 14bf
00000130: 0473 bc3e 5723 dbbd 5e66 643f b8e7 393f
00000140: b187 363f 2715 053f 6d71 adbe 6c7c 1abf
00000150: 1426 6cbf b212 1bbf eb6e 863f 54db 52bd
00000160: b950 7d3f 607b 413d 8317 8dbf fe43 8abf
00000170: fc85 43bd e73a d9bf 2994 353e 0dc2 183f
00000180: 5d33 3dc0 d410 adbe f304 dabe 3a49 49bd
00000190: 4488 b33e 70eb 28c0 e2af e5bf 69e2 853e
000001a0: 36e5 ae3f cc45 acbe e622 bebf 3fe0 693f
000001b0: b43b 403f 643c babe bda7 0e3f 2f16 bebe
000001c0: 4e47 103f b7be 7ebc ef58 303f e6e1 29bc
000001d0: 87f9 d6bf e943 f33f 0f26 d53e fbd5 923c
000001e0: 7e71 99bd 3d0f 863f b8e7 39be c9e2 233d
000001f0: a794 37be a46e c7be 6341 49bf d2c6 113f
00000200: e7e3 0440 42b2 1240 2e20 58bf 01de 12c0
00000210: 5682 d1bf d4b6 213e 0890 893e 9c4e 8a3e
00000220: cc28 82bf fa52 2ebc 57d1 afbe 6cd0 b73e
00000230: 7b86 103e 022b f33f 9403 9cbd 9546 4cbc
00000240: 66a0 72bf 39ec febd af27 b53d c371 6f3d
00000250: 61fc 243e 899e 8cbb 94db 763e 25b3 42bf
00000260: 9be4 173e a1f6 5fbf 8864 88be 79ac 1d3f
00000270: 5af0 ba3e 21ee 85bd 5af2 583e 0708 c63f
00000280: efe7 acbe 3238 923e b552 28bf aba9 513b
00000290: 4146 90be 85b0 6fba 0e13 edbd b98b 603f
000002a0: 7e72 44be 44db d63c 2dd0 fe3e 68b3 9ebf
000002b0: fcc8 dd3e d3b5 40bc 12f9 1ebe dee5 aa3f
000002c0: 0341 20bf 71ab 083f e162 b5be 4a5f 68be
000002d0: f298 a93e 715a 2c3f fdbf a23e c984 093d
000002e0: c900 e03e ab28 b9bc 40de a73f c620 e63c
000002f0: 1078 a0be 1335 c7bc ca4a c8bd 3be4 08c0
00000300: 575e 3abf a94a 1b3e ca32 ccbf d42b adbe
00000310: a7c9 2cbe 027e 1dbe 9a25 993f 6ded 333c
00000320: d229 d93b 9500 063d ba9d e2bc 68e4 58bd
00000330: 84fb 5cbc 41b8 02bd d71e 0cbd 12de 3b3b
00000340: b9ca 0b3c 36b0 d5bc 3760 463c 2429 49bd
00000350: 856d 95bc 4bcc 333d 1eb5 74bb 542c 48bd
00000360: 32ce 3abd 9f1c eabc ed53 043d 7289 ac39
00000370: d387 0ebd 8567 783c 0cc0 90bc 9763 43bc
00000380: b24b 94bc c6ad 18bd 951b bb3c 4571 fdbc
00000390: ef6a de3c 19b2 95bc 7be3 1cbc 3967 21bc
000003a0: 1807 d7bc 6cc7 59bd 98fe 80bc 1bc0 36bd
000003b0: 67a0 8dbc e633 0a3d 498a 033d 6bf4 4abd
000003c0: 4323 333d 1755 55bd 59a7 253c 17e3 f2bc
000003d0: 0ead c2bb 58d6 c7bc dc8c 893c b036 6bbc
000003e0: e834 e6bc d25a 2cbd f432 ea3d e7a9 d63e
000003f0: 83a3 a03f 6407 613f 739d 363e c000 27bd
-0.15684 -0.301243 0.201257 0.230963 -0.405186 -0.0282851 0.14813 0.167587
0.25836 0.0435048 -0.0706124 -0.355448 -0.0952628 -0.022923 0.404411 0.0284192
-0.321801 0.409873 -0.178431 0.0312849 -0.0356844 -0.0210296 -0.102623 0.0254047
0.00105983 0.0679482 0.0446129 0.0343398 0.0359019 -1.10985 0.15545 0.271875
-0.256238 0.384945 -0.427623 -0.0897696 0.436892 -0.0427309 -0.151125 -0.23078
-0.155956 0.101114 -0.102067 0.0531046 -0.0119539 0.0261484 0.259988 0.366852
-0.0638632 -0.0442382 -0.580916 0.868479 0.865745 0.453209 0.845284 0.696044
-0.580477 0.145856 0.493038 -0.236669 1.25621 -0.510376 -1.94922 0.0519032
-0.0991335 0.0383066 -1.59033 -0.189189 -1.17596 0.0332782 -0.42221 0.777043
-0.766062 -0.0434032 0.98444 -0.579353 0.368065 -0.107001 0.892187 0.726192
0.713008 0.519854 -0.338756 -0.603461 -0.922456 -0.605754 1.05026 -0.0514787
0.989513 0.0472368 -1.10228 -1.0802 -0.0477352 -1.69711 0.177323 0.596711
-2.95626 -0.338019 -0.425819 -0.0491421 0.350649 -2.63937 -1.79443 0.261493
1.36637 -0.33647 -1.48544 0.913578 0.750911 -0.363742 0.557247 -0.371263
0.563588 -0.0155484 0.688857 -0.0103688 -1.67949 1.90051 0.416306 0.0179243
-0.0749235 1.04734 -0.181548 0.0400112 -0.179278 -0.389516 -0.786154 0.56944
2.07641 2.29213 -0.844241 -2.2948 -1.63679 0.157924 0.268677 0.270131
-1.01687 -0.0106399 -0.343394 0.359012 0.141138 1.89975 -0.0761787 -0.012468
-0.94776 -0.124474 0.0884546 0.0584581 0.161119 -0.00429136 0.241072 -0.760546
0.148333 -0.874857 -0.266392 0.615913 0.365115 -0.0653956 0.211862 1.54712
-0.337707 0.285585 -0.657512 0.0031992 -0.281786 -0.000914343 -0.115759 0.877132
-0.191843 0.0262276 0.497682 -1.23985 0.433174 -0.0117621 -0.155247 1.33514
-0.625992 0.533866 -0.35427 -0.226926 0.331245 0.673255 0.317871 0.0335739
0.437506 -0.0226024 1.31147 0.0280918 -0.313416 -0.0243173 -0.0977989 -2.13893
-0.728002 0.151652 -1.5953 -0.338225 -0.168738 -0.153801 1.19646 0.0109819
0.0066273 0.0327154 -0.0276631 -0.0529522 -0.0134877 -0.031914 -0.0342091 0.00286663
0.00853222 -0.026085 0.0121079 -0.0491115 -0.0182407 0.043896 -0.00373394 -0.0488704
-0.0456068 -0.0285781 0.0323066 0.000329088 -0.0347975 0.0151614 -0.0176697 -0.0119256
-0.0181025 -0.0372751 0.0228403 -0.0309378 0.0271506 -0.0182734 -0.00957572 -0.00985127
-0.0262485 -0.0531687 -0.0157464 -0.0446168 -0.0172884 0.0337409 0.0321143 -0.0495495
0.0437348 -0.0520831 0.0101107 -0.0296493 -0.00594104 -0.0243942 0.0167908 -0.0143563
-0.0281014 -0.0420788 0.114355 0.419265 1.25499 0.879019 0.178335 -0.0407722

layers.6.bias f4 [50]
00000000: 44a2 50be 1040 a63f 8368 39bf 4acf f43d
00000010: 9911 9e3c 1d01 0cbf f870 31bf 89b1 51bd
00000020: e752 90bf ee94 cebf e606 933e 87a8 9abe
00000030: f5b9 dabe e319 8cbe e223 863f 2a7b c1bc
00000040: 21e6 f2be 47cb e13d a322 a63e 2425 dd3e
00000050: 8c64 17bf e223 8e40 dbc2 07bf 0fd5 d4bd
00000060: 6890 67bd 87f9 0ac0 397d 9dbe ac8e 34bf
00000070: c2c3 343e c4b0 7fbf 9702 62be ba14 ef3e
00000080: b24b bcbf 15b0 f8bc 3bfd c0be 3d0e 733e
00000090: bc3d e0be 94be 80be 850b 94bc a8fd f6bd
000000a0: ac73 7cbf c735 a4bd e388 99bf cb84 a73f
000000b0: 90f7 d2bf 0f43 373f 180b 13be c663 0b3d
000000c0: 103c 5ebd 554d 9cbf
-0.203744 1.29883 -0.724251 0.119536 0.0192955 -0.546892 -0.69313 -0.0511947
-1.12753 -1.61392 0.287162 -0.302067 -0.4272 -0.273635 1.04797 -0.0236183
-0.474412 0.110251 0.324483 0.431924 -0.591378 4.44188 -0.530317 -0.103922
-0.0565342 -2.17148 -0.307596 -0.705302 0.176528 -0.998791 -0.220713 0.466955
-1.47106 -0.0303574 -0.376932 0.237359 -0.437971 -0.251454 -0.0180719 -0.120601
-0.98614 -0.0801807 -1.19949 1.30874 -1.64818 0.715867 -0.143597 0.0340307
-0.0542565 -1.22111

layers.6.weight f4 [50, 50]
00000000: 9a3e 1bbe b988 433f f44f c0bf ce36 a73f
00000010: f1ff 19bd 3f01 e4be bb99 013e e36e 68bf
00000020: 9d2e bf3f 9cdc 9f3f f12b 1abf aaee 753f
00000030: 2fa6 093f ba49 b8bf ed63 713f 6502 993c
00000040: 0130 be3f fc18 cb3e f697 9dbd 0b7b d2bf
00000050: b37c 9dbe d23a 92bf c971 973e 683e 1f3f
00000060: b059 0e3f caa6 f43f c1e6 fcbd e4da c43f
00000070: c3d4 02bf 137d ce3e 1633 5e3f 28b8 9cbf
00000080: 7e21 1fbd 9cbf d1be 0308 7bbf d289 74be
00000090: 97ff f8bf 2447 aa3e 75c7 12be 50e4 2340
000000a0: e17d 513f b2ba 953f f3e7 0b3e 10e9 773e
000000b0: f852 0cbf 950e 96be 2c9b 89be 3127 103f
000000c0: bb46 6bbe 473d 94bf 855e 0b3f b77a 9ebd
000000d0: 9677 cdbe f4e0 1ebe 4dbc 03bd fa09 8fbe
000000e0: 145d cfbe 7407 c9be 8ba6 033e da4e 60bd
000000f0: a450 e63e e89b b9bd e1b6 36be 473b b63e
00000100: 6e6e 843f 3d9b 053f 7057 143d bcb1 f03e
00000110: 5fd2 18be eda2 033d 7fbc 0bbf b9fa 113e
00000120: 13b5 d43d 91d6 10bf d6e1 683c ba10 cb3e
00000130: 88f5 c63e 60cd 61be 096f 1f3e 7b86 203e
00000140: e1b7 093f 9be5 42be 11aa d4bc 4df3 7ebe
00000150: b5e0 fdbe 41f5 5fbe bc39 a13d f18f 0d3d
00000160: 8be0 6fbe 3df0 e13e 8ac7 a53d 6b0b 0fbe
00000170: ca8c f73d 4c18 c53e d5ce f0bd 24d6 3a3f
00000180: 30f3 ed3e f452 d1be 1f2d f6be ab7a 29be
00000190: 6a6b 843e 54ff 20be d58e 473d 14b4 443d
000001a0: a830 64b9 71ab f8be ffcf 61bf 520b bd3e
000001b0: 842d 363e d1aa 1b3d d524 08be a8a9 0dbf
000001c0: d498 f03d fe2a 503e ebc4 e53e bf85 af3b
000001d0: 683b ecbb e0db acbe 7af5 d6bc cee2 b5be
000001e0: 9297 013f 967d f23c 7e27 8c3d 1711 9d3e
000001f0: e76e df3e 3b36 9e3f 82e5 483e 053b a9bd
00000200: 0cae 79be 366e 86bd 253b c63f 78b8 9d3e
00000210: 81a9 0bbd 30f6 bebe ed7f f0be 0c20 0cbe
00000220: ac00 5fbd fe9a e43e b762 bfbe f6d2 243f
00000230: 3750 88be 52e2 943d 8507 2dbe c85c b13e
00000240: 7077 463e 9a82 abbd 1823 d2bd 9f8e 8fbf
00000250: 5c56 61bd c2f6 43be 9e29 0c3f 726b 12be
00000260: 7a4a 83bd b238 943b d031 163c 8f6e fcbe
00000270: f2b1 83be e57b 163f f986 123e 16a3 1ebe
00000280: ab3d 84be 2c1c 573d 9d08 ecbc 23c0 443d
00000290: d32e 26be a0c3 0c3e 8716 19bd 0adc 3abd
000002a0: 54b1 9cbd e63d b6be 22fd 74c0 47c9 1b3e
000002b0: 0c84 ae3d 7e8e 4fbe 2a8c 7dbe d785 073f
000002c0: 40a0 03be 8a39 683e 42ee d23e 9aa9 5abd
000002d0: 1745 7fbf e336 7abe 8bea 25bb 8858 53bd
000002e0: 8867 e13e ec02 b5bb c51a 963e 6e28 b6bd
000002f0: d965 eebc 93a9 5ebf 8a96 38bb fcab bf3e
00000300: 531d 17bd 5fee 83be 8037 133d 2e00 8d3e
00000310: cd7c b839 0b5d 5dbf bb89 303d adfb a7bd
00000320: d1b1 a3be d456 563d 0d21 82bd 7b2d a0be
00000330: d748 37bd 67fa 9b3c 18df 813d 24d4 2cbf
00000340: c001 82bd 28d7 0f3d f487 763f 0bd2 e43e
00000350: 69a8 c1be a81e 153f 020e ad3f b1dc 5a3f
00000360: 787f 9cbe 4d98 55bd b22b 95be a6bc c1bd
00000370: e8d9 b0bf c2dd c9bd d82d aabe 1745 4fbe
00000380: b402 33be b0f9 82bc 7e70 a6be e7ff d5bd
00000390: 328f 783f 4ca4 dc3e b132 6a3f 3c14 95bf
000003a0: d4ba 083d dec8 1c3f 9f5a 3d3e 26e3 a0be
000003b0: 284d 7ebd 48fd 353e 297a e8be 9a0b 6c3f
000003c0: e0bb edbd 0c06 e73e 886d 463d 363d 183f
000003d0: 9a96 28be 82c6 383f 828f 413e 32ac 8e3f
000003e0: 7311 e7be 384e 4abf 537a 22bf d253 0c3f
000003f0: 392a 773e 65c2 83bf 2407 91bc 1100 d43e
-0.151606 0.763805 -1.50244 1.30636 -0.0375976 -0.445322 0.126563 -0.907942
1.49361 1.24892 -0.602233 0.960673 0.537692 -1.43975 0.942931 0.0186779
1.48584 0.396675 -0.07695 -1.64438 -0.307592 -1.14242 0.29579 0.622046
0.556056 1.91134 -0.123487 1.53793 -0.511059 0.403298 0.867967 -1.22437
-0.0388503 -0.409665 -0.980591 -0.238807 -1.9453 0.332574 -0.143339 2.56081
0.818327 1.16976 0.136627 0.2421 -0.548141 -0.29308 -0.268762 0.563098
-0.229762 -1.15812 0.544411 -0.0773825 -0.401303 -0.155155 -0.032162 -0.279373
-0.405007 -0.392635 0.128565 -0.0547627 0.449834 -0.0906294 -0.178432 0.355921
1.03462 0.5219 0.0362162 0.470106 -0.14924 0.0321378 -0.545845 0.142558
0.103861 -0.565774 0.014214 0.396612 0.388592 -0.22051 0.155697 0.156763
0.537962 -0.190329 -0.02596 -0.248975 -0.495855 -0.218709 0.0787234 0.0345611
-0.234255 0.441286 0.080947 -0.139692 0.120874 0.384951 -0.117582 0.72983
0.464746 -0.408836 -0.480813 -0.165507 0.258632 -0.157224 0.0487202 0.0480233
-0.000217619 -0.485683 -0.88208 0.369227 0.177908 0.0380047 -0.132953 -0.55337
0.117479 0.203289 0.448768 0.00535652 -0.00720923 -0.337615 -0.0262401 -0.355246
0.506219 0.0296009 0.0684347 0.306771 0.436393 1.23603 0.196188 -0.0826321
-0.243828 -0.0656399 1.54868 0.308048 -0.0340972 -0.372972 -0.469726 -0.136841
-0.054444 0.446495 -0.3738 0.643844 -0.266237 0.0726973 -0.168974 0.346411
0.193815 -0.0837452 -0.102606 -1.12154 -0.055014 -0.191371 0.54751 -0.142988
-0.0641069 0.00452336 0.00916715 -0.493031 -0.257217 0.587828 0.143093 -0.154919
-0.258283 0.0525171 -0.0288127 0.0480348 -0.162288 0.137465 -0.037375 -0.04562
-0.0765101 -0.355941 -3.82795 0.152135 0.0852128 -0.202692 -0.247605 0.529386
-0.128541 0.226782 0.411974 -0.0533844 -0.997148 -0.24435 -0.00253168 -0.0515981
0.440243 -0.00552403 0.293173 -0.0889443 -0.0291013 -0.869775 -0.00281659 0.374359
-0.0368932 -0.257678 0.0359416 0.275392 0.000351882 -0.864701 0.0431001 -0.082023
-0.319716 0.0523289 -0.0635396 -0.312847 -0.0447472 0.0190403 0.0634138 -0.675112
-0.0634799 0.0351173 0.963012 0.446915 -0.378238 0.582499 1.35199 0.85493
-0.30566 -0.0521472 -0.291349 -0.0945981 -1.38165 -0.0985675 -0.332381 -0.202412
-0.174815 -0.0159882 -0.325077 -0.104492 0.970935 0.430941 0.914836 -1.16468
0.0333813 0.61244 0.184916 -0.314233 -0.0620853 0.177724 -0.454057 0.922052
-0.116081 0.451218 0.0484443 0.594684 -0.164637 0.721779 0.189024 1.11463
-0.451305 -0.790256 -0.634679 0.548154 0.241372 -1.02937 -0.0177036 0.414063

layers.8.bias f4 [50]
00000000: be12 b0be 1d03 ea3f 9487 17c0 7d0b 123a
00000010: 342d 41bf bc96 84bf f836 1140 04c9 6b3e
00000020: 3f93 58bc a916 913e 8a01 0a3f 27f9 413f
00000030: 52d3 32bf f2ec e2be 4bcd febf 069e 8fbf
00000040: 9565 08c0 62bd 01be d043 01bf dc80 dbbf
00000050: 7498 bfbf 5a9e 3940 4a07 cfbf ae64 13c0
00000060: 8c9e b3be c93c febf 38f8 fe3f b6be c8bf
00000070: c173 8ac0 1574 4dc0 f2ee 88be 1668 473e
00000080: 8fa5 3f40 b2d8 623f df70 67bf 1f80 d83f
00000090: d2fb 8a3f e3a5 8fbf 4ca6 0a3e 1958 773f
000000a0: c72e 0dc0 7311 13c0 40dd 703f c971 a73e
000000b0: 93c7 1fbf 793d 6cbf 853e d83e c780 84bf
000000c0: cb48 2dbf 87dc dc3e
-0.343893 1.82822 -2.36765 0.000557117 -0.754596 -1.03585 2.26898 0.230259
-0.0132187 0.283376 0.539086 0.757708 -0.698537 -0.443214 -1.99064 -1.12201
-2.1312 -0.126699 -0.504941 -1.71487 -1.49684 2.90029 -1.61741 -2.30302
-0.350819 -1.98623 1.99195 -1.56832 -4.32663 -3.21021 -0.267448 0.194733
2.99448 0.886119 -0.904066 1.69141 1.08581 -1.12225 0.1354 0.966188
-2.20598 -2.29794 0.940876 0.32704 -0.624139 -0.922813 0.422352 -1.03518
-0.676892 0.43137

layers.8.weight f4 [50, 50]
00000000: 5b95 24be 3e5c 823f 488b 0b3f 4644 413f
00000010: 8445 15bf 27dc 033f 2b32 6a3e 9980 1f3e
00000020: c1c5 ba3e b1c2 1d3e fb5d 38be e57b 8e3e
00000030: 6b0f fb3d 6021 43be 1e18 e03e 412d 023b
00000040: f792 06be 069e 4b3e 081e 2f3e 3717 5fbe
00000050: c149 94bd 0002 26be cdab dfbc cafa 5d3e
00000060: bb60 a8be b35e 98bf 17f2 b03e bfce 72bc
00000070: bd39 44bf d1b1 133e 7ff8 19be 116f bdbe
00000080: ccf0 033f a472 fb3e 6a6d 553d f5bd 163e
00000090: e4f3 c23e 4e81 b73d cf49 0f3d 36e4 bf3e
000000a0: 0855 aa3e 5b09 953e 2313 50be 7d5e 4c3c
000000b0: 5169 04be 2e1b 313f 2741 49bd dcf0 fb3d
000000c0: 300f 593f 6e2a 17bd a11a 8a3c d179 9d3e
000000d0: adbf 8dbe 5591 80bc 0169 5fbe 4819 31bd
000000e0: dfdd ea3d f1fc 983c 8f71 033b 756c ce3b
000000f0: 74cf 2a3e 6121 49bd 3694 0abe bc3c 1d3d
00000100: 82e7 863f 21c4 1d3b 4192 633d c27f 94bd
00000110: eaf3 0bbb ad82 3d3b 8ee5 92bd 1b80 113a
00000120: c6cd 5f3c 2258 0fbc 3f35 a0bb dae2 b2be
00000130: ef8f b73e 19f6 45bd 656e debd f7b1 52be
00000140: 8f66 b63c 1b48 d7bd 0668 fbbd 960a 45bd
00000150: f965 15bd 70f0 803d 6319 4cbd 884a 03be
00000160: 948c 77bc 7aa3 8bbd 7e8a 8bbe b47e 09bd
00000170: b9ab 47be 7960 dbbc d3ca 83bd 98a7 5b3f
00000180: b425 b6bd f4b4 b23d 23dd 9abd 7d77 0b3e
00000190: 2bc7 9fbd e5e7 b03d 1b46 a1bd 0a81 40bf
000001a0: 4828 c73c 69db 75bd 639c ab3f 0ea2 353e
000001b0: 242b dfbe 7cba 2abe 8011 243e 17f3 bbbe
000001c0: 2afe 7f3f e466 78be 92b2 2d3f dcbd 373c
000001d0: 3610 27b9 2507 d43e 1118 9b3e 193e 013c
000001e0: d80c 103f 16f8 2a3e 3545 30be 4563 d53e
000001f0: 5132 1dbf b916 45bf 65e4 dcbe bb5e 6abf
00000200: 4cc3 e0be d02b febd 6dfe ff3e 541a b1bc
00000210: 382e 373f e3e9 103d bca5 b63d 2b30 20bf
00000220: 50aa 9dbe d32e 463d 1490 dbbc e95f 66bf
00000230: 0248 75bf bb2b 03bf 130a 31bf 1c3f 443e
00000240: 7aab 5ebe aaf2 49bf 0875 f13d 2bf6 b73e
00000250: be87 433f 4356 27be 234c 2dbf 508b a13e
00000260: efca 123f 1442 473f 2c63 db3e bd70 9f3e
00000270: 3faa 893e a5e2 5a3d 19c9 12bf 3d80 75be
00000280: 984e 0bbe 721a 8a3e 4303 91be 71cc 823e
00000290: 133e 853d ac6f c5bc 1893 1e3e 992e b4be
000002a0: 6af7 3f3f 54e6 263f 77f8 93bf 1895 14be
000002b0: bc96 703e bc92 24bd 7c44 3c3e f819 c0c0
000002c0: ee94 8a3f b7b7 27bf 4144 123f 7556 1b3e
000002d0: 3763 223c 4a96 633f 8ecc bfbf fa70 3a3d
000002e0: 6e19 903e 6dfd 79bd 21e5 e33f 5270 42bc
000002f0: 6da0 4abd 53e9 8f3e 86a9 d53e 9c52 063f
00000300: 593e 913d 2656 debe cd1d 09bf 17d8 cb3e
00000310: 43a9 edbe b0ac 54be 0d6c 493f 2e1a 023e
00000320: 6459 b03c 68e6 353f 31c2 9a3d 1c5d 19bf
00000330: 0af4 b1bf 6ac2 bebe e8f6 c2bd 05fc fa3d
00000340: c5e4 1dbe a3ac 4fbe 2d07 0a3e a5a3 14bf
00000350: b834 a73a a0fc 11bf d0d2 9d3e 12d0 0ebd
00000360: 9eb4 00be 7652 873e 7594 debc a8df 05bf
00000370: ace4 47bf 5a12 b03d d498 40be ed63 8dbe
00000380: 07c3 2abd 527d 47be bf43 adbf 2e1e c63e
00000390: da03 0dbe 95f1 6f3e f536 9c3d 0876 ecbe
000003a0: 944a 18be 4f75 18bf 1007 913e a52f 20bf
000003b0: 84d5 00bf 6cb4 1cbe ed8c e5bc f7ad 5ebf
000003c0: 840f 353e c477 9abf efeb bbbd 903a cfbb
000003d0: 596b 183e 8f39 7fbe f775 a0bd 471f d3bd
000003e0: 39d6 a1bf 65be 28bd 61c6 2f3d 779e 28be
000003f0: 6b6e fb3c 9df3 93be 4d2b cabd 9a5d 373d
-0.160726 1.01844 0.545094 0.754948 -0.583092 0.515078 0.228707 0.155764
0.36479 0.154063 -0.180046 0.278289 0.122588 -0.190557 0.437684 0.00198634
-0.13142 0.198845 0.171013 -0.217862 -0.0724063 -0.162117 -0.0273036 0.216777
-0.328863 -1.19039 0.345597 -0.0148198 -0.766506 0.144233 -0.150362 -0.369988
0.515393 0.491109 0.0521063 0.147209 0.380767 0.0896021 0.0349825 0.374788
0.33268 0.291087 -0.203198 0.0124737 -0.129308 0.691821 -0.0491344 0.123018
0.847888 -0.0369057 0.0168584 0.30757 -0.276853 -0.0156943 -0.218174 -0.043237
0.114681 0.0186753 0.00200567 0.00629955 0.166807 -0.0491041 -0.135331 0.038388
1.05394 0.00240732 0.0555594 -0.0725093 -0.00213551 0.0028917 -0.0717269 0.00055504
0.0136599 -0.00874904 -0.00488916 -0.349387 0.35852 -0.0483304 -0.108609 -0.205757
0.0222657 -0.105118 -0.122757 -0.0481058 -0.0364742 0.0629586 -0.0498289 -0.128214
-0.0151092 -0.0681829 -0.272541 -0.0335681 -0.194991 -0.0267794 -0.0643517 0.858026
-0.0889391 0.0872592 -0.0756171 0.136198 -0.0780166 0.0863798 -0.078747 -0.751969
0.0243112 -0.0600237 1.34071 0.177376 -0.435876 -0.166727 0.160223 -0.367089
0.999972 -0.24258 0.678506 0.0112147 -0.000159324 0.414117 0.302918 0.00788834
0.562696 0.166962 -0.172139 0.416773 -0.614049 -0.769878 -0.43143 -0.915508
-0.43899 -0.124107 0.499988 -0.021619 0.715549 0.0353793 0.0891833 -0.625735
-0.30794 0.0483845 -0.0268021 -0.899901 -0.95813 -0.512386 -0.69156 0.191647
-0.217451 -0.788859 0.117899 0.3593 0.76379 -0.163415 -0.676943 0.315516
0.573409 0.778352 0.428491 0.311407 0.268877 0.0534388 -0.573381 -0.239747
-0.136042 0.269733 -0.283228 0.255466 0.0650598 -0.0241011 0.154858 -0.351918
0.749869 0.651952 -1.15602 -0.1451 0.23495 -0.040179 0.183855 -6.00317
1.08267 -0.655147 0.571354 0.151697 0.00991135 0.889012 -1.49843 0.0455179
0.281444 -0.0610327 1.78043 -0.0118676 -0.0494694 0.281077 0.417309 0.524698
0.0709197 -0.434251 -0.535611 0.398133 -0.464182 -0.20769 0.786805 0.127053
0.021527 0.710547 0.0755657 -0.599077 -1.39026 -0.372577 -0.0951975 0.122551
-0.154193 -0.202807 0.134793 -0.580622 0.00127568 -0.570261 0.308249 -0.0348664
-0.125689 0.264301 -0.0271704 -0.522944 -0.780833 0.0859725 -0.188083 -0.276153
-0.0416899 -0.194814 -1.35363 0.386949 -0.13771 0.23432 0.0762767 -0.461838
-0.148722 -0.59554 0.283257 -0.625727 -0.503258 -0.153032 -0.0280213 -0.869842
0.176817 -1.20678 -0.0917586 -0.00632412 0.148847 -0.249243 -0.07835 -0.103087
-1.26435 -0.0411972 0.0429138 -0.164667 0.0306923 -0.288968 -0.0987154 0.044767
