resources/models/onnx/acas/ACASXU_run2a_4_6_batch_2000.onnx (onnx, 54456 bytes, 14 tensors)

layers.0.bias f4 [50]
00000000: c0d0 9bbe 4d6a c3bc 9a26 2c3e 37c6 f6be
00000010: 7024 e8be 67b7 663e ab79 4ebd 6143 96bd
00000020: df8c dabe e906 af3d c8ce 1bbe 78ed 42be
00000030: 08e4 223e 9d4c 7cbe 42c6 88bc 6d3d aebd
00000040: 0477 fb3c 3184 923d 5ebc 87be d5ce d03d
00000050: 045d 86bd f825 d13c c5f6 a4bc 1135 11bf
00000060: a0d6 1e3d 531e c2bc 80d3 1b3d c26c 123e
00000070: eed1 4b3e 9696 113e e3e9 6b3d 6be8 303d
00000080: edd4 a4be f67f 0ebe 931a 02bf c783 7d3e
00000090: ae9d 08be f5a2 02bf 51ef 73bc 0265 bb3e
000000a0: b9a5 c5be c26a b4be 1860 5fbe a253 b1bd
000000b0: 5166 b33e 40f7 d5be bc3e 1fbf 4e26 aebc
000000c0: 92b0 17bf 4890 a5bc
-0.304327 -0.0238544 0.168116 -0.481981 -0.453403 0.225309 -0.050409 -0.0733707
-0.426856 0.0854624 -0.152156 -0.190359 0.159073 -0.246386 -0.0166961 -0.0850781
0.0306964 0.0715412 -0.265109 0.101957 -0.0656071 0.0255308 -0.0201372 -0.567216
0.0387789 -0.0236961 0.0380435 0.142993 0.199043 0.142176 0.0575961 0.0431904
-0.321937 -0.13916 -0.508218 0.247573 -0.133414 -0.510299 -0.0148886 0.366005
-0.38603 -0.352377 -0.21814 -0.0865853 0.35039 -0.417902 -0.622051 -0.0212585
-0.592538 -0.0202104

layers.0.weight f4 [50, 5]
00000000: 2d84 0bbc fb22 213e 59be 0e3e 5ef4 95bf
00000010: 2d79 2cbe 22a3 07bc d5e5 f73b ca48 a4ba
00000020: d3f7 eab9 dffc 063d 91f8 80bd 603b 683e
00000030: 6474 90be 54a9 d9bd e09f 723e 3303 30bd
00000040: fb79 833f 91ed b0bf 5452 67be 022c 223f
00000050: 09c8 133c 8acd 273e 2e70 29be dd5f ddbd
00000060: dcf6 79bf 0f72 a8bd cb2d 853f b1a4 f43e
00000070: e63b c03e 1c2d c13b 618b bdbe 4aed 15be
00000080: df97 893d 64a6 9f3b edf0 47be 3b07 2a3c
00000090: ab96 04bf 76a4 823e 0af7 5a3e e15f 8cbe
000000a0: 3ba6 d6be 5726 24c0 705f 3f40 da04 d8be
000000b0: b5a6 893f 13f2 113e 56d4 c43f e0c9 9d3c
000000c0: 9d83 2f3f b5a4 17bf 6e2b 923d a226 42bf
000000d0: a9bc 41bf 37c5 eb3e 1958 07be acce c53c
000000e0: 6efa bf3f 2f47 593d 50c3 773d f2b6 12bf
000000f0: 7bb6 b3bc 0648 083f 6ade f5bf 35d4 a83c
00000100: a942 8d3c 0f9c bfbf 08e5 1d3e e4e4 94bd
00000110: b23b 6ebc 2ab5 cd3b 8298 1d3b 0012 b8bb
00000120: d1ee ad3b 6550 7b3a 8cd4 ff3a 9eba 0dbc
00000130: 83c0 ba3f cc40 81bf 01a2 803e 2ba1 0fbf
00000140: a697 7d3d 0d71 bc3f c24c ffbf 4785 fb3c
00000150: 1a16 db3e 9ef9 8bbc 1e34 033f e6e6 db3d
00000160: 0c59 89bf 842a 953f 6536 d0bf 0666 05be
00000170: 0475 9a3d 617d 303b 930f cd3a 52c6 893d
00000180: d0d5 26be 165e c33d c863 41bd 05f9 c93e
00000190: bc5c 64bd b801 933f 40a1 263f d5e9 b83e
000001a0: 15fe 1cbe c4cf 3fbe 000a 433b bc7f c73c
000001b0: f63a 933d 9e0e e0ba 2742 b4bc 6fb9 1dbc
000001c0: b335 123a 90bd 5ebb dd8f 00bb af7b eb3c
000001d0: 0439 643f d157 84bf ad8a c0be 31ed eb3e
000001e0: 1950 d43c 7fa5 e3be 4a28 39bf 94a4 a3be
000001f0: 7573 113e 6074 79bc 56bc ae3b 1f9c 163a
00000200: 86dd 813c 38bf 213c 9296 923e bbd0 5cbe
00000210: f701 803f 71dc 733d f3ac 943e 56bb 063d
00000220: 72e1 90bf fbcd acbe 6422 bd3e 42ed 07be
00000230: 056f 23bd e8fa 1a3f ce8c eebe 6342 6cbe
00000240: df1a f83e 7086 eebb 6abd 23bf f9bc 8abe
00000250: 008f 38be 809c f03d fcf8 10bd ea23 40be
00000260: 3ecc d63e bb7e 41bf d862 4b3f e453 9b3c
00000270: f2d3 44bf 7d76 74bf e6ca 983e 61e1 94bd
00000280: 5159 93bd 1cce a43f c347 ccbf e9d7 96be
00000290: 4242 483f 30dd ffbc 8a09 b53d 47f8 68bd
000002a0: 7993 7bbf de01 423f 4553 4c3d 2251 6cbf
000002b0: 46eb 903f 406b 9ebe 7041 ce3e 01c3 52bd
000002c0: 2a74 863f 0a2f 013f 8848 bdbe 6a17 bb3e
000002d0: a59f 90be 45f0 af3f 8b6c bbbf 6e6a a83e
000002e0: c959 78be 4d48 ebbd 4209 933f 5a47 81bf
000002f0: 280f 3bbf 6093 113f cc2e ef3a 4ec4 cf3b
00000300: 1fa8 aa3b c996 323a d17a f8bb fe48 1d3f
00000310: ea21 d63f 957c 7cbe eece babe 85ce c33e
00000320: 26c3 51be 7d3d 2b3f 5a0f 03bf c0cc 17be
00000330: 40d9 e0bf 2cc7 3a3d 2d5b abbf 7de8 a63f
00000340: 4040 8d3d 7701 b5bd a912 153e 9413 a5bf
00000350: 412b b83e 1f81 533f 567d a2bf 891b c1bc
00000360: 2c9d afbe 58c5 833e e564 e23d c16f 033f
00000370: 1d03 a63f 41f7 c03b 0559 053c 1da6 02bd
00000380: e4a3 853c c100 223e faf2 b23f 014d f4bf
00000390: 4fea db3e de21 05bf 56b5 49bc 0090 93be
000003a0: b743 bb3e ff6f 163d ec17 b8bf 2eab d639
000003b0: 24b5 503c 331e 1dbb dac3 c53b 54f4 913c
000003c0: 048b 68bc 1c7c b5bf 48fe f03f df31 94be
000003d0: 86c8 2d3f 1ff1 d0bb ecd0 9bbb f0fc 4d3a
000003e0: 19ab 4d3c 20f9 1cbb
-0.0085154 0.15736 0.139398 -1.17152 -0.168431 -0.00827864 0.00756524 -0.00125339
-0.000448166 0.032956 -0.0629741 0.226789 -0.282138 -0.10628 0.236938 -0.0429718
1.02716 -1.38225 -0.2259 0.633484 0.00901986 0.16387 -0.165467 -0.108093
-0.976423 -0.0822488 1.04046 0.477819 0.375457 0.00589527 -0.370204 -0.146413
0.0671842 0.00487213 -0.195255 0.0103777 -0.517924 0.255161 0.213833 -0.274169
-0.419237 -2.56484 2.9902 -0.421912 1.0754 0.142525 1.53773 0.0192613
0.685602 -0.592357 0.0713719 -0.758402 -0.756785 0.460489 -0.132172 0.0241464
1.49983 0.0530464 0.060489 -0.573104 -0.0219376 0.532349 -1.92085 0.020609
0.0172437 -1.49695 0.154194 -0.0727022 -0.0145406 0.0062777 0.00240472 -0.00561738
0.00530801 0.000958687 0.00195183 -0.00865045 1.459 -1.00979 0.251236 -0.561053
0.0619122 1.4722 -1.99453 0.0307032 0.427903 -0.0170868 0.512514 0.107374
-1.07303 1.16536 -1.62666 -0.130272 0.0754185 0.00269302 0.00156449 0.0672728
-0.162925 0.0953943 -0.0472143 0.394478 -0.0557525 1.14849 0.650898 0.361159
-0.153313 -0.187316 0.00297606 0.0243529 0.0718898 -0.00170942 -0.0220042 -0.00962673
0.000557746 -0.00339875 -0.0019617 0.0287455 0.891495 -1.03393 -0.376058 0.460794
0.0259171 -0.444622 -0.723271 -0.319615 0.142042 -0.0152255 0.00533251 0.000574531
0.0158527 0.00987225 0.286305 -0.21564 1.00006 0.0595364 0.290382 0.0328935
-1.13188 -0.337509 0.369403 -0.132741 -0.0399008 0.605391 -0.465918 -0.230722
0.48458 -0.00727921 -0.639609 -0.270973 -0.180233 0.117486 -0.0353937 -0.187637
0.419527 -0.75584 0.794477 0.0189609 -0.768859 -0.954933 0.298423 -0.0726955
-0.0719477 1.28754 -1.59594 -0.294616 0.782261 -0.0312334 0.0883971 -0.0568774
-0.982719 0.757841 0.0498841 -0.923113 1.13218 -0.309412 0.402843 -0.0514555
1.05042 0.504624 -0.369694 0.365413 -0.282468 1.37452 -1.46425 0.328937
-0.24253 -0.114884 1.14872 -1.00999 -0.7307 0.568655 0.00182482 0.00634054
0.00520803 0.000681263 -0.007583 0.614395 1.67291 -0.246569 -0.36486 0.382435
-0.204846 0.668907 -0.511953 -0.148242 -1.75663 0.0456001 -1.33872 1.30397
0.0689702 -0.0883817 0.145579 -1.28966 0.359705 0.826189 -1.26945 -0.0235727
-0.342996 0.257365 0.110544 0.513424 1.29697 0.00588885 0.0081389 -0.0318967
0.0163135 0.158206 1.39804 -1.9086 0.429522 -0.520048 -0.0123113 -0.288208
0.365751 0.0367279 -1.43823 0.000409448 0.0127385 -0.00239743 0.00603531 0.0178167
-0.0141933 -1.41785 1.88276 -0.289443 0.678841 -0.0063764 -0.00475513 0.000785782
0.012553 -0.00239522

layers.10.bias f4 [50]
00000000: 33f9 a1c0 9eb5 83c0 6614 2b3e 97e2 c2be
00000010: bccb bbc0 f4a6 2640 4678 073f 11e4 a83e
00000020: 5664 543e 3316 f9bf 4a0c 56c0 d673 4440
00000030: 139e e83e 5d52 213f 3fc6 a03f 876d bfbf
00000040: fe65 bdc0 d460 3640 3848 703f 0326 d0bf
00000050: 707d f83e 247f 93c0 53b3 3b3f ecdd b6c0
00000060: 7bbd 0940 057b 02bd c442 5dc0 b150 c4c0
00000070: f94e 343f 2d0b 76bf 1288 dac0 db50 92c0
00000080: 2ead fe3e 8d49 1abd c6e1 72c0 e09c b1bf
00000090: 2783 9ac0 0c76 1fbf 97e2 b23f b78a 0fbd
000000a0: 76c3 9ac0 abec 5fbf bed9 5cc0 f298 2bc0
000000b0: a241 f23e feef 98be 1895 94bf d044 8ac0
000000c0: 1153 4ac0 cdaf cabf
-5.06167 -4.11592 0.16707 -0.380635 -5.86862 2.60394 0.529179 0.329865
0.207414 -1.94599 -3.3445 3.06957 0.454331 0.630163 1.25605 -1.49553
-5.9187 2.84966 0.938602 -1.62616 0.485332 -4.60927 0.733205 -5.71459
2.15219 -0.0318556 -3.4572 -6.13485 0.70433 -0.961108 -6.82911 -4.57237
0.497415 -0.0376678 -3.79503 -1.3876 -4.82851 -0.622895 1.39754 -0.0350444
-4.83636 -0.874705 -3.45079 -2.68121 0.473157 -0.298706 -1.1608 -4.3209
-3.16132 -1.58349

layers.10.weight f4 [50, 50]
00000000: c6dc adbe 9643 833f 9049 3a3f a451 f93e
00000010: d80d c33f d66e 3bc0 ae61 363f 7973 08bf
00000020: 01f6 c5bf 685c 91c0 fc8c c33e 9ad2 92be
00000030: ddea 7fc0 a9f6 8740 8907 5c3f 9087 4e3e
00000040: 5856 86bf caa6 d43f 26c7 c5bf 6ede 283e
00000050: 27db b8be 3e79 4cc0 a99f 27c0 77d6 be3f
00000060: 7250 c3c0 a2b4 5cc1 5e85 adc0 0cea 07c0
00000070: f5bb 28bf dd7c e33c 05e1 ea3d 1957 c43e
00000080: 3baa aabf fd4f 463f 6d56 ddbf c494 283e
00000090: 6c05 6dbf a5bc 36be 4182 82be cc7b cc3e
000000a0: 6dc8 5f3f 7a36 20c1 077a c03e ad34 3dc0
000000b0: 6b66 29bf 876d 0140 5a12 543f 07ef 2bbf
000000c0: 4625 2540 a1f3 4abf c45f 43be fab4 eabd
000000d0: 3884 0bc1 d6ad 0e3e c347 843f 1214 2fbf
000000e0: 554d 9cbf af98 113e 758e ed3f b8cd 78bf
000000f0: 1f43 2c3d 82ae dd3d 5322 85bf 0f9c ef3f
00000100: e811 23be ca34 c2be a4a5 6ac0 9d82 44bf
00000110: 40d9 4cc0 cf10 1ebf 1b3b 723d c1ac d03e
00000120: 467e 55bf 67b6 0f3f 1fa2 7740 ec51 47c1
00000130: 35ef 94bf 8880 b0c0 dac9 3ac0 24d6 08c0
00000140: 478f 83bf e086 883e 0664 6f3e db33 19c0
00000150: a1f3 ee3f 6406 1fc1 e948 863f 4dbe 793e
00000160: 7c9b 26bf ab26 2240 da3b 6b3f c269 aec0
00000170: b247 a03e ef03 34c0 986c 3cbc 5b94 7940
00000180: 734b d73f f584 c1bf 6de7 2bc1 2b4b 0cbf
00000190: 20f5 b23c 6421 babc d28e 9bbb e0e6 833d
000001a0: f584 05be 6423 703d 4460 b63c 884b 4ebd
000001b0: fae1 31bd c6fb f1bd 4c3b 31bb d6bf d03c
000001c0: c697 dabc 90fd 873c 1bc3 16bc 36f0 993c
000001d0: fefb 02bd b532 063b 29a4 86bd 695d bc3b
000001e0: ff44 40bd 7165 8f3d d7f8 0cbd a057 973c
000001f0: fc6a 133d f916 10bc 1891 4dbc 7990 9e3c
00000200: 9a2d 9fbd 3bbd 9c3c 05fe 8d3b 5583 953c
00000210: 7348 6a3d 3f38 dfbc b590 dbbc a3ab f83b
00000220: c6a6 d5bd 68ed d13c 68dc e9bb 8321 b1bd
00000230: aefc 28bd 07b9 06bd 043c 86bb f4c5 febd
00000240: 6225 b0bc 1953 c53d 8aa3 bcbc 786d a53c
00000250: a010 9b3d d05c ccbc 2ee5 2cbe 98ff ab3d
00000260: c72b 103e ffaf 9a3e 6726 10bf 258f 8cbc
00000270: 6fd6 903e 3ecb 69c0 3d27 11bf 27f6 703e
00000280: 8aab 9abe 0bbe 7fbd 98f7 18be a2b7 90be
00000290: c599 f4bb 1633 06bf 20d5 00bf 5861 69bd
000002a0: d6a7 943e a5f5 073f df81 463d f0c3 51be
000002b0: 6b14 0d3d a648 7e3f 2041 993e 4d2d 19c0
000002c0: 2a1c 75bf aca8 8d3f 302a 2dc0 a037 013f
000002d0: a4b6 9e3d 1c50 20bd 7f69 d1bd 7ece 733d
000002e0: 0f28 25c0 bd53 513e b1a5 b73e ebfd 463e
000002f0: 64ea 5ebe f60b fe3e aa0f ec3e 8a76 fdbe
00000300: 605b 1fbe fbae b43f 7c17 a53c 111c 233f
00000310: 18b0 84be aed7 20bf a29c ccbf 6090 843e
00000320: bd1d 85bf 0402 1dbe 43aa 183e c555 19c0
00000330: f5f4 d13e 070a 6c3f 266f e0be 1fa2 d93e
00000340: af42 2a40 897b 0640 8271 0c3f 4f76 533f
00000350: e0d6 cdbf 7828 70c0 c007 e7be c2fa b33f
00000360: a86f ed3f e388 a53f be6a 9cc0 560e 9cc0
00000370: 1a86 b7be d74c 5840 b4c8 ba3f b856 6b3e
00000380: 1bbb dd40 26e4 c8c0 f510 71c0 f67f 22c0
00000390: e3fc fdbf 7bbd d73f 6822 483f 9849 f93c
000003a0: 0e4f bf3e 4f75 0440 e735 1ac0 bd00 5bc0
000003b0: 774a 0940 7d91 7c3f 6f47 9cbf 8a1f ffbf
000003c0: 6afb c33f 63ee c63f 4e63 0b3e 80b7 603e
000003d0: c367 abbe 0130 9a3f cbd9 17bf 0a11 0840
000003e0: 2a1d 2040 1557 9bc0 030a 353e ef1b 7fbe
000003f0: ffce 06be 4f74 413f 72bf c7bf 8391 0dbd
-0.339575 1.0255 0.727685 0.486951 1.52386 -2.92864 0.712428 -0.533012
-1.54657 -4.54253 0.381935 -0.286763 -3.99871 4.24886 0.85949 0.201689
-1.04951 1.66134 -1.54514 0.164911 -0.361047 -3.1949 -2.61912 1.49092
-6.10357 -13.7941 -5.42253 -2.12366 -0.659118 0.0277695 0.114687 0.383477
-1.33332 0.774658 -1.7292 0.16463 -0.925864 -0.178454 -0.2549 0.399382
0.874152 -10.0133 0.375931 -2.95634 -0.661719 2.02231 0.828405 -0.671616
2.5804 -0.79278 -0.190795 -0.114603 -8.71978 0.139335 1.03344 -0.6839
-1.22111 0.142184 1.85591 -0.971889 0.0420562 0.108243 -1.04011 1.87195
-0.159248 -0.379309 -3.66636 -0.767618 -3.20076 -0.617444 0.0591384 0.407568
-0.833958 0.561377 3.86927 -12.4575 -1.16355 -5.51569 -2.91857 -2.13807
-1.02781 0.266654 0.23378 -2.39379 1.86681 -9.93906 1.0491 0.24389
-0.65081 2.53361 0.918882 -5.45041 0.313047 -2.81274 -0.0115005 3.89968
1.68199 -1.51187 -10.744 -0.548022 0.0218454 -0.022721 -0.00474725 0.0644052
-0.13039 0.0586275 0.0222627 -0.050365 -0.0434284 -0.118156 -0.00270434 0.0254821
-0.0266837 0.0166004 -0.00920179 0.0187913 -0.0319786 0.0020477 -0.0657428 0.00574844
-0.0469408 0.0700177 -0.034417 0.0184744 0.0359907 -0.00879454 -0.0125468 0.019356
-0.0777237 0.0191332 0.00433326 0.0182511 0.057198 -0.0272485 -0.0268024 0.00758882
-0.104322 0.0256259 -0.00713687 -0.0864897 -0.0412566 -0.0328913 -0.00409651 -0.124401
-0.0215022 0.0963499 -0.0230272 0.0201938 0.0757153 -0.0249466 -0.168843 0.0839836
0.140792 0.302124 -0.563086 -0.0171581 0.282886 -3.65303 -0.567005 0.235314
-0.30209 -0.0624371 -0.149382 -0.282651 -0.00746462 -0.524217 -0.503252 -0.0569776
0.290343 0.531092 0.0484637 -0.204849 0.0344433 0.993296 0.299325 -2.39339
-0.957461 1.10671 -2.7057 0.504755 0.0774968 -0.0391389 -0.102252 0.0595231
-2.58057 0.204421 0.358686 0.194328 -0.217691 0.496185 0.461057 -0.495045
-0.155622 1.41159 0.0201528 0.637147 -0.259156 -0.628291 -1.59853 0.258914
-1.03997 -0.153328 0.149087 -2.39586 0.410072 0.922028 -0.438348 0.425065
2.66032 2.10129 0.548607 0.826024 -1.60812 -3.75247 -0.451231 1.40609
1.85497 1.29324 -4.88803 -4.87675 -0.358445 3.37969 1.45925 0.229823
6.92909 -6.27785 -3.76666 -2.53906 -1.98428 1.68547 0.781775 0.0304306
0.37365 2.06966 -2.40954 -3.42192 2.14517 0.986595 -1.22093 -1.99315
1.53111 1.55415 0.136121 0.21945 -0.334776 1.20459 -0.593167 2.12604
2.50178 -4.85438 0.176796 -0.24913 -0.131649 0.755681 -1.56053 -0.0345626

layers.12.bias f4 [5]
00000000: 1978 89bc e36e 90bc 5183 a93c 3cf8 89bc
00000010: 9302 a63c
-0.0167809 -0.017631 0.0206925 -0.016842 0.0202649

layers.12.weight f4 [5, 50]
00000000: 7922 c63b c7e7 5f3c 3a96 523b f2a7 573c
00000010: 6723 9d3b c223 dcbb 4722 30bb bd55 57bc
00000020: be81 0f3c 61ce 03bc a58c b03b 8edf 04bc
00000030: 6ca8 c13b 473b 6e3c 370b 45bc ea1c 283c
00000040: 7e79 d83b 7b0d e6bb c59b ad3b 6a56 2eba
00000050: 01a5 423b f0df 5d3b 9ee3 ad3c 6ae0 a23b
00000060: 369c 68bb 1fc0 bd3c 21b7 153c 7868 123c
00000070: d7af c7bb 5386 1c3c 5091 fd3b 1d67 c73b
00000080: 74d9 e5b9 c48d c03c ba5f 2a3c 1fd6 003c
00000090: 2bd5 aa3b 4f52 2a3c 32f5 c6bb 1c4d 643c
000000a0: cc4e 543b 81e8 0c34 6517 b13b 4cd8 063c
000000b0: cccd bb3a ba41 3c3b 800a 6c3c 545a bd3b
000000c0: e65f 643b 1699 8a3c 5a70 b3ba 0ef7 d8b9
000000d0: 61f2 38ba e8cf 81b9 4931 0cb9 3a12 9039
000000e0: 6383 013c d88d 0c3c 8c34 8eba 8285 dd3b
000000f0: d76d ed38 7cbb a13a 31d5 273c 23e4 09ba
00000100: 3845 2a3a 577c 833c 3939 59ba 6331 dd39
00000110: 5f00 2b3c 9371 0ebc 9a83 b53b 49eb 98ba
00000120: 4f76 46ba 96f3 8db9 fb7c 6db8 6e8b f2bc
00000130: ff1f 94b9 4c89 f438 6527 6eba a33c 523b
00000140: 2114 e7ba 8fab b7b9 275e 2f3c 3d02 49bc
00000150: a0ab 41ba 079c 84ba 1c54 c4b9 c091 653c
00000160: 2b68 7f39 00b2 0b3d 03a3 0bba ac26 21bb
00000170: e167 5db9 c01e 3d39 b4fd 50bb 1d7d 823c
00000180: 3adb 6d3c 93be f7b9 8ac8 0f3c 7f74 c13b
00000190: 034a 28ba cfc0 83b7 3b88 bebb 64ea 593a
000001a0: 9829 3f3a eed6 d9b8 deb9 45bb 6d12 cdbb
000001b0: f452 acb9 96a0 b3bb 0d44 22ba ed88 233a
000001c0: 694f cd3b be17 143a d016 843a e519 a8ba
000001d0: d4ba 84b9 7988 1c38 2c1c 14bb 017a 8ebb
000001e0: b742 583c 62cf 1cba ef5c 6a39 0857 073a
000001f0: df41 a739 d9a1 503c 4a5b 193a bed9 7dba
00000200: 0add c2ba 424d 843b aa9b 813a 3e3f b739
00000210: d6cf d53b c38b 13bc 13ab d43a 6dd2 7d3a
00000220: 18f6 8b3a 69a5 353c 14e0 22b9 ccd0 f8bc
00000230: 3804 3038 e6eb b23c 9fb1 ed39 1e17 933a
00000240: d351 a93c 7919 6a3c a821 853c 5341 d839
00000250: a2b4 e6b9 bdf1 ff3b d194 1d3b bc61 f939
00000260: 5295 5b3c af78 a3b9 625e e238 5c1e 4e3a
00000270: 6cc6 b33c f5c9 803c d7c6 463a 6ed7 703c
00000280: f1ce 0db9 e81a a5b9 2616 3e3b d900 1a3a
00000290: c9f1 32ba e972 143b f4b2 9e37 0a6a de36
000002a0: 39a3 1ebc e3c2 85bb 4060 2f3c 2f47 633a
000002b0: aace 813a 2d3b 96b8 baad 1739 8777 ef3c
000002c0: a195 a4b9 eb69 8f3a 672e aaba e696 563c
000002d0: 1704 9938 5998 a939 61cf ec3b f9ee debb
000002e0: 97fd 353a 7240 fcb8 c034 6eba 5d3c 723c
000002f0: cf06 55b9 f5db b2bc 5034 343a 495a f9ba
00000300: 252d 423a 53cf 0239 4f3d b5bb c03d 4f3c
00000310: 52a2 213b 4233 563a e3db 1e3c 288e 0d3c
00000320: 74d0 54ba 7d2a b6b9 3cb3 b0bb 5443 c739
00000330: 5326 4d39 8255 a9b9 784c 55bb 06f9 93bb
00000340: 6fa6 cfb8 9b53 6ebc 0974 c33a 36b0 e3b9
00000350: 34de b13b da87 a33a 0f7c 903a 02e3 8dba
00000360: 9c0b 8638 c9d3 0739 21f4 3fba 8186 6dbb
00000370: 6abd 5f3c 165c ffb9 fe01 34b7 6438 853a
00000380: fd39 2cb9 cb77 3a3c 497a 3d3a 1e96 9b3a
00000390: 4acf f4ba 1b0f 783b b771 933a ed7b 033a
000003a0: 6a64 1f3c 8539 66bc 9b8e 043b 08ac a03a
000003b0: 0af7 f539 a2d9 503c 2254 24b9 050b b33a
000003c0: bf26 2d3a c787 b43c 1999 c439 c890 583a
000003d0: 6e0e bc3c df20 353c 7d3b 0d3c cfa5 2b39
000003e0: 08c8 fa3a d360 3f3c
0.00604659 0.0136661 0.0032133 0.0131626 0.00479548 -0.00671813 -0.00268759 -0.013143
0.00875896 -0.00804481 0.00538786 -0.00810994 0.00590997 0.0145405 -0.0120266 0.0102608
0.00660628 -0.00702065 0.00529811 -0.000665045 0.00297004 0.00338554 0.0212267 0.0049706
-0.00354935 0.0231629 0.0091379 0.00893604 -0.00609396 0.00955351 0.00773827 0.00608529
-0.000438403 0.0235051 0.0103988 0.00786355 0.0052134 0.0103956 -0.00607171 0.0139344
0.00323956 1.31231e-07 0.0054044 0.00823028 0.00143283 0.00287257 0.0144068 0.00577859
0.00348472 0.0169187 -0.00136901 -0.000413828 -0.000705516 -0.000247597 -0.000133698 0.000274794
0.00790486 0.00857874 -0.00108494 0.0067603 0.000113215 0.00123392 0.0102437 -0.000526013
0.00064953 0.0160505 -0.000828642 0.000421892 0.0104371 -0.00869407 0.00553937 -0.00116668
-0.000757073 -0.000270751 -5.66216e-05 -0.0296075 -0.000282526 0.000116604 -0.000908485 0.00320796
-0.00176299 -0.000350323 0.0107036 -0.0122686 -0.000738794 -0.00101173 -0.000374467 0.0140118
0.000243575 0.0341053 -0.000532672 -0.00245897 -0.000211149 0.000180359 -0.00318895 0.0159288
0.0145176 -0.000472535 0.00877584 0.00590378 -0.000641972 -1.57062e-05 -0.00581458 0.000831282
0.000729227 -0.000103874 -0.00301706 -0.0062583 -0.000328682 -0.00548179 -0.000618995 0.000623836
0.00626557 0.000564929 0.00100776 -0.00128251 -0.000253162 3.73204e-05 -0.00225998 -0.00434804
0.0131995 -0.000598183 0.000223506 0.000516281 0.000319018 0.0127339 0.000585009 -0.000968363
-0.00148669 0.00403753 0.000988831 0.000349516 0.00652502 -0.00900549 0.00162253 0.000968254
0.00106782 0.0110868 -0.00015533 -0.030373 4.19656e-05 0.021841 0.000453365 0.00112221
0.0206689 0.0142883 0.0162514 0.000412474 -0.000440036 0.0078108 0.0024045 0.000475658
0.0134023 -0.000311797 0.000107941 0.00078628 0.0219452 0.0157213 0.000758273 0.0146998
-0.000135239 -0.000314913 0.00290049 0.000587476 -0.000682619 0.00226515 1.89184e-05 6.62846e-06
-0.00968247 -0.00408207 0.0107041 0.000866997 0.000990351 -7.16358e-05 0.000144652 0.0292318
-0.00031392 0.00109416 -0.00129838 0.0130975 7.29637e-05 0.000323477 0.00722687 -0.00680339
0.000694239 -0.000120283 -0.000908684 0.0147849 -0.000203158 -0.0218334 0.000687425 -0.00190241
0.000740724 0.00012475 -0.00553099 0.012649 0.00246634 0.000817109 0.00969598 0.00863985
-0.000811822 -0.000347454 -0.00539246 0.000380064 0.000195646 -0.000322979 -0.00325468 -0.00451577
-9.90153e-05 -0.0145463 0.00149119 -0.000434281 0.0054281 0.00124764 0.00110233 -0.00108251
6.39178e-05 0.000129535 -0.000732245 -0.00362435 0.013656 -0.00048706 -1.07293e-05 0.00101639
-0.000164248 0.0113811 0.0007228 0.00118703 -0.00186775 0.00378508 0.00112491 0.000501572
0.00972853 -0.0140518 0.00202266 0.00122583 0.000469141 0.0127472 -0.000156716 0.00136599
0.00066052 0.0220374 0.000374981 0.000826132 0.0229561 0.0110552 0.00862014 0.000163696
0.00191331 0.0116808

layers.2.bias f4 [50]
00000000: 1077 f5bc c03d e73e b762 5fbe a46e e73d
00000010: 9b70 433f 0857 08bf f86f de3d 0954 7fbc
00000020: 7340 dcbc ebad 51be cec2 063f 2d78 213f
00000030: ca6c 10bf 29eb 073e 529e 29be 1409 36be
00000040: a71f b9bc 7f12 b7be 747b 893f 72a7 54be
00000050: 3be4 a2bf 54e1 873e babf 763f 68b3 823f
00000060: 069f 1abf fe26 543e 9a97 9b3e 45d4 a9bc
00000070: b458 1a3e feb9 34bf 732f 80be 0a67 173f
00000080: e6b0 17bf 40de 873f bc07 d0be 368f c33c
00000090: 4167 52bc fd83 303f 1d00 a1be 5e81 2cbf
000000a0: 776a 89bc 1765 f6bd 95d8 55bd b37a 2bbf
000000b0: 4f24 383e d42b 0d3f eb7f 4abc 1827 523f
000000c0: 31c5 a6bc 9f8f d23d
-0.029964 0.451643 -0.21815 0.113004 0.763437 -0.532578 0.108612 -0.015584
-0.0268862 -0.204765 0.52641 0.63074 -0.56416 0.132733 -0.165643 -0.177769
-0.0225981 -0.357563 1.07408 -0.20767 -1.27259 0.265391 0.963863 1.0211
-0.603989 0.20718 0.303891 -0.0207311 0.150729 -0.705963 -0.250362 0.591416
-0.592543 1.06147 -0.406309 0.023872 -0.012842 0.689514 -0.314454 -0.673849
-0.0167744 -0.12031 -0.0522085 -0.669841 0.179826 0.55145 -0.0123596 0.820909
-0.0203577 0.102813

layers.2.weight f4 [50, 50]
00000000: 79c9 1fbd c2bb 603b ad7b e7b9 9357 c23b
00000010: 45e5 1038 aefc 483d 656f 29bc 224f f7bc
00000020: e5c4 cdbc 2c1a 41bd c1c0 d63b a54d 153d
00000030: 1777 4dbc 6a31 b83c f189 76ba 971a 46bc
00000040: aef7 38bb cb58 233c 8324 023d 7701 a53c
00000050: 348c 14bc 2e71 a4bc 4a71 9fbc 118b d83c
00000060: f2d9 b03c b47e a9bc a145 9f37 904f 23bd
00000070: cf13 cfbc 95d7 25bb 0f31 193d 1941 8ebd
00000080: 3499 163b 55f8 16bb 9af0 e63c 6b3b f7bc
00000090: 0d72 d7bc 3135 53bc 5067 183d 0a1a 2ebd
000000a0: e7b4 fa3a 0c24 453b 5e4d de3c 56d5 d039
000000b0: f39b 99bb 34b6 fc3c 4f9b 273c 84a8 123c
000000c0: 292a d53b 5210 173d ddcd 93bf 96be 86bc
000000d0: 2847 a13e 242a a4be 8a8e 26c0 9564 4d3f
000000e0: 8397 2a3c 2714 eabf de89 5ebd 939d 883d
000000f0: 18b2 263f 73a0 bfbe 6171 20bf b2f9 933c
00000100: e407 18bd ca37 8f3f 8104 15bf 33a6 603e
00000110: 68ca 1ebf 0610 2e3e ef20 8e3e c9c8 95bf
00000120: 1a09 fe3c cf66 b93f 91b8 bb3f d3f0 923c
00000130: 0a2f f13e 5073 2ebf 86ac b6be 529c 03bf
00000140: bb8c 9cbd 925c 8abf 5587 20bf d449 2e3f
00000150: 861b acbf 68b8 3cbd f511 18bd 3bfd 50be
00000160: cf11 793c cfd9 6e3f 098d 103e fdf6 c1bf
00000170: 0cae 09bf a7eb 39bf 55de d6be 7766 ca3e
00000180: eb1c 1bc0 5b4e 38bd 9700 34bf 6d8d 88bb
00000190: 16fa 00be 1f73 d43c 618d 633e b75f eebe
000001a0: 57b2 19c0 b29d 03bf 5ad8 233e cadc c43e
000001b0: c762 fb3e b8ce b7be b796 253f 446d cb3e
000001c0: 05aa 5a3d 7171 40bf 7968 8ebc f146 8e3f
000001d0: 68cd 7fbe f640 9bbf edf5 1e3e eb01 23be
000001e0: 2520 6a3f 1ec4 e6be da5f 2cbc 516b 6abe
000001f0: 0e9e e93e d3df a63c 828c 34bf 2959 0abf
00000200: f817 913e 503a 053f 828d 033f b7de 65bd
00000210: 9fa3 9f3c 87c0 31bd 871a 0d3f df6a 05bf
00000220: b7eb 113f 944d 813f 2313 70bc df15 89be
00000230: 6320 743d 5dc1 62bf 49be 8abe f033 5a3f
00000240: 501a e23e 1e51 01bf 4cfc 613f 90ab 27bd
00000250: 876e 16be 2a7d 17bc 82ff 4d3e b69c f0bc
00000260: b761 343e 0c7f 9cbd 01c1 54bf f8df 9abf
00000270: 5274 0e3d 1749 733f c861 50be 0d53 5bbe
00000280: 9c19 fd3e 143f 08c0 1d75 1c3f 88d6 16bf
00000290: dd10 3ebd ee25 91bf eeed 4a3f ae9e 8b3f
000002a0: 5da6 063e ec30 56be e415 74bf 6a6c 4fbe
000002b0: aff6 26bd b055 b6bf e65b 43bf 890b 9f3b
000002c0: cec2 c6be 29ec b23e 2ba3 6d3f 651c f3be
000002d0: aed7 44bf 4e7b 323f c408 b5bf 9e7a c4be
000002e0: 4777 84bf 1db0 6bbe aeb6 02be b9aa d4bf
000002f0: 7390 c6bc dc4a bfbd 6825 bd3d a9bd f83e
00000300: 645d 083f d623 c83d 6444 7d3c a1f7 76bf
00000310: e128 0f40 c26d 483d 1154 2dbf 1683 ac3c
00000320: 8d97 82bf 55a2 2cbd 8bfe e03e e5d0 cabf
00000330: 8e3f b1be 323b 4bbf 9f02 b43f 4694 e2bf
00000340: 76e0 80bf ea10 f2bb 0c23 7d3f e1ce 0a3d
00000350: a8e2 26be 4738 a9bf a158 9b3b bfd5 02bf
00000360: cd22 f4be 745d 503f 789c 0abf 64e9 83bf
00000370: 3d7a 08bd 7d79 f1bf 4d5b 6d3c 1092 19c0
00000380: 0a2b 45be 9f35 04bd 44dd 8f3f 72de df3e
00000390: 98a1 a13e 50ff f9bd f12e 5f3f 508d a73f
000003a0: c741 aebd e752 983f dc2d a1be 7808 03be
000003b0: cbb9 a8bf eb01 53bf 9eea 30bd f8e1 b03e
000003c0: a08d 383f 3545 183f e199 70bf ee25 cdbf
000003d0: c6db 82be 8c69 56be 2bf6 bcbd 5f10 4cbd
000003e0: dae6 8abf 931d 3bbd a60f 953f a52f c4bc
000003f0: e697 9cbc 05a4 1dbe 8f6e 503f 707a e7be
-0.0390105 0.00342916 -0.000441519 0.00593085 3.45458e-05 0.0490691 -0.0103415 -0.0301891
-0.0251183 -0.0471441 0.00655374 0.036451 -0.0125406 0.0224845 -0.000940471 -0.0120913
-0.00282238 0.0099699 0.0317731 0.0201423 -0.00906663 -0.0200735 -0.0194632 0.0264335
0.0215883 -0.0206903 1.89867e-05 -0.0398708 -0.025278 -0.00253055 0.0374003 -0.0694601
0.00229795 -0.00230362 0.0281909 -0.0301797 -0.0262995 -0.0128911 0.0372079 -0.0425053
0.00191274 0.00300813 0.0271365 0.000398318 -0.00468778 0.0308486 0.0102299 0.00895131
0.00650527 0.0368808 -1.15472 -0.0164483 0.314996 -0.320634 -2.60245 0.802316
0.0104121 -1.82874 -0.0543307 0.0667068 0.651155 -0.374271 -0.62673 0.0180634
-0.0371169 1.11889 -0.5821 0.219384 -0.620276 0.169983 0.277595 -1.17019
0.0310102 1.44845 1.46657 0.0179371 0.471062 -0.681447 -0.356785 -0.514104
-0.0764403 -1.08095 -0.627065 0.680814 -1.34459 -0.0460743 -0.0371265 -0.204091
0.015202 0.933011 0.141163 -1.51535 -0.537812 -0.726252 -0.419665 0.395313
-2.42364 -0.0449966 -0.703134 -0.00416725 -0.125954 0.0259338 0.222219 -0.465574
-2.40151 -0.514125 0.160005 0.384497 0.490988 -0.358999 0.646831 0.397318
0.0533848 -0.751731 -0.0173838 1.11154 -0.249807 -1.21292 0.155235 -0.159187
0.914553 -0.450715 -0.0105209 -0.228925 0.456284 0.0203704 -0.705269 -0.540423
0.283386 0.520421 0.513878 -0.0561206 0.0194872 -0.0433965 0.551186 -0.521162
0.570003 1.01018 -0.014653 -0.267745 0.0596012 -0.885763 -0.270983 0.852355
0.441607 -0.505144 0.882756 -0.0409351 -0.146906 -0.00924615 0.20117 -0.0293716
0.176154 -0.0764142 -0.83107 -1.20996 0.0347789 0.950334 -0.203498 -0.214184
0.494336 -2.12885 0.611162 -0.589211 -0.0464028 -1.13397 0.792693 1.09078
0.131494 -0.209171 -0.953459 -0.202562 -0.0407626 -1.42449 -0.763121 0.00485367
-0.388205 0.349458 0.928271 -0.474826 -0.768916 0.697194 -1.41433 -0.383748
-1.03489 -0.230164 -0.12765 -1.66146 -0.0242388 -0.0934045 0.0923565 0.485822
0.532675 0.0977246 0.0154582 -0.964716 2.23687 0.0489328 -0.677064 0.0210586
-1.02025 -0.042147 0.439442 -1.5845 -0.346188 -0.793872 1.40633 -1.77015
-1.00685 -0.00738727 0.988816 0.0338887 -0.162974 -1.32203 0.00474079 -0.511074
-0.476828 0.813926 -0.54145 -1.03056 -0.0333197 -1.88652 0.0144871 -2.39954
-0.192547 -0.0322777 1.12394 0.437244 0.315686 -0.122069 0.87181 1.309
-0.0850864 1.19003 -0.314803 -0.127962 -1.31817 -0.824248 -0.0431925 0.345474
0.720911 0.594806 -0.939848 -1.60272 -0.255583 -0.209387 -0.0922664 -0.0498203
-1.08517 -0.0456825 1.16454 -0.0239485 -0.0191154 -0.153946 0.814187 -0.452106

layers.4.bias f4 [50]
00000000: a94d a03f b532 e9bf ecf7 343f 8c6a 2d3f
00000010: 38fd 513b 9cc4 b4bf bbf2 39be 5b42 04c0
00000020: ed44 11bf 6e52 71be f17f bfbe 83d9 09bd
00000030: 2a1f 1a3f dbe0 64bf 8239 c2bf e7de b8bd
00000040: b054 d7be 6a84 6ebf 2ca1 86bd efac adbe
00000050: 29b0 40bf a4a5 8ebf 0dc7 13bf 55de b63e
00000060: ecdd f3bf a3e5 e03d ceaa 0f40 2a74 34c0
00000070: 0115 4ebe 9d80 9ebf 6c22 133e 548b e83d
00000080: f436 12bf 0a14 09bf b1f9 90bf e882 663f
00000090: d637 103f dd09 66be e140 90bf 9eb6 6ebf
000000a0: 9352 b8bf bf47 3dbf 71c9 55bf 8f36 c63e
000000b0: 35d2 b6bf b2a1 3fbf 3a02 98be 77f3 bcbf
000000c0: 3f90 b43e 300f 153f
1.25237 -1.82186 0.706908 0.677407 0.00320418 -1.41225 -0.18159 -2.06655
-0.567458 -0.235666 -0.374023 -0.0336547 0.602038 -0.894056 -1.51738 -0.0902689
-0.420568 -0.931708 -0.0657371 -0.33921 -0.752688 -1.11443 -0.577256 0.357165
-1.90521 0.109813 2.2448 -2.81959 -0.201252 -1.2383 0.143686 0.113547
-0.571151 -0.535462 -1.13262 0.900435 0.563352 -0.224647 -1.12698 -0.932474
-1.44002 -0.739376 -0.835105 0.387135 -1.42829 -0.748561 -0.296892 -1.47618
0.352663 0.582263

layers.4.weight f4 [50, 50]
00000000: 2704 e13c faa2 b8bd 658d 28c0 5969 b740
00000010: d730 f3be 77be 6d40 fbea 5e3f 32f0 92bc
00000020: 5337 9cbd 7b14 1a40 0f9c ffbf 1f69 003f
00000030: f5a1 9fbf 3436 cf3c b70d 073f 261e a43f
00000040: 6018 d5bb 6b9a 4b3f 693b 02bf 62fa 79bd
00000050: e8a5 7e3f 965e 833e e57f a2be 1d55 bd3f
00000060: 64e5 73bf 3f74 813f 30f5 7d40 908e a1bc
00000070: 34bb 5a3f cec2 2240 643b 75c0 b493 bd3f
00000080: e960 1540 e449 42be 0e9f 6cbf e640 9f3e
00000090: 1ecc 5c3c 0f47 2fbf fd31 0d3e 580a b73c
000000a0: c02c 233d 8f53 fc3f bd12 103c 349d 2540
000000b0: 603c 0bc0 4694 dabf f064 5c3c 0fba 20bf
000000c0: 3ab8 2a3c e36b c3bf 29ba 44bd 1896 1bbf
000000d0: f180 de3f bea4 d13e b8f8 04bc e90b 093f
000000e0: 5704 f33f e4f5 e03c 2e64 ffbc ddef b03f
000000f0: 957c 04bf afcc 9b3e 35b5 a03f 85b2 f03d
00000100: ff96 043f 3602 d13d 7578 e3bc 179a 873f
00000110: 4e3e a2bc 3f74 c13e 041c 523e 058c 02bf
00000120: e764 f3bb 9b90 c63d e887 0dbf 67b7 36be
00000130: 1023 003f 0aa8 a63c ea95 ea3e fc6f a1bf
00000140: 0475 62bf 23d9 ab3e 15e3 ec3f 8649 c23d
00000150: b284 05be 64b1 0d3e 9d4c 37bd aeda c03d
00000160: 9695 d63f b878 103f 29e8 f6bb 1edc 0d3f
00000170: 44c5 133d 3eca b8be 6f2a ae3f ccce 67bd
00000180: 87ea 1c3d 9fb0 0cbf ca85 2fbd 98c0 a1bf
00000190: 2926 0a3d 0f0a 1a3e 1233 db3e 75ac 3e3f
000001a0: b8cc 193e 0c3a 71bf f88c 0c3f 4905 5f3c
000001b0: 9387 0a3d fc6f 053e 6a12 dcbe d84a 98be
000001c0: f5db d73d 302d da3e 13d3 85be 2683 bdbd
000001d0: 6673 8bbc ec67 45bf 5f5c 2ebf 21b0 3a3f
000001e0: fd66 8abe 33dd d3be 652d 8fbd 3b53 68be
000001f0: eedc 6a3c 7498 8f3e 3529 113f bd34 0a3d
00000200: 7c9b b63f e696 de3e d999 72bf b1e1 0140
00000210: d717 e53f 3606 7dbf 9773 a93f 41b7 ef3e
00000220: c379 dd3c 8e5b 94be 59bf 69be 1573 a8be
00000230: 8bc1 43bc ad18 f63e ac21 8cbc c683 a23d
00000240: b3b5 ae3f 7c95 813d f91f 8fbc 0d5d 7f3d
00000250: 4537 7dba 5b5f 803f 49de 943c 3869 263f
00000260: fa25 9a3e 1bd8 e23f b7ee 9abf 7db2 c23e
00000270: ce71 323f 80f2 773c 9c36 803b 72dc b93d
00000280: 3ee8 59be d999 463f 1e8c 5cbf 9d2e b3bf
00000290: 77db 3740 32e6 963f f477 25bc e908 b5bd
000002a0: 043b eebe 84bb c33f dd0c afbe 21ca 5b3f
000002b0: 0d89 573f a489 673e f642 a1be 2592 9cbf
000002c0: c780 9c3f 4ec7 0dbd 2882 343f 355d 673f
000002d0: 80b8 77bf 1040 2abe 137e cd3f d236 0e3f
000002e0: 1190 1f3e ba2c 36c0 395a babc 5646 db3e
000002f0: 8cb9 5f3f 9b55 bfbe 2f04 82ba 20f1 d33e
00000300: 1057 73bc 9d2c 193f d4d4 c6bf 4950 15bc
00000310: c9a7 acbc d102 64bf e531 193d aa7e 213f
00000320: 7302 29bd 1971 51be ef74 133f cb9c 9a3f
00000330: f033 2e3e 4018 2c40 e675 143e 9a29 e73a
00000340: e102 b5bc 1bd8 7a3e b2c3 833d 5e9f f9bd
00000350: e78e 5e3f 3410 a3be 2b56 a8bc 7460 d93e
00000360: 7846 dbbc 8998 723e 7863 b93e 29e9 f9be
00000370: ad86 48bf 06f4 4abf 8c64 9fbe b576 96bd
00000380: 26fd c53e dba2 bcbe 3944 843e 6f52 e63b
00000390: 99d6 463e 3677 343e 2b32 463f aef5 d13f
000003a0: 0f62 afbf 1d20 30bf 10eb 9dbe bc96 603e
000003b0: 1101 c7bc 3f55 153e 363f be3e 0dc6 e0be
000003c0: e894 113d c235 bf3e 8aab afbc 5a61 3fbd
000003d0: dacb 9e3e afeb c73e 39c5 193d 1476 71be
000003e0: 1add c13c 603e 293e c224 06bd 6fbc 473f
000003f0: 04ad b43f 75e5 a33f 14d1 1f3f efe6 f13f
0.0274678 -0.0901546 -2.63363 5.73161 -0.474982 3.71475 0.870773 -0.0179368
-0.0762774 2.4075 -1.99695 0.501604 -1.24713 0.0252944 0.527553 1.28217
-0.00650315 0.795325 -0.508719 -0.0610298 0.994719 0.256581 -0.317382 1.47916
-0.952719 1.01136 3.96809 -0.0197213 0.854419 2.54314 -3.83175 1.48107
2.33404 -0.189735 -0.924302 0.311042 0.0134764 -0.684678 0.137886 0.0223438
0.0398376 1.9713 0.00879353 2.58772 -2.17556 -1.70765 0.0134518 -0.627839
0.0104199 -1.52673 -0.0480291 -0.607759 1.73831 0.40946 -0.00811594 0.535338
1.89857 0.027461 -0.0311757 1.38232 -0.517526 0.304296 1.25553 0.117528
0.517929 0.102055 -0.0277674 1.05939 -0.0198051 0.37784 0.205185 -0.509949
-0.0074278 0.0969555 -0.552855 -0.178434 0.500535 0.0203438 0.458175 -1.26123
-0.884598 0.335641 1.85068 0.0948668 -0.130389 0.138372 -0.0447508 0.0941671
1.67644 0.564342 -0.007535 0.55414 0.0360768 -0.360918 1.36067 -0.0565937
0.0383096 -0.54957 -0.0428522 -1.26369 0.0337278 0.150429 0.428124 0.744819
0.150195 -0.942292 0.549026 0.0136121 0.0338207 0.13031 -0.429828 -0.297446
0.1054 0.426126 -0.261376 -0.0925353 -0.0170228 -0.771117 -0.681097 0.72925
-0.270317 -0.413797 -0.0699108 -0.22688 0.0143349 0.28046 0.567035 0.0337417
1.42662 0.434745 -0.94766 2.0294 1.78979 -0.988376 1.32384 0.468195
0.0270356 -0.289761 -0.228269 -0.329003 -0.011948 0.480657 -0.0171059 0.0793529
1.36492 0.0632734 -0.0174713 0.0623446 -0.000965942 1.00291 0.0181724 0.650043
0.301071 1.77222 -1.21041 0.380268 0.697049 0.0151335 0.00391276 0.0907525
-0.2128 0.775785 -0.861513 -1.39986 2.87277 1.1789 -0.0100994 -0.0883959
-0.465294 1.52916 -0.341895 0.858553 0.841935 0.226111 -0.314964 -1.22321
1.22268 -0.0346139 0.705111 0.903766 -0.967659 -0.16626 1.60541 0.555524
0.155823 -2.84648 -0.0227481 0.428271 0.873925 -0.3737 -0.000991946 0.413949
-0.0148523 0.598337 -1.55337 -0.00911338 -0.0210761 -0.890668 0.0374011 0.630839
-0.0412621 -0.204533 0.576003 1.20791 0.17012 2.68898 0.144981 0.00176363
-0.0220961 0.244965 0.0643381 -0.121886 0.869368 -0.318483 -0.0205489 0.424564
-0.026767 0.23691 0.362087 -0.488107 -0.783305 -0.792786 -0.311314 -0.0734686
0.386697 -0.36843 0.258333 0.00702887 0.194178 0.176236 0.774203 1.64031
-1.37018 -0.68799 -0.308434 0.219325 -0.0242925 0.145833 0.371576 -0.439011
0.0355424 0.373457 -0.0214441 -0.0467237 0.310149 0.39047 0.0375416 -0.235802
0.023665 0.165277 -0.0327499 0.780219 1.41153 1.28044 0.624284 1.88986

layers.6.bias f4 [50]
00000000: bb61 55c0 8a1e 44bf 9bb1 43bd 7ea9 fb3f
00000010: e44e c1bf 1687 1bc0 93c6 d0bf 2237 bb3e
00000020: 0343 d63f 3b6e a8be 2428 3640 be67 2cbf
00000030: 658d 1ebf 11aa 20c0 b839 cabd ab04 49c0
00000040: 0f80 803e 2880 7e3f 618e 86bf 1e8a 86bf
00000050: af0b dfbd 04e2 3bc0 02d3 19be a6b8 3cc0
00000060: 7468 b73d f14b a13f cc97 0940 e564 0e3f
00000070: 7906 b5bf 7025 09c0 82b3 aa3d 36c9 e7be
00000080: 05f8 3a3f 82c9 c53e 207e 6e3e 59a3 8ebf
00000090: 2575 94c0 c230 883e b661 193d 376e 59bf
000000a0: 8e40 a73d 457f d0be 0534 8dbf 2f14 44bf
000000b0: 6132 893f 2366 1e3f 6501 8bbf bcab 833d
000000c0: ac38 853e 1e16 81c0
-3.33409 -0.766091 -0.0477768 1.96611 -1.51022 -2.43012 -1.63106 0.365655
1.67392 -0.328966 2.8462 -0.673458 -0.619345 -2.51038 -0.0987429 -3.14091
0.250977 0.994143 -1.05122 -1.05109 -0.108909 -2.93567 -0.150219 -2.94877
0.0895547 1.26013 2.14989 0.556227 -1.41426 -2.14291 0.0833502 -0.452707
0.730347 0.386303 0.232903 -1.11436 -4.6393 0.265997 0.0374467 -0.849338
0.0816661 -0.407221 -1.10315 -0.765933 1.07185 0.618746 -1.08598 0.0642924
0.260198 -4.03395

layers.6.weight f4 [50, 50]
00000000: 8a05 02bf ce71 e6be 58c5 dbbf 21b0 92bf
00000010: 21e7 4dbe fe43 de3f c1a9 073f 240b e8bf
00000020: 9dd4 3b3f 2c62 f8bd dc63 81bf df89 553f
00000030: d130 e7bb 75cd ac3f 6f64 0440 9eea d0bd
00000040: 71ac e73f 3203 1f40 c0b2 0ec0 59fe 773d
00000050: 4128 2bbf ef38 a9bf bede 1540 ecf8 1b3f
00000060: a08b c63e f906 70bc fdbc 3940 5340 c2be
00000070: cdcc 02c0 5934 813f 9f1f dabf 0855 0840
00000080: ff04 9b3f 01c1 7840 d498 f03d 94da 1f3f
00000090: f50e cfbe 4d4a 1fc0 aa60 dcbf 2c48 b33d
000000a0: b059 1e3e 9357 bfbf 68b0 113f ac1f c3be
000000b0: 94bc aebf e09c 0340 9413 313f de8e c0bf
000000c0: 51f7 adbf a022 3dbc 137e 093e 59a3 e6bf
000000d0: 5ab8 24bf 48c2 4a3f 31d3 26c0 6b27 3ebf
000000e0: 146a 193c 1154 e53e 605a 1c3f 8a97 a33b
000000f0: ab08 473e d046 f6be 4ae4 4c3c 2239 b93e
00000100: 8238 1f3e bee2 b43d 8599 be3f cf66 edbf
00000110: c959 4cc0 467e 3dbd e5b8 a7bf 70b1 8e3f
00000120: 7b49 a3bf a81b b0be f48a 9f3e 9be5 2e3f
00000130: 8846 11c0 edb6 1fbf b22f 79bf ddef 16c0
00000140: 8e58 a3bf f2d3 10bf 5a67 44bf dc46 2fc0
00000150: 3ba6 a6be 8dec aabe 232d b53f ce37 623e
00000160: 8f71 75be e5ed 22c0 a1a1 21c0 8cf8 b6bf
00000170: 533f afbe b6a0 973e 1a8a 3bbf c1c7 383f
00000180: d23a f23e d3c1 ca3f 37fd 0bc0 c138 303f
00000190: 2e44 5dbd dd39 bdbb 75c5 313c ac3b f13c
000001a0: 95b6 88bd 1cfa 3cbb 97fd 3abd a432 aabc
000001b0: 0712 8a3c 7302 49bd 27b2 e0bc 0bed 9cbc
000001c0: a1b0 35bd b108 143d 857a 7a3d 34f1 123c
000001d0: f38d 28bd 5417 153d 273f 53bd 7129 3dbd
000001e0: 4efe 383c 0b59 42bd b91f 2bbd bfa4 a7bd
000001f0: 0077 343d 28f4 35bd 8405 1e3c 7476 573c
00000200: 0a22 dcbc c322 ab3c 48f5 823c c8f5 05bd
00000210: 4439 6a3b 5116 1ebd e345 103d d850 c5bc
00000220: 872b 8c3c bdbc 4abc 191e bb3c dec8 bcbc
00000230: 989a cebc 5c8a 90bc c24d 263d f121 72bc
00000240: 596e 29bd f2ad 34bc d6f3 1fbd 94b6 dd3c
00000250: f112 77bd f44e 0a3d a1bb e4bd c66f 023f
00000260: ff41 b4be b5c2 343e 0664 b7be 5fcf 2b3f
00000270: 3546 a33f 2aa9 43be 397e 54bf a2f2 6a3d
00000280: d40f 82be 75cb b63e 4d86 933e a4c1 253f
00000290: e1b2 363f b1f9 78be 5b7b df3d 08ab f13d
000002a0: b515 17bf 956b 953d 9817 40bf d1b0 583e
000002b0: bbd3 21bf e448 973d 22fc 7bbe f489 34bf
000002c0: c7ac 68bd 7312 263f 3ae8 32bf 0f64 853e
000002d0: 8750 8dbf 3fa9 b6be 1f12 0e3e e1ed 993e
000002e0: feb5 943e 1b9f 89be 9983 e0be 840f dd3e
000002f0: 84d9 54bf b1fd 043e 950f 093f b2f1 98be
00000300: 3179 43be 0258 11bc 0ff2 fabd fa11 babd
00000310: 0663 dcbe 8542 043e a9f6 a93f 4aee 703e
00000320: 3d0a 0b3f 9790 873f 96b1 61bf 2272 0abe
00000330: 200d 373e 6b65 1240 16bd f33d 59fb 4bbf
00000340: 0ef5 93be 0514 ea3d 4e61 65be 21ca 4fbf
00000350: 7100 513f bea4 75bf 8926 00be 6405 9f3e
00000360: 08c7 acbd 6744 fdbf 79cc d4bf 4d69 493f
00000370: abb8 4c3d 16c0 c43e d5ec c9be 20b7 4fbe
00000380: a25d 9dbf ca89 f2bf b211 a8bf c8cd 80bf
00000390: 14b3 5abf 098a e33f 9be6 85be d28b 02bf
000003a0: 3cdb 133e 707a 43bf be08 04bd ed29 29be
000003b0: 2a74 82c0 31eb e1bf a418 343f 1efe a6bf
000003c0: 7b6b 56c0 0421 81bf b1df 633e caa7 3bbf
000003d0: 8f19 e8bf 2575 ea3e f8c4 fabe fbcf c5bd
000003e0: abe7 c03f e82d 42bf 245f 893e c9c8 95bf
000003f0: 272f 3ebf fcc2 2bbe 43ca c3bf 08c8 23bf
-0.507897 -0.450087 -1.71696 -1.146 -0.201077 1.73645 0.529934 -1.81284
0.733713 -0.121281 -1.01086 0.834135 -0.00705538 1.35002 2.06863 -0.10201
1.80995 2.48457 -2.22966 0.0605453 -0.668583 -1.32205 2.34172 0.609267
0.387784 -0.0146501 2.90216 -0.379397 -2.04375 1.00941 -1.70409 2.13019
1.21109 3.88678 0.117479 0.624429 -0.404411 -2.48891 -1.7217 0.08754
0.154639 -1.49486 0.569098 -0.381101 -1.36513 2.05645 0.691705 -1.50436
-1.35911 -0.0115439 0.13427 -1.80186 -0.643438 0.792027 -2.60664 -0.742789
0.00936367 0.447907 0.610754 0.00499243 0.194369 -0.481009 0.0125056 0.361764
0.155489 0.0883231 1.48906 -1.8547 -3.19298 -0.046263 -1.31033 1.11479
-1.27568 -0.343961 0.311607 0.683191 -2.26993 -0.623885 -0.973384 -2.35839
-1.27614 -0.565734 -0.767202 -2.7387 -0.325487 -0.333836 1.41544 0.220916
-0.239691 -2.54577 -2.52549 -1.42946 -0.34228 0.296148 -0.732576 0.721798
0.473105 1.58404 -2.18733 0.688366 -0.0540201 -0.00577472 0.0108503 0.0294474
-0.0667545 -0.00288356 -0.045652 -0.0207761 0.0168543 -0.0490746 -0.0274287 -0.019156
-0.0443579 0.0361411 0.061152 0.00896864 -0.041151 0.0363992 -0.0515739 -0.0461821
0.0112911 -0.0474482 -0.0417783 -0.0818572 0.0440588 -0.0444223 0.00964487 0.0131508
-0.0268717 0.0208906 0.0159861 -0.0327051 0.00357397 -0.0385955 0.0352229 -0.0240864
0.0171106 -0.0123741 0.0228415 -0.023045 -0.0252202 -0.0176441 0.0406015 -0.0147786
-0.041365 -0.0110278 -0.0390509 0.0270646 -0.0603208 0.0337667 -0.111686 0.509518
-0.352066 0.176524 -0.358185 0.671133 1.27558 -0.191075 -0.830051 0.0573603
-0.254027 0.357021 0.288134 0.647486 0.713667 -0.24314 0.109122 0.118002
-0.590175 0.0729591 -0.75036 0.211612 -0.632137 0.0738695 -0.246079 -0.70523
-0.0568054 0.648719 -0.698856 0.260529 -1.10402 -0.35676 0.138741 0.300643
0.290451 -0.268792 -0.438504 0.431759 -0.831444 0.129874 0.535394 -0.298719
-0.190892 -0.00887108 -0.122532 -0.0908546 -0.430443 0.12916 1.32784 0.235284
0.543125 1.0591 -0.881616 -0.135201 0.178761 2.28744 0.119013 -0.796804
-0.288979 0.114296 -0.224004 -0.811678 0.816413 -0.959545 -0.125147 0.310588
-0.084364 -1.97865 -1.66249 0.786763 0.0499808 0.384278 -0.394385 -0.202847
-1.22942 -1.89483 -1.31304 -1.00628 -0.854295 1.77765 -0.261525 -0.509946
0.144391 -0.763587 -0.0322349 -0.165199 -4.07668 -1.76499 0.703501 -1.30463
-3.35031 -1.00882 0.222533 -0.733029 -1.81328 0.457925 -0.489784 -0.0965881
1.50707 -0.758513 0.268304 -1.17019 -0.742907 -0.167736 -1.52961 -0.639771

layers.8.bias f4 [50]
00000000: 9d85 e940 9335 1840 4f58 863f 6c5d 4a3d
00000010: 2998 a13e b7b4 02c0 44fa b93f 968c 8d3d
00000020: 1361 8fbf a356 14bf dc63 9dbf e414 b93f
00000030: a65e 3b3f b60f c1be 4816 bcbf 9335 e2bf
00000040: c85d 74be ed9e 1440 05c0 76c0 f1d7 3ec0
00000050: e8c1 dd3f bb28 2abf 9ce1 a23f 4ad2 bd3f
00000060: 6c95 1ac0 965d 103f acc8 1cbf 0fd6 7fc0
00000070: ffb3 243b f44f 603f 791e 5e40 f701 7e40
00000080: 944f 0f3f 09e1 e5bf 4c4f 883d fab8 06c0
00000090: 9739 d9bf 020e cd3f 7fbc 0fc0 6154 bebf
000000a0: 1344 41c0 7042 0dc0 29cb 8c3f fed4 30c0
000000b0: 0053 e6bd 34a0 f63e fc54 293f b664 1dbf
000000c0: c1a8 c4bf 1d77 e63f
7.29756 2.37827 1.04957 0.0494055 0.315614 -2.04228 1.45295 0.0691158
-1.12015 -0.579447 -1.22961 1.44595 0.731913 -0.377073 -1.46943 -1.76726
-0.238639 2.3222 -3.85547 -2.98193 1.73248 -0.664684 1.27251 1.48298
-2.41537 0.563928 -0.612437 -3.99744 0.00251317 0.87622 3.47061 3.96887
0.559808 -1.79593 0.0665575 -2.10504 -1.69707 1.60199 -2.24588 -1.48695
-3.01978 -2.20718 1.09995 -2.763 -0.112463 0.481691 0.661453 -0.614818
-1.5364 1.80051

layers.8.weight f4 [50, 50]
00000000: 058b e7bf 9df4 96bf 7fcf d93c 4df3 f63f
00000010: 7a09 643d dba2 0cc0 560e b53f 7c44 a0bf
00000020: 51a5 ba3f ef72 913f ca4f e63f f0f8 4ebf
00000030: 6fd7 a33e 8aab b23f 2332 ec3d 7250 3abf
00000040: dcd7 a93f bebc 88be 3692 383f 7ff6 333e
00000050: a9a4 4ebe e4f7 c2bf bd52 1e3f 55fb 043e
00000060: 52d5 3640 8c9d 743f 821a 463f 09f9 dc3f
00000070: 4e28 8cbf 884a 433d 9300 9d3f 5bce 1540
00000080: 5af4 e6be 3274 7cbf 3cf8 0dbf d8bb a33f
00000090: 6de2 f4bf c3d8 c63f 728a 3a40 b3f0 25bf
000000a0: 0343 34c0 daa9 19be a6d2 3fbe cc98 42be
000000b0: f417 52bf 9f02 0ac0 fb3a 04c0 bc96 1640
000000c0: a7af 233f c572 fbbf 0806 20bf dee6 6dbf
000000d0: 8389 7fbd 4e97 d1bf 0b46 ad3f a12d 83bf
000000e0: b878 783c 7bda a53f c364 1840 d594 203f
000000f0: 5a82 dc3e 86df 11bc d9eb 893f 0309 863f
00000100: 70b5 febe a852 2fc0 ec2f a7bf 6744 99c0
00000110: 2784 8e3e 207b 1fc0 5436 9cbd 6b10 16bf
00000120: b1f8 bd3e a44c cf3c 129f 03bf dcfd 20bd
00000130: 0bd3 333f 47e6 ed3f 0612 003f 7901 0a3f
00000140: 55de 823f dc12 35bf 37e0 cb3f aa48 91bf
00000150: 9352 88bf 3350 a1bf ec51 18c0 d656 2240
00000160: 9e5d 463f 6c0a 58bf 1040 ba3f 2f93 173d
00000170: b01c 59bf b665 00be 5035 e23e 713d a6c0
00000180: e17a 5cbf 0dfb 5dbe df4f e53f 4b77 1b3f
00000190: 2f98 09bd 87f9 82be 81e9 14bd 8c09 3b3d
000001a0: 2a91 34be 497f d4bc 1109 753d 4608 efbe
000001b0: d21c 09be 3635 353d f6cd b2bd fc01 efbd
000001c0: 8544 aabd 452b 173e 96d0 cdbe f2ba 89bd
000001d0: e4be 053e 8161 843d 5264 ad3d 0131 79be
000001e0: d940 1a3e cd84 753d 59f7 1fbe a99a 45bd
000001f0: 4e41 7ebe 7309 bcbd e44e 193e b681 3bbe
00000200: 8672 223e 2e8f 8dbe 08c1 b4bc b4ae e9be
00000210: 34f2 91be 36b0 093f ebe0 00be 8e31 c1bc
00000220: c127 bcbd e961 68bc 315b f2bd 7813 573c
00000230: 42b3 1bbf f061 803d 6877 283e 3406 a7bd
00000240: 4c1b 5e3e 228c ff3e 0c2f a7bd c8ed bf3e
00000250: 527e c2be 1d65 33bc ad88 9abe 5487 213d
00000260: 4d18 283c 8a07 6f3d 0470 f3bd 0edd 94be
00000270: 7323 f63c 8bdf 54be ba38 b03d c8da 35bd
00000280: 6c97 d63e 43e5 873e 1879 193e 37de 02bd
00000290: a4a8 67bf a445 c73c 8a94 ee3e bc05 aa3f
000002a0: a5cb 71bd 5ddf 17be 75ac a23e 266d 4abe
000002b0: 2163 043d 0938 443e 7cb4 183e 4dbc f3be
000002c0: cc68 5a3d 0ea1 8ebf 11c3 86be 10e6 96be
000002d0: 8193 cdbd 6ac0 103e e10a 683e 274b 7dbe
000002e0: 207b 1d3e 48fc 2a3f e23c c4be 7c9d f43d
000002f0: a816 96bd 172c a53e 5fd2 943f c0ec b23f
00000300: fc6d 1f3e 245e 9ebd c0a3 37bd 06d6 d1bd
00000310: 056f 68be 47a4 973d fad0 ddbe 8d91 91bc
00000320: 8bfa bcbe ef74 e7bb 4093 b33c 7bbd 4f3f
00000330: 0630 a03d b94c 52bd c895 c23e 9e7a d43e
00000340: 807e a73e 7c62 31bf 1bf3 6a3e a034 d4ba
00000350: ea20 713b 918d 51bc 0740 dcbd 9d2b 36bf
00000360: 82ff ed3d 58e2 e5bf 7e8d 143f b438 173f
00000370: 76fb 543f 4758 a4be b5c0 febd e564 723e
00000380: 7d05 8d3f e0f3 c3be 438d 92be 4e7f 26c0
00000390: 7aa9 98be a27c 0dbf 6972 99be 25af 1abf
000003a0: 18c7 af3b 1843 f5bf 170f ef3d 6116 0abe
000003b0: 7442 78bf 6d56 f9bf 7715 12bf 7f6d 1d3e
000003c0: c18b 823f 452d 5dbe 6076 6fbd 5ab8 4cbd
000003d0: cc29 99be 7233 b03f 6dc7 4cbf 6a30 fdbe
000003e0: 4eee 933f 174a 963e e064 dbbe 98c2 03be
000003f0: 4496 1bbd 38f8 aabf 8e1e 0f3e 9159 62bd
-1.80893 -1.17934 0.0265882 1.9293 0.0556731 -2.19744 1.4145 -1.25209
1.45817 1.13632 1.79931 -0.808486 0.320003 1.39586 0.11533 -0.72779
1.3269 -0.267065 0.720981 0.175745 -0.2018 -1.52319 0.61845 0.129865
2.85677 0.955529 0.773842 1.72635 -1.09498 0.0476785 1.22658 2.34072
-0.451083 -0.986148 -0.554569 1.27917 -1.91316 1.55349 2.9147 -0.648204
-2.81659 -0.150062 -0.187327 -0.190036 -0.820678 -2.15641 -2.0661 2.35295
0.639399 -1.96444 -0.625092 -0.929304 -0.062387 -1.63743 1.3537 -1.02483
0.0151655 1.29573 2.38115 0.627271 0.430682 -0.00890339 1.07751 1.04715
-0.497478 -2.73942 -1.30615 -4.7896 0.278352 -2.49189 -0.0762755 -0.586188
0.371038 0.0253051 -0.514146 -0.0393046 0.702439 1.85859 0.500275 0.539085
1.02241 -0.707319 1.59278 -1.13503 -1.06502 -1.26026 -2.38 2.53655
0.774866 -0.843909 1.45508 0.0370056 -0.848094 -0.125388 0.441813 -5.195
-0.86125 -0.216778 1.7915 0.607289 -0.0335924 -0.25581 -0.0363555 0.0456634
-0.176335 -0.0259396 0.0598231 -0.46686 -0.133899 0.0442402 -0.0873069 -0.116703
-0.0831385 0.147626 -0.401982 -0.0672511 0.130611 0.0646391 0.084664 -0.243351
0.150638 0.0599411 -0.156217 -0.0482432 -0.248296 -0.0918149 0.149715 -0.183112
0.15864 -0.276483 -0.0220647 -0.456411 -0.285051 0.537845 -0.125858 -0.0235832
-0.0918727 -0.0141835 -0.118338 0.0131272 -0.608204 0.0626868 0.164518 -0.0815548
0.216901 0.499116 -0.0816327 0.374861 -0.37987 -0.0109494 -0.301824 0.0394357
0.0102597 0.0583568 -0.118866 -0.290749 0.0300462 -0.207884 0.0860457 -0.0443981
0.419124 0.265421 0.149876 -0.0319502 -0.904917 0.0243252 0.465977 1.3283
-0.0590321 -0.148313 0.317722 -0.197682 0.0323211 0.19162 0.149126 -0.476046
0.0533226 -1.11429 -0.263207 -0.294724 -0.100379 0.141359 0.226604 -0.247357
0.15379 0.667912 -0.383277 0.119441 -0.0732854 0.322602 1.16267 1.39785
0.155693 -0.077328 -0.0448339 -0.102459 -0.226986 0.0740438 -0.433235 -0.0177696
-0.369099 -0.0070635 0.0219208 0.811485 0.0782166 -0.0513427 0.380049 0.414998
0.327137 -0.692909 0.229443 -0.001619 0.00367933 -0.0127901 -0.107544 -0.711603
0.11621 -1.79597 0.580284 0.590709 0.831962 -0.320986 -0.124391 0.236713
1.10173 -0.38272 -0.286234 -2.60152 -0.298168 -0.552683 -0.299701 -0.604235
0.00536431 -1.91611 0.116728 -0.134851 -0.969764 -1.94795 -0.57064 0.153738
1.01989 -0.215993 -0.0584625 -0.0499805 -0.299147 1.37657 -0.799918 -0.49451
1.15571 0.293534 -0.428504 -0.128672 -0.0379851 -1.3357 0.139765 -0.0552612
