resources/models/onnx/acas/ACASXU_run2a_4_2_batch_2000.onnx (onnx, 54456 bytes, 14 tensors)

layers.0.bias f4 [50]
00000000: 52a0 6a3d 1c7c 01be eeb1 64be a93d 3bbd
00000010: 6877 88be 7a16 a93d f642 413e 85eb f1be
00000020: 8d80 4abe 9fb0 bcbe ecdd fe3a 61fd 0fbe
00000030: 72c3 3fbe 3e76 17bd fdf8 27bf 4b91 bcbc
00000040: 9bad 28bf d7f7 11be cba0 5a3c 4ed1 c9be
00000050: 113a 883e 32aa ccbd 209a d9bd e675 b43d
00000060: 672a 10bf 865f a0bc 5ab7 e6bc fe9f 9ebd
00000070: 9cfd 31bf d801 213d cd74 3bbf 1076 06bf
00000080: 8cda cdbe 2bf6 173e d3bd c6be 3752 d63d
00000090: fbe9 3f3e bf43 d1be 9a96 f8be 9cee 863d
000000a0: e804 a33c 5254 6cbd 8c2b d6be d996 51be
000000b0: bb26 dcbe dcb8 25be 5167 5ebe 99a0 06bb
000000c0: 83a3 44be 3aeb 8bbe
0.0572818 -0.12645 -0.223335 -0.0457131 -0.266536 0.0825624 0.188732 -0.4725
-0.197756 -0.368535 0.00194448 -0.140615 -0.187269 -0.036978 -0.656143 -0.0230185
-0.658899 -0.142547 0.013344 -0.394175 0.266068 -0.099934 -0.106251 0.0881155
-0.563147 -0.0195768 -0.0281636 -0.0774536 -0.695276 0.0393084 -0.732251 -0.525239
-0.402058 0.1484 -0.388167 0.104649 0.187416 -0.40872 -0.485524 0.0658848
0.0198998 -0.0576976 -0.418301 -0.204677 -0.429983 -0.161838 -0.217191 -0.00205425
-0.19203 -0.273279

layers.0.weight f4 [50, 5]
00000000: d444 3bbf c3a0 2cbe be2f 4e3d 5726 dcbd
00000010: f664 97bb f9d9 f8be da6d 7c3d cef9 ce3c
00000020: 0bd3 cfbe c234 e43e d4d4 bebf 188c 7b3d
00000030: 1eed 4ebd a745 58bc adcf 45bb 390a a83e
00000040: d105 d53f 2f31 36bf a54c 3a3e 26ab 12be
00000050: 38dc 7fbf 8c62 de3c 1a69 35bf 09d1 d3b7
00000060: 4fd8 743d 56d5 4bbb 44c3 cabe d654 4abf
00000070: a587 71be 9774 f43d 3f62 2a3c f3a3 ab3c
00000080: 8e04 5a3d 56d4 803d 2177 113f c46b bdbd
00000090: 50e4 ad3f f816 b6be b70d 33be 9ea9 013d
000000a0: 23c4 b2bb ace6 813e eba8 3abe db6e 5a3f
000000b0: 3c4b e83e 698c dabf 7c73 283b 65d0 60bb
000000c0: a267 abbb bca5 e6ba ff94 eabe c92c c1bd
000000d0: 51bd d53d 6b28 c53e 0d39 96be ef03 88bf
000000e0: 5a63 f0bd 6919 193e e6bc b5bc dd16 bcbb
000000f0: e90a 52bf 2e5f 513b 895c 30be 1e70 9dbe
00000100: ea92 213e 29b3 91be e696 96bf a835 893f
00000110: 8d29 78bd 5c01 a5be 25b3 e2be b148 383c
00000120: 2018 f63a ae46 72bf 05fc babe 37ec cabb
00000130: d5d0 e5bb 9716 9a3a 30e1 4638 0b27 c83b
00000140: 0ada c3bb c87b 153e 53eb 85be 1bba 21bf
00000150: 7940 8dbf c530 31bd ba14 873f 6a69 663f
00000160: fe9c fa3e c4d0 b2be 44d3 c4bb e477 a4bc
00000170: bbd0 f4bf 1756 603c fdfd fdbc b493 bdbf
00000180: e4fb 203a 9a26 68bb 8f0c 283c ffe6 05be
00000190: 6175 3fbc 369f b9bd 573f 263e 78d3 3d3e
000001a0: fcfb 94bf 1f38 5dbd a04f c8bf 923f e43f
000001b0: c33f d1bc e3c1 563e 1a66 bdbd b725 f23c
000001c0: cceb 0a3c fa78 4dbd 4930 85bd 12f6 cd3d
000001d0: aa4a 163d 4833 aa3f 9137 cabc 4504 0dbd
000001e0: c498 14bd 6188 bcbd ec01 693d 787b 08bf
000001f0: 3c83 66bf 53d0 cdbe a6ed 9f3e 57eb 54be
00000200: 27df 5e39 6034 f53c 41e0 373c 03ec e1bb
00000210: 2b0e 8cbc acfd 9d3b 91a4 5e3b b5b8 90bc
00000220: d87a 8bbd 889d e93d 4584 7fbf 80b8 5fbf
00000230: a228 44bf 478e 15bb 5e75 ae3c f984 2cbf
00000240: c687 f1be f848 943b d252 0740 d277 d2bc
00000250: 1136 9c3d ac03 00be d6d3 7d3c 2eae 113d
00000260: bea8 b83c ae82 48be 2eca d0bf 280b 5fbc
00000270: 8e75 413e 9b1c 3ebe 350c cfbf e2cc a7be
00000280: 4098 a53c 46b2 97bd 5050 1a3e f71f 75bf
00000290: 7654 b5bf a3ca 11bc 0619 a7bd dcf1 163e
000002a0: 809d 27bf 8239 fabd 8fc2 b5bf 675a 873c
000002b0: f65e fc3d 07b2 3ebe b710 7fbd f86c 9dbe
000002c0: 8060 9a3f f567 a3bf cc5e f63d 6ff4 c1be
000002d0: cab7 283d e99e 713f 5515 463f ca54 81be
000002e0: 78f0 733e 913c 41bd 49b9 1ebc bd8d 21bf
000002f0: 4031 223e c8eb 31bf ca4f 86bf 2eb8 d53b
00000300: fffc 08bd b438 f3be 028a 47bd b11a 4b3c
00000310: 34d5 233e 14ea 39be 060e 2cbf 4b75 013f
00000320: 40ea 453d c43f 34bf b950 7dbf 767d 303c
00000330: 9edb babc 4ddf 46bc f889 17bf 7cb9 47bf
00000340: 5caa f23e 3d44 63be 7c9b 86bf fc20 a63d
00000350: 4d13 f63c bce6 85be cec3 99be 25ce ea3d
00000360: 014d 843f f432 96bf 5d8c 81be 7898 3e3f
00000370: 7ff6 d7bf 3a53 8d3b 51a7 d73c 2cac a53c
00000380: 1dc6 293d 0c86 253b ac2b 703d ff78 2fbd
00000390: ef03 94bf 72dd 403f b18d 13bd 3546 ebbd
000003a0: 42b8 1dbc 84bd 453f 562b bfbf efae b33e
000003b0: 6d1c 01c0 139b bf3e 060f 93bc 788a cbbd
000003c0: 6c48 b73c 25e9 663f 1826 afbf d437 bfbd
000003d0: 4679 8ebe e41f ec3c 54c3 fe3d 8484 4c3f
000003e0: 87c0 b1be 8676 7ebe
-0.731519 -0.168582 0.0503385 -0.107495 -0.00462019 -0.486038 0.0616282 0.0252656
-0.405907 0.445715 -1.49087 0.0614129 -0.0505191 -0.0132002 -0.00301836 0.328203
1.66424 -0.711688 0.181933 -0.143231 -0.999454 0.0271466 -0.708635 -2.52505e-05
0.0597766 -0.00311025 -0.396021 -0.790357 -0.235869 0.119363 0.0103994 0.0209522
0.053227 0.062905 0.568224 -0.0924907 1.35853 -0.355644 -0.174857 0.0316559
-0.00545551 0.253713 -0.182285 0.853254 0.453699 -1.70741 0.00257036 -0.00343039
-0.00523086 -0.0017597 -0.458168 -0.0943237 0.104365 0.385074 -0.293404 -1.06262
-0.117377 0.149511 -0.0221848 -0.00574003 -0.820479 0.00319476 -0.172228 -0.307496
0.157787 -0.28457 -1.17648 1.07195 -0.0605865 -0.322276 -0.442773 0.0112478
0.00187755 -0.946391 -0.365204 -0.00619271 -0.00701342 0.0011756 4.74166e-05 0.00610817
-0.00597692 0.14598 -0.261561 -0.631746 -1.10353 -0.0432594 1.05532 0.900046
0.489479 -0.349249 -0.00600663 -0.0200767 -1.91262 0.0136924 -0.0310049 -1.48107
0.000614105 -0.00354234 0.0102569 -0.130764 -0.0116857 -0.0906357 0.162351 0.185377
-1.16394 -0.0540086 -1.56493 1.78319 -0.0255431 0.209724 -0.0924799 0.029559
0.00847907 -0.0501642 -0.0650335 0.100567 0.0366923 1.32969 -0.0246847 -0.0344279
-0.0362785 -0.092057 0.0568866 -0.533134 -0.90044 -0.40198 0.31236 -0.207929
0.000212547 0.0299322 0.0112229 -0.00689459 -0.0170966 0.0048215 0.00339726 -0.0176662
-0.0681054 0.11407 -0.998112 -0.873909 -0.766245 -0.00228204 0.0212962 -0.673904
-0.471739 0.0045253 2.11443 -0.0256919 0.076275 -0.125014 0.0154924 0.0355665
0.0225414 -0.195811 -1.63117 -0.0136135 0.188925 -0.185656 -1.61756 -0.327735
0.0202142 -0.0740705 0.150697 -0.957519 -1.41664 -0.00889841 -0.0815907 0.147407
-0.654747 -0.12218 -1.42 0.0165226 0.123228 -0.186226 -0.0622718 -0.307472
1.20607 -1.27661 0.120298 -0.378818 0.0411909 0.943831 0.773763 -0.2526
0.238222 -0.0471769 -0.00968773 -0.631069 0.158391 -0.695004 -1.04931 0.0065222
-0.0334444 -0.475042 -0.0487156 0.0123965 0.159993 -0.181557 -0.672089 0.505696
0.0483191 -0.704098 -0.989513 0.0107721 -0.0228098 -0.0121382 -0.591949 -0.780174
0.473956 -0.22194 -1.05162 0.0811176 0.0300385 -0.261526 -0.300322 0.114651
1.0336 -1.17343 -0.253024 0.744514 -1.68721 0.0043129 0.0263249 0.0202237
0.0414487 0.00252569 0.0586354 -0.04284 -1.15637 0.753379 -0.0360238 -0.11488
-0.00962645 0.772423 -1.49351 0.350944 -2.01736 0.37423 -0.0179515 -0.0993852
0.0223734 0.901995 -1.36835 -0.0933682 -0.278269 0.0288238 0.124396 0.798897
-0.347172 -0.248499

layers.10.bias f4 [50]
00000000: 6bf4 8a3e 9b21 15be eae8 1b3c a915 e6bd
00000010: b3b1 22bf 4f3b 3cbd ab98 5a3e 2aa9 97bf
00000020: 2c0f 723e d028 1dbe e560 26bf b401 b8be
00000030: c059 22bf ae9e 53be d266 663d e025 423d
00000040: d89d e63e 5aba 16bf 157d a43d a1f8 07c0
00000050: 1c45 22bf af23 7e3e 2b51 d6bd 0e84 bcbf
00000060: bdc4 183e 861c 9b3d 3d2b f13e 4e97 31bf
00000070: 5da4 a8be c234 b4bf 0471 ae3e d0a2 2dbd
00000080: c5f0 05bb 1344 7dbd f358 a33d e7a8 533e
00000090: 9ab4 b9be 443b b2bd 0f7c 6cbe 0709 61be
000000a0: ace4 4bbf 310c f83d bc65 9dbd 2e34 8cbd
000000b0: f59e 0a3e 47af 763e 1501 2e3d 7ff9 8c3e
000000c0: f964 153e 6daa eebc
0.271396 -0.145636 0.00951598 -0.112346 -0.635524 -0.045955 0.213473 -1.18485
0.236386 -0.153476 -0.649916 -0.359388 -0.634182 -0.20666 0.0562504 0.0473994
0.450423 -0.588781 0.0803167 -2.12455 -0.633867 0.248183 -0.104647 -1.47278
0.149188 0.075738 0.471033 -0.693715 -0.329379 -1.40786 0.340706 -0.0423916
-0.00204377 -0.0618325 0.0797595 0.206699 -0.362706 -0.0870271 -0.230942 -0.219761
-0.796458 0.121117 -0.0768542 -0.0684589 0.135372 0.240903 0.0424815 0.275341
0.145893 -0.029134

layers.10.weight f4 [50, 50]
00000000: adc7 c83d bde4 2fbe fffd 733c 0c74 7d3e
00000010: c0f3 81bc 5b79 a13e f0f9 053f f3e4 b2be
00000020: 18ee fcbd 3434 f93c e546 21be c570 553e
00000030: 8d27 cabe 3d9c 103e f52a babe 0e16 4e3e
00000040: 6345 edbd 9f93 febd 7028 d4be c16f b33e
00000050: b725 72bd 7ad3 c3bd 2bc2 bdbd cccf ed3d
00000060: 9acc a83e f78e 8abe f692 ebbc ab05 763d
00000070: f80a a1bd dbc4 ccc0 f0d5 a33d 6539 b1be
00000080: b24c 0fbe 077e 8cbe 4652 1cbd cdc8 033b
00000090: 1006 8ebd 6adf 6cbe 9e79 a9be 66dd 2f3e
000000a0: c26b 873d 3bc2 09be 46cd 7cbc e9f0 d8be
000000b0: 8528 3f3e 486d 463f b760 393e deaf 323e
000000c0: 08e9 593e 7fb3 1ebd 957f bdbe bf2c 483c
000000d0: b711 0a3d 6397 e83d 075a 46bd 34ab 2d3d
000000e0: 747e 5a3e 8429 6a3e 7e4f b13d d7a2 253e
000000f0: 287e 94be d848 223e e4bd eabc eb8f a8be
00000100: 71b5 243d 52d5 d4bf c311 64be 9ab6 ff3d
00000110: a217 a43b 7364 d53e 39d2 d9be 2041 99be
00000120: ad13 a7be 73f7 39bf abc9 993b 1675 bcbd
00000130: f0ce 903c ef88 6c3a 0498 deb9 0934 d03e
00000140: eb2e 7abd 9867 4a3c b333 3b3d 9368 6e3d
00000150: 1da2 9bbc 001f 84be 2904 d2bd 5020 a73d
00000160: edb8 21bd a3b1 76be a801 e33d 80d4 16be
00000170: 4289 903d 9911 8ebe b5a6 513f b1fd a4bd
00000180: 88a7 32bc 6d58 cb3e ea18 613d 65e6 9d3c
00000190: 0cca 04be c973 fdbd 23b4 51ba 6e2a f73c
000001a0: 458e 033d 973b f33e df16 4cbf 53e9 57be
000001b0: e57d 9cbc dbc4 19be e41d 16bb 1048 183d
000001c0: c28a 13be e080 f6bd 1362 1e3e 98de 1e3d
000001d0: 1348 293e 1a16 a33e c2db 733e 520d fbbd
000001e0: 8968 6a3d dd87 a2bd 6fe0 243d 17a0 cd3d
000001f0: 5726 9c3e 3850 fb3c ad02 4b3d 1696 a9bd
00000200: 2472 ea39 d810 bc3d 3067 66be b66b 7dbd
00000210: fcc8 cd3d b83b 1b3e 34db 303d 849c f73d
00000220: b45a a8be d195 48be 10b3 37be 952d cabe
00000230: a967 013e b2a6 9d3d 5ebe 553e 2447 0a3e
00000240: fd4b d23c 5f1e b7bd eb42 82bd 91bd 393c
00000250: 0915 1c3e e377 4e3d c110 c3bd 971a e1bd
00000260: 464b 143c b5cb adbc 310c b33c 68ca be3e
00000270: 45d8 4cbf 7973 b83e 6bfe cebb 8195 03be
00000280: 2154 8ebc 2875 333d 1c09 04be 1e83 3abd
00000290: d8d6 0f3e 86c9 d43d 740a 123e 3eb0 633e
000002a0: cb10 373e ea20 efbd e37f 3c3d 7b26 95bd
000002b0: 1e4a d93c 815c e23d 925d 893e c892 1e3d
000002c0: 453b 383c b488 a2bd b92b 05bc 7092 6b3d
000002d0: 5340 3abe 91d6 73bd d382 9c3d 446e e63d
000002e0: 19a7 063d da5d 55ba b439 6ebe 0d1d 1bbe
000002f0: 1c97 01be 98a6 90be 6903 0b3d d18c 4a3d
00000300: a86f 293e 7efd f03d 3622 a8bd 385f 76bd
00000310: 0bb7 7cbd f227 2abd 5cf0 a83d 66f7 df39
00000320: a86d db3e 213d dd3e 0bc5 e73c 38d8 b3be
00000330: 0d67 23bd c5dc dabc 5ddc 06bf ac28 94bc
00000340: e9d1 84be 5b44 743e 4546 ac3d 959d fe3c
00000350: 063c babd ceaa ef3e d106 a8be 5c59 32bf
00000360: 92b1 6abe 4be7 93be e4f7 563e 4a44 143f
00000370: 3def 0ebf 2574 b7be 00fd be3c 5e2b 25bf
00000380: 4b57 803d 34be 2bbf 810f f9bc 2bdf 333e
00000390: 266d 5abe 5931 0c3e 0473 dc3e 80f4 9d3e
000003a0: 772b 1b3e 882f 3f3f ecf2 92bc 9f03 433f
000003b0: 5622 55bd 6477 b1bd 6615 d63d a862 99bc
000003c0: 6b0e 103e 34f3 ecbe 7715 22be c5e3 423e
000003d0: c424 6cbe a305 783e 3639 01bd 3b19 843f
000003e0: d5af 443e d544 fa3c 910a 33c0 b6b9 81bf
000003f0: c320 1abd cea5 2240 9c86 4dbc 29cb 1440
0.0980371 -0.171771 0.0148921 0.247513 -0.0158633 0.315379 0.523345 -0.349403
-0.123501 0.0304204 -0.157497 0.208438 -0.394833 0.141221 -0.363609 0.201256
-0.115855 -0.124305 -0.414371 0.350462 -0.059118 -0.0956182 -0.0926555 0.116119
0.329686 -0.270622 -0.0287566 0.060064 -0.0786342 -6.39903 0.0799979 -0.346141
-0.139941 -0.274399 -0.0381644 0.00201087 -0.0693475 -0.231321 -0.331006 0.171743
0.0661235 -0.13453 -0.0154298 -0.423713 0.186678 0.775105 0.181033 0.174499
0.212803 -0.0387454 -0.370114 0.0122177 0.0337083 0.11357 -0.0484257 0.0423996
0.213373 0.228674 0.0865774 0.161754 -0.290025 0.158481 -0.028655 -0.329223
0.0402121 -1.66276 -0.222724 0.12486 0.0050077 0.416782 -0.425432 -0.299325
-0.326322 -0.726432 0.00469323 -0.0920202 0.0176768 0.000902309 -0.000424564 0.406647
-0.0610799 0.0123538 0.0457036 0.0582052 -0.0189982 -0.258049 -0.102547 0.0816046
-0.039483 -0.240912 0.110843 -0.147295 0.0705743 -0.277478 0.81895 -0.080562
-0.0109042 0.397159 0.0549554 0.0192749 -0.129677 -0.123756 -0.000799956 0.0301716
0.0321181 0.475064 -0.797224 -0.210851 -0.019103 -0.150165 -0.0022906 0.0371781
-0.144084 -0.120363 0.154671 0.0387865 0.165314 0.318528 0.238143 -0.122584
0.0572286 -0.0793607 0.0402531 0.100403 0.30498 0.0306779 0.0495631 -0.0828058
0.00044717 0.091829 -0.225003 -0.0618703 0.100481 0.151595 0.0431778 0.120904
-0.328817 -0.195884 -0.179394 -0.394879 0.126372 0.0769781 0.208734 0.135037
0.025671 -0.0894134 -0.0636042 0.0113367 0.152424 0.0504073 -0.0952468 -0.109914
0.00905115 -0.0212153 0.0218564 0.372638 -0.800175 0.360256 -0.00631695 -0.1285
-0.0173741 0.0438129 -0.128941 -0.0455352 0.140468 0.1039 0.142618 0.222352
0.178775 -0.116762 0.0460204 -0.0728273 0.0265246 0.110528 0.268292 0.0387142
0.0112446 -0.0793623 -0.0081281 0.0575127 -0.181886 -0.0595308 0.0764214 0.112515
0.0328742 -0.000813929 -0.232642 -0.151478 -0.126553 -0.282521 0.0339388 0.0494507
0.165465 0.117671 -0.0820965 -0.0601494 -0.061698 -0.041542 0.0824897 0.000427182
0.428571 0.432107 0.0282922 -0.351259 -0.0398932 -0.0267166 -0.5268 -0.0180858
-0.259414 0.238542 0.0841184 0.031081 -0.0909348 0.4681 -0.328177 -0.696676
-0.229193 -0.288874 0.20993 0.579167 -0.558338 -0.358308 0.023314 -0.645193
0.0626665 -0.670871 -0.0304029 0.175656 -0.213307 0.136907 0.430565 0.308506
0.151533 0.746819 -0.0179381 0.761774 -0.0520347 -0.0866535 0.104533 -0.0187238
0.14068 -0.462793 -0.158285 0.190322 -0.230609 0.242209 -0.0315487 1.03202
0.192077 0.0305504 -2.79752 -1.01348 -0.0376289 2.54137 -0.0125443 2.3249

layers.12.bias f4 [5]
00000000: e793 703c 320d 9abb a31c 113d 5cb2 2bba
00000010: 1122 143d
0.0146837 -0.00470128 0.0354277 -0.000654971 0.0361653

layers.12.weight f4 [5, 50]
00000000: eab3 933d 8398 153d b6be 083e ddd3 15be
00000010: 4a93 943b fa17 f7bc b0cd b1bd 0238 0c3d
00000020: 2156 7fbc ba10 1b3e b246 dd3d a9af 9d3c
00000030: 2863 ac3d ca44 1b3d 064a 823e 66b6 503d
00000040: be3d be3c 8d2d 803b 4090 323d 0f22 9dbb
00000050: 5d0c afbc 124b 4a3c 9a93 3c3d c24b 953c
00000060: 276f dbbc e85e 0ebc e52b 1cbc 6552 033d
00000070: 4d3a c03c 651a 4dbc 37b1 76bc 2912 823c
00000080: 9fad 66bb f42c 2d3c 6cfa 1e3c 3edf 013b
00000090: 8d44 68bc 1ba4 bb3c 57aa 683a 3386 1e3c
000000a0: b517 72bb 931d d93a 0331 01bc 945e 653d
000000b0: b144 31bc 33d2 5ebb 3ad4 8a3d 7cf0 da3d
000000c0: 1bb6 52bc dfb6 c03c e474 983d 7cb8 a43c
000000d0: 901c 003c 0a97 9f3c 1c61 513c f9d4 16bd
000000e0: b9c8 393b 49a5 e7b9 a2fb a8bc de0d 98bc
000000f0: 0395 013e 9252 9a3c 28cc a03d f241 4f3d
00000100: e370 463f b1fa 863a c5d3 e13c f7a3 f2b9
00000110: 0602 533d ee62 16bc b5ca 48ba c851 4a3c
00000120: 3552 603d 78a0 8839 04df d9bc 7cb7 79bc
00000130: 6ef7 f63b 3dcc 873b 52d3 ae3c 4b28 58bc
00000140: 698b 2d3b dc04 093d 9916 50bc 3bdc 533d
00000150: 2e3c af3c aeb7 0fbc 9bb8 493b f773 0a3d
00000160: 8ac6 1c3c c437 fbbb 14fe b1bc b899 653d
00000170: 53be 563c 294b e3bb e89c c4bc 460c bbbb
00000180: 64f8 793d de5a 063e 4ce4 5dbc 4af1 713c
00000190: 6094 8b3d 36e5 ca3c 9bce a93c ccbf 18ba
000001a0: edbc 8d3b b078 25bd b443 17bc 7fa5 733b
000001b0: 40f3 5ebc 7c1e d139 cd56 de3d f82c d93c
000001c0: e468 ae3d 4fb6 3c3d 37fd 293f a928 c33c
000001d0: 3fa8 8b3c 07b8 7b3c 1add 413d a0e5 143d
000001e0: cb56 8dbc 2739 963c c53c 6b3d cbe3 9f3b
000001f0: 1944 dabc 8fe9 3f3c 36d2 2dbc d397 af3c
00000200: 131b 423d aa32 c2bc f872 7abc a384 2a3c
00000210: 176f 5abd c1b1 80bb 88c1 d73c af40 143d
00000220: f3d3 2ebd 3778 d53c 131b 62bc 54ba 433b
00000230: 29d8 73bb 3cc1 99bc fae3 66bb bc78 8b39
00000240: 4f86 b4bc 6d51 8bbc 25c2 803d 7102 133e
00000250: 7013 043d c61e f33b 515f a03d b75d 2a3a
00000260: eb06 653c 6328 273c 21ba d63c c306 30bc
00000270: 8bf6 fcbb 5d2c 6e3a d416 0dbd bf1e 1fbc
00000280: 4371 073e 7b99 b23c 00a6 b13d e4dc 213d
00000290: ef01 0a3f 59ed 2b3c e331 28bc cbc4 63bc
000002a0: f2ea 5c3d 4a64 3abd 2c87 b33b 9d64 ebbc
000002b0: 1cf9 82bd d886 053d 54ed c9bc c1b9 d03c
000002c0: 2231 a63c 579a 6aba d479 b9bc 93c5 3bbb
000002d0: 0ca6 ab3c 2554 d53c a098 abbc 431e 913d
000002e0: 491d 933c c9cc 05bd 413f babb 1711 e23b
000002f0: 9bd7 e23c 7b29 e13c 8fb8 31bd c5e7 8ebc
00000300: 94ab 133d 16ad f5ba 521e 063c cb52 a1bc
00000310: 9589 113d cfdb 183e 4d36 79bc d0a8 2f3d
00000320: 5fe9 a13c b0ab 893c 6283 853c 4d23 393b
00000330: 125a 45bc 28ac 3ebd 3a7e 01bc 0e65 a83b
00000340: 5204 5dbc 7d22 32bb de70 843d 43c6 e33c
00000350: f9ba b13d 19c5 373d 5bef 1f3f fb29 84bc
00000360: 6c6b 7a3c 1906 c73c 1228 473d 002a ab3d
00000370: a9a8 95bc d20f b43c 5dfa f73d 7eb3 833c
00000380: ef13 d1bc e165 613c 0eee d8bc 2ca5 dd3c
00000390: aae6 933d c6e3 bdbc 0c63 21bd 1829 efbb
000003a0: da81 04bd 368d 923c 8db7 d53c bb9f 2e3d
000003b0: bb9e 43bd c5d4 cc3c 269b bcbc 571e a83b
000003c0: 755b 7d3c 2a60 f1bc 58fb 60bc 521d ddba
000003d0: d305 86bc 399b cebc 64b8 753d e928 e73d
000003e0: 3a9c 2f3d 462a 07bd
0.0721205 0.0365224 0.13354 -0.146316 0.00453416 -0.0301628 -0.0868181 0.0342331
-0.0155845 0.151431 0.108045 0.0192488 0.0841735 0.0379074 0.254471 0.0509552
0.0232228 0.00391168 0.0435946 -0.00479532 -0.0213682 0.012347 0.0460392 0.0182246
-0.0267864 -0.00868962 -0.00953195 0.032061 0.0234653 -0.0125185 -0.0150569 0.0158778
-0.00351987 0.0105698 0.00970326 0.00198169 -0.0141765 0.0229054 0.000887548 0.00967555
-0.00369404 0.00165646 -0.00788522 0.0559984 -0.0108196 -0.00339998 0.0677876 0.106904
-0.0128608 0.0235247 0.0744417 0.0201075 0.00781931 0.0194812 0.0127795 -0.0368242
0.00283484 -0.000441829 -0.0206278 -0.0185613 0.126545 0.0188382 0.0785144 0.0506
0.77516 0.00102981 0.0275668 -0.0004628 0.0515156 -0.00917886 -0.00076596 0.0123486
0.0547659 0.000260595 -0.0265956 -0.0152415 0.00753682 0.00414422 0.021341 -0.0131932
0.00264808 0.0334519 -0.0127007 0.0517237 0.021391 -0.00877182 0.00307802 0.033802
0.00956882 -0.00766656 -0.0217276 0.0560548 0.0131069 -0.00693645 -0.0240006 -0.00570825
0.0610279 0.131206 -0.0135432 0.014767 0.0681541 0.0247675 0.0207284 -0.000582692
0.0043255 -0.0403983 -0.00923245 0.00371775 -0.0136078 0.000398863 0.108564 0.0265107
0.085161 0.0460723 0.66402 0.0238231 0.017048 0.0153637 0.04733 0.0363518
-0.0172533 0.0183378 0.057431 0.00487945 -0.0266438 0.0117134 -0.0106092 0.0214347
0.0473891 -0.0237058 -0.0152862 0.0104076 -0.0533286 -0.00392744 0.0263374 0.0361945
-0.0426826 0.0260583 -0.0138004 0.00298657 -0.00372077 -0.0187689 -0.00352311 0.000266021
-0.0220367 -0.0170066 0.0628703 0.143564 0.0322451 0.00741944 0.0783068 0.000649895
0.0139787 0.0102025 0.0262118 -0.0107438 -0.00771982 0.000908559 -0.0344456 -0.00971192
0.132268 0.0218017 0.0867424 0.0395173 0.539092 0.0104936 -0.0102658 -0.0139019
0.053935 -0.0455058 0.00547876 -0.0287345 -0.0639517 0.0325993 -0.0246493 0.0254792
0.0202871 -0.000894939 -0.0226411 -0.00286517 0.0209532 0.0260411 -0.0209468 0.0708585
0.0179583 -0.032666 -0.00568381 0.00689901 0.0276907 0.0274856 -0.0433889 -0.0174445
0.0360523 -0.00187436 0.00818594 -0.0196928 0.0355316 0.149276 -0.0152107 0.0428856
0.0197646 0.0168055 0.016298 0.00282498 -0.0120454 -0.0465509 -0.00790363 0.005139
-0.0134898 -0.00271812 0.0646684 0.0278045 0.0867824 0.0448657 0.624746 -0.0161333
0.0152844 0.0242949 0.0486222 0.0835762 -0.0182689 0.0219802 0.121083 0.0160768
-0.0255222 0.0137572 -0.0264807 0.0270563 0.0722173 -0.0231799 -0.0394011 -0.0072986
-0.0323504 0.0178896 0.0260885 0.0426328 -0.0477588 0.0250038 -0.0230232 0.00513057
0.0154637 -0.0294648 -0.0137318 -0.00168697 -0.0163602 -0.0252205 0.0599903 0.112871
0.0428736 -0.0329993

layers.2.bias f4 [50]
00000000: 9ef8 c03d 1f36 c7bc f9a0 b3bf 9887 183f
00000010: 5e10 91bc c520 2cbf 4242 f4be 13b7 06bf
00000020: c041 bbbe a0c1 56be e4d8 22bf 2ed9 923d
00000030: adc2 b6be 87e1 2bbf f223 2ebf a3b1 22bf
00000040: 4e46 f5bd 76fc 0f3f 61e0 2d3f 9a99 013f
00000050: c157 dcbe e7e3 eabe 99e6 473d 2513 46bd
00000060: 499d 3cbf b9ab f73e 38d7 c83e 7380 6cbf
00000070: 0055 1cbe 679b 833e 0131 053f 213a 44bf
00000080: cc0a 293f 3a90 3d3f 16db 6cbf db6d 9b3f
00000090: 0309 d23e 9b1e a4be 6896 f43e 179f e23d
000000a0: ea41 59bf 5cea debb f4c0 27be a4b1 2cbc
000000b0: 0bd5 49bf 9a8e 45bd d121 40bf f1f0 7ebf
000000c0: 3f6e 033f 1083 2fbc
0.0942242 -0.0243178 -1.40335 0.595819 -0.017708 -0.672375 -0.477068 -0.526231
-0.365736 -0.209723 -0.636122 0.0717033 -0.356954 -0.67141 -0.680236 -0.635523
-0.119763 0.562446 0.679205 0.50625 -0.430357 -0.45877 0.0488039 -0.0483581
-0.736775 0.483732 0.392267 -0.923835 -0.152668 0.257045 0.520279 -0.766512
0.660321 0.740482 -0.925218 1.21429 0.410225 -0.320546 0.47771 0.110655
-0.848662 -0.00680284 -0.163822 -0.0105404 -0.788407 -0.0482317 -0.750516 -0.995864
0.513401 -0.0107124

layers.2.weight f4 [50, 50]
00000000: e15e d93e 5c38 8cbf cee3 6b3d ee5c 183e
00000010: 7901 523f 17d9 863f 6f67 ff3d dba5 ed3d
00000020: c898 333f 00c4 ddbd 3f3a 813f 60c7 04bd
00000030: 8b34 213e 16a5 743e c503 28c0 bea3 46bc
00000040: d1b0 883e 2926 5fbe ff33 b4bd c9e5 bfbe
00000050: 72fc 783f 7577 2d3e 61cf 4d3d 4023 223c
00000060: daac 023f 7364 313f 6795 3ebc 6072 233e
00000070: de3c c1bf 153a 6f3e 10ce df3e 85d1 243f
00000080: cb82 99be ffca f2bf cd3d 443d 5386 8bbd
00000090: 56f3 9cbc b3cd c53f 38ba 7abf 73d2 603d
000000a0: 9e7a 70bf 726d 1cbf 7bdc df3e 465f 953f
000000b0: 0b97 bdbe 01c0 01bf 1cb1 56be c765 a4be
000000c0: 6aa0 25bf bed8 3bbe f425 6abd de50 1dbb
000000d0: e71d 023d 7f56 743c 7f9f 333b 5b47 f03c
000000e0: ec56 65bd 1c65 18bd e473 1b3a 911a a4bc
000000f0: dc05 b5bb 5ffb 18bd 17f7 babc f65b e0bb
00000100: 5ca1 bc3b ad76 83bc 6ac9 5bbb b81c f13b
00000110: 0db9 23bd a19a 17bd 4bd8 ed3b bb38 3bbc
00000120: 04a9 393c 20a1 01bd 1520 453d fd77 8e3b
00000130: b42b a3bc 7138 b3bc 6e04 1a3c 8c90 703c
00000140: 541d b23c 02fb 23bd 7ea8 f43c d75d aa3c
00000150: 1f1f e33c 2118 91bc bdf0 b9bc adb8 1d3d
00000160: 1f38 d1b9 8500 4abd d3b0 093d c389 c33c
00000170: d47a a4bc 3110 7fbd 3bc6 153d d157 15bd
00000180: c47e 093c 8870 02bd 0095 85bc 9a3e 003d
00000190: 815c b23e 8200 69be fa33 723c ab5c 1c3f
000001a0: 9e43 29be 67d6 0a3f d4d4 82bf 111e 15bf
000001b0: a594 05c1 aad2 36be 9df3 233f 1c08 91be
000001c0: 9d12 403e 484f 713e f0de c93e cba4 a1bc
000001d0: bbb4 b9be fcc5 0c3f da00 28bf 9275 f0be
000001e0: c3f5 dcbf 6c7b 4bbe 8c8c 943d f1d9 d23e
000001f0: 9ab1 1c40 3222 313e aa9f d4bb 200c 9c3f
00000200: 6ac1 bbbf b152 d1be 5c91 18be 6900 9bbf
00000210: e832 353e abcf d93f f4ba 0fbd fbeb 393f
00000220: 12fa 893e e449 e23f 1728 593e 751e 293f
00000230: 6c5f 903e db33 c73f fd38 c0bd 26fb 273f
00000240: 77a2 cc3e f27b 873f 1d3e 89be f967 a63d
00000250: bc04 dfbe bc3f de3d 3545 e0bd b43c 0fc0
00000260: c413 30bc 5515 ca3e ef13 713d f9f6 12bf
00000270: ba14 cfbf 88f4 273f 65c8 213e 1504 4abd
00000280: 2653 213f 2c66 14be d062 793e 016e 2ebf
00000290: a800 bcbf 3259 dcbb dcec c43d 5caf 3d3f
000002a0: e543 703e bc08 d3be 334a 8cbd 9a98 0e3f
000002b0: 9e95 f6bb 76fa e13e 7731 0dbe 4512 adbe
000002c0: 98b2 3dbd ba84 8b3e acc6 b2bd 6b2b ae3e
000002d0: e7c6 903f d34e ad3d dc11 8e3f f60b d2bf
000002e0: d864 cdbd e0bb c53e a9da 6abf 46b5 783f
000002f0: 8481 1fbf 5056 d43e 9dd7 80bf c1d9 b73c
00000300: 581b 033e 4ce0 cabf acbd 893d 11e4 84c0
00000310: 0abd 8ebe c213 0ebf ecda be3e b1f7 5e3f
00000320: 23ae d23c 0f8b 24bb ca04 573c dbfe 70bd
00000330: 6a07 d2bc c158 3a3c 0c6c 9fbc 14e3 21bd
00000340: 069b 5fbc 47fb 443c d832 f03b 2209 11bd
00000350: e1db eabc ccd0 b8bc 72d9 cdbc 647d 9ebc
00000360: 014b 933c 5d6a 64bd 0fb3 fcbc c8d0 f1bc
00000370: 46fc b7bb 1fdc 78bc aa2b 1f3d 0d77 c93c
00000380: 36f7 80bb 6db2 a1bc 20e2 10bd bff5 5cbd
00000390: d405 21bd b899 253d 3f6f 2abc abe6 5e3c
000003a0: decd 2e3c 9b61 19bd 758b 653c a095 ea3c
000003b0: ab18 193c 9e56 9b3b 48ca 11bd 647d de3c
000003c0: f740 66bd f63c 243c 41f5 0dbc fd9b 5cbd
000003d0: 5e63 3cbd 25c1 e5bc dc16 80bc cfa5 13bd
000003e0: 266c a4bc ecb0 58bd 8c9f 463e aeba 0e3e
000003f0: f9e7 533d 020f 083f 8941 94bf 3f3a 0140
0.424552 -1.09547 0.0575903 0.148792 0.820335 1.0535 0.124709 0.116039
0.70155 -0.108284 1.00959 -0.0324167 0.157427 0.238911 -2.62523 -0.012124
0.266974 -0.217919 -0.0879898 -0.3748 0.972602 0.169401 0.0502466 0.0098961
0.51045 0.692939 -0.0116323 0.159616 -1.50967 0.23362 0.437119 0.643822
-0.299826 -1.89682 0.0479105 -0.0681273 -0.019159 1.54534 -0.979404 0.0548882
-0.939371 -0.611045 0.437229 1.16697 -0.370293 -0.506836 -0.20966 -0.321089
-0.646979 -0.183444 -0.0571651 -0.00240045 0.0317668 0.0149132 0.00274083 0.0293309
-0.0559911 -0.0372058 0.000593005 -0.0200322 -0.00552438 -0.0373491 -0.0228229 -0.0068469
0.00575654 -0.0160478 -0.00335368 0.00735816 -0.0399714 -0.0370127 0.00725845 -0.0114271
0.0113318 -0.0316478 0.0481263 0.0043478 -0.0199183 -0.0218775 0.00940047 0.0146829
0.0217425 -0.0400343 0.0298655 0.0207967 0.0277248 -0.0177117 -0.0226978 0.0385062
-0.000399054 -0.0493169 0.0336159 0.0238694 -0.0200781 -0.0622713 0.036566 -0.0364607
0.00839204 -0.0318456 -0.0163064 0.0313097 0.348362 -0.227541 0.0147829 0.610789
-0.165297 0.542334 -1.02212 -0.58249 -8.34879 -0.178538 0.640436 -0.283265
0.187571 0.235654 0.394279 -0.0197319 -0.362707 0.549896 -0.656263 -0.469647
-1.72625 -0.198713 0.0725337 0.411819 2.44834 0.172982 -0.00648876 1.21912
-1.46684 -0.408834 -0.148992 -1.21095 0.176952 1.70165 -0.0350904 0.726257
0.269486 1.76788 0.212067 0.660621 0.281978 1.55627 -0.0938587 0.656176
0.399677 1.05847 -0.268052 0.081253 -0.435583 0.10852 -0.109507 -2.23808
-0.0107469 0.394694 0.0588569 -0.574081 -1.61782 0.656075 0.157991 -0.0493203
0.630175 -0.144921 0.243541 -0.681366 -1.46877 -0.0067245 0.0961549 0.740957
0.234634 -0.412176 -0.0685009 0.557016 -0.00752516 0.441364 -0.137884 -0.33803
-0.0463129 0.272497 -0.087293 0.340175 1.13107 0.084623 1.10992 -1.64099
-0.10029 0.386199 -0.917399 0.971516 -0.62307 0.414721 -1.00658 0.0224427
0.128034 -1.58497 0.0672563 -4.15284 -0.278786 -0.554989 0.372764 0.870967
0.0257178 -0.00251073 0.0131237 -0.0588368 -0.0256383 0.0113737 -0.0194607 -0.0395232
-0.0136478 0.0120228 0.00733028 -0.0354091 -0.0286693 -0.0225605 -0.0251281 -0.0193469
0.0179801 -0.0557655 -0.0308471 -0.0295185 -0.00561479 -0.0151892 0.03886 0.0245929
-0.00393572 -0.0197384 -0.0353719 -0.0539453 -0.0393122 0.0404298 -0.0104025 0.0136048
0.0106692 -0.0374466 0.0140103 0.0286358 0.00934426 0.00474055 -0.0355933 0.0271594
-0.0562143 0.0100243 -0.00866443 -0.0538597 -0.0459932 -0.0280462 -0.0156359 -0.0360468
-0.0200711 -0.0529031 0.193968 0.139384 0.0517349 0.531479 -1.15825 2.01918

layers.4.bias f4 [50]
00000000: acca 9abf 9e3f c5be 1c5f 97bf 9c4d bf3e
00000010: dd24 82bf d8d5 34be 3b34 94be 3f8c 84bf
00000020: be33 4a3e 8846 1fbf 6e69 8dbf 3a92 8b3f
00000030: 6b6e cbbd c2a5 133e cb14 73bc 26c4 fc3d
00000040: 9964 88bf 8404 56bc 6c21 18bf 7634 eebe
00000050: c2bd cabe 13ab 50bc 9560 8dbf 1269 3bbe
00000060: 431f 683f cefc 12bf 1ea3 20bf 83a2 313f
00000070: 3f1e 92be 02d9 bf3f 98c9 2b3d cafc cbbe
00000080: c7d5 f8be 0248 a9bf d714 c03e 4792 d8be
00000090: adbf c53e ec12 85bf ee5f a5bf 1093 703f
000000a0: dc11 bebe 1b2b b1be 3b8a bbbe c2c0 bbbf
000000b0: 8b1b 4b3f 5b41 f3be eb6f 0d3f e0be 1040
000000c0: 49d7 943f 2f33 843e
-1.20931 -0.385251 -1.18259 0.373639 -1.01675 -0.176597 -0.289461 -1.03553
0.197463 -0.62217 -1.10478 1.0904 -0.0993317 0.144187 -0.0148365 0.123421
-1.06557 -0.0130626 -0.59426 -0.465244 -0.395979 -0.0127361 -1.10451 -0.183018
0.906727 -0.57417 -0.627489 0.693886 -0.285387 1.49881 0.0419403 -0.398413
-0.486006 -1.32251 0.375159 -0.422991 0.386228 -1.03964 -1.29199 0.939744
-0.37123 -0.346032 -0.366289 -1.46682 0.793389 -0.475108 0.552489 2.26165
1.16282 0.258203

layers.4.weight f4 [50, 50]
00000000: ada1 d4be a2ff f13b 0483 c5bd 3c32 363e
00000010: 6d9f 9f3c 338b 403f 50c3 973e 5fb7 a03e
00000020: eb72 223f 656e 223f bed9 e6be 6345 8dbe
00000030: c2c0 b3bc 7072 a43d cd03 b83d 1ee1 f43e
00000040: d837 263d 29cb 403e 6589 2ebf 2f99 c43d
00000050: 151b 9bbe d80f 89be 0f29 36be 020e 33c0
00000060: 6aa4 c93f b20f 063f 758e 913e 6dbf 463d
00000070: 8528 0fbe 9812 aebd 0e14 d83d 6570 44be
00000080: 1172 d63e f7b9 90bd 6f8f 843d e8e8 a73d
00000090: c68c 2b3d df8b dfbe 32ae 15bc fc8e b13e
000000a0: 711f 813e cd61 52bc a25d 55be d993 c4bb
000000b0: 020e 813f a3e7 4e3f 4fe9 ccbf 09c6 453f
000000c0: 0113 40bf 8a7e 233c ef91 ed3d 92db 25bd
000000d0: ce16 803e b4aa e5bd 4801 3d3d f2d0 533f
000000e0: 15a9 c4bf 93ff 293e 0e2a b6bd 76e0 a0bf
000000f0: 2afe cfbe 3fe5 38be ef15 a2bd bf43 91bf
00000100: 05f9 b1be 06b8 30be 8b88 023f 435f c0bd
00000110: a147 9cbe 8d24 513e d26f 3f3e 5914 063e
00000120: 10e9 373e 0459 773f 4145 05be 6919 79be
00000130: 0323 2f3e 0a6e 7fbd cf10 febe 1bee 483c
00000140: 3a02 483e 9250 44bd 93a8 133f eca5 19be
00000150: c025 60be 39d1 c63e 7312 72bf e161 e23e
00000160: 7f30 d8be 30d9 103f 3d9b 25be 5e36 f03c
00000170: c883 23bd d2ea fdbb 2b24 9a3d c7a0 333f
00000180: a646 883e 8f38 bc3e 9d80 f63e 6f19 e6bc
00000190: a38a ac3d 8b13 04bd 91f5 8fbd 0d19 7f3e
000001a0: 5a23 8c3c b2f3 f63d 1782 2e40 ba2b e03c
000001b0: f661 013f d313 b23f a987 c83e 34bc 01bf
000001c0: 44a5 01bf 8577 c1be 098a 6f3e 9b37 8ebe
000001d0: 7bdb ecbd d74e 20bf 39b4 0cbf 0264 083f
000001e0: 0daa 1d3e 2d3f 303e 5039 f6be 0003 69bf
000001f0: 19ff c63f 28f4 3a3e 1b0f 063e ff09 2e3c
00000200: ebf6 a33c 423f 83be 8db4 9cbe 1ab7 a23c
00000210: 679b b3be f9f3 c53e 2aec 7d3c 86c0 56bd
00000220: 4e41 de3e 33d3 a7bd ea5b 1ebf 5112 d2be
00000230: 1958 8f3e 9923 753c 1e19 6bbe 4473 573b
00000240: b988 a73f 4302 d63e c520 f03d 43ad 353f
00000250: 5183 aebd ffba 89bc b5fa 823e 7792 dfba
00000260: c8e2 a83d 9be2 013e 6f83 5abc 999d 5d3f
00000270: 92e8 17c0 10e8 3cbe d314 41be a0fd d83f
00000280: cf83 fbbf b48e e23e 8f53 a03f 923f c83e
00000290: 4b23 3a3f 809e 06bf 19d6 8e3d cf15 953e
000002a0: 253c 11be 7845 b83e e275 c53e 00e6 0e3f
000002b0: 75ad 153f 98c0 8dbf 098e 063d 0324 dabd
000002c0: 0324 3abf 51da 3fbf c807 e5bf 6f83 7a3f
000002d0: 4d11 60be a1da 24bf 9014 55bf a661 583e
000002e0: 5e47 3cbe e527 f5be 6fbb 50bf 5d33 093e
000002f0: c58f 6dbf c634 eb3e 48f4 873d a0f7 eb3c
00000300: 89ce 52be 20ab e53c fe9a 0cbe 7444 363f
00000310: 1b68 99bd f78f 753e 59a6 afbe 07c9 47bd
00000320: 12f5 123f 192c cbbc b3b5 0ac0 ef13 8f3b
00000330: 0a3c e63b bb09 633d 1ac2 893e 5324 a7be
00000340: fbe8 70bf 7008 99bf d7a3 94bf 0f27 f0bd
00000350: 5ab8 2c3e 8fde 38bf 6e34 903e ec02 c43d
00000360: 2254 8dbf c191 203f 17f2 c03e ace2 b5be
00000370: 82e5 083e 0f0e 323f 4524 34bd 2905 b0c0
00000380: 3ae9 8d3e 2e1d f3bc 895e 8ebf c145 bdbd
00000390: 9b1d 313f 5b7c c63f c1c9 7ebf 1de8 d1be
000003a0: 274e 963f 2db0 2f3f 7c7d f53e c3f2 d7be
000003b0: 6973 f43e f86f 6abf 7862 8e3f 8121 8ac0
000003c0: 6d1d 38bf bb10 263d be6a f13f e0c9 1d3d
000003d0: e291 1cbf 9198 90be d4f1 00bf 4372 2ebf
000003e0: 363a bf3e 33d6 c8bb 57b2 433d 6111 283d
000003f0: 5614 aa3d 857d 6b3e d791 fa3b 6e88 d13e
-0.415296 0.00738521 -0.0964413 0.177926 0.0194852 0.752124 0.296412 0.313899
0.634566 0.634497 -0.45088 -0.27592 -0.0219425 0.0802964 0.089851 0.47828
0.0405806 0.188275 -0.681784 0.0959953 -0.302941 -0.267699 -0.177891 -2.79773
1.57533 0.523677 0.28429 0.0485224 -0.139803 -0.0849964 0.105507 -0.191835
0.418839 -0.0706672 0.0647267 0.0819872 0.0418823 -0.436614 -0.00913577 0.346794
0.252193 -0.0128407 -0.208365 -0.00599907 1.00824 0.808222 -1.60087 0.772553
-0.75029 0.0099789 0.116001 -0.0404926 0.250174 -0.112142 0.0461438 0.827407
-1.53641 0.166014 -0.0889474 -1.25685 -0.406236 -0.180562 -0.0791434 -1.13488
-0.347603 -0.172577 0.509896 -0.0939317 -0.305234 0.204241 0.18695 0.130937
0.1796 0.966202 -0.130147 -0.243261 0.171032 -0.0623608 -0.496222 0.0122638
0.195321 -0.0479284 0.576791 -0.150047 -0.218894 0.388315 -0.945594 0.442153
-0.422245 0.565814 -0.161725 0.0293228 -0.0399206 -0.00774894 0.0752643 0.701672
0.266164 0.367619 0.48145 -0.0280883 0.0842488 -0.0322452 -0.0702926 0.249119
0.0171067 0.120582 2.72669 0.0273646 0.505401 1.39123 0.39166 -0.506778
-0.506428 -0.377865 0.233925 -0.277768 -0.115653 -0.626203 -0.549625 0.532776
0.153969 0.172116 -0.480906 -0.910202 1.55466 0.182572 0.130917 0.0106225
0.0200152 -0.256342 -0.306065 0.0198627 -0.350795 0.386627 0.0154982 -0.0524297
0.434092 -0.0819458 -0.61859 -0.410296 0.279969 0.0149621 -0.229588 0.00328751
1.30886 0.417986 0.11725 0.709675 -0.0852114 -0.0168128 0.255819 -0.00170572
0.0824638 0.126841 -0.013337 0.865686 -2.37357 -0.184479 -0.188556 1.69524
-1.96496 0.442495 1.25255 0.39111 0.727101 -0.525856 0.0697443 0.291182
-0.141831 0.359905 0.385665 0.558197 0.584678 -1.10744 0.0328503 -0.106514
-0.727112 -0.749425 -1.7893 0.978568 -0.218816 -0.643961 -0.832345 0.21131
-0.183866 -0.47882 -0.81536 0.133985 -0.927975 0.459387 0.0663839 0.0288046
-0.205866 0.0280357 -0.13731 0.711982 -0.0749056 0.239807 -0.343066 -0.0487757
0.574052 -0.0248013 -2.16734 0.00436639 0.0070262 0.0554292 0.269059 -0.326449
-0.941055 -1.19557 -1.16125 -0.117262 0.168672 -0.722146 0.28165 0.0957087
-1.10413 0.627224 0.376847 -0.355245 0.133688 0.695527 -0.0439799 -5.50063
0.27717 -0.029677 -1.11226 -0.0924182 0.691858 1.55067 -0.995266 -0.409974
1.17426 0.686282 0.479473 -0.421774 0.477443 -0.915771 1.11238 -4.31659
-0.719199 0.0405433 1.88607 0.0385226 -0.611601 -0.282414 -0.50369 -0.681431
0.373491 -0.00612905 0.0477775 0.0410322 0.0830466 0.229971 0.00764678 0.409244

layers.6.bias f4 [50]
00000000: 3047 f7be f609 403f 417d 9bbf 8c4d 173f
00000010: c311 c43e 895c 243f 1f31 323f 62d6 833f
00000020: 49f6 28bf 9318 24bf ca1a 05be 12fa 993e
00000030: a48b 0d3f ba32 883e 7d41 273f 766f 9d3e
00000040: 51f5 1bbe a81d 323f 6fd4 ea3d 8ca1 0c3f
00000050: a6ed df3c 713d debf 89b4 cd3e 2db2 c1bf
00000060: 8fa8 68bf 395f 30bf ce8d 8dbf 4487 e83e
00000070: d330 b43f 8cd8 d73e 3cf8 e1be bdfb 033e
00000080: 1cb5 b2be 8d45 23be a3cb 1b3e 9cbf 793f
00000090: 1200 923c 07b4 103f 5739 99bc 67b4 bdbe
000000a0: 71a9 7abe 251f 4f3f a4a6 e5be 28d7 943d
000000b0: d045 433e 6294 81bd 3bdf 2b3f e2e4 1cc0
000000c0: 58d0 6f3d 1896 1bbf
-0.482965 0.750152 -1.21476 0.591027 0.382948 0.642037 0.696062 1.02998
-0.660008 -0.641 -0.129985 0.300736 0.552912 0.266012 0.653343 0.307491
-0.152303 0.695765 0.114663 0.54934 0.027335 -1.73625 0.401768 -1.51325
-0.908822 -0.688953 -1.10589 0.454157 1.40774 0.421574 -0.441347 0.12889
-0.349038 -0.159445 0.152144 0.97558 0.0178223 0.565247 -0.0187041 -0.370517
-0.244787 0.809069 -0.448537 0.072676 0.190696 -0.0632713 0.671375 -2.45147
0.0585483 -0.607759

layers.6.weight f4 [50, 50]
00000000: 8e21 a0bd 302a bbc0 4df3 1240 97ff a83f
00000010: 179e 233f 7e37 1d3d 90a0 94bf 897b acbf
00000020: 9434 6fbf 45f2 3dbf 95bb 6fbf ee77 383e
00000030: 2a6f efbf f417 72bf 5034 343c 7e35 f3bf
00000040: 5b94 15c0 b41a 173d 5019 13c0 e99a e1bf
00000050: 541d 16bf 5682 c53c eeeb 9cbf a229 fbbe
00000060: 1e35 263d 672a 943e 6132 91bf 40a2 1d3f
00000070: a701 e8bc 221a 05bf ff97 43bf e44e 85bf
00000080: 7ea8 003f 9582 22c0 4758 103f 6ff5 a03f
00000090: 5473 313f 8eaf c6c0 82c9 adbe 658a c93e
000000a0: c132 5b3c db16 e5bf 52d5 e0bf 3d7e 9f3f
000000b0: 234a 19c0 c669 24bf 446e b6bf 1a6e a03f
000000c0: 431c b73f c6c4 ae3e cea7 1a3f 64e4 31bd
000000d0: 5070 11bf ad71 913d fffc 68bd 1ad1 b73d
000000e0: e61e d2bd a763 e93c 11df c9be 7ec7 143f
000000f0: 48dc 233e 145d dfbe 5321 4e3e f19c 4dbe
00000100: 520f d1bc c03e dabe 1539 04bd 0aa2 aebc
00000110: 42c0 a0bd d76d 503e 384d 4fbe 6d05 873b
00000120: edf4 83be 1ae0 023e 4221 223e 0a12 7bbe
00000130: 3771 b2bc c8e4 9e3c 8f59 91bc 1fbd 99be
00000140: 693a 8b3e e50c c5be 6551 28be 2193 50bf
00000150: 0683 8bbe 29cd 063f 0ec1 4cbc 07ce 95bf
00000160: aa0c d33e 1e16 4abe ab96 ccbe 2c67 b7be
00000170: 4013 f1be 80ee 4b3e 87a8 da3e dca1 413f
00000180: 3329 2f3d 2940 9cbe 0456 ee3d c2fc 453e
00000190: c05d 2e3f bb27 01c0 9b38 993f 0d39 063f
000001a0: 1e4a 1b3c f84f f7bd 0e31 febd 6b61 663e
000001b0: dbc8 b0bd ada5 403e bbf2 b93e f10d 65be
000001c0: 35a0 39bd c37f fa3d 01cc 2b3d a88a 893e
000001d0: 5b95 8c3e 6bd5 0e3d 55b1 873d 04e6 893e
000001e0: f0de 8f3b 5ea8 32bc d317 22bf b91c 7f3e
000001f0: ce34 e1bc 4301 3b3e 0ce0 72bd b45b 93be
00000200: c0ed 493e 8d98 f93d befa 883e e867 92be
00000210: 4161 a83e 6bd8 e73e b134 a03e a051 c23e
00000220: b515 b3be 9c16 ecbe 0fd1 483d fb93 08be
00000230: 90dd 45be 5b08 22be 5bee 7cbe 6479 173e
00000240: b3d1 e13e 992e bcbe d07d 79be 1d3d be3d
00000250: e868 a53d 45d9 a33e d0ed 0bc0 8bdd 723f
00000260: 7e8c a93e c5fe c2be e4d7 5f3e de58 c83e
00000270: 8290 70c0 6397 34bf 20b5 61c0 32f1 fd3c
00000280: db32 18bf 5834 42bc 29ed 4d3e f4fb 3ebe
00000290: 1fbc f6bc 42b4 1abf 978f 543f 488a 483c
000002a0: 9b20 e23f d01f 843d 2121 5abe 31e8 a9bc
000002b0: e414 893f 60c8 9a3f 7c61 f6bf 8467 f23e
000002c0: ea79 33bf 376e 01bf 7940 81bf 8b37 aabf
000002d0: c4b1 8ebf 9ce1 be3f 46ef ac3e f1f2 943e
000002e0: dbbe 37bf 04e2 0fc0 e088 69bd 8f35 433f
000002f0: 2ee7 82bf bb97 7bbd 54e5 57bf bc7a 653f
00000300: 5c55 263f 5989 19be 2c46 853e 5cb5 a1bd
00000310: e73a 193f 213a 2c3f fcdf 09bf 4968 933e
00000320: f0de 353f 3a07 5fbe afb1 1fbf f1a1 bc3e
00000330: c094 41be f73d ea3e e691 93bf 1686 483e
00000340: 9049 92bf b004 1a3f 8eb1 03bf 7500 4cbf
00000350: f584 15c0 d6c9 79be 7c8f c43c 6f84 0d3f
00000360: 0f9a a53e f8d2 053d 15c4 e0be 836e 5bc0
00000370: d13e d6bd 92af 243d 0c5c f6be 793a afbe
00000380: b12f 5ebd 7498 673f 3238 fabe eb90 fbbd
00000390: 5fd1 edbd b208 ea3c f166 adbe 38dc 573e
000003a0: d602 2b3e f645 063f 4a29 2c3f a4a6 8d3e
000003b0: b43d b23e 6a89 f53e af26 7f3e 3047 afbe
000003c0: 6ac2 d6be 250d 29bd 7fbd e2be 4434 dabd
000003d0: 8256 e03d d713 8d3e fef8 06bd 622c bbbe
000003e0: e126 233d 3735 40be 6f9d 03bf e23b 413e
000003f0: bf0e 8c3e bff0 babe bf93 bbbd f761 78bd
-0.078189 -5.8489 2.2961 1.3203 0.639131 0.038383 -1.16115 -1.34752
-0.934396 -0.741978 -0.936456 0.180145 -1.87058 -0.945678 0.0109988 -1.90007
-2.33718 0.0368907 -2.29842 -1.76254 -0.586385 0.02411 -1.22595 -0.490552
0.040578 0.289386 -1.13435 0.615757 -0.0283211 -0.51993 -0.764038 -1.04147
0.502571 -2.53922 0.563847 1.25749 0.693166 -6.20893 -0.339428 0.393634
0.0133788 -1.78976 -1.75651 1.24604 -2.39515 -0.642239 -1.42524 1.25336
1.43055 0.341345 0.604123 -0.0434307 -0.56812 0.0710176 -0.0568819 0.0897543
-0.102598 0.0284899 -0.39428 0.581169 0.16002 -0.436257 0.201299 -0.200794
-0.02552 -0.42626 -0.032281 -0.0213175 -0.0784917 0.203544 -0.202443 0.00412052
-0.257728 0.127808 0.15833 -0.245186 -0.0217825 0.0193962 -0.0177429 -0.300271
0.27193 -0.384864 -0.164373 -0.814745 -0.272484 0.526568 -0.0124972 -1.17035
0.412206 -0.19735 -0.399587 -0.358209 -0.47085 0.199152 0.427067 0.756376
0.0427639 -0.305177 0.116375 0.193347 0.681118 -2.01805 1.19704 0.524308
0.00947812 -0.120758 -0.124117 0.224981 -0.0863206 0.188132 0.36318 -0.223686
-0.0453188 0.122314 0.0419426 0.268636 0.274577 0.0348715 0.0662562 0.269333
0.00439059 -0.0109044 -0.633176 0.249133 -0.027491 0.182622 -0.0592957 -0.287809
0.197196 0.121873 0.267538 -0.285949 0.328867 0.452823 0.312902 0.379529
-0.349775 -0.46111 0.0490275 -0.133377 -0.193228 -0.158235 -0.247003 0.147924
0.441053 -0.367543 -0.243644 0.09289 0.0807665 0.320017 -2.18639 0.948693
0.33115 -0.38085 0.218597 0.391303 -3.75882 -0.705435 -3.52668 0.0309988
-0.594526 -0.0118533 0.2011 -0.186508 -0.030119 -0.604313 0.830316 0.01224
1.76662 0.0645138 -0.213017 -0.0207406 1.07095 1.20924 -1.92485 0.473446
-0.701079 -0.505588 -1.00978 -1.32982 -1.1148 1.49126 0.337763 0.290916
-0.717756 -2.24817 -0.0570153 0.762536 -1.02268 -0.061424 -0.843343 0.896404
0.64974 -0.149938 0.260301 -0.0789592 0.598555 0.672762 -0.538574 0.287905
0.710433 -0.217801 -0.623805 0.368423 -0.189044 0.457504 -1.15289 0.195824
-1.14287 0.601634 -0.514428 -0.796882 -2.33624 -0.243934 0.0239942 0.552802
0.323441 0.0326719 -0.438996 -3.42862 -0.104612 0.0402065 -0.481171 -0.342243
-0.0542447 0.90467 -0.48871 -0.122835 -0.116122 0.0285686 -0.338676 0.210801
0.167003 0.524505 0.672505 0.276662 0.348127 0.479564 0.249171 -0.34234
-0.419452 -0.0412723 -0.442852 -0.106545 0.10954 0.275542 -0.0329523 -0.365573
0.039832 -0.187703 -0.514121 0.188705 0.27355 -0.365118 -0.0915904 -0.0606403

layers.8.bias f4 [50]
00000000: 3d61 d53f 82fd 27be 489b 14bd 5704 bfbf
00000010: f930 7bbc 624a 643f 4911 c9bf 6ff0 8dbf
00000020: b265 413f 15e3 dc3e f92c f73e 85b1 913f
00000030: ee3d d4bf d0a7 04bd 0322 4c3f a6b8 fabe
00000040: c9e9 0bbf 79cc 1c3f f702 273f 397f 8fbf
00000050: abb0 253f 10e8 083f b4ae 093f 3202 9abe
00000060: e1cf 3cbf eb08 56bd 7f1a 92bc 93c6 a03f
00000070: 13b5 d43d 9dda b1be 70ee f73e cc5d 933e
00000080: 4358 31bf acc9 433f 414a 07bd 0130 aabf
00000090: bf60 a73e 4cde 203e d7fb dd3e 143e dbbd
000000a0: ea7a cabe b001 0dbf b3ec b93e b136 063e
000000b0: 433c fa3e fc6f 39bf 1f83 093f 02d4 883f
000000c0: ce50 5cbf cb8e 03bd
1.66703 -0.164053 -0.0362809 -1.49232 -0.0153315 0.89176 -1.57084 -1.1089
0.755458 0.43142 0.482765 1.13823 -1.65814 -0.0323866 0.797394 -0.48969
-0.546536 0.612495 0.652389 -1.12107 0.647227 0.534791 0.537822 -0.300798
-0.737547 -0.0522546 -0.0178349 1.25606 0.103861 -0.347371 0.484241 0.287825
-0.692753 0.764796 -0.0330298 -1.32959 0.32691 0.157098 0.433562 -0.107052
-0.395469 -0.550807 0.363134 0.131068 0.488741 -0.724365 0.537157 1.06897
-0.860608 -0.0321186

layers.8.weight f4 [50, 50]
00000000: db30 3a3e 81ea e7be a4c6 8c3e 6a89 8d3e
00000010: 3d61 cdbf 0a36 09bd 17fe 22bd a07b 853c
00000020: 9eea e4bf 390b e3be 4a9d 9b3d 9c15 29bf
00000030: ed06 5b3d d47d 70bf f261 d6be 016d 1fbf
00000040: c652 143f 82f2 c83c 9c8b 4f3f ee5a 323f
00000050: ae0c 7a3e 4b30 66bd 894b c43b 8273 a6bf
00000060: 2e54 2e3e b7d1 bcbf 9a5b e13e e049 3bbe
00000070: 96d0 2dbe 02f1 febf 0a2f 05bf b2d6 50be
00000080: 4757 493e e353 503e 9bc8 14bf fcde 4b3c
00000090: 5bb1 d7bf 90f5 d43d 61a6 4d3e a8c3 6abe
000000a0: 1153 5ac0 807f b2be aaef 2c3e 0aa2 8ebf
000000b0: a46d 8c3e 6939 30be a6b9 f5bd a3cd d9be
000000c0: ce18 ee3e bfd3 1c3f 3d44 133e edb7 223f
000000d0: 6cec 86bf daf8 8dbd a4aa d9be 6dab 91be
000000e0: 1f09 053d 2c28 003f da5e b63d 315d 683e
000000f0: 5d70 023f 01c3 9abe b26e 34bb 30c4 203d
00000100: 7992 d43e 837b 4fbd 63b9 c53e bd51 b33e
00000110: db78 07bc d49d af3e 71ad 36bd 0586 9c3e
00000120: 5f06 48bd 0555 1ebd 3109 8f3e 7635 f9bd
00000130: 3868 b7be c9cb 7ebf b378 513d 50e1 38be
00000140: 0779 1dbe 8179 40bf 0838 b9bd 3751 5bbf
00000150: 967b 21be 8925 75be 0e4a 78be 4622 d4be
00000160: d6c5 2d3e c3f4 09bf 4758 443e 7d92 833e
00000170: 397b 07be c783 85be 3bee 4a3c 417f 04bc
00000180: 376a ca3d f374 4e3f e7e2 8fbe 3d90 c83b
00000190: b3a0 0bbd 99da ed3c eb03 e63b 4c4b 31bd
000001a0: 2254 c63b 969d 34bc c8e8 05bd e4c2 5c3c
000001b0: 9170 adba bbb2 30bd 9f70 1b3c cf3a d73b
000001c0: 1ebc db3c 46cc 11bd 06a8 a1bb eca4 1ebd
000001d0: bf8e 493c abdf 96bc fd1d 80bc b694 5dbd
000001e0: d7ca 993b 6388 b53b 392a 373c 965d 10bd
000001f0: 37dc 6cbc 4e0e ba3c bf28 01bd 9c50 083d
00000200: 257a d73b 1aec 5cbd ce07 8f39 3ec9 c23c
00000210: 8f36 0c3c 5b22 d73c 7743 ff3c 29e1 ee3c
00000220: 1456 91bb 8de0 353c a6de cbbb e53e 9cbb
00000230: 574b f0bc 25fe cdbc 4bdb 89bd 3374 87bc
00000240: e7ce 023c 28c8 19bd 8873 83bc e031 973c
00000250: 90bf 34bd ef97 0abd 467c 37be dcd8 443f
00000260: b1bf 04bf b5e1 a0be 38be a6be 289d 58be
00000270: 7288 d8bd 5e83 fe3c 3cb5 c4bd a5a2 a13e
00000280: f5f7 e23e f73a 593e c29a 94bb 5857 35be
00000290: 137c 033e f5b2 03ba adb4 c6bd d027 3a3f
000002a0: 32ca 33be 2097 283e d592 963e 592c 4abd
000002b0: 535b 1a3e 52d1 58bd ab31 b2bd a225 4b3f
000002c0: 3082 06bf 1aa3 edbe 419c 773e 2bdb 9fbe
000002d0: c83f 33be 548b a83e 9621 9e3e 4b76 343f
000002e0: 3736 07bf cb49 783e df8d e43b 1764 6bbe
000002f0: 4411 573d 6897 8f3e 5c77 9bbe db8d c9bd
00000300: 1422 3cbf 02b8 a1be a790 903c 5dfb 62be
00000310: 9274 9d3f 588d 11bf c762 fbbd a7b2 04bf
00000320: 7f06 063c c8b1 153d 5888 b3bc 9c9d 56bd
00000330: 5ace ef3c 1904 56bd df9d e1bc f8c8 21bd
00000340: 1075 1f3c 0d87 203a b59e 06bd 4d59 fc3c
00000350: 5137 cc3b c23a 443c a786 273d e498 f6bc
00000360: 7c87 36bd 321d fabc b63e 8939 0c7b 35bd
00000370: e896 27bd 1b0d 20bd 266e 95bc 2860 20bd
00000380: dde5 873c 3e22 a6bc e7c0 19bc a239 1b3c
00000390: 09fc 1f3b 1344 e1bb 99d7 913c 055b 5b3c
000003a0: 2fb6 9abc cceb ad3c bc65 3d3d 57ce 1ebd
000003b0: 5848 6abd 8637 abbc e0d0 04bb ae21 02bd
000003c0: 53fe 5abc b838 0f3d a0d1 2cbd 8dea 993c
000003d0: 4a22 a0bc ce3d bf3c e5b5 d2bc a3d6 4abd
000003e0: 6c70 6c3c 9ffe 183d 831c 8fbd c3a5 5e3d
000003f0: e10a b03e 261e d0bd 174a cebe 997e 693e
0.181827 -0.452961 0.274953 0.276439 -1.60453 -0.0334988 -0.0397931 0.0162943
-1.78841 -0.443445 0.0759836 -0.660486 0.0534734 -0.93942 -0.418716 -0.622757
0.579388 0.0245297 0.810724 0.6967 0.244189 -0.0561984 0.00599045 -1.3004
0.170243 -1.47515 0.440152 -0.182899 -0.169741 -1.99173 -0.520249 -0.203944
0.196622 0.203445 -0.581186 0.0124433 -1.6851 0.103984 0.20083 -0.229262
-3.41132 -0.348629 0.168883 -1.11432 0.274274 -0.172094 -0.119983 -0.425397
0.465033 0.612606 0.143815 0.635619 -1.05409 -0.0693223 -0.42513 -0.284511
0.0324794 0.500613 0.0890481 0.226918 0.509527 -0.302269 -0.00275318 0.0392496
0.41518 -0.0506549 0.38618 0.350233 -0.00826856 0.343001 -0.044599 0.30571
-0.0488342 -0.0386553 0.279367 -0.121684 -0.358217 -0.995297 0.0511405 -0.180547
-0.153782 -0.751854 -0.0904389 -0.856708 -0.157698 -0.239401 -0.24247 -0.414324
0.1697 -0.538891 0.191743 0.256977 -0.132306 -0.260771 0.0123859 -0.00808698
0.0988354 0.806472 -0.281028 0.00612071 -0.0340888 0.0290349 0.00701951 -0.0432847
0.00605251 -0.0110239 -0.0326927 0.0134742 -0.00132324 -0.0431392 0.0094873 0.00656829
0.0268231 -0.0355952 -0.00493336 -0.0387315 0.0123021 -0.0184172 -0.0156393 -0.0540969
0.00469337 0.00553994 0.0111795 -0.0352455 -0.0144568 0.0227119 -0.031533 0.03328
0.00657584 -0.0539361 0.000272809 0.0237776 0.00855793 0.0262615 0.0311601 0.0291601
-0.00443531 0.0111009 -0.00622161 -0.00476824 -0.0293328 -0.0251456 -0.0673128 -0.0165349
0.0079839 -0.0375444 -0.0160463 0.0184564 -0.044128 -0.0338363 -0.179185 0.768934
-0.51855 -0.314222 -0.32567 -0.211537 -0.105729 0.0310685 -0.0960488 0.315694
0.443298 0.212139 -0.00453505 -0.177091 0.128403 -0.000502392 -0.0970243 0.72717
-0.175576 0.164639 0.294089 -0.0493587 0.150739 -0.052934 -0.0870088 0.793543
-0.525424 -0.464135 0.241807 -0.312219 -0.175048 0.329188 0.30885 0.70493
-0.528171 0.242469 0.00697492 -0.229874 0.0525067 0.280452 -0.303645 -0.0984151
-0.734895 -0.315857 0.0176471 -0.221662 1.23012 -0.568563 -0.122747 -0.518351
0.00818026 0.0365465 -0.0219156 -0.0523964 0.0292732 -0.05225 -0.0275411 -0.0394983
0.0097325 0.000612364 -0.0328662 0.0308043 0.00623218 0.0119769 0.0408999 -0.0301022
-0.0445628 -0.0305315 0.000261774 -0.0443068 -0.0409154 -0.039075 -0.018241 -0.0391542
0.0165891 -0.02028 -0.00938437 0.00947419 0.00244117 -0.00687457 0.017803 0.0133884
-0.0188857 0.0212306 0.0462396 -0.038771 -0.0571979 -0.0209005 -0.00202661 -0.0317704
-0.0133663 0.0349662 -0.0421921 0.0187886 -0.0195476 0.0233449 -0.0257215 -0.0495211
0.0144311 0.0373522 -0.0698786 0.0543573 0.343833 -0.10162 -0.402909 0.228022
