resources/models/onnx/acas/ACASXU_run2a_1_7_batch_2000.onnx (onnx, 54456 bytes, 14 tensors)

layers.0.bias f4 [50]
0	0xbe0c0bdd	-0.136764
1	0x3be8213c	0.00708404
2	0xbe461ae7	-0.193462
3	0xbd3cfaad	-0.0461375
4	0x3e838434	0.256868
5	0x3d13de03	0.0361004
6	0x3a8680e3	0.00102618
7	0xbe3337a8	-0.175017
8	0xbc30bda3	-0.0107874
9	0xbe84b85a	-0.259219
10	0xbc899ff2	-0.0167999
11	0x3e4859c9	0.195655
12	0x3c83dab6	0.0160955
13	0xbd7de8e9	-0.0619897
14	0x3d388be8	0.0450553
15	0x3d7ad305	0.0612364
16	0xbd59038c	-0.0529819
17	0xbd37f753	-0.0449136
18	0x3d9388d1	0.0720383
19	0xbe56bc1f	-0.209702
20	0x3dace380	0.0844183
21	0xbdfea78b	-0.124343
22	0xbd789898	-0.0606924
23	0x3d11b16e	0.0355696
24	0xbe999631	-0.299974
25	0x3dd559b4	0.104175
26	0xbdcedb2f	-0.101004
27	0x3c093635	0.00837474
28	0xbe273de2	-0.163322
29	0x3d1ec2b3	0.0387599
30	0x3d90d3d0	0.0707165
31	0x3c8abada	0.0169348
32	0x3e967275	0.293842
33	0x3cb91f3b	0.0225979
34	0xbc9a8ca9	-0.0188659
35	0xbcc8f38f	-0.0245302
36	0xbd9ede3a	-0.0775723
37	0xbcec397a	-0.028836
38	0x3e04b72c	0.129605
39	0xbdf251c2	-0.11832
40	0x3b5b7257	0.00334849
41	0xbe9a5c81	-0.301487
42	0x3dafe12c	0.0858787
43	0xbd9275ef	-0.071514
44	0xbe3ebd90	-0.18627
45	0xbbd879bf	-0.00660631
46	0x3e429069	0.190004
47	0x3d098dce	0.0335825
48	0xbe63bc90	-0.222399
49	0xbdf63886	-0.120225

layers.0.weight f4 [50, 5]
0	0x3d66228f	0.0561853
1	0xbf345986	-0.704491
2	0xbd7c9eed	-0.061675
3	0x3ccbb5ab	0.0248669
4	0x3dfc0e39	0.123074
5	0xbe0a05de	-0.134788
6	0x3f0344f6	0.512771
7	0xbf12073e	-0.570423
8	0x3db2830a	0.087164
9	0xbe2c0d2c	-0.168019
10	0x3d3aa243	0.0455649
11	0xbf17c44c	-0.592839
12	0x3f241ca4	0.641062
13	0x3d80c481	0.0628748
14	0x3d09a042	0.0336001
15	0x3da83e35	0.0821499
16	0xbf192fe4	-0.598387
17	0x3dbc612a	0.0919822
18	0x3d58e1ff	0.0529499
19	0xbdce54f8	-0.100748
20	0x3ef86f48	0.485224
21	0x3e8ba062	0.272708
22	0x3e9b8844	0.303774
23	0x3ecededb	0.404044
24	0xbe629ed4	-0.221309
25	0xbdde0935	-0.108416
26	0xbece8c05	-0.403412
27	0x3f179b67	0.592215
28	0x3e0dda49	0.138528
29	0xbe2724b7	-0.163226
30	0xbe43c31e	-0.191174
31	0xbe84e832	-0.259584
32	0x3f2eb10c	0.682389
33	0x3d0e29df	0.0347079
34	0x3e629a5f	0.221292
35	0x3c632bb4	0.0138654
36	0xbedd2157	-0.431895
37	0x3ee40571	0.445354
38	0x3cc06d43	0.0234896
39	0x3c0d9f7b	0.00864398
40	0xbe7cf5f5	-0.247032
41	0x3e2b1b37	0.167096
42	0x3ea38a1a	0.319413
43	0x3e965a36	0.293657
44	0xbe01e53b	-0.126851
45	0x3e90f217	0.283097
46	0x3d92b445	0.0716329
47	0x3bedcb8b	0.00725693
48	0xbf0eeab8	-0.558269
49	0xbe994446	-0.299349
50	0xbb4d1ca9	-0.00312976
51	0x3b518f54	0.00319763
52	0xbc8582f7	-0.0162978
53	0xbb51c936	-0.00320108
54	0x3babbbf1	0.00524091
55	0x3f182d5a	0.594442
56	0xbdc9670f	-0.0983411
57	0xbd8fe40e	-0.0702592
58	0x3f008fa8	0.502192
59	0xbef3a8c6	-0.475897
60	0x3f049dbf	0.518032
61	0x3eb21598	0.347821
62	0x3d2e44d2	0.0425461
63	0x3e2049ed	0.156532
64	0xbee8c38f	-0.454617
65	0x3e043f1c	0.129147
66	0xbed18b72	-0.409267
67	0xbea43d47	-0.32078
68	0x3de9539c	0.113929
69	0xbe526d05	-0.205494
70	0xbed2f188	-0.411999
71	0x3e1699c8	0.147071
72	0x3d6fdc67	0.0585598
73	0xbe5b3d8e	-0.214102
74	0x3f07822c	0.52933
75	0x3e8d7753	0.276301
76	0xbea8e2a0	-0.329854
77	0xbb574cd8	-0.00328522
78	0x3eecf50a	0.462807
79	0xbf0bb57c	-0.545738
80	0x3bf959c9	0.00760958
81	0xbe8a6f82	-0.270382
82	0x3ecb8f9b	0.39758
83	0x3ed75600	0.420578
84	0xbf0ba0a5	-0.54542
85	0xbd0a2538	-0.0337269
86	0xbf1e7a74	-0.619056
87	0xbf270889	-0.652474
88	0x3eeec205	0.466324
89	0xbd296ac8	-0.0413616
90	0xbc343a9a	-0.0110003
91	0xbd36a239	-0.0445883
92	0xbe0effe3	-0.139648
93	0xbdd0142f	-0.101601
94	0x3eac5868	0.336612
95	0xbf1a0d78	-0.601768
96	0xbbabce65	-0.00524311
97	0x3c382dd9	0.0112414
98	0xbf0fc665	-0.561621
99	0x3ecea183	0.403576
100	0xbf3cbc27	-0.737246
101	0xba7ac0da	-0.000956548
102	0xbaf41ac4	-0.00186237
103	0x3ef68d97	0.481549
104	0x3e04940c	0.129471
105	0xbfa01c82	-1.25087
106	0x3e8604c0	0.261755
107	0x3ba3d572	0.00499981
108	0xbc9bc7dd	-0.0190162
109	0x3ec0c2c6	0.376486
110	0xbe836c59	-0.256686
111	0x3c474e73	0.0121647
112	0x3edba733	0.42901
113	0xbcf7a5f4	-0.0302305
114	0x3d44e9df	0.0480746
115	0x3e9be532	0.304483
116	0x3d2d6005	0.0423279
117	0x3da6105d	0.0810859
118	0xbd943dda	-0.0723836
119	0x3d7d02db	0.0617703
120	0xbb453d61	-0.00300964
121	0x3e31ff2e	0.173825
122	0xbcc2fbfe	-0.0238018
123	0x3c873b93	0.0165079
124	0xbf68dad3	-0.909589
125	0x3eb3b081	0.350956
126	0x3e9b91d5	0.303847
127	0xbc04b673	-0.00810014
128	0x3f1c79e6	0.611235
129	0xbf2a9b5a	-0.666433
130	0xbef88590	-0.485394
131	0x3da0fd3b	0.078608
132	0x3cfb3ced	0.0306687
133	0xbf025d6c	-0.509238
134	0x3f1defb7	0.616939
135	0x3dfbd274	0.12296
136	0x3f354a80	0.708168
137	0x3c3add4c	0.0114053
138	0x3dab044d	0.0835043
139	0xbe71044f	-0.235368
140	0x3cb95084	0.0226214
141	0x3f3c8861	0.736456
142	0xbf25971c	-0.646837
143	0x3e0003ac	0.125014
144	0xbce0feb3	-0.0274652
145	0xbea7ebf2	-0.327972
146	0x3da3c5bd	0.079967
147	0x3e62ee85	0.221613
148	0xbd926344	-0.0714784
149	0x3ebf4f94	0.373654
150	0xbb1d078d	-0.00239608
151	0xbdecf7cb	-0.115707
152	0xbdc890a0	-0.0979321
153	0x3dd3eab3	0.103475
154	0xbd28580e	-0.0410996
155	0x3da27dbe	0.0793414
156	0x3e464e8b	0.193659
157	0x3eb3c793	0.351132
158	0xbd15f3d8	-0.0366095
159	0xbd285b69	-0.0411028
160	0xbe88b71c	-0.267022
161	0xbd189507	-0.0372515
162	0xbad31008	-0.00161028
163	0x3ec19525	0.378091
164	0x3ed1eeaa	0.410024
165	0x3d26d902	0.0407343
166	0xbe66d8f5	-0.225437
167	0x3ee36bf4	0.444183
168	0xbcedce3a	-0.029029
169	0x3eaab884	0.333439
170	0x3bce5dc7	0.0062978
171	0xbb48eff3	-0.00306606
172	0x3b801ac2	0.00390944
173	0xb97c6606	-0.000240706
174	0xbcb1084b	-0.0216104
175	0x3a66f587	0.000881039
176	0x3c30e6bd	0.0107972
177	0xbbf59685	-0.00749475
178	0xbc965867	-0.0183527
179	0xbb291868	-0.00258019
180	0x3d2a2edd	0.0415486
181	0xbee2c259	-0.442889
182	0x3f1282b6	0.572307
183	0x3e036ac6	0.128337
184	0x3c7c5f62	0.0154036
185	0x3c26da5f	0.0101839
186	0xbcf88872	-0.0303385
187	0xbeb159c5	-0.346388
188	0x3e4121ab	0.188605
189	0xbd38bc24	-0.0451013
190	0xbd398542	-0.0452931
191	0x3e2f4880	0.171175
192	0x3e32f2fa	0.174755
193	0x3e29f59d	0.165976
194	0xbd465300	-0.048419
195	0xbfa55da2	-1.29192
196	0xbd880bed	-0.066429
197	0xbd73e5ab	-0.0595452
198	0x3e2cb2d9	0.168651
199	0xbe58561d	-0.211266
200	0x3ce92817	0.0284615
201	0x3ea230db	0.316779
202	0x3e0cd424	0.137528
203	0x3df0afe6	0.117523
204	0xbe87b118	-0.265023
205	0xbf8d29dc	-1.10284
206	0x3bdf6e90	0.0068186
207	0x3c9111d6	0.0177087
208	0x3e3342ab	0.175059
209	0xbed38994	-0.413159
210	0x3ed071a4	0.407117
211	0xbd71798a	-0.0589538
212	0xbc16892e	-0.00918798
213	0x3c850522	0.0162378
214	0xbcdd5007	-0.0270157
215	0xbe0a365d	-0.134973
216	0x3ee8c2a4	0.45461
217	0xbf880054	-1.06251
218	0x3e8d5e8d	0.276112
219	0x3e00e51d	0.125874
220	0x3cd7d35b	0.0263459
221	0x3f0b1551	0.543294
222	0xbeffcefb	-0.499626
223	0x3d916235	0.0709881
224	0xbceb5f95	-0.0287321
225	0xbcbcff65	-0.023071
226	0x3efdc28f	0.495625
227	0x3f0081b2	0.501979
228	0x3e93daf9	0.28878
229	0xbaa924fd	-0.00129047
230	0x3c6fedcf	0.0146441
231	0x3dc2b4d9	0.0950715
232	0x3e1c49fd	0.152626
233	0x3f087fcc	0.5332
234	0xbec2d517	-0.380532
235	0xbc24cf58	-0.0100592
236	0x3f66ec39	0.902042
237	0x3cd4f129	0.0259939
238	0x3d4cf6be	0.05004
239	0xbc592a3e	-0.0132547
240	0x3d68873d	0.0567696
241	0x3f2281fe	0.634796
242	0xbf20cc57	-0.628118
243	0xbb5b8679	-0.00334969
244	0x3e0d712a	0.138127
245	0x3a8a377c	0.00105451
246	0x3f0950ec	0.536391
247	0x3f05085f	0.519659
248	0x3e8a53da	0.270171
249	0xbd5a6ec7	-0.0533283

layers.10.bias f4 [50]
0	0x3f07951c	0.529619
1	0xbcdc27e9	-0.0268745
2	0xbff4a0e4	-1.91116
3	0xbdb02463	-0.0860069
4	0xbe30bcbe	-0.172595
5	0xbd00a1e6	-0.0314044
6	0xbd8b51e6	-0.0680273
7	0xbd2b31a7	-0.0417954
8	0x3db324ad	0.0874723
9	0xbd4a52ba	-0.0493953
10	0xbde0474e	-0.109511
11	0xbd2b89f2	-0.0418796
12	0xbd0ac952	-0.0338834
13	0xbe7be059	-0.245973
14	0xbc7e5bbb	-0.0155248
15	0xc03f6430	-2.99049
16	0xbd2d547c	-0.0423169
17	0xbdc10b56	-0.0942599
18	0xbddd0a67	-0.10793
19	0x3cbdc345	0.0231644
20	0xbe9e7c28	-0.309541
21	0xbff44a0e	-1.90851
22	0xbe891106	-0.267708
23	0xbd2da702	-0.0423956
24	0x3d202ded	0.0391063
25	0xbd1b5c98	-0.0379301
26	0x3e544dcb	0.207328
27	0x3d28a174	0.0411696
28	0x3d8f87e3	0.0700834
29	0x3d9d32c6	0.076757
30	0xbec69446	-0.38785
31	0xbcf061c8	-0.0293435
32	0xbc720210	-0.014771
33	0xbcfed055	-0.0311052
34	0xbe401e26	-0.187615
35	0xbcf9c33a	-0.0304886
36	0xbd2d3a45	-0.0422919
37	0xbec87358	-0.391505
38	0xbd271243	-0.0407889
39	0x3dd8ab93	0.105796
40	0xbfb1c726	-1.38889
41	0x3cf1465f	0.0294525
42	0xbe7ae600	-0.245018
43	0xbd439871	-0.0477528
44	0x3d80187c	0.0625467
45	0xbd498103	-0.0491953
46	0xbdac9499	-0.0842678
47	0xbe561390	-0.209059
48	0xbec83340	-0.391016
49	0xbeae8790	-0.340878

layers.10.weight f4 [50, 50]
0	0xbe61bd1f	-0.220448
1	0xc01b064f	-2.42226
2	0xbf5ac4c6	-0.854565
3	0x3f580aaf	0.843913
4	0xbbcdcda9	-0.00628062
5	0x3f1a95fb	0.603851
6	0xbecb6d65	-0.397319
7	0x3f39a587	0.725182
8	0xc0544c59	-3.31716
9	0x3c90f769	0.0176961
10	0xbf0a5882	-0.540413
11	0xbd8dfd19	-0.0693304
12	0x3f95dd1a	1.17081
13	0xbed48a16	-0.415116
14	0xbcd1a254	-0.0255901
15	0x3f56e3f8	0.839416
16	0xc02e1301	-2.71991
17	0xbf700eae	-0.937724
18	0xc04260d4	-3.03716
19	0xbeeae947	-0.458811
20	0x3e88218e	0.265881
21	0xbf13d6e9	-0.577498
22	0x3f0b5f4e	0.544423
23	0xbf5c14c6	-0.859692
24	0xc06f93de	-3.7434
25	0x3e8f6449	0.280062
26	0xc0a6a177	-5.20721
27	0xbea90279	-0.330097
28	0xbcc47bfb	-0.0239849
29	0xbd72d06d	-0.0592808
30	0x3f80100e	1.00049
31	0x3ef65109	0.481087
32	0xbd42ff8f	-0.047607
33	0x3e2bad3a	0.167653
34	0xbf469df9	-0.775848
35	0xc00e216c	-2.22079
36	0x3eb6c28b	0.356953
37	0x3f260653	0.648534
38	0x3f91f506	1.14029
39	0x3e157c0b	0.145981
40	0xc030dbb6	-2.76341
41	0xbf4663b7	-0.774959
42	0xbf8197f6	-1.01245
43	0x3dad6f97	0.0846855
44	0xc0d72157	-6.72282
45	0xbdf5c960	-0.120013
46	0x3e3b6e93	0.183039
47	0x3fc0d456	1.50648
48	0xbd37f3a7	-0.0449101
49	0xbea46b05	-0.321129
50	0xbf0e0bc4	-0.554867
51	0xbeca96b3	-0.395681
52	0x3ddac604	0.106823
53	0x3d4f8818	0.0506669
54	0x3ca54ea4	0.0201791
55	0x3e590082	0.211916
56	0xbd247d3d	-0.0401585
57	0xbd1e78ac	-0.0386893
58	0xbfb88ede	-1.44186
59	0xbea1563b	-0.315111
60	0x3ecf722e	0.405168
61	0x3ded60a6	0.115907
62	0xbc93a026	-0.0180207
63	0x3dea8da8	0.114528
64	0x3d156359	0.0364717
65	0xbe2f45e1	-0.171165
66	0x3da30022	0.0795901
67	0x3ed377c0	0.413023
68	0x3e570f7c	0.21002
69	0xbd8ef54b	-0.0698038
70	0xbd9a9af9	-0.0754909
71	0x3e147cfa	0.145008
72	0xbe3edb2f	-0.186383
73	0xbe2e7c8d	-0.170397
74	0xbd3ec2ce	-0.0465725
75	0xbd48585e	-0.0489124
76	0x3dac6b71	0.0841893
77	0x3edcaec9	0.431021
78	0xbba4efb9	-0.00503346
79	0xbeb1b520	-0.347085
80	0xbea23e9f	-0.316884
81	0x3da6a396	0.0813667
82	0xbe3079a3	-0.172339
83	0xbd9f1e81	-0.0776949
84	0xbe0c46d8	-0.136989
85	0xbdbdfc6a	-0.0927666
86	0xbda3e392	-0.0800239
87	0x3dd55a3a	0.104176
88	0x3c5d0d21	0.0134919
89	0x3d2e7e48	0.0426009
90	0x3dd0281c	0.101639
91	0xbded349c	-0.115823
92	0xbe18deb1	-0.149287
93	0x3de04b7f	0.109519
94	0x3e0bfb9c	0.136702
95	0xbbc8e7e6	-0.00613116
96	0xbd037062	-0.0320896
97	0x3c4052d6	0.0117385
98	0x3cf68314	0.0300918
99	0x3dd71a7e	0.105031
100	0x3fd34246	1.65046
101	0x404d837b	3.21115
102	0x4013121b	2.29798
103	0xbe8e95fb	-0.278488
104	0x3cb04684	0.021518
105	0x3f8fcf2d	1.12351
106	0xbf902507	-1.12613
107	0x3fdfeff2	1.74951
108	0x400ec5eb	2.23083
109	0x3fcbef4a	1.59324
110	0x3f1bbe66	0.608374
111	0x3fc2a20a	1.52057
112	0xbbbdc471	-0.00579124
113	0xbf39ece5	-0.726271
114	0xbf4193c4	-0.756161
115	0x3f291d8a	0.660607
116	0xbf582470	-0.844306
117	0xbf3c4c59	-0.73554
118	0x3fb4acb0	1.41152
119	0xbed180b2	-0.409185
120	0x3e8817db	0.265807
121	0x40234a4d	2.55141
122	0x3ffe2d62	1.98576
123	0x3fb454de	1.40884
124	0xbfa7aebc	-1.31002
125	0x402ce979	2.70175
126	0x3faba68b	1.34102
127	0x3faf17ad	1.36791
128	0xbcd1848d	-0.0255759
129	0x4018b589	2.38608
130	0x3f5aae6d	0.854224
131	0x3f7b63d4	0.981992
132	0xbec81cf8	-0.390846
133	0x3f83f23d	1.03083
134	0xbfa9ee78	-1.32759
135	0x3fd25365	1.64317
136	0x3fc4cec4	1.53756
137	0xbf42d0c4	-0.760998
138	0x3fbe2d62	1.48576
139	0xbe06f502	-0.131794
140	0x3ee81f54	0.453364
141	0x3ed2c57e	0.411663
142	0xbf93630b	-1.15146
143	0x3ffbb44e	1.96644
144	0x40081d2a	2.12678
145	0x3f18b370	0.596488
146	0x40407842	3.00734
147	0x3f43dbd3	0.765073
148	0xbd3c5f47	-0.0459893
149	0x3f83fd0d	1.03116
150	0xbc81c7ec	-0.0158424
151	0x3c1dc233	0.00962882
152	0xbd29fd95	-0.0415016
153	0xbc0f76b6	-0.00875633
154	0xbcfa2be0	-0.0305385
155	0xbb8a8a48	-0.00422791
156	0x3cd054e2	0.0254311
157	0xbd21efdf	-0.0395354
158	0x3c55dd17	0.0130532
159	0x3d125c3e	0.0357325
160	0xbdd17bd9	-0.102287
161	0xbd3364b1	-0.0437972
162	0xbafdb6fa	-0.00193569
163	0xbc92e43e	-0.0179311
164	0x3d71d2c6	0.0590389
165	0xbb09c7bf	-0.00210236
166	0xbd819fc3	-0.063293
167	0x3da0a5c8	0.0784412
168	0x3d9d46b2	0.076795
169	0xbde682b6	-0.112554
170	0xbd3f8678	-0.0467591
171	0xbd638576	-0.0555472
172	0x3d93e913	0.0722219
173	0x3d08a6cd	0.0333622
174	0xbce58fdd	-0.0280227
175	0x3bd1708b	0.00639159
176	0xbcce5131	-0.0251852
177	0x3c8468b0	0.0161632
178	0x3bbe3f15	0.00580586
179	0xbdc81f1e	-0.0977156
180	0x3e415ad1	0.188823
181	0xbda68174	-0.0813016
182	0x3d07c21c	0.0331441
183	0xbdb6fc81	-0.0893488
184	0xbc9242f9	-0.0178542
185	0x3e414ad3	0.188762
186	0x3c190f86	0.00934208
187	0x3ce9fc88	0.0285628
188	0x3d85d13d	0.0653405
189	0xbd5bf12d	-0.0536968
190	0x3d8ffd39	0.0703072
191	0xbcfd2df3	-0.0309057
192	0xbc5dce11	-0.0135379
193	0xbd5cc2c9	-0.0538967
194	0x3d38b893	0.0450979
195	0x3e8393ee	0.256988
196	0x3b050791	0.00202987
197	0x3c75ed58	0.0150102
198	0x3c233605	0.00996161
199	0xbdb67514	-0.0890905
200	0xbf8ebfdb	-1.11523
201	0xbeae2aa2	-0.340169
202	0x3da8ea62	0.0824783
203	0xbfdfaa26	-1.74738
204	0x3ba155e6	0.00492357
205	0xbee21c8a	-0.441624
206	0x3d859d3b	0.0652413
207	0x3ea02ba6	0.312833
208	0x3f80985f	1.00465
209	0xbe34f766	-0.176725
210	0x3eecd877	0.462589
211	0xbf51cec0	-0.819561
212	0x3e2e2c56	0.170091
213	0x3dee820e	0.116459
214	0x3d523bf2	0.0513267
215	0xbba92279	-0.00516158
216	0xbe4a51a0	-0.197577
217	0xbdde5d18	-0.108576
218	0x3e0aa5c6	0.135398
219	0xbec93661	-0.392993
220	0xbe5f127f	-0.217844
221	0xbf5e8113	-0.869157
222	0x3e94be40	0.290514
223	0xbf7b835a	-0.982473
224	0xbf835c7d	-1.02626
225	0xbf29e450	-0.66364
226	0xbca36b3f	-0.0199486
227	0xbf05b39e	-0.522272
228	0xbc2a0b6c	-0.0103787
229	0x3e4672b9	0.193797
230	0x3f17764f	0.591649
231	0xbf060c7c	-0.523628
232	0xbd165f1d	-0.0367118
233	0xbe24f5d3	-0.161094
234	0xbe4ad96a	-0.198095
235	0x3fb5bdf9	1.41986
236	0xbefe6bc6	-0.496916
237	0x3ed50c3d	0.416109
238	0xbee86f69	-0.453975
239	0x3ea7ed42	0.327982
240	0xbeb23077	-0.348026
241	0x3d26be10	0.0407086
242	0xbead0050	-0.337893
243	0xbed74afd	-0.420494
244	0x3fb7e7c0	1.43676
245	0xbd32a107	-0.0436106
246	0x3e628998	0.221228
247	0xbf7abacf	-0.979413
248	0xbd18ce48	-0.0373061
249	0x3f2cf590	0.675622
250	0xbc9db5be	-0.0192517
251	0xbcb9898f	-0.0226486
252	0xbcfc4850	-0.0307962
253	0xbd47dca3	-0.0487944
254	0x3d034b0e	0.032054
255	0xbc91c590	-0.0177944

layers.12.bias f4 [5]
0	0xbca6bee6	-0.0203547
1	0xbc99916c	-0.0187461
2	0xbc9a7130	-0.0188528
3	0xbc9025e8	-0.0175962
4	0xbc8fd3e8	-0.0175571

layers.12.weight f4 [5, 50]
0	0x3aad5dc7	0.00132268
1	0xbca36057	-0.0199434
2	0x3b226af9	0.0024783
3	0x3d6b30eb	0.0574197
4	0xbbcf23d5	-0.00632141
5	0x3d0cf074	0.034409
6	0x39c57e9c	0.000376691
7	0x3c0dfc4d	0.00866611
8	0xbbec8d1c	-0.00721897
9	0x3d2ec164	0.0426649
10	0xbac9d9d3	-0.00154
11	0x3c8a3070	0.0168688
12	0x3c0ef922	0.00872639
13	0x3cd35f58	0.0258023
14	0xbd295117	-0.0413371
15	0xba32770b	-0.00068079
16	0x3ca1c1bc	0.0197457
17	0x3ca50c94	0.0201476
18	0xba84080d	-0.00100732
19	0x3b61ec19	0.0034473
20	0x3c369fcf	0.0111465
21	0xbb7f2a6d	-0.00389352
22	0xbb97334d	-0.00461427
23	0x3cc55b54	0.0240914
24	0xbb139d2b	-0.00225241
25	0xbab7a675	-0.00140114
26	0xbb3f6b0f	-0.00292081
27	0x3c721c12	0.0147772
28	0xba655280	-0.000874795
29	0x3aa7274c	0.00127528
30	0xb90231c0	-0.000124163
31	0x3d0a85b0	0.0338189
32	0x3cfdd36a	0.0309846
33	0x3d1535a2	0.0364281
34	0x3c1ec88d	0.00969137
35	0x3b2df069	0.0026541
36	0x38ce4186	9.83505e-05
37	0x3ccfdad4	0.0253729
38	0x3a6530cf	0.000874293
39	0x3aa27104	0.00123933
40	0x3895e9e5	7.14844e-05
41	0x3d2f416c	0.042787
42	0x3be7c25c	0.00707273
43	0xb9277231	-0.000159689
44	0x3c860136	0.016358
45	0x3a97f85a	0.00115944
46	0xbaf9f3f7	-0.00190699
47	0x3d2bc6c3	0.0419376
48	0xbb8580f3	-0.00407421
49	0x3c8e651e	0.0173822
50	0x3b3bd6b0	0.00286619
51	0xbc65fa30	-0.0140367
52	0xb9a79154	-0.00031961
53	0x3d4201cd	0.047365
54	0x3d653c80	0.0559659
55	0x3cfbddfd	0.0307455
56	0xb9e5c756	-0.000438268
57	0xbbee1547	-0.00726572
58	0x3d61c227	0.0551168
59	0x3ce823a0	0.0283373
60	0xbb8ccff2	-0.00429725
61	0x3accb7ff	0.00156188
62	0xbcb363db	-0.0218982
63	0x3d5e9adb	0.0543469
64	0x3b25c1f1	0.00252926
65	0xbab0d449	-0.0013491
66	0xbcb929b8	-0.0226029
67	0x3c99076e	0.0186803
68	0xbad05c79	-0.00158967
69	0xbc18cb33	-0.00932579
70	0x3cd8dd7c	0.0264728
71	0xbc315004	-0.0108223
72	0x3c1f2ca1	0.00971523
73	0xbcff17a3	-0.0311392
74	0x3c797389	0.0152253
75	0x3d19492d	0.0374233
76	0x3c87d623	0.0165816
77	0x3cba2be0	0.022726
78	0x3cc2aa6a	0.0237629
79	0x3d1c3ac9	0.038142
80	0x3a6cd0f1	0.000903382
81	0xbd2a32a4	-0.0415522
82	0xbd33bcab	-0.0438811
83	0x3cf09df8	0.0293722
84	0xbc0411e8	-0.00806091
85	0x3d1a1280	0.0376153
86	0xbb33a509	-0.00274116
87	0x3d1166fb	0.0354986
88	0xbc047484	-0.00808442
89	0x3cf28523	0.0296045
90	0x38f71f42	0.000117837
91	0xbc85652f	-0.0162836
92	0xbc6dfbf1	-0.0145254
93	0xbb5e47c9	-0.00339173
94	0x3d058f71	0.0326075
95	0x3b525e06	0.00320995
96	0x3bc2ee67	0.00594883
97	0x3d16b188	0.0367904
98	0xbcec9afe	-0.0288825
99	0x3d1e39dd	0.0386294
100	0x3a824a7b	0.000994041
101	0xbc1c284a	-0.00953109
102	0xbb434d1c	-0.00298006
103	0x3d59c737	0.0531685
104	0xbcebd78a	-0.0287893
105	0x3d1f6eab	0.0389239
106	0xbb1d8ac0	-0.0024039
107	0xbc91c524	-0.0177942
108	0x39695eff	0.00022256
109	0x3d0312bf	0.0320003
110	0x3ba10330	0.00491371
111	0x3d287336	0.0411255
112	0x3d2c4b83	0.0420642
113	0x3d073eee	0.033019
114	0xbcf6247f	-0.0300467
115	0xbbc05342	-0.0058693
116	0xbc9978e2	-0.0187344
117	0x3c89fe51	0.0168449
118	0xbc7f84b0	-0.0155956
119	0xbc2dee50	-0.0106159
120	0x3cd01a29	0.0254031
121	0xbba1f51d	-0.00494255
122	0xbb6c2456	-0.00360324
123	0x3cda33be	0.026636
124	0xbcb11658	-0.0216171
125	0x3b6893d3	0.00354885
126	0x3908041b	0.000129715
127	0x3c4e91c9	0.012608
128	0xbc2a2cfa	-0.0103867
129	0xbb10209f	-0.00219921
130	0x3cd7e168	0.0263526
131	0xbbf5b28a	-0.00749809
132	0xbce95889	-0.0284846
133	0x3cc89093	0.024483
134	0x3d16e463	0.0368389
135	0x3c982cb2	0.018576
136	0x3cabf155	0.0209891
137	0x3d8b5d61	0.0680492
138	0xbcebc6c3	-0.0287813
139	0xb978430c	-0.000236761
140	0xbc62d044	-0.0138436
141	0x3ba32472	0.00497871
142	0x3ca97f55	0.0206906
143	0x3d45445d	0.0481609
144	0x3d11f86b	0.0356373
145	0x3b946e0c	0.00452972
146	0x3ba07495	0.00489671
147	0xbb3e7f2c	-0.00290675
148	0x3caf7751	0.0214192
149	0x3d18e285	0.0373254
150	0x3cb3c1ce	0.021943
151	0xbc966e36	-0.0183631
152	0x3a31bb01	0.000677988
153	0x3d5be412	0.0536843
154	0x3d4724ed	0.0486192
155	0x3ca420a6	0.0200351
156	0x3a731dd6	0.000927416
157	0xbc601f90	-0.0136794
158	0x3d3884c7	0.0450485
159	0x3cf5c839	0.0300027
160	0xbbaab12f	-0.00520911
161	0x3cc37aa9	0.0238622
162	0x3cb640cf	0.0222477
163	0xbcecfcb8	-0.0289291
164	0xbc3a60b9	-0.0113756
165	0xb9236539	-0.000155826
166	0xbd12f520	-0.0358783
167	0x3c889530	0.0166727
168	0xbaf81880	-0.00189282
169	0xbce59048	-0.0280229
170	0x3d1d5022	0.0384065
171	0xbc5dbef8	-0.0135343
172	0xbc931d49	-0.0179583
173	0xbce999c2	-0.0285157
174	0x3b78596e	0.00378951
175	0xbd231e48	-0.0398238
176	0x3c903b4c	0.0176064
177	0x3cbd20bd	0.0230869
178	0x3cf0a11d	0.0293737
179	0x3d3dd54e	0.046346
180	0x3ba9d841	0.00518325
181	0x3d325afc	0.0435438
182	0x3c4c9f15	0.0124891
183	0x3d0ab72e	0.0338661
184	0xbbd0259d	-0.00635214
185	0xbcd44821	-0.0259133
186	0xbbdbbb3d	-0.00670567
187	0x3d3da512	0.0463
188	0xbd2222ba	-0.0395839
189	0x3c91b2e6	0.0177855
190	0xb916aaf4	-0.000143688
191	0x3c01ad3f	0.00791484
192	0xb91c5e2b	-0.000149124
193	0x3971d20c	0.000230618
194	0x3cecb7ef	0.0288963
195	0x3d12e169	0.0358595
196	0x3c5c97b1	0.0134639
197	0x3d15ddb8	0.0365884
198	0xbbe99e29	-0.00712945
199	0x3d03d55d	0.0321859
200	0x3a91ccf2	0.00111237
201	0xbca0843a	-0.0195943
202	0xbb155c9e	-0.00227908
203	0x3d59648b	0.0530744
204	0xbbcc979e	-0.00624366
205	0xbca804cc	-0.0205101
206	0x390b6071	0.00013292
207	0xbbc5588f	-0.00602252
208	0xbbcb1c73	-0.00619846
209	0xba935fef	-0.00112438
210	0xbc3dd25e	-0.0115858
211	0x3d273945	0.0408261
212	0x3b86db3b	0.00411549
213	0x3c5bc01a	0.0134125
214	0x3bb5cd01	0.00554812
215	0xbbb4ec9c	-0.00552137
216	0xbd14f037	-0.0363619
217	0x3c6490a3	0.0139505
218	0xbcdbc30a	-0.0268264
219	0xbcee03b4	-0.0290545
220	0x3cbd4d68	0.0231082
221	0xbbb40870	-0.00549417
222	0xbbfd64c5	-0.00773296
223	0xbc8054ef	-0.0156655
224	0xbc0c338a	-0.00855721
225	0xbcd2eb95	-0.0257471
226	0x3aa6589a	0.00126912
227	0x3c31ec0b	0.0108595
228	0xbc95feda	-0.01831
229	0x3af66fb3	0.00188016
230	0x3cc2a3e9	0.0237598
231	0x3c6aacb2	0.0143234
232	0xbb4bc668	-0.00310936
233	0x3d0c4213	0.0342427
234	0x3d1882ae	0.037234
235	0xbcd51571	-0.0260112
236	0x3cefbed5	0.0292658
237	0xbd229def	-0.0397014
238	0xbcdf068b	-0.0272248
239	0x3b6f99ab	0.00365601
240	0xbc298e6f	-0.0103489
241	0x3c814aee	0.0157828
242	0x3c0002da	0.00781318
243	0x3d39f58f	0.0454002
244	0x3d072b02	0.033
245	0x3d0c4787	0.0342479
246	0x3c75b01b	0.0149956
247	0x3cd2919d	0.0257042
248	0x3c422899	0.0118505
249	0x3cf98923	0.0304609

layers.2.bias f4 [50]
0	0x3e3d8948	0.185094
1	0x3e3d2dcb	0.184745
2	0xbe2c2720	-0.168118
3	0x3dd2018a	0.102542
4	0xbe35692b	-0.177159
5	0x3e4a979e	0.197844
6	0xbe548b65	-0.207563
7	0x3d33bb18	0.0438796
8	0x3cd03aab	0.0254186
9	0xbda1fdc4	-0.0790973
10	0xbd9ef15d	-0.0776088
11	0xbb8090b4	-0.0039235
12	0xbe0def85	-0.138609
13	0x3e54c37e	0.207777
14	0x3ed3b81b	0.413514
15	0xbeb635a4	-0.355878
16	0xbdbd74fe	-0.0925083
17	0xbf15f04e	-0.585698
18	0xbc1f9ea1	-0.00974241
19	0x39de8fb2	0.000424502
20	0xbd1c11c9	-0.0381029
21	0xbc1b7cfe	-0.00949025
22	0xbe7478c8	-0.238742
23	0xbdba93e5	-0.0911024
24	0x3e15dfec	0.146362
25	0xbc23fb1c	-0.0100086
26	0xbbd8e58a	-0.00661916
27	0xbc81a3a4	-0.0158251
28	0x3d3616de	0.0444554
29	0xbc88adb9	-0.0166844
30	0x3dea78af	0.114488
31	0xbe130c24	-0.143601
32	0xbd01fa26	-0.0317327
33	0xbb825a22	-0.00397803
34	0xbed0a4e3	-0.407508
35	0x3e285be2	0.164413
36	0xbf59aaf8	-0.850265
37	0xbd96769a	-0.0734684
38	0xbe55dc83	-0.208849
39	0xbc11446b	-0.00886641
40	0xbe161911	-0.14658
41	0x3c260ac1	0.0101344
42	0xbdadaf66	-0.0848072
43	0x3da97628	0.0827449
44	0x3d8e9849	0.0696264
45	0x3d8455a8	0.0646165
46	0x3e71e96c	0.236242
47	0xbe1f969e	-0.155848
48	0xbd50045a	-0.0507854
49	0x3e841872	0.257999

layers.2.weight f4 [50, 50]
0	0xbcdd7160	-0.0270316
1	0x3ef0e411	0.47049
2	0xbf9f2b02	-1.2435
3	0x3ea53d43	0.322733
4	0x3e98f627	0.298753
5	0xbd96b54e	-0.073588
6	0xbe2606fb	-0.162136
7	0xc034a066	-2.82229
8	0xbf4bb18e	-0.795678
9	0xbe284168	-0.164312
10	0xbcc250a8	-0.0237201
11	0x3e720536	0.236348
12	0x3c59e2ca	0.0132987
13	0xbf075c5b	-0.528753
14	0x3ecd7d5b	0.401347
15	0x3e9bcb1d	0.304284
16	0x3ecb4268	0.396991
17	0xbe350c5f	-0.176805
18	0xbe6c065b	-0.230493
19	0x3ed13144	0.408579
20	0x3f3bde2f	0.733859
21	0x3f26ab36	0.65105
22	0xbf35b036	-0.70972
23	0x3dbc9e67	0.092099
24	0xbf2cdf16	-0.675279
25	0xbf24c576	-0.643638
26	0x3f29c737	0.663196
27	0xbd340571	-0.0439505
28	0xbef08894	-0.469792
29	0x3d48294a	0.0488675
30	0xbe5e1e2e	-0.216912
31	0x3e192d99	0.149588
32	0x3f1c1850	0.609746
33	0x3e22641b	0.158585
34	0xbd38c925	-0.0451137
35	0x3ca6d308	0.0203643
36	0xbee93f8e	-0.455563
37	0xbe7a18bd	-0.244235
38	0xbe819b4e	-0.253138
39	0xbe623077	-0.220888
40	0xbea44828	-0.320863
41	0xbf38537e	-0.720024
42	0x3ede657c	0.434368
43	0xbd1a0b5f	-0.0376085
44	0xc01bfa44	-2.43715
45	0xbc1cf767	-0.00958047
46	0xbeb703f3	-0.357452
47	0x3e859cf1	0.260963
48	0xbf75387a	-0.957893
49	0xbb0ad88c	-0.00211862
50	0x3e82fbc2	0.255827
51	0xbeb534bd	-0.353918
52	0xbf942310	-1.15732
53	0x3e8c6024	0.274171
54	0x3c467092	0.0121118
55	0xbedd2999	-0.431958
56	0xbea354c1	-0.319006
57	0xbfd38423	-1.65247
58	0xbef9b131	-0.48768
59	0x3d9d8000	0.0769043
60	0x3d0f3bf8	0.0349693
61	0xbe972c30	-0.295259
62	0xbda4514e	-0.0802332
63	0xbdd817b9	-0.105514
64	0x3eb4edd5	0.353377
65	0xbedc5804	-0.430359
66	0xbf5b8bdf	-0.857603
67	0x3ea90cf6	0.330177
68	0x3efc111b	0.492318
69	0x3ea6fbb1	0.326139
70	0xbcadd6d3	-0.0212206
71	0x3ea5d420	0.323884
72	0x3fa24452	1.26771
73	0x3f2d4ccb	0.676953
74	0xbebb5244	-0.365862
75	0x3c54830f	0.0129707
76	0x3ccdbe64	0.0251152
77	0x3e8b14cb	0.271643
78	0xbfa1eecc	-1.2651
79	0x3daa3063	0.0831001
80	0x3f05e8d5	0.523084
81	0x3e7ac754	0.244901
82	0xbe34a2fd	-0.176403
83	0xbf16a012	-0.58838
84	0x3ae051ba	0.00171142
85	0x3ca5f84d	0.02026
86	0xbf1ac92a	-0.604632
87	0x3fcf5a32	1.61994
88	0x3d5722c7	0.0525234
89	0xbe969b7c	-0.294155
90	0xbdad0f70	-0.0845021
91	0xbf22f662	-0.636572
92	0x3eb75be6	0.358123
93	0xbe541d8f	-0.207144
94	0xbf9bdaa5	-1.21761
95	0x3da9cf7f	0.0829153
96	0xbf1160fa	-0.567886
97	0x3d3c1433	0.0459177
98	0xc00598f2	-2.08746
99	0x3eff9485	0.49918
100	0x3f08a8f4	0.533828
101	0x3f3d76ab	0.740092
102	0x3eea37ef	0.457458
103	0x3f3bdf1a	0.733873
104	0xbea2411c	-0.316903
105	0x3f0d4fad	0.551997
106	0x3e9cdbe0	0.306365
107	0xbf361c04	-0.711365
108	0xbef9185d	-0.486514
109	0x3d8a9641	0.0676694
110	0xbc829ee1	-0.0159449
111	0xbe972baa	-0.295255
112	0x3c92b90a	0.0179105
113	0xbed3ee80	-0.413929
114	0xbe0a11ed	-0.134834
115	0xbcc1cf78	-0.0236585
116	0x3dcc0874	0.0996255
117	0xbecfc5ce	-0.405806
118	0x3dc3e6d2	0.0956551
119	0x3ef39c0f	0.4758
120	0x3f285309	0.657517
121	0xbd8be4db	-0.0683076
122	0x3eb05921	0.34443
123	0x3f22fd22	0.636675
124	0x3cef9fcb	0.029251
125	0xbea95012	-0.330689
126	0x3e84cd53	0.259379
127	0x3e9f820a	0.311539
128	0x3f1ac0e8	0.604506
129	0xbec87dd4	-0.391585
130	0x3e8f891e	0.280343
131	0x3ee0fabe	0.439413
132	0xbf32c81d	-0.698366
133	0x3e4e7968	0.201635
134	0xbd5e8b3b	-0.054332
135	0xbd50b971	-0.0509581
136	0xbec834d2	-0.391028
137	0x3e24f15e	0.161077
138	0xbf39466f	-0.723731
139	0x3d81df84	0.0634146
140	0x3e9db4cc	0.30802
141	0xbf8f5dcc	-1.12005
142	0x3e3c0b56	0.183637
143	0xbe1d106f	-0.153383
144	0xbfc65658	-1.54951
145	0x3f603090	0.875741
146	0xbf43d380	-0.764946
147	0x3dbcb65c	0.0921447
148	0x3f770a2d	0.964999
149	0xbe64f3fe	-0.223587
150	0xbe0564f9	-0.130268
151	0x3d5abc29	0.0534021
152	0xbe894cec	-0.268165
153	0x3e7284e0	0.236835
154	0xbe871540	-0.263834
155	0x3e111e00	0.141716
156	0xbe63ba34	-0.22239
157	0xc0069931	-2.1031
158	0xbd1ba5c8	-0.0379999
159	0xbe3a4db1	-0.181937
160	0xbbf47243	-0.00745991
161	0xbd8baab6	-0.0681967
162	0xbe8d5dc4	-0.276106
163	0xbe67cb71	-0.226362
164	0x3c59c5da	0.0132918
165	0x3ea3b906	0.319771
166	0xbe9fc936	-0.312082
167	0xbdab3695	-0.0836002
168	0xbd74e0b2	-0.0597846
169	0xbd0c21e2	-0.034212
170	0x3ebdd228	0.370744
171	0x3f03b57c	0.514488
172	0xbfa2fd76	-1.27336
173	0xbd2211f3	-0.0395679
174	0xbeba511a	-0.3639
175	0xbee5fd69	-0.449199
176	0x3df0f8c6	0.117662
177	0x3dfaecd0	0.122522
178	0x3c8cae2e	0.0171729
179	0xbd5e41f0	-0.0542621
180	0xbe444029	-0.191651
181	0xbe1cc31a	-0.153088
182	0x3e45696e	0.192785
183	0xbe93b539	-0.288492
184	0x3c1cc94f	0.00956948
185	0x3d38dac2	0.0451305
186	0xbbb0718d	-0.00538463
187	0x3e64f26b	0.223581
188	0x3e8512ec	0.25991
189	0x3d3770b0	0.0447852
190	0x3cb567c1	0.0221442
191	0xbebe8555	-0.372111
192	0x3f3b3615	0.731294
193	0xbefb97ff	-0.491394
194	0xbf453038	-0.770267
195	0xbea13b9f	-0.314908
196	0x3e28db8c	0.1649
197	0x3dcff434	0.10154
198	0x3db4a8dc	0.0882127
199	0xbda7b9e0	-0.0818975
200	0xbf18fcc6	-0.597607
201	0x3f5cbb6f	0.862235
202	0x3e15846f	0.146013
203	0x3f41243a	0.754459
204	0x3e9d2b2c	0.30697
205	0x3e34aa97	0.176432
206	0x3e0ad7d8	0.135589
207	0xbe96559f	-0.293622
208	0x3f051266	0.519812
209	0x3dc1db7a	0.0946569
210	0x3d87026e	0.0659226
211	0xbd34bdad	-0.0441262
212	0xbe98bc5a	-0.298312
213	0xbf9b39c1	-1.2127
214	0xbc97d000	-0.0185318
215	0x3e814af5	0.252525
216	0x3e2e0b91	0.169966
217	0xbeca10e0	-0.39466
218	0xbe3f2e06	-0.186699
219	0xbd621a21	-0.0552007
220	0xbebb5dee	-0.365951
221	0xbe8d90e2	-0.276496
222	0x3e5a9de9	0.213493
223	0x3e82d46f	0.255527
224	0xbfc38a5d	-1.52766
225	0xbf3f9629	-0.748385
226	0x3d07d2c8	0.03316
227	0x3ef68c69	0.48154
228	0xbe924420	-0.285676
229	0x3e083be6	0.133041
230	0x3e80fb87	0.251919
231	0xbc871a71	-0.0164921
232	0x3e263c32	0.162339
233	0x3d2ea0ad	0.0426337
234	0xbb112fbe	-0.00221537
235	0xbc4cb8ab	-0.0124952
236	0x3f91460b	1.13495
237	0x3eaead4f	0.341166
238	0x3e670585	0.225607
239	0xbe5d9989	-0.216406
240	0xbe68f68c	-0.227503
241	0xbf8ab11c	-1.08353
242	0xbdbb3b32	-0.0914215
243	0xbe19c497	-0.150164
244	0x3eb30b9e	0.349698
245	0xbefeacc9	-0.497412
246	0x3e2dd2af	0.169749
247	0xbca1cb62	-0.0197503
248	0x3f1bfb48	0.609303
249	0xbd72759e	-0.0591942
250	0x3f82b9f5	1.0213
251	0x3cda9a80	0.026685
252	0x3ef63e6c	0.480945
253	0xbfcfc01a	-1.62305
254	0x3e05e0f8	0.130741
255	0xbe316830	-0.173249

layers.4.bias f4 [50]
0	0xbf018eda	-0.506086
1	0x3df80cb7	0.121118
2	0xbe6c86cf	-0.230983
3	0x3d585fde	0.0528258
4	0x3dd6fb09	0.104971
5	0xbec30ced	-0.380958
6	0xbd9b6ac0	-0.0758872
7	0x3d96035d	0.0732486
8	0x3e74ed2d	0.239186
9	0xbe423034	-0.189637
10	0x3e9cf334	0.306543
11	0xbb59b137	-0.00332172
12	0xbc9ba146	-0.0189978
13	0xbca797bf	-0.0204581
14	0x3d809afb	0.0627956
15	0x3e192924	0.149571
16	0xbe232ad0	-0.159343
17	0x3afec416	0.00194371
18	0xbc46583f	-0.012106
19	0xbe2a847b	-0.166521
20	0x3e14d984	0.145361
21	0xbe43d923	-0.191258
22	0xbd15401e	-0.0364381
23	0x3cb45755	0.0220143
24	0x3da1d10b	0.079012
25	0xbd9145d8	-0.070934
26	0x3ee743c8	0.451689
27	0x3e7a4873	0.244417
28	0xbec51c19	-0.38498
29	0xbc8fd9c8	-0.0175599
30	0xbe87f7e0	-0.265563
31	0x3c14bf35	0.00907879
32	0xbf83121b	-1.02399
33	0x3b88a7da	0.0041704
34	0xbe59207d	-0.212038
35	0x3d5cfc40	0.0539515
36	0x3cd54c98	0.0260375
37	0xbeb0897f	-0.344799
38	0xbe715e7d	-0.235712
39	0x3df10a9a	0.117696
40	0x3ea81e8a	0.328358
41	0xbe0141a7	-0.126227
42	0xbd7f7c17	-0.0623742
43	0xbefb3205	-0.490616
44	0xbde7e62e	-0.113232
45	0xbf238ed2	-0.638898
46	0x3dbce1d3	0.0922276
47	0xbc878855	-0.0165445
48	0x3c673091	0.0141107
49	0x3ddcb1cd	0.107761

layers.4.weight f4 [50, 50]
0	0xbed4d9e8	-0.415725
1	0x3f2b90a8	0.670176
2	0x3e80cb8e	0.251553
3	0x3f392c28	0.72333
4	0x3f1ef7a1	0.620966
5	0xbda2c923	-0.0794852
6	0x3e0a7979	0.135229
7	0x3f5e8dfc	0.869354
8	0x3eb4c815	0.353089
9	0xbf018ea8	-0.506083
10	0x3f27e1fc	0.655792
11	0xbf6c2d06	-0.922562
12	0xbf12d517	-0.573564
13	0xbe8756a8	-0.264333
14	0x3e665e89	0.22497
15	0x3f6c6499	0.92341
16	0xbe3c4589	-0.183859
17	0x3f7d334c	0.989064
18	0xbcfab614	-0.0306044
19	0xbfc4663c	-1.53437
20	0x3eee7f4e	0.465815
21	0x3d3fc77b	0.0468211
22	0xbe78cda7	-0.242972
23	0xbeb99221	-0.362443
24	0x3ec85af7	0.391319
25	0x3ec7d7c3	0.390318
26	0xbd412564	-0.0471548
27	0xbc7c6328	-0.0154045
28	0x3f728a61	0.947424
29	0xbd4b912e	-0.049699
30	0x3eba6d8b	0.364117
31	0x3e6e3eaf	0.232661
32	0x3fe71950	1.80546
33	0x3cc3c4b1	0.0238975
34	0xc0a4cd8a	-5.15009
35	0x3f80c2a4	1.00594
36	0x3e11e7da	0.142486
37	0x3f031d2e	0.512164
38	0xbf65094a	-0.894673
39	0x3c5bf7e3	0.0134258
40	0xbe4883fd	-0.195816
41	0x3f074c90	0.528512
42	0x3e698527	0.228047
43	0x3fa10eaa	1.25826
44	0x3f930942	1.14872
45	0xbe30891a	-0.172398
46	0x3e383772	0.179899
47	0xbd6f4491	-0.058415
48	0x3ea329a2	0.318677
49	0x3f046940	0.517231
50	0x3efd3911	0.494576
51	0x3ecb74de	0.397376
52	0xbf4716e3	-0.777693
53	0x3f11782d	0.56824
54	0xbe4ce960	-0.200109
55	0xbcc0c73b	-0.0235325
56	0x3e0d7dbf	0.138175
57	0xbde814d7	-0.113321
58	0x3f2e2403	0.680237
59	0x3e8db0de	0.27674
60	0x3e98d6d4	0.298514
61	0xbebe74b0	-0.371984
62	0xbe091afc	-0.133892
63	0xbe212019	-0.157349
64	0x3e7c5ac4	0.24644
65	0xbe08fbca	-0.133773
66	0xbde6d267	-0.112706
67	0x3ebd5b8a	0.369839
68	0x3cde3da3	0.027129
69	0xbef99b0b	-0.487511
70	0x3ea98506	0.331093
71	0x3d1ab6b5	0.0377719
72	0xbdece358	-0.115668
73	0xbe68f367	-0.227491
74	0x3f46860e	0.775483
75	0x3de5cb36	0.112204
76	0xbc5296a6	-0.0128533
77	0x3ca31d71	0.0199115
78	0x3d3af0cd	0.0456398
79	0x3d05e501	0.0326891
80	0xbb0bfa1f	-0.00213588
81	0x3e36ceff	0.178524
82	0x3df21816	0.11821
83	0x3d3a5ef1	0.0455007
84	0x3f43fdd6	0.765592
85	0x3ef6f588	0.482342
86	0x3db000ae	0.0859388
87	0xbe45a07b	-0.192995
88	0xbec41a05	-0.383011
89	0xbd38b553	-0.0450948
90	0xbcb8784c	-0.0225183
91	0x3e8c0789	0.273495
92	0xbdc9e2ca	-0.0985771
93	0x3e5e61d0	0.21717
94	0x3e5061c8	0.203498
95	0xbb8b091e	-0.00424303
96	0xbe3c7fbb	-0.184081
97	0xbd8927e2	-0.0669706
98	0xbe29fe00	-0.166008
99	0x3ee2702a	0.442262
100	0xbe441e15	-0.191521
101	0x3e620c07	0.220749
102	0xbdd65d3a	-0.10467
103	0xbe8e3cfb	-0.277809
104	0x3f17c46e	0.592841
105	0xbf241b33	-0.64104
106	0x3f3e9542	0.744465
107	0x3e8da251	0.276629
108	0xbe68b8f1	-0.227268
109	0xbeacd0dd	-0.337531
110	0x3f6f2420	0.934145
111	0x3f81681f	1.01099
112	0xbec43e32	-0.383287
113	0x3e14e400	0.145401
114	0xbec63b8a	-0.387173
115	0x3f8f37ca	1.11889
116	0xbebb3312	-0.365624
117	0xbfaa002a	-1.32813
118	0xbcaa15b3	-0.0207623
119	0x3c6d8f50	0.0144995
120	0x3f7d3b6d	0.989188
121	0x3ce36270	0.0277569
122	0xbe9fcac9	-0.312094
123	0xbe4dfce3	-0.20116
124	0x3f56b10c	0.838639
125	0x3d3d2b39	0.0461838
126	0x3d2403d0	0.0400427
127	0x3c2b61ae	0.0104603
128	0xbe2cfb33	-0.168927
129	0x3ed00b46	0.406336
130	0x3d81f8ae	0.0634626
131	0xbc946d75	-0.0181186
132	0x3f93635e	1.15147
133	0xbbd39ee4	-0.00645815
134	0x4002b021	2.042
135	0x3fb2a1b6	1.39556
136	0xbfbf7aa2	-1.49593
137	0xbd451fe0	-0.0481261
138	0xbc042467	-0.00806532
139	0x3cb065c4	0.0215329
140	0xbe7e7579	-0.248495
141	0x3eb17bb7	0.346647
142	0x3eda1427	0.425935
143	0x3e8aecd0	0.271338
144	0x3f4e4841	0.80579
145	0xbe1ec0f9	-0.155033
146	0xbf40ebdd	-0.753599
147	0xbda996ed	-0.0828074
148	0xbd618f9d	-0.0550686
149	0x3f274bb6	0.653499
150	0xbe6209ab	-0.22074
151	0x3d42e4d2	0.0475815
152	0x3e423704	0.189663
153	0x3d2a5df2	0.0415935
154	0xbe4e5c4f	-0.201524
155	0x3b36ad7c	0.00278744
156	0x3dcf8940	0.101336
157	0xbe760179	-0.24024
158	0x3fcd389b	1.60329
159	0x3e6c39bd	0.230689
160	0x3d9694cd	0.073526
161	0x3d170f10	0.0368796
162	0x3d4051ca	0.046953
163	0xbc4ae5d7	-0.0123839
164	0xbebd740c	-0.370026
165	0x3ec3d790	0.382504
166	0x3dedddf4	0.116146
167	0xbecf5600	-0.404953
168	0xbd30cc86	-0.0431638
169	0x3db22658	0.0869872
170	0x3eb22dd8	0.348006
171	0xbce1a8c7	-0.0275463
172	0xbe8e9c67	-0.278537
173	0x3f2d1eda	0.676252
174	0x3fc98a87	1.57454
175	0xbdd021d1	-0.101627
176	0xbc86f700	-0.0164752
177	0x3ba7f512	0.00512565
178	0xbe35abc1	-0.177413
179	0xbda588e3	-0.0808275
180	0xbecd1c7e	-0.400608
181	0x3d50dd68	0.0509924
182	0x3f12278d	0.570916
183	0x3d1ff8a9	0.0390555
184	0xbeb12791	-0.346005
185	0x3f911bc5	1.13366
186	0x3e28c693	0.16482
187	0xbe8316e3	-0.256034
188	0xbdf6ffc1	-0.120605
189	0x3ca42975	0.0200393
190	0x3e5ebc84	0.217516
191	0xbec2c062	-0.380374
192	0xbc791fa7	-0.0152053
193	0x3d09487e	0.0335164
194	0x3e17670a	0.147854
195	0xbe403926	-0.187718
196	0x3c90b920	0.0176664
197	0x3e776e1e	0.241631
198	0x3d3fb191	0.0468002
199	0xbed5c93f	-0.417551
200	0x3e2ecfa7	0.170714
201	0xbfa7caea	-1.31088
202	0xbe96d4c3	-0.294592
203	0x3e93311a	0.287484
204	0xbe8a1038	-0.269655
205	0xbda167fa	-0.0788116
206	0x3db61c95	0.0889217
207	0x3dd6659d	0.104686
208	0xbfd8764b	-1.69111
209	0xbe22fad7	-0.15916
210	0xbe9fba23	-0.311967
211	0xbeacd680	-0.337574
212	0xbc614311	-0.0137489
213	0xbf8229c7	-1.0169
214	0x3b1d3f96	0.00239942
215	0x3ea53501	0.32267
216	0xbe955a7d	-0.291706
217	0xbf0546b2	-0.52061
218	0x3ca7f405	0.0205021
219	0xbc969828	-0.0183831
220	0x3ea4095f	0.320384
221	0x3b9ea8e3	0.00484191
222	0x3ed4e2b0	0.415792
223	0x3e0f90da	0.140201
224	0x3ec2c040	0.380373
225	0x3dfd8f0c	0.123808
226	0xbc8d14bb	-0.0172218
227	0x3b42204b	0.00296213
228	0xbe32e05d	-0.174684
229	0x3ea01840	0.312685
230	0xbddbc7f7	-0.107315
231	0xbe5239a4	-0.205298
232	0x3e5280f1	0.20557
233	0x3c36c086	0.0111543
234	0x3eb5fe76	0.355457
235	0x3f0dfd59	0.554647
236	0x3e44384c	0.191621
237	0xbe103793	-0.140837
238	0x3e060bb3	0.130904
239	0xbd29aa53	-0.0414222
240	0x3e13b470	0.144243
241	0x3eb1669d	0.346486
242	0xbf44ca4f	-0.768712
243	0xbefe0d45	-0.496195
244	0xbec68cac	-0.387792
245	0x3db1efdf	0.0868833
246	0x3e09c497	0.134539
247	0x3cc409b0	0.0239304
248	0xbefd0e78	-0.494251
249	0x3f63400c	0.887696
250	0xbcc9d7f0	-0.0246391
251	0x3e7d7cf6	0.247547
252	0x3e6301eb	0.221687
253	0x3f096e48	0.536839
254	0x3e223a2a	0.158425
255	0xbdd2220c	-0.102604

layers.6.bias f4 [50]
0	0xbe1e3eaf	-0.154536
1	0x3d944857	0.0724036
2	0xbe6c5825	-0.230805
3	0xbea9a155	-0.331309
4	0x3f304135	0.688495
5	0x3e7f0fe0	0.249084
6	0xbf04a2a9	-0.518107
7	0xbfdb7176	-1.7144
8	0xbd05a759	-0.0326303
9	0xbdebfb16	-0.115225
10	0xbe94b76f	-0.290462
11	0xbeadf15a	-0.339732
12	0xbde2c669	-0.11073
13	0xbeac957d	-0.337078
14	0xbc9b7323	-0.0189758
15	0xbf17de94	-0.59324
16	0xbe2eb789	-0.170622
17	0xbe1ba6f0	-0.152004
18	0xbefd9b3d	-0.495325
19	0x3d8b31d0	0.0679661
20	0xbf40a7f8	-0.752563
21	0x3e4ba7fc	0.198883
22	0xbdb7f5db	-0.0898244
23	0xbe203dde	-0.156486
24	0xbe9112dc	-0.283347
25	0xbe3e8c05	-0.186081
26	0xbca4bc78	-0.0201094
27	0x3cb286d0	0.0217928
28	0xbe993ea3	-0.299306
29	0x3e06a4ca	0.131488
30	0xbd29048b	-0.0412641
31	0x3e4c1c61	0.199327
32	0x3d807af2	0.0627345
33	0xbc69e2f3	-0.0142753
34	0xbf904285	-1.12703
35	0x3de362a6	0.111028
36	0x3e9d40cc	0.307135
37	0x3e6d58c9	0.231784
38	0xbe5e8188	-0.217291
39	0x3dc88286	0.0979052
40	0xbe446ed2	-0.191829
41	0xbc94e783	-0.0181768
42	0xbf477a81	-0.779213
43	0xbd92bac5	-0.0716453
44	0xbf140cd8	-0.578321
45	0x3deb1bbd	0.114799
46	0x3d698c20	0.0570184
47	0x3e0b9a9e	0.136332
48	0xbec9dfdb	-0.394286
49	0xbda2414b	-0.0792261

layers.6.weight f4 [50, 50]
0	0x3e5b9cfa	0.214466
1	0x3ed78b15	0.420983
2	0xbf8a37df	-1.07983
3	0xbf0dad54	-0.553426
4	0x3e1bcfd5	0.15216
5	0x3eed6fb9	0.463743
6	0x3f22e979	0.636375
7	0x3e004b3c	0.125287
8	0x3e896e7a	0.268421
9	0xbf7b6513	-0.982011
10	0x3ebfc8f3	0.37458
11	0x3d3200b4	0.0434577
12	0x3ca32859	0.0199167
13	0x3d099a12	0.0335942
14	0x3e99042e	0.29886
15	0xbf18a3b5	-0.596248
16	0x3e311905	0.172947
17	0xbe2ded29	-0.16985
18	0x3d013efa	0.0315542
19	0x3e68344c	0.226762
20	0xbf1b04de	-0.605543
21	0x3ef18762	0.471736
22	0xbe057fb7	-0.13037
23	0x3f0d7c2d	0.552676
24	0x3e7c6da4	0.246512
25	0xbeeb0d30	-0.459085
26	0xbde9c90c	-0.114153
27	0xbd47c93d	-0.0487759
28	0xbe6fbe77	-0.234125
29	0xbd2221fe	-0.0395832
30	0x3f200cd8	0.625196
31	0x3d7ee3bb	0.0622289
32	0xbecaf9a9	-0.396436
33	0xbfac9279	-1.34822
34	0xbef4e571	-0.478313
35	0xbf2e593a	-0.681049
36	0x3e51b110	0.204777
37	0x3f56bbfd	0.838806
38	0xbd8fc2d1	-0.0701958
39	0xbf0eb53d	-0.557453
40	0x3e039970	0.128515
41	0xbe85d4c7	-0.261389
42	0xbe51b9b6	-0.20481
43	0x3f7dfba4	0.992121
44	0x3e758cd2	0.239795
45	0xbeb9f645	-0.363207
46	0xbece6bc6	-0.403166
47	0x3dccf313	0.100073
48	0xbf593d64	-0.848593
49	0x3f1c8e9b	0.611551
50	0xba3aac7e	-0.000712104
51	0xbdb60a99	-0.0888874
52	0x3e18533b	0.148755
53	0x3c5b9552	0.0134023
54	0x3f08cbb0	0.534358
55	0xbea32f88	-0.318722
56	0xbf1aa5a4	-0.60409
57	0x3ec214cf	0.379065
58	0x3e3a0a52	0.18168
59	0x3edd028a	0.43166
60	0xbd26ffe9	-0.0407714
61	0xbcbd8029	-0.0231324
62	0x3b2a31ed	0.00259697
63	0x3c02d35a	0.00798496
64	0x3d5848cc	0.0528038
65	0xbf0b648c	-0.544503
66	0x3ea5cf03	0.323845
67	0xbe112125	-0.141728
68	0xbcc2e812	-0.0237923
69	0xbef53bd1	-0.478972
70	0xbe1cbbc3	-0.15306
71	0xbd802cd4	-0.0625855
72	0xbee4b4f2	-0.446693
73	0xbef46d40	-0.477396
74	0x3e7cfaf0	0.247051
75	0xbe04091c	-0.128941
76	0x3ce7d59c	0.0283001
77	0x3ddcdf6a	0.107848
78	0xbf04cab4	-0.518718
79	0xbd26d6b4	-0.0407321
80	0xbe25f30e	-0.16206
81	0x3f127a63	0.57218
82	0xbe672bcb	-0.225753
83	0xbf46746d	-0.775214
84	0x3d81d6c2	0.0633979
85	0xbe498245	-0.196786
86	0xbfc5fb40	-1.54673
87	0xbe696e59	-0.22796
88	0x3f77b225	0.967562
89	0xbe00e992	-0.125891
90	0xbdb5db69	-0.0887974
91	0x3ea10d7c	0.314556
92	0x3f2dcc96	0.678903
93	0xbe9188d3	-0.284247
94	0xbe371e2a	-0.178826
95	0xbbbd79f4	-0.00578236
96	0x3ef253b9	0.473295
97	0x3c7eb43b	0.0155459
98	0xbeb70cdd	-0.35752
99	0x3ea114d3	0.314612
100	0xbe03fc87	-0.128893
101	0x3e871de7	0.2639
102	0x3ed58e00	0.417099
103	0xbea65eab	-0.324941
104	0x3efb5fe5	0.490966
105	0x3c0dba28	0.00865034
106	0x3ba839f0	0.00513386
107	0x3ed1782d	0.40912
108	0x3dfedf1e	0.124449
109	0x3eafa15e	0.343028
110	0x3ea6d19e	0.325818
111	0x39dc11e4	0.00041975
112	0xbd5e93d4	-0.0543402
113	0xbc71631a	-0.0147331
114	0x3ee97efe	0.456047
115	0xbf51ff0d	-0.820298
116	0xbe9e7d56	-0.30955
117	0xbd582a2e	-0.0527746
118	0xbe9660e5	-0.293708
119	0x3e207c85	0.156725
120	0x3eb6e08f	0.357182
121	0xbeac6801	-0.336731
122	0xbdbbdb35	-0.0917267
123	0xbdd63fdd	-0.104614
124	0x3d191728	0.0373756
125	0x3e945da7	0.289777
126	0x3d50a8c5	0.0509422
127	0x3e234d6a	0.159475
128	0xbee968f9	-0.455879
129	0xbafdfc70	-0.00193776
130	0xbe3c7fbb	-0.184081
131	0x3e9010e9	0.281379
132	0xbe8d2242	-0.275652
133	0xbe66dc1a	-0.225449
134	0x3e49d7fe	0.197113
135	0xbe7c29bf	-0.246253
136	0xbf403cb0	-0.750926
137	0x3eaf3ba7	0.342252
138	0x3f0569d3	0.521146
139	0xbe0b75a7	-0.136191
140	0xbe856c2f	-0.260591
141	0xbe78be2f	-0.242913
142	0x3ca25270	0.0198147
143	0x3f31701e	0.693117
144	0xbe251c9f	-0.161242
145	0x3dc57471	0.0964135
146	0x3df28f19	0.118437
147	0xbcc3c014	-0.0238953
148	0xbe93ba56	-0.288531
149	0x3e5aaf36	0.213559
150	0xbd12934b	-0.035785
151	0x3cb8b8ae	0.022549
152	0x3f30826b	0.68949
153	0x3ea19392	0.315579
154	0x3e9c994a	0.305857
155	0xbf5ebb02	-0.870041
156	0x3c214159	0.00984224
157	0x3e038152	0.128423
158	0xbe00c6f8	-0.125759
159	0x3ef64e48	0.481066
160	0xbe4d77b8	-0.200652
161	0xbc92d6d2	-0.0179247
162	0xbd15196d	-0.0364012
163	0xbc279eaa	-0.0102307
164	0x3ec59c28	0.385957
165	0x3f97d6b6	1.18624
166	0xbf118dce	-0.56857
167	0x3ce37a23	0.0277682
168	0x3cab232f	0.0208908
169	0x3ed3a9d2	0.413405
170	0x3e5fe3b0	0.218642
171	0xbf64f80e	-0.89441
172	0x3ec6f9fd	0.388626
173	0x3d7d710f	0.0618754
174	0x3daf6dfc	0.085659
175	0x3c98b538	0.0186411
176	0x39a5f0b7	0.000316506
177	0x3ed40b13	0.414147
178	0xbf594c66	-0.848822
179	0x3c27030f	0.0101936
180	0x3e2a5eff	0.166378
181	0x3eecb146	0.46229
182	0xbec11d58	-0.377177
183	0x3fba37df	1.45483
184	0x3d59feaf	0.0532214
185	0xbe9c1ce7	-0.304908
186	0x3d0d62f5	0.0345182
187	0xbe61ee24	-0.220635
188	0x3d941264	0.0723007
189	0xbe2d7881	-0.169405
190	0x3d6234f9	0.0552263
191	0xbe7eb702	-0.248745
192	0x3e22da98	0.159037
193	0xbe803f70	-0.250484
194	0xbc2e1c73	-0.0106269
195	0x3dc279dd	0.094959
196	0x3ddc4c9d	0.107568
197	0x3cd62ee1	0.0261454
198	0xbebed71f	-0.372735
199	0xbedce875	-0.431461
200	0x3dd6e829	0.104935
201	0xbd9f9f37	-0.0779404
202	0xbe2a5b96	-0.166365
203	0xbf0a09ff	-0.539215
204	0x3fa014f9	1.25064
205	0xbe2efd44	-0.170888
206	0xbf4103ea	-0.753966
207	0x3e2036ca	0.156459
208	0x3f0fb2dd	0.561323
209	0x3b0f6f9f	0.00218866
210	0xbe65db34	-0.224469
211	0x3d2d6a31	0.0423376
212	0xbd945268	-0.0724228
213	0xbd16b3d6	-0.0367926
214	0x3eec12ae	0.46108
215	0xbf0d87e8	-0.552855
216	0xbf3bd07d	-0.73365
217	0xbe0df612	-0.138634
218	0x3e100a7c	0.140665
219	0x3d8731fb	0.0660133
220	0xbe38101f	-0.179749
221	0x3e2657b8	0.162444
222	0x3edb3312	0.428124
223	0x3e6c4c16	0.230759
224	0xbe6cf13d	-0.231389
225	0xbe9a046c	-0.300815
226	0xbcf1b25f	-0.029504
227	0x3eca2f49	0.394892
228	0xbe44ae86	-0.192072
229	0xbc81387a	-0.015774
230	0xbdb57f81	-0.0886221
231	0x3f35fa76	0.710853
232	0xbea93b9f	-0.330533
233	0xbf8c5921	-1.09647
234	0x3d9c9e16	0.0764734
235	0xbe7cba30	-0.246804
236	0xbee6032e	-0.449243
237	0xbdee7ff6	-0.116455
238	0xbe310f52	-0.17291
239	0xbe61c758	-0.220487
240	0xbda9ad93	-0.0828506
241	0xbe8e5040	-0.277956
242	0x3f550abb	0.832195
243	0xbf01f8a1	-0.5077
244	0xbedb966c	-0.428882
245	0x3e819c9d	0.253148
246	0x3eacfa48	0.337847
247	0xbd04e054	-0.0324405
248	0xbe99fcb1	-0.300756
249	0xbe68deb1	-0.227412
250	0xbebb1ee2	-0.36547
251	0xbed336df	-0.412528
252	0x3f7e16a5	0.992533
253	0x3cc9ca19	0.0246325
254	0x3f5d2e30	0.863986
255	0xbde9c1b5	-0.114139

layers.8.bias f4 [50]
0	0xbe48d046	-0.196107
1	0xbe4ecdd1	-0.201957
2	0x3db22a3a	0.0869946
3	0xbde54584	-0.111949
4	0xbd153826	-0.0364305
5	0xbeb1b0ab	-0.347051
6	0x3e0d3bb0	0.137923
7	0xbda737a5	-0.0816491
8	0x3dcb19e7	0.0991705
9	0xbf8ba82f	-1.09107
10	0xbd1c0930	-0.0380947
11	0xbe981fda	-0.297118
12	0xbdf8e970	-0.121539
13	0xbe87dcdf	-0.265357
14	0x3f86c6bd	1.05294
15	0xbf227e31	-0.634738
16	0x3e0df1e1	0.138618
17	0xbe35e52a	-0.177632
18	0x3e453c15	0.192612
19	0xbf4ece36	-0.807834
20	0x3e101648	0.14071
21	0xbccd3ee3	-0.0250544
22	0xbeafe932	-0.343576
23	0xbe39146e	-0.180742
24	0xbfc367a1	-1.5266
25	0xbcce2669	-0.0251648
26	0xbf2ff716	-0.687364
27	0xbe2e52df	-0.170238
28	0xbd8891d5	-0.0666844
29	0xbe87c2ec	-0.265159
30	0x3d6fcbd5	0.058544
31	0xbe4d1959	-0.200292
32	0xbdd2b346	-0.102881
33	0xbea7ec9a	-0.327977
34	0xbe06f933	-0.13181
35	0xbe4a2a91	-0.197428
36	0xbecb6d22	-0.397317
37	0xbdc2055e	-0.0947368
38	0x3c4e14cb	0.0125782
39	0xbd89d50e	-0.0673009
40	0xbcad117b	-0.0211265
41	0xbebe2d84	-0.371441
42	0xbea3b752	-0.319758
43	0xbe0451fc	-0.129219
44	0x3de4bdba	0.11169
45	0xbe6cdfad	-0.231322
46	0xbd88982d	-0.0666965
47	0xbf13baba	-0.577068
48	0xbc9d32ab	-0.0191892
49	0xbfa58937	-1.29325
