resources/models/onnx/acas/ACASXU_run2a_4_9_batch_2000.onnx (onnx, 54456 bytes, 14 tensors)

layers.0.bias f4 [50]
000000 56 4a 1f bf ad 88 3a bf 06 82 e0 bd 6e fa 13 3f
       -0.622228 -0.728648 -0.109623 0.57804
000010 9a 7d 1e 3e 8e 05 19 bf 59 fb d3 be 73 84 6c bd
       0.154776 -0.597741 -0.414027 -0.0577435
000020 86 c9 c4 be 7c d1 fe bd b3 ed d4 bd df a6 cf be
       -0.38435 -0.124423 -0.103969 -0.40557
000030 98 2f 0f 3e 4e b7 a4 be e4 67 8b be 29 75 6e bd
       0.13983 -0.321711 -0.272277 -0.0582172
000040 bb 1c a0 3d fa 7a 1e 3e 25 02 85 be 63 f0 60 be
       0.0781798 0.154766 -0.259782 -0.219667
000050 bf e7 11 bd d6 6e 93 be c3 cc 28 bd 8a af a6 be
       -0.0356214 -0.287955 -0.0412109 -0.325558
000060 3e 7b 02 bf 51 c0 f6 be 2e ea 6e 3d 00 d5 ae bd
       -0.509693 -0.481936 0.0583288 -0.0853672
000070 3e ae 2d be 14 5e 72 3e fb 6e 94 bd ac 80 2c 3d
       -0.16961 0.236687 -0.0724773 0.0421149
000080 f6 5e fc 3d 55 14 0f 3e 5b 3f ad be a9 09 4c bd
       0.123228 0.139726 -0.338374 -0.0498139
000090 99 61 fb be da bb 10 bd e0 9e 9f be 19 76 14 3b
       -0.490979 -0.0353354 -0.311759 0.00226534
0000a0 c2 4d 12 bf fe 9e 93 3d 97 35 56 bd 62 68 75 3e
       -0.571499 0.0720806 -0.0522972 0.239656
0000b0 18 5d 72 3f 8b c6 85 bd 28 45 f3 be 7b 87 07 bf
       0.946733 -0.0653201 -0.475137 -0.529411
0000c0 8f 70 ca be e7 38 07 be
       -0.39539 -0.132053

layers.0.weight f4 [50, 5]
000000 da 69 94 bb 9b fa 65 3d d3 b4 b5 3d 2e 74 e3 3b
       -0.00452922 0.0561472 0.0887238 0.00694134
000010 7d e8 f2 bf 66 f9 aa be 3d 2c b8 3f fe b7 d6 bf
       -1.89772 -0.333934 1.43885 -1.67749
000020 75 04 08 bf f2 08 1e 3f 26 e7 1f 3d 83 4c d2 bf
       -0.531318 0.617324 0.0390388 -1.64296
000030 cb b9 d4 3d d8 d4 d1 3e af 60 17 bf 5b d3 e8 3f
       0.10387 0.409827 -0.591319 1.81895
000040 22 34 04 3c 8d a1 57 3d ec 69 37 3e a6 28 17 3e
       0.00806907 0.0526443 0.179115 0.147616
000050 31 e3 b7 bd 4b c9 7a 3f d8 47 37 be 81 ec 9d bf
       -0.0897888 0.979634 -0.178985 -1.23378
000060 47 ac ad 3f 20 d5 9b bd 3c f1 a1 bd 4a f1 61 3e
       1.35682 -0.0760901 -0.0790734 0.220647
000070 6e dd 89 bf 2e 04 85 3f 0d f1 c9 3d c9 1f c0 3f
       -1.07707 1.03919 0.0986043 1.50097
000080 83 dd 90 bf 1a 19 54 3e 74 31 7c bd 4f 78 e9 bd
       -1.13176 0.207127 -0.0615706 -0.113999
000090 8b 1a 98 bf 7d 96 93 3f 86 ff 99 3c b2 0e bf be
       -1.18831 1.15303 0.0187986 -0.373159
0000a0 fa 5f ee 3d 1c 5f 7f bf 46 42 8f 3f 66 86 6d 3e
       0.116394 -0.997545 1.11921 0.231958
0000b0 cf 0a 31 3d 13 b9 10 3e ed 7d 92 3e 89 29 a1 3f
       0.0432232 0.141331 0.286117 1.25908
0000c0 6b 0f 63 3f 2e 8d af be 36 8f 13 be 5f 29 0f 40
       0.886954 -0.342874 -0.144101 2.2369
0000d0 ba 2c f6 bf a5 f4 0c 3e 52 27 58 bf 17 c0 9f 3d
       -1.92324 0.137652 -0.84435 0.0780031
0000e0 8e 40 e4 3f 89 98 e2 bf 3a ae 12 bf c3 f4 51 3f
       1.78322 -1.77028 -0.572971 0.820141
0000f0 7e c2 7e bc d7 69 b4 bf 78 4d 8e bd a6 5f 82 3e
       -0.0155493 -1.40948 -0.0694837 0.254636
000100 0a eb 50 bd 43 72 32 bd 27 14 e2 3f 91 44 d7 bf
       -0.0510054 -0.043566 1.76624 -1.68178
000110 fc 2a 0c 3c 9e 08 06 bf a8 28 ad 3d 79 01 ea 3f
       0.00855517 -0.523569 0.0845502 1.82817
000120 f0 50 d4 be a1 65 19 3f f2 d1 4e bf 2d 54 c8 3d
       -0.41468 0.599207 -0.807891 0.0978168
000130 e8 f5 af be fb 58 01 be a5 a4 27 3e 86 92 a9 3d
       -0.343673 -0.126316 0.163714 0.082799
000140 3b 9f 8b bc c2 88 2d 3f 4f 04 c1 3e 4e 64 86 be
       -0.0170437 0.677868 0.376986 -0.262484
000150 21 ce 23 3d 13 57 5f 3d 95 64 59 bf f5 66 cc 3e
       0.0399915 0.0545264 -0.849191 0.399223
000160 26 8d 49 bf 92 cc 7e 3f 49 12 ac be a9 d9 e3 3f
       -0.78731 0.995309 -0.336077 1.78008
000170 4a 29 d4 bf 57 d8 02 bd 69 8f c7 3e de ab ce bf
       -1.65751 -0.0319446 0.389766 -1.61462
000180 67 3c db bc ef 5e 84 bd a8 70 64 3d 81 96 5e 3e
       -0.0267622 -0.0646342 0.0557715 0.217371
000190 c2 eb 24 3d fe 0d 7a 3f 68 42 bb 3e 93 e2 53 3e
       0.0402639 0.976776 0.365741 0.206919
0001a0 09 3c cb bc ba e8 1a bd 50 01 f8 3f a1 0f 32 3f
       -0.0248089 -0.0378196 1.93754 0.695551
0001b0 31 0a 5e bf 4b c8 e7 3d bc 39 91 3d 8a ab 76 40
       -0.867343 0.113175 0.0709109 3.85422
0001c0 a5 71 c1 bb e7 3c 3e 3c c0 0e 35 bb 20 a0 16 bd
       -0.00590344 0.0116112 -0.00276272 -0.0367738
0001d0 10 03 6d 3f 3e 79 90 bf 4f cb 4d bb 87 1a cd 3e
       0.925828 -1.1287 -0.00314017 0.400593
0001e0 96 0b b2 3b 73 f2 02 bd 6a c9 fc 3b 48 37 02 be
       0.00543351 -0.0319695 0.00771444 -0.127164
0001f0 d2 fb 92 bf e8 87 d1 bc 24 9c ae bf d7 c0 be 3f
       -1.14831 -0.0255775 -1.36414 1.49026
000200 d3 f6 1f be 1e 6f fa 3e 5e ca 9f bd 21 a9 aa bc
       -0.156215 0.489129 -0.0780227 -0.0208326
000210 87 1a 15 be c3 81 90 bf c0 26 a3 3f 0f 3d ce bc
       -0.145609 -1.12896 1.27462 -0.0251756
000220 3b e2 10 3f 89 b1 54 3f cc 24 4a 3e de 5a 26 3d
       0.565952 0.830834 0.197406 0.040614
000230 98 2f 8f bf a5 46 ec bb 1a 1a 6f 3d 0c 74 0d be
       -1.11864 -0.00721057 0.0583745 -0.138138
000240 29 49 8d bc dc d2 8f 3c a5 49 89 3f 96 7b f1 be
       -0.0172468 0.0175566 1.07256 -0.471646
000250 54 00 c4 be 36 e6 ed 3e 9e b7 a9 be dd 0b ac be
       -0.382815 0.464647 -0.331479 -0.336028
000260 65 c2 97 3f e6 03 02 3e a7 ad 41 be d0 17 b1 bc
       1.18562 0.126968 -0.189139 -0.0216178
000270 21 b1 19 bf a2 2a 4e bf 7e 39 d3 bd 5f 7e 07 be
       -0.600359 -0.805338 -0.103137 -0.132318
000280 d0 1f 04 3d b3 d1 a1 3e 7e 73 73 bf 2d ec 19 bf
       0.0322569 0.316053 -0.950981 -0.60126
000290 d4 f0 21 3f f2 d2 2d 3e 2f 34 a7 3f 40 4d d9 bf
       0.632581 0.16975 1.30628 -1.69767
0002a0 67 0c 63 3e 49 14 06 bf c4 99 ff 3d 33 16 d5 bf
       0.221727 -0.523747 0.124805 -1.66474
0002b0 49 a2 97 3f ea 22 b5 3e a1 a3 f5 be fb 76 1a 3f
       1.18464 0.353782 -0.479764 0.603378
0002c0 05 58 bf 3b a4 dc b5 39 e6 45 81 3c 2c 9b 49 be
       0.00583935 0.000346874 0.0157804 -0.196881
0002d0 08 22 2b 3d e9 57 c4 3c ca a0 3f 3d 30 64 95 bf
       0.0417805 0.0239677 0.0467842 -1.16712
0002e0 7d 58 5f be bb d6 06 bf e8 77 4b 3d 84 9f 18 3d
       -0.218111 -0.526714 0.0496749 0.0372615
0002f0 63 29 9a 3e fe 65 bf be 97 01 67 3c c4 7c 89 3f
       0.301097 -0.373825 0.0140995 1.07412
000300 e6 e8 45 3f 0f 2a 89 3e 80 28 28 be ff bc 00 bb
       0.773085 0.267899 -0.164217 -0.00196439
000310 ea ec 00 bf 5b e9 75 bf 81 0a e7 3e 2b a1 fb be
       -0.503615 -0.960592 0.451252 -0.491464
000320 55 ef 3a 3b 95 7d ab 3f e2 23 b6 bf a5 22 1f bd
       0.0028524 1.33977 -1.42297 -0.0388514
000330 89 7e 9d 3e d5 9e 88 3c a8 32 f1 bc cd 06 b5 bf
       0.307606 0.0166773 -0.0294431 -1.41427
000340 af d4 9e 3d e3 d0 91 3c a0 c3 94 be 69 74 97 bf
       0.0775541 0.0177998 -0.290555 -1.18324
000350 a6 5e 3f bf 6c 5e b5 3e cc 44 a9 be e8 91 b5 bc
       -0.747538 0.354236 -0.330603 -0.0221643
000360 bd c2 b2 3e 4e 7c b5 3e e5 0a 97 be 29 92 0f 3f
       0.349142 0.354464 -0.295005 0.560824
000370 e4 49 46 40 b4 90 90 3d a9 a4 ee bd 58 2e 04 bc
       3.09826 0.0705885 -0.116525 -0.00806769
000380 1b 57 52 3d 40 66 cc bc 9e ec 12 3f 5c 05 f1 3d
       0.0513526 -0.0249511 0.573923 0.117686
000390 11 1d 3a 3f 4e d2 50 bf 44 32 b4 3d 86 1d 62 3f
       0.727006 -0.815709 0.0879865 0.883263
0003a0 d6 8d 53 bf 11 e1 ff bd 29 e9 31 3e dd 0a fe bb
       -0.826383 -0.124941 0.173741 -0.00775276
0003b0 47 77 48 bf b6 d6 8b 3f fd f6 ad be 19 aa f2 3e
       -0.78307 1.09249 -0.339775 0.473954
0003c0 d7 ec 72 bd 67 0a d9 bf 34 bf 00 40 77 da aa be
       -0.0593079 -1.69563 2.01167 -0.333698
0003d0 47 71 4a 3f 2d 6a 46 3d ef e6 2d bf 3f b0 be 3c
       0.790791 0.0484411 -0.679305 0.0232774
0003e0 68 58 ec 3d 94 fb ad be
       0.115403 -0.33981

layers.10.bias f4 [50]
000000 fa 61 5e 40 e4 bc 43 bf 81 ec 35 c0 fa 44 b5 c0
       3.47473 -0.764601 -2.84256 -5.66467
000010 af 5a f9 3d fa 2b 64 be c9 59 d8 3f a7 96 39 c0
       0.121755 -0.222824 1.69024 -2.89982
000020 98 4c 13 40 03 b2 63 3f e0 db 3c 40 42 09 49 40
       2.30155 0.889435 2.95092 3.14119
000030 f4 c3 7a 40 21 1f b1 40 bf 2b 9d c0 ff 95 7b 40
       3.91821 5.53505 -4.91159 3.93103
000040 c8 d2 39 c0 fe d4 a4 bf 14 d0 1c c0 14 b3 0a c0
       -2.90349 -1.28775 -2.4502 -2.16718
000050 26 1e c3 c0 12 14 f3 c0 c2 69 25 c0 f0 31 68 be
       -6.09743 -7.5962 -2.58458 -0.226753
000060 b0 8f da bf 9c a4 29 3f 3c da 6a 40 ba 66 2a c0
       -1.70751 0.662668 3.66957 -2.66252
000070 c9 93 d4 3f 83 dd 2c c0 54 1d 96 40 80 f1 24 c0
       1.66076 -2.70102 4.69108 -2.57724
000080 d7 2f 06 40 de 54 c0 40 51 f7 33 40 23 be b3 3e
       2.09667 6.01036 2.81197 0.35106
000090 d9 ce cf 3f d0 b8 22 c0 c3 37 c3 3c d6 e0 fd 3d
       1.6235 -2.54253 0.0238303 0.123964
0000a0 95 82 1c 40 89 98 99 c0 64 cc 1f c0 86 e6 be 3f
       2.44547 -4.79987 -2.49685 1.49141
0000b0 00 52 98 c0 0f 29 2a 3f 51 66 57 c0 84 bb 33 3f
       -4.76001 0.664689 -3.36562 0.70208
0000c0 3a cc 21 c0 47 77 54 c0
       -2.52809 -3.31978

layers.10.weight f4 [50, 50]
000000 37 8e b3 3c 82 42 e4 39 bb e9 a8 39 a8 56 df be
       0.0219184 0.000435371 0.000322176 -0.436208
000010 f5 b5 d3 3b 03 e4 70 3b d0 96 b5 3b 66 3a ea bc
       0.0064609 0.0036757 0.00554166 -0.0285923
000020 1e 77 02 bc 17 8f 01 3d 50 71 5a bb 40 12 16 bf
       -0.00796297 0.0316306 -0.00333317 -0.586216
000030 eb 1b b8 be 29 12 02 3d 38 81 69 bc 87 83 0a 3c
       -0.359588 0.0317556 -0.014252 0.00845421
000040 b3 6f fa 3b aa 44 1b 3c b1 bc 10 bc 6d 91 74 bd
       0.00764271 0.00947682 -0.00883405 -0.059709
000050 3d 3e c6 bc f7 a1 de 3b ab a0 b7 bb db a2 ec bd
       -0.0241996 0.00679421 -0.00560387 -0.115545
000060 39 b8 84 be de 00 33 bc b6 10 c3 3a bf bb 55 be
       -0.259218 -0.0109255 0.00148823 -0.208724
000070 67 e2 a7 bc 09 6b 88 bb 57 11 a4 bc be 30 a9 be
       -0.0204937 -0.00416315 -0.0200278 -0.33045
000080 1b 0d 85 bc fb 35 1e bd a0 f5 95 3b fa ad 04 3b
       -0.0162416 -0.0386257 0.0045764 0.00202453
000090 44 1d b1 3b 02 f2 e5 3c bf f0 1e bf 98 5b 6a 39
       0.0054051 0.0280695 -0.620861 0.000223501
0000a0 b8 b1 f9 bd 3e b2 41 bf 6f 7f 5e be ba b2 f2 ba
       -0.121921 -0.756626 -0.217283 -0.00185164
0000b0 1e 92 94 bb 79 59 51 3b 5a 0e ac be 4b 74 d6 3d
       -0.00453402 0.00319442 -0.336047 0.104714
0000c0 84 11 39 bb 91 7f d6 be 50 8a 96 3c d4 91 0d bd
       -0.00282392 -0.418942 0.0183765 -0.0345629
0000d0 c4 42 2d 3f e1 40 9c bf 26 1b ff 3e 5a 81 c5 bf
       0.6768 -1.22073 0.498254 -1.54301
0000e0 24 0e 19 bf 7e c6 29 c0 67 d5 cb 3f d1 77 43 3f
       -0.597872 -2.65274 1.59245 0.763547
0000f0 36 93 21 c0 56 bc 2f 40 50 34 b7 3e 73 11 45 c0
       -2.52461 2.74587 0.357821 -3.07919
000100 39 0b 37 bf 76 a8 26 be 27 25 0c 3c 86 8f 84 3f
       -0.715015 -0.162752 0.00855378 1.03563
000110 44 86 2d bf 5e f7 d6 bd 4a 91 b1 3d fa d2 17 bf
       -0.67783 -0.104964 0.0867029 -0.593063
000120 e1 7f 8b bf 61 6c 95 3f 0d c3 1b bf c5 72 bf 3f
       -1.08984 1.16737 -0.608445 1.49569
000130 11 8b 20 3f 03 44 c1 3d d2 c6 0b 40 6a 12 1c 3f
       0.627122 0.094368 2.18401 0.609656
000140 48 c0 54 bf 30 d8 17 40 e2 58 d3 bf 34 f4 01 40
       -0.831059 2.37257 -1.65115 2.03053
000150 f8 8d e3 3f 03 0b 18 3f 13 d5 f7 3f 07 eb 8b 3f
       1.77777 0.593918 1.93619 1.09311
000160 e2 3a fe be 5b ed 55 3f 8f 38 dc 3e ac 1e a0 3e
       -0.496543 0.835653 0.430119 0.312734
000170 44 a3 29 40 48 a7 b6 3f 70 23 bd be e8 a6 08 bd
       2.65059 1.42698 -0.369411 -0.0333623
000180 75 e5 83 3f 76 87 b9 3c 4c a4 8c be 09 e1 92 40
       1.03044 0.0226476 -0.274691 4.58997
000190 ce e0 ef bc f4 a3 21 3d 9d da 81 be 91 ba bd bd
       -0.029282 0.039463 -0.253621 -0.092641
0001a0 34 d5 9b 3e ec d9 c3 3e 42 7a da 3e 27 f9 d1 3e
       0.304361 0.382522 0.426714 0.410104
0001b0 73 11 19 40 68 22 58 3f ab 08 27 3f fa ec b0 be
       2.39169 0.844275 0.652476 -0.345558
0001c0 ea 5b 74 40 5a f0 fe bf 60 cd 99 bf 86 04 6c be
       3.81811 -1.99171 -1.20158 -0.230486
0001d0 e6 5d d5 3d bc 7a 5d 3f 14 98 16 bf 80 82 9f bf
       0.104183 0.865154 -0.588258 -1.24617
0001e0 30 97 c9 3d 85 cd 08 bf 68 06 61 3e ab 09 e6 3f
       0.0984329 -0.534386 0.219751 1.79717
0001f0 58 90 20 40 d6 39 ce bf dd 41 b8 bf e1 7f 1b 3e
       2.50881 -1.61114 -1.43951 0.151855
000200 06 b9 23 bf 5d 19 74 3f 6c 40 2c bf 34 d8 1c 3f
       -0.639542 0.953512 -0.672858 0.612674
000210 10 cd d4 be 41 d6 53 3f 10 92 15 be 93 e2 e3 3c
       -0.415627 0.827488 -0.146065 0.027818
000220 6d 3a 4e bf 7f 2e 4e 3f 93 8c a0 3f 04 21 ad 3f
       -0.805579 0.805397 1.25429 1.35257
000230 a9 a4 52 bf e5 61 89 3f e8 bd 61 3f 63 6c 57 3c
       -0.822825 1.0733 0.881804 0.0131484
000240 2a 8c fd 3f 89 07 f4 3d ef 3a 37 3f 45 f2 f5 bd
       1.98084 0.119155 0.715743 -0.120091
000250 68 ae 53 be 74 b6 b0 be 2f 1f 44 bd c5 38 9b 3f
       -0.20672 -0.345142 -0.0478813 1.21267
000260 29 ed 21 40 f8 fc c0 bf dc d7 d9 3f ee 25 31 c0
       2.5301 -1.50772 1.7019 -2.76794
000270 7b fa d0 be da 03 d5 be a6 61 3a 40 be a4 91 bf
       -0.408161 -0.416045 2.91221 -1.13784
000280 4d a1 51 c0 b3 24 0a 40 bc 05 c2 bf e3 a5 22 c1
       -3.27547 2.15849 -1.5158 -10.1655
000290 5f 5e d0 3f 39 9c bf c0 35 b8 5d be 51 f7 49 40
       1.62788 -5.98782 -0.216523 3.15572
0002a0 17 b8 8c be b3 b6 e1 3e e5 98 48 bf 58 56 8e 3f
       -0.274842 0.440847 -0.783583 1.11201
0002b0 e7 df e6 3e 64 ae 5c 3e af 27 82 3e a1 b9 b6 3f
       0.450927 0.215509 0.254209 1.42754
0002c0 d4 60 b6 3f 49 12 e4 be 6c 3e 40 c0 e4 da a4 bf
       1.42483 -0.445452 -3.00381 -1.28793
0002d0 d4 2b fd 3f 63 d1 74 c0 d8 bb 11 40 35 f0 fb 3e
       1.9779 -3.82528 2.27709 0.492067
0002e0 52 f2 8a 3f d6 54 7e 3f 30 f0 50 40 30 f0 2a c0
       1.08552 0.993482 3.26466 -2.67091
0002f0 63 d1 ec bf ec 2f 8f bf e7 52 0a 40 9a b0 e5 3e
       -1.85014 -1.11865 2.16131 0.448613
000300 84 81 f3 3f 83 34 9b 3f 2e ff b5 3f df c3 9d bf
       1.90239 1.21254 1.42185 -1.23254
000310 1c 7c b1 be cd 80 09 bd b8 cc e9 be 52 61 80 bf
       -0.34665 -0.0335701 -0.45664 -1.00297
000320 57 4d c6 3c ca 32 40 bf 7d 92 63 3f 19 58 27 3d
       0.0242068 -0.750775 0.888954 0.0408555
000330 ac fd 3d 3e 64 92 0d c0 a2 45 78 c0 ee 24 46 bf
       0.185538 -2.21206 -3.87925 -0.774001
000340 74 d2 0b 40 00 74 08 40 d6 73 44 c0 c5 e6 97 3f
       2.18472 2.13208 -3.06957 1.18673
000350 65 c6 7b 3e 1a c0 5c c1 87 bf 54 40 27 83 cf 3f
       0.245874 -13.7969 3.32419 1.62119
000360 38 49 d8 bc a0 e0 28 40 68 5b 5d 3e 88 2e ac 3f
       -0.0264021 2.63871 0.216169 1.34517
000370 84 d8 ca c0 7b 14 86 3f 1c 09 bc 3e 64 cc 89 bf
       -6.33893 1.0475 0.367257 -1.07655
000380 c9 ab c3 3f c6 50 32 40 de 02 1f 40 8d 0b bf be
       1.52868 2.78618 2.48455 -0.373135
000390 fa b4 42 3f bc cb 81 3f ee 93 cb 3e 84 d8 79 40
       0.760574 1.01403 0.397613 3.90384
0003a0 a4 8d 27 c0 32 5a c7 3f e9 b7 17 c0 d1 20 1d 3f
       -2.61802 1.55744 -2.3706 0.613782
0003b0 80 63 87 3e 41 10 38 bf 3a 05 09 3e 21 07 9d bf
       0.264431 -0.718998 0.133809 -1.22678
0003c0 dc 68 a0 3f 3f 8c 84 bf 35 b7 42 be 57 5b f1 3f
       1.2532 -1.03553 -0.190152 1.8856
0003d0 3e 3f 86 40 8b 71 06 40 e7 e4 20 bd 13 60 58 bc
       4.19522 2.10068 -0.0392808 -0.0132065
0003e0 ed 0d 1e bf 71 8f 01 40 7e 0a d7 3b c1 14 0f bd
       -0.6174 2.02438 0.00656253 -0.0349319
0003f0 c6 36 89 be b0 8c dd be 2c 88 5c bc 2a a9 37 bf
       -0.267996 -0.432714 -0.0134602 -0.717425

layers.12.bias f4 [5]
000000 ba c4 ac bc 58 75 96 bc 54 79 96 3c 5b c6 97 bc
       -0.0210899 -0.0183665 0.0183684 -0.0185272
000010 df c8 97 3c
       0.0185284

layers.12.weight f4 [5, 50]
000000 cf 55 29 3c 78 6e 10 3b a0 b3 1a 3b 2e ac 38 3b
       0.0103354 0.00220385 0.00236056 0.00281788
000010 a6 52 43 3b c4 ba 4c bc e7 4b f7 bb 91 08 4f 3b
       0.00298039 -0.0124957 -0.00754689 0.00315908
000020 0b 77 b2 3b b0 65 68 bc 6e 70 e0 bb 20 78 c2 bb
       0.00544632 -0.0141844 -0.00684934 -0.00593473
000030 6b e2 11 bb bf 05 9f bb 84 60 17 3b a4 07 b6 bb
       -0.00222602 -0.00485298 0.00230983 -0.00555511
000040 0b 51 b2 3b 5b 3f 7d 3b 36 a2 66 3b e1 a0 35 3b
       0.00544179 0.00386425 0.00351919 0.00277143
000050 d2 98 ff 3a 38 48 29 3b 2c f5 6f ba f3 3c b4 bb
       0.00195005 0.00258304 -0.000915366 -0.00550043
000060 eb cb 2d 3c 04 61 e6 39 ed f8 8a 3b 0f b3 38 3b
       0.0106077 0.000439413 0.0042411 0.00281829
000070 a7 3f 5a bb 96 d0 7a 3b a5 df 99 bb e1 84 f8 3a
       -0.00333021 0.00382713 -0.00469585 0.00189605
000080 c8 5d 06 bc e3 0a ff ba c6 03 80 bc 1b 0c 9a bb
       -0.00820107 -0.00194582 -0.0156268 -0.00470115
000090 0a c7 20 3b b5 94 62 3b e4 5a 21 bc f7 eb 4a 3b
       0.00245327 0.00345735 -0.00984833 0.00309634
0000a0 7a b1 07 3c 7e 0c 8c 3b 78 c6 e7 3b 7e 2e e4 bb
       0.00828206 0.00427395 0.00707322 -0.00696355
0000b0 04 ad 1f 3b 46 d4 e1 3a 94 0d b1 3b f1 c5 27 ba
       0.00243646 0.00172294 0.00540323 -0.000640004
0000c0 cd 70 07 3b 20 93 14 3b 97 9f a8 b8 94 f5 dc 37
       0.00206666 0.00226707 -8.04059e-05 2.63404e-05
0000d0 04 b9 67 b9 30 b8 e6 3a 77 03 66 ba d5 ec 81 3b
       -0.000220988 0.00176025 -0.000877432 0.003965
0000e0 95 22 65 3a 25 ad ac 39 99 27 64 ba 2f d5 b3 3b
       0.000874081 0.000329354 -0.000870341 0.00548806
0000f0 8d 0d bc 3a 76 0b 35 3a f5 ff c3 38 46 68 f7 38
       0.00143473 0.000690631 9.346e-05 0.000117973
000100 4b 8e 23 39 a0 3d 8f 3a cd 95 7f b9 a0 ba 66 36
       0.000155979 0.00109284 -0.000243745 3.43813e-06
000110 00 1e 45 b8 f1 a2 8e ba 26 c7 a3 38 a1 b7 7c b9
       -4.69964e-05 -0.00108823 7.80954e-05 -0.00024101
000120 e2 4a 60 3a 90 41 e7 b9 2c 30 60 3b c6 6f d2 b8
       0.000855608 -0.000441086 0.00342084 -0.000100344
000130 e7 2c 36 b9 56 3e d3 ba 74 18 b7 39 d6 5e 08 39
       -0.000173736 -0.00161166 0.000349227 0.000130053
000140 32 a0 f8 39 e6 91 6e b9 28 ec 09 3b 99 4d 7c 39
       0.000474216 -0.000227518 0.00210453 0.000240615
000150 cb 20 2e 3a f7 11 fa 39 b6 f4 34 39 4d ea 02 ba
       0.000664246 0.000476971 0.000172573 -0.000499402
000160 1a 95 4c 3b 43 34 6d ba af a1 30 b9 d6 76 bf b9
       0.00312168 -0.000904862 -0.000168449 -0.000365189
000170 7d 15 b9 38 3e 37 29 3a f7 1d 3e ba 4c 3b 73 3b
       8.82549e-05 0.000645507 -0.000725239 0.00371142
000180 c8 b2 01 b9 a4 50 bb ba 56 2d a7 b9 ca 67 31 b9
       -0.00012369 -0.0014291 -0.000318865 -0.000169187
000190 14 38 3b 39 06 fd ce 39 a1 ba 5a 3a 58 19 cf 3a
       0.000178546 0.000394799 0.000834385 0.00158004
0001a0 81 bd 68 37 f7 e7 c3 bb d9 5c e9 39 b0 62 f3 39
       1.38724e-05 -0.00597858 0.000445104 0.000464221
0001b0 a4 90 65 3a 1e ea 90 ba 18 be 19 b7 01 d4 0f 38
       0.000875721 -0.00110561 -9.16377e-06 3.42913e-05
0001c0 cc 5b 8f 38 21 2b d9 b7 a9 c3 88 38 6e f6 cd 3a
       6.83587e-05 -2.58885e-05 6.52143e-05 0.00157137
0001d0 45 ab 3c b8 d2 d6 c9 b8 72 63 c9 39 9a 50 01 ba
       -4.49822e-05 -9.62444e-05 0.000384118 -0.000493297
0001e0 77 03 9a 3a 74 39 95 39 b7 17 92 b7 a0 0f 3f 39
       0.00117503 0.000284623 -1.74156e-05 0.00018221
0001f0 b9 3b a5 ba 61 db a6 3b 6f bc f4 39 0c 48 b1 3a
       -0.00126063 0.00509207 0.000466797 0.00135255
000200 bf fc ff 39 42 fa be b8 84 42 4a 39 43 09 98 39
       0.000488257 -9.10652e-05 0.00019289 0.000289986
000210 25 93 66 ba 9c c7 e2 39 24 df 0b b9 51 02 34 b9
       -0.000879573 0.000432548 -0.000133392 -0.00017167
000220 fc 23 bd b9 2a f0 80 3a a5 e9 90 39 03 1e 9c 3a
       -0.000360757 0.00098372 0.000276399 0.00119108
000230 31 fb 9a 38 a5 0f 9f 39 d5 51 0c 3a 5d 1b 02 b8
       7.39008e-05 0.000303385 0.000535277 -3.10199e-05
000240 92 ef fc b7 ac d4 e0 3b 33 81 c7 3a 6f 06 e6 3b
       -3.01523e-05 0.00686129 0.0015221 0.00701981
000250 4c 9d 67 3a 8e 65 c5 36 0f b7 92 b6 76 0e 13 b9
       0.000883539 5.88288e-06 -4.37245e-06 -0.000140244
000260 5f 92 93 38 31 4a c8 ba 4a 9a 4d b8 79 59 72 bb
       7.03677e-05 -0.00152809 -4.90195e-05 -0.00369796
000270 5c 5e 22 ba ee 1d f1 39 40 14 8a 3a 82 cb 1d 3a
       -0.000619387 0.000459894 0.00105346 0.00060194
000280 01 f7 9a 38 11 e3 06 3a 89 30 c7 38 45 76 65 39
       7.3893e-05 0.000514553 9.4981e-05 0.000218832
000290 0a a4 ce 39 49 e1 fb b9 fd ef d7 38 95 d1 d8 37
       0.000394136 -0.000480423 0.000102967 2.58468e-05
0002a0 b8 ce 46 38 7e 1b 7a b9 30 b2 2f b7 a8 59 84 39
       4.73994e-05 -0.000238521 -1.04723e-05 0.000252438
0002b0 02 ee bb ba bf 4f 3e b8 c8 d3 2b 3a ab 9b a8 3b
       -0.00143379 -4.53738e-05 0.000655469 0.00514551
0002c0 6b 50 65 39 a3 ea 8c 39 8c 7b da 3a bc ee 41 3a
       0.000218691 0.000268777 0.00166689 0.000739794
0002d0 19 62 8a 3a 5f 33 aa 39 92 2c 1a 3b ea 3d 54 b7
       0.00105578 0.000324632 0.00235251 -1.26506e-05
0002e0 6b 73 90 3b 91 5e 08 b9 28 3a 9a ba c7 bc fb 39
       0.00440829 -0.000130052 -0.00117666 0.000480151
0002f0 af ab 51 3b 03 ff 0e ba bb da 21 38 fb 51 7d 39
       0.00319932 -0.000545487 3.85891e-05 0.000241585
000300 ae bb cd 38 3b 08 cf 3a 9d 1d 30 39 6b bf d2 3b
       9.81012e-05 0.00157953 0.000167957 0.00643151
000310 04 78 b7 39 9c 50 88 bb 5d 4f 16 38 43 7d 29 38
       0.000349939 -0.00416 3.58367e-05 4.04094e-05
000320 33 6d 88 39 13 8f 2f b9 44 b5 6c 38 b6 88 1f 3a
       0.000260213 -0.000167426 5.64356e-05 0.000608574
000330 00 eb 54 b7 d8 de dd bb 90 5a 5f 3a a7 ea bb 3a
       -1.26909e-05 -0.00677095 0.000852027 0.00143369
000340 91 27 7d 3a 88 04 be ba c6 20 00 b8 aa 6d eb b8
       0.000965708 -0.00144972 -3.05481e-05 -0.000112261
000350 5d bb f1 39 b1 95 86 b9 b7 c1 31 39 59 e2 bf 39
       0.000461067 -0.0002567 0.000169522 0.00036599
000360 d2 9c 14 39 d6 39 1e b8 e1 c9 26 39 cb 65 9c 38
       0.000141728 -3.7724e-05 0.000159062 7.45762e-05
000370 0a c7 1b 39 c5 c0 76 39 a9 d6 4f ba c8 7c 96 b9
       0.000148561 0.000235322 -0.000792841 -0.000287032
000380 60 d2 94 ba 8c c6 90 3b a8 ac 94 b9 4b 0b f2 3a
       -0.00113542 0.0044182 -0.000283574 0.00184665
000390 47 54 c9 3a 0e df 6d 3a 35 ee e9 39 1b 6b 2f 39
       0.00153602 0.000907407 0.000446187 0.000167292
0003a0 81 ee 09 bb 22 e3 1d b9 3a 4b 71 ba 06 b5 55 39
       -0.00210467 -0.000150573 -0.000920463 0.000203807
0003b0 2e a4 2c 38 95 cd 0c 3a ad 1a 55 3a b0 3a 93 3a
       4.11609e-05 0.000537121 0.000812928 0.00112327
0003c0 73 69 99 39 55 3b 57 39 a9 c1 ef 37 53 cb a1 b9
       0.00029261 0.000205261 2.85812e-05 -0.000308598
0003d0 e2 9d f0 b8 6d 03 f3 3b 6f 22 c0 3a a4 08 df 3b
       -0.000114735 0.00741618 0.00146587 0.00680645
0003e0 09 99 79 b9 b1 47 8f 3a
       -0.000238035 0.00109314

layers.2.bias f4 [50]
000000 69 3a 83 3f 4c df 0f bf b5 05 1b bc 31 eb 35 3e
       1.02522 -0.562001 -0.00946181 0.177655
000010 25 b3 4a 3f bb 28 12 bf 78 99 c4 bb bc c9 a7 be
       0.791796 -0.570934 -0.00599974 -0.327711
000020 96 79 4b bf 52 0b 45 3f bc 31 ce bc a5 2c cf 3f
       -0.794824 0.769704 -0.0251702 1.61855
000030 35 44 b5 be 0f bc 14 bc d6 63 91 bd e0 9d bc 3e
       -0.354036 -0.00907804 -0.0709912 0.368392
000040 39 9a 8b 3e ab 95 91 be e9 9b b4 be 03 22 78 3f
       0.272661 -0.284345 -0.352752 0.969269
000050 6b 82 14 40 29 07 fb 3e 50 34 af be 2d ea cb 3e
       2.32046 0.490289 -0.342196 0.398271
000060 38 ff 8a bc 01 c0 a9 3e 19 3a 86 bd 0e 4b eb 3e
       -0.0169674 0.331543 -0.0655405 0.459557
000070 0a bf 94 bf af 05 cd be 36 ca 0e 3f 5b 24 95 be
       -1.16208 -0.400434 0.557773 -0.291293
000080 dd 8e 3a bc 12 dd 07 bf 18 41 63 be 7e 9c 7a bc
       -0.0113866 -0.530717 -0.221928 -0.0152961
000090 3b 56 08 bc a3 78 95 be a9 16 01 bf b0 a9 a3 be
       -0.00832134 -0.291936 -0.504252 -0.319654
0000a0 50 c7 83 3f 9b 3d 40 bf 96 d1 e8 be 5e f1 54 bc
       1.02952 -0.75094 -0.454724 -0.012997
0000b0 27 69 1e 3e dc b8 2d bf 8b 4e 12 bf c9 fb 9d bc
       0.154698 -0.678602 -0.571511 -0.0192851
0000c0 f1 2e d7 be b0 3d 07 bf
       -0.42028 -0.528285

layers.2.weight f4 [50, 50]
000000 9c 33 c6 bf 4b 03 2b bf 86 c5 6d 3d e8 a2 11 3e
       -1.54845 -0.668019 0.0580497 0.142223
000010 25 3d 4c 3e 0d e0 11 bf 86 03 07 c0 06 4c 98 bf
       0.199452 -0.569825 -2.10959 -1.18982
000020 09 dd f5 3e 9f 20 01 be 39 7c 1a bf e6 e8 21 be
       0.480202 -0.126101 -0.603458 -0.158115
000030 f8 54 76 3f 7d cd 46 bf 81 7b 02 bf b9 ab ef 3e
       0.962234 -0.776573 -0.509697 0.468107
000040 37 b7 17 bc 61 fd 87 3f f6 45 aa be 80 9a a6 bf
       -0.00925999 1.06242 -0.332565 -1.30159
000050 eb 90 8b bd 73 64 79 3f 76 a7 2f bf 8c 15 bd bf
       -0.0681475 0.974189 -0.686149 -1.47722
000060 68 ec 27 bf 23 84 c3 bf a1 31 ae 3c 19 e2 3c 40
       -0.655951 -1.52747 0.0212639 2.9513
000070 b1 5b 9a 3d af 27 b2 3e 45 66 2a 3f 3e d0 02 bf
       0.0753702 0.347959 0.665623 -0.51099
000080 6d a8 d8 be e1 7c 8a 3e e6 24 d4 be 1b d4 42 bf
       -0.42316 0.270484 -0.414344 -0.761049
000090 37 5b af 3d 5f 5e a0 bf 34 d7 f9 3f 50 30 88 3c
       0.0856232 -1.25288 1.95188 0.0166246
0000a0 09 8a 31 c0 68 ca 1e 3e ab 7a 39 3e 37 1c 36 3f
       -2.77405 0.155069 0.181132 0.711368
0000b0 4e 02 25 3d ee 7b cc be 78 62 be bf f1 46 96 be
       0.0402854 -0.399383 -1.48738 -0.29351
0000c0 d5 78 35 bf 5b 5f d4 bf 77 d8 cc be d8 9d 5a bf
       -0.708875 -1.65916 -0.400089 -0.853971
0000d0 1f 2b 7c 3f 8a 2c c8 bc 71 5a 8c 3f 5f cf 97 bc
       0.985033 -0.0244353 1.09651 -0.0185315
0000e0 e8 6a 71 c0 3b fc 85 3f b2 85 c0 3f 6e a2 d6 be
       -3.77215 1.04676 1.50408 -0.419208
0000f0 9a e9 42 bf 7d 22 3b bf 47 e6 a9 3f 55 d9 db bf
       -0.761377 -0.730995 1.32734 -1.71757
000100 dc 4a 5b bf 67 0a a5 3f fb 81 41 3d e3 dd 6d bf
       -0.856611 1.28938 0.0472431 -0.929167
000110 a0 89 50 bf 50 8f 3d be 6f 12 8b bf e7 05 d0 3b
       -0.8146 -0.185117 -1.0865 0.00634836
000120 e8 f6 62 be 27 f7 09 c0 be d9 ea 3f 2d cd b5 3e
       -0.221645 -2.15571 1.83477 0.355081
000130 1f 11 93 3e da ca 9b be 0b 7e 7b 3e 31 26 75 3f
       0.28724 -0.304282 0.245598 0.957614
000140 ec d9 33 3e 17 ba 3e 3f eb ff 88 3f 82 73 8e 3e
       0.175636 0.745027 1.07031 0.278225
000150 17 28 29 3f 53 ca 4b be 5e 68 fe 3e 77 10 5f bf
       0.660768 -0.199014 0.49689 -0.871345
000160 a4 c2 c8 bf 47 8f af 3f e0 9c 3f c0 ca 4f 04 40
       -1.56844 1.37156 -2.99395 2.06737
000170 a8 71 af 3e df a3 9e be ca 58 88 3c a6 0f 95 bf
       0.342664 -0.309844 0.0166439 -1.16454
000180 19 56 e5 bf 33 4e 27 bf f6 ae 06 3d 78 7a 1d 40
       -1.79169 -0.653537 0.0328817 2.4606
000190 73 a9 80 3c fc 77 18 bd 35 62 01 bc c8 9a 6c bc
       0.0157058 -0.0372238 -0.00789695 -0.0144412
0001a0 b7 2c 1d bc f8 f7 fe 3c ce 1c 32 3d db 73 74 bc
       -0.00959318 0.0311241 0.0434845 -0.0149202
0001b0 5f 2b 7c bc a1 5f 00 3d 68 1f 2b bc 30 84 dc bc
       -0.0153912 0.0313412 -0.0104445 -0.0269185
0001c0 94 b3 83 3b d8 0c 50 bd d7 fc 33 bd 8c 71 34 bd
       0.00401921 -0.0507935 -0.0439423 -0.0440536
0001d0 10 dd 1d bd 86 0c 9a bc 5f 27 55 bd 7d b9 05 bd
       -0.0385409 -0.0188048 -0.0520395 -0.0326476
0001e0 d5 d0 06 bd 7f 10 56 3a f4 86 a0 3c 44 75 29 bc
       -0.032914 0.000816591 0.0195956 -0.0103429
0001f0 4e ae ce bc ba a9 9c bc 8f df be bb 4b 30 10 3a
       -0.0252296 -0.0191239 -0.00582499 0.000550036
000200 5c b0 12 3c c0 dc 9d bc 87 02 d1 bc 8f d0 22 bc
       0.00895318 -0.0192703 -0.0255139 -0.00993742
000210 8c 46 a3 bc 06 c8 c6 bc 81 32 78 bb c6 34 13 bd
       -0.0199311 -0.0242653 -0.00378719 -0.035939
000220 b5 3a 94 3c a8 aa 90 bc ec 62 1f bd 29 ef 3e bc
       0.0180944 -0.0176595 -0.0389127 -0.0116537
000230 5f dc 1f 3c 81 21 0b 3d 99 b7 4a bd a9 6f 14 3d
       0.00975713 0.0339675 -0.0494915 0.0362393
000240 62 f6 91 bb 60 1c 21 bd 80 25 bc bc 79 79 15 3c
       -0.00445442 -0.0393337 -0.0229671 0.0091232
000250 62 59 fa 3c 56 d0 99 3c f8 df 5a 3e 03 cf 0d 3e
       0.0305602 0.0187761 0.213745 0.138485
000260 c1 04 c9 bd 92 3d 82 3e 6d 75 79 3e 72 18 8c bd
       -0.0981536 0.254376 0.243612 -0.068406
000270 11 1e b1 3f 14 5b e1 3e e1 7a 9c bf 83 75 d2 bc
       1.38373 0.440148 -1.2225 -0.0256908
000280 02 b7 c6 be ce 36 3f 3f f1 9d d8 3d cd 03 80 be
       -0.388115 0.74693 0.10577 -0.250029
000290 fd dc 14 bf c4 d2 d8 3e 42 ec 10 bf 8d d1 8a bf
       -0.581497 0.423483 -0.566105 -1.08452
0002a0 90 2f 21 3d 55 74 da bb ef ff 63 3e 25 6c 89 3d
       0.039352 -0.0066667 0.222656 0.0671008
0002b0 cf d7 5c be 68 96 a8 bf 93 c4 d2 3d d9 99 12 bf
       -0.215667 -1.31709 0.102914 -0.57266
0002c0 73 85 d7 bf a3 1d 17 3e cb 4a ef bf 54 19 c6 3e
       -1.68376 0.147574 -1.86947 0.386912
0002d0 7f 4c 07 3f d2 8e 53 3f c8 ec 3c bf 14 c2 97 bb
       0.528511 0.826398 -0.737988 -0.00463129
0002e0 0b a8 41 3d d1 79 0d be be df 03 bd 93 3a 8d bf
       0.0472794 -0.13816 -0.0321958 -1.10335
0002f0 54 8e 49 bf 47 00 4b 3f 10 7a 14 c0 64 d6 81 bc
       -0.787328 0.792973 -2.31995 -0.0158493
000300 99 56 a4 3d 34 30 1e 3f a5 31 0a be ed 7f 10 be
       0.0802433 0.617923 -0.134955 -0.141113
000310 36 1d 79 bf 9d 4c 0c 3e 8c d8 9f 3e ff 05 22 3f
       -0.973102 0.137011 0.312199 0.632904
000320 17 bc 9c bf 4d 15 22 c0 9a 08 19 c0 0a a0 58 3e
       -1.22449 -2.53255 -2.39115 0.211548
000330 a5 a3 78 bf 65 fe 61 3f c8 1d 20 bd 2e ad 8a bf
       -0.971247 0.882788 -0.0390909 -1.08341
000340 27 a5 f8 bf dd 41 08 3f 31 5c 29 3f 6f 2f 2f c0
       -1.94254 0.532255 0.661563 -2.73727
000350 c4 77 aa bf dd ea 6d bf c6 85 fb 3f 1d 8f c1 bf
       -1.33178 -0.929365 1.96502 -1.51218
000360 b5 6f c6 3e 8d d1 b2 3f 75 06 e6 bd 6e fa 03 be
       0.387571 1.39702 -0.112317 -0.128885
000370 fd 82 05 40 cb db 51 3e 50 08 a3 bd 81 b3 a4 be
       2.08612 0.20494 -0.0796057 -0.321682
000380 65 a5 03 c0 8b c3 f5 bf 80 66 34 3f 5d dc d2 3f
       -2.05697 -1.92003 0.704689 1.64735
000390 f4 88 d1 3d 96 b2 ec 3d 55 fb 14 bf 41 b7 eb bf
       0.102312 0.115575 -0.58196 -1.84153
0003a0 ce 36 25 c0 1d 01 30 bf c3 47 08 c0 30 66 ab be
       -2.58147 -0.687517 -2.12938 -0.334764
0003b0 b2 f6 7f bf 1a c4 77 bf 71 8f 9d 3f 9b 8f 39 c0
       -0.999858 -0.967836 1.23094 -2.89939
0003c0 c5 03 1a be bb d0 be c0 d3 f9 40 bf 6b 65 9e 3f
       -0.150405 -5.96298 -0.753812 1.23747
0003d0 7d b4 33 bd fb 3a d0 3f 98 4d 68 3f 52 9b 26 c0
       -0.0438733 1.6268 0.907434 -2.60323
0003e0 ae d8 9b bf 19 ca 03 c0 13 d7 d1 bd 87 20 bd 3c
       -1.21755 -2.05921 -0.102461 0.0230868
0003f0 78 5e 6e 3f 30 10 34 3e 08 02 0c bf e5 d0 ea 3f
       0.931129 0.175843 -0.546906 1.8345

layers.4.bias f4 [50]
000000 6a a3 3a be fd 33 1f 3f 67 0a 9d 3f 00 53 c6 3e
       -0.182264 0.621887 1.22688 0.387352
000010 c2 51 0c c0 80 9e ae be 1a a8 08 c0 4c fe 27 bf
       -2.19249 -0.341053 -2.13526 -0.656224
000020 fa f2 9a bf 57 09 96 3e f8 36 91 bf 13 d5 09 c0
       -1.21054 0.29304 -1.13449 -2.15363
000030 f4 1a bb be 77 68 78 bf 79 93 8f 3e c0 26 13 bf
       -0.36544 -0.970344 0.280422 -0.57481
000040 2f dc 21 bf 74 29 66 3f 81 ec 0d c0 ed 64 9c 3f
       -0.632266 0.89907 -2.21756 1.22183
000050 cf 66 bd bf bc 59 f3 be 5f 28 64 bf 29 5c 6f c0
       -1.4797 -0.475294 -0.891241 -3.74
000060 47 03 d4 bf e5 7b ae 3e aa 7d 00 40 b6 69 97 bd
       -1.65635 0.340789 2.00767 -0.0739321
000070 4a 07 3d c0 54 e1 f7 be 50 c8 5e 3e b5 51 8d be
       -2.95357 -0.484141 0.217561 -0.276014
000080 35 98 28 c0 4a 95 48 bf f1 ba 52 c0 62 d6 87 3f
       -2.63429 -0.783528 -3.29266 1.06123
000090 1c ef 02 3f 67 43 4a 3f af 7c 66 3f 96 21 7e bf
       0.511461 0.790091 0.90034 -0.9927
0000a0 8d b4 98 bf ca c2 27 3f 1b f6 8b 3e dc f4 9b bf
       -1.19301 0.655316 0.273362 -1.21841
0000b0 fd 4d 84 3f bc 40 29 3e 74 b4 aa 3e 98 f1 a0 3d
       1.03363 0.165286 0.333408 0.0785858
0000c0 f0 4d f3 bd d0 ec ea 3e
       -0.118801 0.458838

layers.4.weight f4 [50, 50]
000000 cd 56 1e bf 59 c2 9a 3d 25 f7 85 bb 8e ad 07 3e
       -0.618512 0.075566 -0.0040883 0.132498
000010 02 47 62 be 4d b4 90 bc b1 af 2f 3b 79 3f 26 bf
       -0.220974 -0.0176641 0.00268076 -0.649406
000020 49 4a 2a 3f 63 42 d4 be 4e a6 20 bd 73 04 5a 3d
       0.665196 -0.414569 -0.0392211 0.0532269
000030 61 51 51 bf f7 f9 19 3d 2e 8e 8a bc 10 3d f9 3e
       -0.817648 0.0375919 -0.0169135 0.486794
000040 1d 72 8b 3e f6 ee 9f bf d3 d9 0d 3f 8b 19 b1 be
       0.272355 -1.24948 0.554105 -0.345898
000050 7a 39 ec 3d a8 bf 83 bc 4d f3 6a 3f cf ba 56 3e
       0.115344 -0.0160826 0.917775 0.209697
000060 85 92 2e bd 02 11 e2 bc 79 23 bf bf da ca 63 3f
       -0.0426202 -0.027596 -1.49327 0.889814
000070 a0 87 3a 3e 8c a2 37 3e 8c ba ce 3e df 6b c8 bc
       0.182158 0.179331 0.403767 -0.0244655
000080 0e 0d 9d 39 8c aa c5 bd c3 9d 93 3e a5 82 0a bd
       0.000299551 -0.0965167 0.288313 -0.033816
000090 bd 11 47 bd 73 11 3f be 8c dc f3 bd ff 2f 2d 3d
       -0.0486009 -0.18659 -0.119073 0.0422821
0000a0 52 7f fd 3d 18 e9 51 3f 04 3a c3 3e 45 29 06 bd
       0.123778 0.819963 0.381302 -0.0327542
0000b0 91 98 00 3f b3 5e 20 3f 50 ea 21 3d dc c8 eb 3c
       0.502328 0.626445 0.0395301 0.0287823
0000c0 9b 73 20 bf e2 af 47 c0 59 fa a0 be 9a 42 cf 3f
       -0.626764 -3.12011 -0.31441 1.61922
0000d0 77 27 44 3c 1d ad fa 3e 7f 13 be 3f 27 ed 17 3d
       0.0119723 0.489602 1.48497 0.0370914
0000e0 a9 5f b3 bc 22 6f d9 be 61 37 34 c0 a6 44 0e c0
       -0.0218962 -0.424676 -2.81588 -2.22294
0000f0 51 bd 35 3c e9 f7 98 bc 92 e7 56 3f c9 5c 78 bb
       0.0110925 -0.0186729 0.839471 -0.00378971
000100 1b 1c 5b 3c 59 2c 0a 3d 87 8b 0c be ea 22 c5 be
       0.0133734 0.0337337 -0.137251 -0.385032
000110 2e e4 a9 be 75 56 1b be 2c a5 22 3d f5 d9 89 3e
       -0.331819 -0.151697 0.0397083 0.269241
000120 b9 fc bb bf ca 15 ae 3e 12 9b b4 bc 3f fe ca be
       -1.46865 0.34001 -0.0220466 -0.396471
000130 18 06 5c be 0e c0 32 bf b3 5f af 3e 10 ad fd 3e
       -0.214867 -0.698243 0.342527 0.495461
000140 f4 c4 13 3e 85 28 4f be 82 75 17 3d 0e a1 de bf
       0.144306 -0.202303 0.0369773 -1.73929
000150 25 af a6 bf 94 fa b2 bc dd 1a e2 bc 83 dc 25 3e
       -1.30222 -0.021848 -0.0276007 0.161974
000160 94 dc f9 be 34 a2 a0 bf 40 f8 10 bf 97 37 03 bf
       -0.488011 -1.25495 -0.566288 -0.512567
000170 11 a8 7e 3e 88 a0 ea 3c 53 97 5c 3e c8 cd 60 be
       0.248688 0.028641 0.215421 -0.219535
000180 93 70 89 3e e5 e5 7a bc 62 48 8e 3e 14 d0 9c be
       0.268437 -0.0153136 0.277896 -0.306275
000190 8f 6c 53 3c 5a bb 0d 3e 06 0d 3d 3d 18 08 8a be
       0.0129043 0.13841 0.046155 -0.269593
0001a0 b0 c7 2c 3f 53 b3 37 3f 4a 37 d3 3c 73 2a 39 3e
       0.674922 0.71758 0.0257832 0.180826
0001b0 7e e3 af 3f 94 61 26 bc e7 d6 b5 bc ce 44 a2 3c
       1.37413 -0.0101551 -0.0221972 0.0198082
0001c0 04 03 30 bf 1a e1 0d 3d 2e bf 78 bc 08 55 5a 3e
       -0.687546 0.0346385 -0.0151823 0.213215
0001d0 ba 31 9d 3f 9e b5 1f 40 57 05 7a be 55 c2 4b bf
       1.22808 2.49546 -0.244161 -0.795934
0001e0 2c f5 ac 3e ef cb 1d 3f b4 1c a8 bd 86 73 dd 3e
       0.337808 0.616393 -0.082086 0.432522
0001f0 da e9 e2 bc 3b f8 9e bd 3c f6 bb 3e a9 30 9e be
       -0.0276994 -0.0776219 0.367113 -0.308965
000200 08 94 2d be a1 a3 19 3f 71 c6 e8 be b8 b0 42 bf
       -0.16951 0.600153 -0.454639 -0.760509
000210 b9 ac 1f 3c fe 43 04 40 0f 09 87 3e 69 1e 3b 3d
       0.00974577 2.06665 0.263741 0.0456833
000220 ed dd 97 3b 27 83 83 bf ec 17 88 bf 95 9f d4 3d
       0.00463461 -1.02744 -1.06323 0.10382
000230 e8 b5 b3 3d 17 bc 28 3e 14 96 8c 3f 26 07 47 3c
       0.0877493 0.16478 1.09833 0.0121477
000240 23 4a 1f 40 75 b0 ce 3e ba bd 9c be f9 67 26 3d
       2.4889 0.40369 -0.306135 0.0406265
000250 8b a9 50 3f f9 4e 0c 40 97 39 95 3e b7 08 dc be
       0.815087 2.19232 0.291455 -0.429754
000260 13 6f 53 bc ff 78 a3 3f 6c 86 ca bd 79 af d2 3e
       -0.0129049 1.27713 -0.0988892 0.411495
000270 e4 9b 12 3d 7e c8 a3 3e 15 74 9f bf 48 15 55 3e
       0.0357932 0.319889 -1.24573 0.208089
000280 5e e3 e9 bc 1d 3c 37 bf ee d0 00 be 9c 69 42 3d
       -0.0285508 -0.715761 -0.125797 0.047464
000290 e1 e4 b8 3d 9f 04 16 3e ca fe 19 be c0 78 d6 bf
       0.0902803 0.146502 -0.150386 -1.67556
0002a0 ed 9a e0 be bc 04 e7 3d 7f 0a 71 bd e9 26 61 be
       -0.438682 0.112802 -0.0588479 -0.219875
0002b0 e8 a3 40 3f 06 f3 ff be f6 cb 4c bd ef 1f 2b 3e
       0.752501 -0.499901 -0.0499992 0.167114
0002c0 65 c5 24 3f f8 fd a3 3e 73 d9 80 3e 34 0e 15 be
       0.643637 0.320297 0.251659 -0.145562
0002d0 fb e7 b9 3e 51 0b 2a 3d 62 2b 0d bd 89 5e 32 3f
       0.363098 0.0415147 -0.0344652 0.696755
0002e0 ec c2 23 3f 75 91 02 bd 42 47 26 bd a9 86 0d be
       0.639693 -0.031877 -0.0405953 -0.138209
0002f0 d2 6d 99 be a8 57 1a bf 8b 6d da 3e 80 f5 a3 bd
       -0.299666 -0.6029 0.426617 -0.0800581
000300 4e d0 a6 be 1f 61 fd bc fd c1 c4 bf 91 f5 9f bd
       -0.325808 -0.0309301 -1.53717 -0.0781051
000310 f4 15 64 be 10 35 1b 3c 43 c7 be 3e b3 29 03 40
       -0.22274 0.0094731 0.372614 2.04942
000320 8e eb b7 be 58 71 2a 3e d5 6a 3e bd 87 b3 0d bc
       -0.359219 0.166448 -0.0464886 -0.00864876
000330 00 53 02 3f e4 f6 1b 3f 52 16 14 3d c4 06 5f bf
       0.509079 0.609236 0.0361541 -0.871197
000340 1d 20 3a c0 de e6 cd 3e f5 c7 6a bd be a1 a0 3e
       -2.90821 0.402152 -0.0573196 0.313734
000350 c0 25 e8 3e 46 2c 3d bd b5 d7 27 3d e4 32 0e bf
       0.453413 -0.0461848 0.0409772 -0.555464
000360 61 38 87 be a9 9f d3 3f a3 ae 0d bf e0 f3 af 3f
       -0.264102 1.65331 -0.553446 1.37463
000370 53 a4 ac 3d cc 40 b9 3f 7b 84 06 bf b7 ee fe be
       0.0842978 1.44729 -0.525459 -0.497915
000380 a3 e5 e1 3b a8 e5 17 3e f9 86 42 3e f6 0a 43 3f
       0.00689383 0.148337 0.189968 0.761886
000390 18 ed a9 3e fd dc c0 3e 9a 08 1b 3f 5c 72 cc be
       0.331887 0.376686 0.6056 -0.39931
0003a0 81 e6 16 3c 8d 9c fd 3f 6c 41 2b bf 3c eb 64 3c
       0.00921023 1.98134 -0.668967 0.0139721
0003b0 9c 55 d9 bb e6 c9 45 bf 88 0f 1c be 49 0f 53 3e
       -0.00663252 -0.772612 -0.152403 0.206113
0003c0 b7 b4 ca 3d 3c 88 89 bf 52 64 05 3f 60 39 c2 3b
       0.0989775 -1.07447 0.521062 0.00592725
0003d0 dc 80 d7 bf c2 6d b5 be 5a ba f2 3e 8a 06 04 bc
       -1.68362 -0.354353 0.474078 -0.0080582
0003e0 45 47 9e 3f d2 18 f9 bf f4 33 55 be 4d 7e c0 3d
       1.23655 -1.94607 -0.208206 0.0939909
0003f0 ed ab a1 3c 70 94 00 40 43 20 87 be ba 46 80 3d
       0.0197353 2.00906 -0.263918 0.0626349

layers.6.bias f4 [50]
000000 3f c6 64 bf e5 ec 3d 3e 1f ba e8 bf f9 66 35 40
       -0.89365 0.185474 -1.81818 2.83441
000010 4d a1 87 bf bc 3f bc c0 1f 68 13 c0 b8 03 49 bf
       -1.05961 -5.88278 -2.30323 -0.785213
000020 94 bc 06 c0 a5 83 2d c0 18 43 fd 3f 06 81 81 bf
       -2.10526 -2.71116 1.97861 -1.01175
000030 84 0d 33 40 f1 f6 50 3e 7c ba c2 be 4f 16 c6 bb
       2.7977 0.204067 -0.380329 -0.00604514
000040 10 b0 76 3d c9 8e 72 bd 34 85 a5 40 cf bd c7 3f
       0.0602265 -0.0592182 5.17251 1.56048
000050 64 3b bb 3f 68 5c 28 c0 66 4e d3 3f 12 4e 17 c0
       1.46275 -2.63064 1.65083 -2.36414
000060 d4 49 16 3e 76 a6 cc bf 1e 43 86 bd 5d 16 27 c0
       0.146766 -1.59883 -0.0655577 -2.61074
000070 f8 fc 04 40 93 6f a2 bf 78 63 31 be 99 f0 65 40
       2.07794 -1.26903 -0.173231 3.59281
000080 41 0e 3c c0 10 06 be bf 96 26 89 3f 07 b6 a6 c0
       -2.93837 -1.48456 1.07149 -5.20972
000090 a6 d0 e1 3f 20 7b 01 c0 9c c1 0b bf 00 ae 94 bf
       1.76418 -2.02314 -0.545923 -1.16156
0000a0 2a c8 af be cf af 9c bd 46 99 37 c0 80 d4 0a c0
       -0.343324 -0.0765072 -2.86873 -2.16922
0000b0 ec 4d 0c 3d 2d 60 ad c0 e2 06 32 c0 d7 86 2c c0
       0.034254 -5.41799 -2.78167 -2.69573
0000c0 de ab d2 bf b7 bf 29 bd
       -1.64587 -0.0414426

layers.6.weight f4 [50, 50]
000000 b9 fc 03 c0 40 f9 6b 3f f8 1b 7d be 26 ac d5 be
       -2.0623 0.921772 -0.247177 -0.417329
000010 a4 df 16 c0 1a c0 1b c0 61 71 0c c0 de 8e e8 c0
       -2.3574 -2.4336 -2.19442 -7.26744
000020 55 13 80 40 87 dc 9c 3e 08 91 6c be 6a 30 21 c0
       4.00236 0.30637 -0.231022 -2.51858
000030 df 4f 43 40 eb c5 2c 40 d0 0a 9c 3e da e1 7b 3f
       3.05175 2.69958 0.30477 0.983915
000040 ed f5 9e bf b5 c3 9f bf f1 11 9a 40 f9 83 c9 bf
       -1.24188 -1.24816 4.81469 -1.57434
000050 ec 12 89 bf 7b 66 75 c0 88 c4 78 3d 2f 30 13 3f
       -1.07089 -3.83438 0.0607343 0.574954
000060 67 9b 2b be 46 42 b7 bf 0b 42 09 bf a5 4d 25 be
       -0.167585 -1.43171 -0.536164 -0.161429
000070 e9 98 27 3f 3e d0 32 c0 8b b2 06 c1 16 bd 33 bf
       0.654677 -2.79396 -8.41859 -0.702104
000080 7c 27 32 bf 64 58 ed bf f4 6f 57 be ca c1 94 3e
       -0.695915 -1.85426 -0.210388 0.290541
000090 27 bc c4 be fa b8 e2 bf 47 ff 73 3f 17 2b 52 c0
       -0.384248 -1.77127 0.953114 -3.28388
0000a0 f2 26 43 3f a8 1d 54 c0 36 cd c7 c0 ea 3e a4 3f
       0.762313 -3.31431 -6.2438 1.28317
0000b0 2f 52 6c 3f b2 8f 44 3d 50 53 eb 3f 75 cd c8 bf
       0.923129 0.0479886 1.83848 -1.56877
0000c0 b2 68 5c c0 26 8c 32 bf 78 b4 e9 3f 1f 2e e1 3f
       -3.44389 -0.697451 1.82582 1.75922
0000d0 c5 01 24 bf 1e 1b f9 3f b2 80 07 40 28 d5 92 bf
       -0.640652 1.94614 2.11723 -1.14713
0000e0 6f 2f 7d 40 31 d0 09 bf 1d 55 31 c0 1a dc 6a bf
       3.95602 -0.538333 -2.77082 -0.917421
0000f0 be 50 70 3e cb 67 b9 bf c3 64 9a 3f b5 87 61 3f
       0.234683 -1.44848 1.2062 0.880977
000100 18 cd 22 3f e3 6c 82 be 31 94 ff 3f f1 9f 4e 3f
       0.635942 -0.254737 1.99671 0.807128
000110 d9 5a 4f bf ea 72 ce 3b e8 a0 a3 be 09 fb b6 3e
       -0.80998 0.00630032 -0.319587 0.357384
000120 cd 3d e4 3d 5c 77 cf 3f 2b 4d 32 c0 c5 ac a7 3f
       0.111446 1.62083 -2.78596 1.30996
000130 92 5d 41 bf 4c 54 cf 3f 9e 98 3d 3f 09 38 70 40
       -0.755334 1.61976 0.74061 3.75342
000140 cf 4a 4a be c0 cf 98 3f e1 d1 04 c0 6b 48 8a 40
       -0.197551 1.19384 -2.07531 4.32134
000150 bc d9 55 3c e6 cd 0d bf ed 28 ee 3e 72 4e a4 be
       0.0130524 -0.553923 0.465156 -0.320911
000160 b9 fc 73 3f 0a ba d5 3f 90 88 b1 3f e7 8d 03 3f
       0.953075 1.66974 1.38698 0.513884
000170 b1 dc 2a 40 6d c7 14 be c6 6c 39 be cc 5e b6 3e
       2.66972 -0.145292 -0.181079 0.356192
000180 09 a7 c5 bc 9a 43 72 3e 90 4e a1 3f a8 52 f3 bf
       -0.0241275 0.236586 1.26021 -1.90096
000190 58 ad 74 bf 6f d4 9a be 41 83 bd bd f2 07 f7 bf
       -0.95577 -0.302402 -0.0925355 -1.92993
0001a0 a3 58 e2 3f 0e 10 dc 3e 04 5a 5a 3e 65 8d 2e c0
       1.76833 0.42981 0.213234 -2.72738
0001b0 47 77 e0 bf aa 7d 8a bf 5e 69 09 bf b1 dc f2 bf
       -1.75364 -1.08196 -0.536764 -1.89736
0001c0 06 bb 8d 3f 41 f1 cf bf b1 35 c3 be 9c a7 9a 3f
       1.10727 -1.62455 -0.381269 1.20824
0001d0 3d 61 0d c0 22 19 12 3f 25 94 ce 3e 04 e8 07 be
       -2.20906 0.570696 0.403474 -0.132721
0001e0 b4 af 74 bf 52 d2 2f bf 82 39 8a bf cc 45 5c 3e
       -0.955806 -0.686803 -1.07988 0.21511
0001f0 bf 7e 08 3e 9e ef 87 3f b1 14 c9 3d c1 6e 08 c0
       0.133296 1.062 0.098184 -2.13176
000200 da c6 c7 3e 79 91 6d 3f 9f 3f 98 bd 81 94 64 3f
       0.390189 0.928001 -0.0743401 0.892891
000210 35 d1 13 3f ba 49 04 c0 d9 08 84 3f 85 7c e0 3e
       0.577411 -2.067 1.03152 0.43845
000220 35 41 8c 3e 44 c0 ad bf 53 b3 63 bf 74 5e 0b c0
       0.273935 -1.35743 -0.889455 -2.17764
000230 13 46 2f 3f 09 4f e8 bd be 87 bf c0 1c 5f e3 3f
       0.684663 -0.113432 -5.98532 1.77634
000240 1f 14 84 3e 2b 16 03 3f aa 46 4b 3f 29 20 71 3f
       0.257966 0.512057 0.794047 0.941897
000250 89 41 80 bf ce 55 c3 3e 7e 8c 0b c0 ca 34 1a bf
       -1.002 0.381514 -2.18045 -0.602368
000260 b3 ea d3 3f 87 6d d7 3f 1a 30 38 3e 85 7c ac 3f
       1.6556 1.68303 0.179871 1.34755
000270 ba 6b 31 40 1a fa af 3f 61 fd 6b c0 d2 df 4b be
       2.7722 1.37482 -3.68734 -0.199096
000280 17 4a c6 3e 98 6e 12 40 25 40 1b 40 c3 47 a0 3f
       0.387284 2.288 2.42579 1.25219
000290 e3 ef 98 3d 48 6c ff be 63 0b 8d bf c7 82 80 3b
       0.0746763 -0.498873 -1.10191 0.00392184
0002a0 19 73 9b 3f a4 17 45 bf 89 b5 02 40 7c 0a 50 3e
       1.21445 -0.769892 2.04233 0.203165
0002b0 dc ba 97 bf 19 c8 37 3f 7c 0f a7 40 78 97 43 40
       -1.18539 0.717897 5.22064 3.05612
0002c0 dc 10 63 3e c9 59 e4 bf 7f 30 a8 3f 41 d4 91 3f
       0.221744 -1.78399 1.31398 1.13929
0002d0 42 b5 c1 3d f1 d6 a9 3e d0 b8 40 bf 2f 31 fe 3e
       0.094584 0.331718 -0.75282 0.496469
0002e0 c9 22 19 3f 54 1e 71 bf cc 7e bd bd f6 60 5e 3f
       0.598187 -0.941869 -0.092527 0.868667
0002f0 ce 89 11 3f 0c 21 67 be 69 1d d1 3f 7d 5d 66 3f
       0.568509 -0.225712 1.63371 0.899864
000300 93 00 b9 3f 5e 4b b8 3f c2 4b a0 3e 33 c6 62 3c
       1.44533 1.4398 0.313078 0.0138412
000310 17 66 91 be 7f 4d 32 40 10 74 cc 3e b5 fb 05 3f
       -0.283982 2.78598 0.399323 0.523372
000320 c6 f9 7f 3f ad 66 c2 bc 59 33 9a 3e 43 03 61 3e
       0.999905 -0.0237306 0.301173 0.219739
000330 47 c6 8a 3e b4 ef 85 bd bd fb 8f bf c2 a3 ad 3f
       0.271044 -0.0653986 -1.12487 1.35656
000340 e4 31 37 bf 0c 3c f7 3d 81 40 53 3f d4 65 1b c0
       -0.715605 0.12072 0.825203 -2.42809
000350 27 da b9 3f 99 b8 d5 bd b1 a5 67 3d 49 10 be be
       1.45197 -0.104356 0.0565545 -0.371218
000360 d9 b0 46 bf db 18 43 bf fa 7e 38 c0 d1 cb 38 3e
       -0.776136 -0.762098 -2.88275 0.180465
000370 f7 3e 15 3f bd 7c b1 3d 7f 30 cc 3f f5 94 03 3b
       0.582992 0.0866637 1.59523 0.00200778
000380 99 f3 30 3f 17 d4 ab 3f 82 74 f1 bd 65 53 08 40
       0.691217 1.34241 -0.117898 2.13009
000390 ff 95 99 3f de 8e cc bf 38 2d 30 bf 99 d3 99 3f
       1.19989 -1.59811 -0.68819 1.20177
0003a0 ee 42 db be 9e 24 95 3f 14 ed 2a c0 bf 9b ee bd
       -0.428245 1.16518 -2.67072 -0.116508
0003b0 ec 69 ab bf 4f 06 db 3f 57 60 9c bf 84 80 fc 3d
       -1.33917 1.71113 -1.22169 0.123292
0003c0 8e 02 8c 3e 8f 53 38 bf f7 01 38 40 1f 68 f9 bf
       0.273457 -0.720025 2.87512 -1.94849
0003d0 c6 df 36 3e 79 78 07 bf fa 62 2f 3e 73 0f e9 3e
       0.178588 -0.529182 0.171276 0.455196
0003e0 c8 0c 50 3f 81 04 85 bd 12 88 33 c0 4d 32 9e bf
       0.812695 -0.06495 -2.80518 -1.23591
0003f0 df fd 1d c0 fb 3f df bf b1 e1 1f 40 c3 0d 4c 3f
       -2.46862 -1.74414 2.49815 0.797085

layers.8.bias f4 [50]
000000 8f 83 9c bc c9 8e ad 3f 2e ad 36 bf be 93 05 c1
       -0.0191057 1.35592 -0.71358 -8.34857
000010 78 97 c7 bf 69 3a 17 40 e5 43 04 3f 26 c5 ef 3e
       -1.55931 2.36294 0.516661 0.468301
000020 6d e5 85 be 10 58 6d 40 c0 eb 63 bf d1 ef d6 bc
       -0.261516 3.7085 -0.890316 -0.0262374
000030 be 31 44 3e b3 ef ae 3f a9 d9 19 40 8c f3 0b 40
       0.191596 1.36669 2.40391 2.18674
000040 dc bd 44 bf 29 75 a1 3e b9 70 60 bf 53 d0 c9 bf
       -0.768522 0.315347 -0.87672 -1.57667
000050 f9 10 30 3f b9 70 a2 c0 55 15 7a 3f 96 cc 79 bf
       0.687759 -5.07626 0.976888 -0.975778
000060 1a 6e e4 3f 7e 52 86 40 da 03 dd bf 03 78 f7 bf
       1.78461 4.19757 -1.72668 -1.93335
000070 54 e3 b9 bf ac 8f 97 be 29 96 71 c0 ff 20 42 be
       -1.45225 -0.296018 -3.77479 -0.189579
000080 26 fc 86 3f 46 08 ef bd 64 e9 19 40 5e d7 90 40
       1.05457 -0.116715 2.40487 4.52629
000090 09 fe 25 40 a2 ee 57 40 ab 95 f9 3f a0 89 1e c0
       2.59363 3.37394 1.94988 -2.47715
0000a0 ba 6b b7 c0 09 a7 91 3f 81 cf 1f c0 41 bc 3e 40
       -5.7319 1.13791 -2.49704 2.98024
0000b0 7b 30 29 bf 97 39 63 40 72 fe 46 c0 27 a3 8a be
       -0.660896 3.55039 -3.10928 -0.270776
0000c0 78 7a 11 40 8d 45 bf bf
       2.2731 -1.49431
