resources/models/onnx/acas/ACASXU_run2a_2_2_batch_2000.onnx (onnx, 54456 bytes, 14 tensors)

layers.0.bias f4 [50]
0	0xbf35f288	-0.710732
1	0xbcbfbf33	-0.0234066
2	0xbe165493	-0.146807
3	0x3e450508	0.192402
4	0x3eae640a	0.340607
5	0x3da6cadb	0.0814416
6	0xbe5aa3ad	-0.213515
7	0x3e028028	0.127442
8	0xbe431d71	-0.190542
9	0xbe25f06f	-0.16205
10	0xbda8537e	-0.0821905
11	0xbf24f51b	-0.644365
12	0xbf086488	-0.532784
13	0xbf1b00ce	-0.605481
14	0xbcbd70da	-0.0231251
15	0xbcecd72e	-0.0289112
16	0xbebc0464	-0.367221
17	0xbe8de7ea	-0.27716
18	0x3e7c43f6	0.246353
19	0xbd71bf0f	-0.0590201
20	0xbf174e01	-0.591034
21	0xbe555c10	-0.208359
22	0xbf2bc46e	-0.670966
23	0x3e9be426	0.304475
24	0xbe46dbd7	-0.194198
25	0xbdaa92cb	-0.0832878
26	0xbf011fe6	-0.504393
27	0x3e1adc90	0.151232
28	0x3dbbd9cb	0.091724
29	0xbec8cf18	-0.392205
30	0x3d0e91c9	0.034807
31	0xbce80248	-0.0283214
32	0x3df03ea7	0.117307
33	0xbee91cf3	-0.455299
34	0xbe7c792d	-0.246556
35	0x3debe942	0.115191
36	0xbb969065	-0.00459485
37	0x3e445c36	0.191758
38	0xbf440746	-0.765736
39	0xbd68fda0	-0.0568825
40	0xbf1bea3e	-0.609043
41	0x3dae9814	0.085251
42	0xbebbd838	-0.366884
43	0xbc832a8d	-0.0160115
44	0x3e1bb0a3	0.152041
45	0xbf0160fa	-0.505386
46	0x3ce5e6e5	0.0280642
47	0xbde702a3	-0.112798
48	0xbf114025	-0.567385
49	0xbe7de1e3	-0.247932

layers.0.weight f4 [50, 5]
0	0xbf0f5f1c	-0.560045
1	0xbb2de52b	-0.00265343
2	0x3b873390	0.00412602
3	0xbf60c869	-0.878058
4	0xbedd5886	-0.432316
5	0xbce44cb1	-0.0278686
6	0xbf0cc22f	-0.549838
7	0xbf418b3f	-0.756031
8	0x3eb19264	0.34682
9	0xbb5485ff	-0.00324285
10	0xbefc72c1	-0.493063
11	0xbd87215c	-0.0659816
12	0xbf32c0f9	-0.698257
13	0x3d236f8c	0.0399013
14	0x3df30be1	0.118675
15	0xbe9ae792	-0.302548
16	0xbf99306a	-1.19679
17	0x3f95b185	1.16948
18	0x3d22a800	0.039711
19	0xbf0a6aca	-0.540692
20	0x3c972119	0.0184484
21	0xbfa72b56	-1.30601
22	0x3de817fc	0.113327
23	0xbeae02a7	-0.339864
24	0x3e432053	0.190553
25	0x3e85b339	0.261133
26	0xbfd9c62a	-1.70136
27	0x3de83a97	0.113393
28	0xbbe1f8ee	-0.00689613
29	0xbe06df40	-0.131711
30	0xbf1302c5	-0.574261
31	0xbe59e3c9	-0.212783
32	0xbe1b4352	-0.151624
33	0x3ef76cf0	0.483253
34	0xbf781f21	-0.969225
35	0xbe4bec68	-0.199144
36	0x3e369d73	0.178335
37	0xbda1bfe6	-0.0789793
38	0xbcffba60	-0.0312168
39	0x3f055465	0.520819
40	0xbddc17a9	-0.107467
41	0x3fd75b2d	1.68247
42	0x3e63d31c	0.222485
43	0x3eabe293	0.335713
44	0xbeb5594f	-0.354197
45	0xbb62a6d4	-0.00345843
46	0xbce26d12	-0.0276399
47	0xba520e10	-0.000801296
48	0xbf8e89ca	-1.11358
49	0x3f3cebcc	0.737973
50	0xbdf4ed2d	-0.119593
51	0x3c4662bb	0.0121085
52	0xbbfa6ad5	-0.00764213
53	0xbd47d34e	-0.0487855
54	0xbc9d517f	-0.0192039
55	0xbe5e9d95	-0.217398
56	0xbe7bddfd	-0.245964
57	0x3ed59c6b	0.417209
58	0xbf15de05	-0.585419
59	0xbf93b257	-1.15388
60	0xbda449e9	-0.0802191
61	0x3e26234b	0.162244
62	0xbe07bbb6	-0.132552
63	0xbf8e4ecf	-1.11178
64	0xbe5de1e3	-0.216682
65	0x3de8ecd9	0.113733
66	0xbfd2d917	-1.64725
67	0x3fd06bcf	1.62829
68	0xbde25d8d	-0.11053
69	0x3eb68f6d	0.356563
70	0xbb33bbda	-0.00274252
71	0x3ba69bb6	0.00508448
72	0xbbebe3ff	-0.00719881
73	0xbbf2e901	-0.00741303
74	0x3c9cca05	0.0191393
75	0x3c5ed147	0.0135997
76	0xbbcd67a7	-0.00626846
77	0x3c8acf31	0.0169445
78	0xbc2683f8	-0.0101633
79	0x3b0195ed	0.00197732
80	0xbc881aec	-0.0166144
81	0x3e0092cd	0.12556
82	0xbdff290b	-0.12459
83	0xbf924b34	-1.14292
84	0xbe80f388	-0.251858
85	0x3d9011b9	0.0703463
86	0x3e93892f	0.288156
87	0xbf218490	-0.630929
88	0xbd50f769	-0.0510172
89	0xbf43e39f	-0.765192
90	0xbe12acfb	-0.143238
91	0xbe8ffbad	-0.281217
92	0xbf056617	-0.521089
93	0xbe18e64b	-0.149316
94	0xbec23db4	-0.379377
95	0x3b30089c	0.00268606
96	0x3f059b91	0.521905
97	0xbed8aeda	-0.423209
98	0x3e0b81f9	0.136238
99	0xbf38d4bb	-0.721996
100	0xbcbd8821	-0.0231362
101	0x3e8308dd	0.255927
102	0xbf84b87c	-1.03688
103	0x3ec2908a	0.380009
104	0xbf462824	-0.77405
105	0x3e34dd72	0.176626
106	0x3fdbeab3	1.7181
107	0xbe6fcd25	-0.234181
108	0x3e8036a8	0.250417
109	0xbf1a7254	-0.603307
110	0xbf8e79bc	-1.11309
111	0x39c8d933	0.000383088
112	0x3bb4ccd1	0.00551758
113	0xbed31184	-0.412243
114	0xbedb634e	-0.428492
115	0xba168752	-0.000574221
116	0xbc917863	-0.0177576
117	0x3c6fa0a2	0.0146257
118	0xbeceeb4f	-0.404139
119	0xbee4f356	-0.447169
120	0xbedf99a2	-0.436719
121	0x3d2a0374	0.0415072
122	0xbe76d4c3	-0.241046
123	0xbec543f2	-0.385284
124	0xbe3edb73	-0.186384
125	0xbda9c7f2	-0.0829009
126	0x3cc1079d	0.0235632
127	0x3c59c213	0.0132909
128	0xbd6c0201	-0.0576191
129	0xbc91b2e6	-0.0177855
130	0xbe21904b	-0.157777
131	0x3f860221	1.04694
132	0xbde7f4dc	-0.11326
133	0x3d56d6dc	0.052451
134	0xbf1fc19c	-0.624048
135	0xbd89bbe3	-0.0672529
136	0xbbfc0fb0	-0.0076923
137	0x3ec29414	0.380036
138	0xbed3d599	-0.413739
139	0x3dcd3309	0.100195
140	0xbd0289cd	-0.0318697
141	0xbf0065c7	-0.501553
142	0x3e7db8fe	0.247776
143	0xbf1735d2	-0.590665
144	0x3f2b55bd	0.669277
145	0xbfda8145	-1.70707
146	0x3bf756b9	0.00754818
147	0x3ade84b0	0.00169768
148	0xb9e79e4e	-0.000441777
149	0xbc012b03	-0.00788379
150	0x3d232add	0.0398358
151	0xbbf077cd	-0.0073385
152	0xbfac1798	-1.34447
153	0xbba1b8b7	-0.00493535
154	0x3d202d32	0.0391056
155	0x3c4aa759	0.012369
156	0x3c9cf610	0.0191603
157	0x3b21e873	0.00247052
158	0x3b2f754e	0.00267728
159	0x3b7cc5e4	0.00385701
160	0x3c77e290	0.0151297
161	0x3b112079	0.00221446
162	0xbf336417	-0.700746
163	0xbef58128	-0.479501
164	0x3e7e1112	0.248112
165	0x3df3b42d	0.118996
166	0x3fbdabf3	1.48181
167	0xbfcac8b4	-1.58425
168	0x3e8e0bf6	0.277435
169	0xbdf3b42d	-0.118996
170	0xbfbaab8a	-1.45836
171	0x3baba6a2	0.00523837
172	0x3bb38060	0.00547795
173	0x3b9f6e2f	0.00486543
174	0xb9082926	-0.000129853
175	0x3bf621f0	0.00751137
176	0xbf8bd9fd	-1.09259
177	0xbdffc4c1	-0.124887
178	0x3e7d0c3d	0.247117
179	0xbdcb74eb	-0.0993441
180	0xbecdcaf3	-0.401939
181	0x3f0be069	0.546393
182	0xbf6f5b60	-0.934988
183	0x3cf462a8	0.0298322
184	0xbdb28a2b	-0.0871776
185	0x3c2aff1d	0.0104368
186	0x3f139778	0.57653
187	0xbf0a514c	-0.540303
188	0xbe921577	-0.28532
189	0x3e64a7f8	0.223297
190	0x3aa615d4	0.00126713
191	0x3d158553	0.0365041
192	0xbbe965ca	-0.00712273
193	0xbe6a0a96	-0.228556
194	0xbfd8a47f	-1.69252
195	0x3f087ae1	0.533125
196	0xbee4d078	-0.446903
197	0x3d3deb6e	0.0463671
198	0x3eda3e3a	0.426256
199	0xbf806e1a	-1.00336
200	0x3f2bb784	0.670769
201	0xbcc18f17	-0.0236278
202	0xbc85eac6	-0.0163473
203	0xbf669995	-0.900781
204	0xbf95273d	-1.16526
205	0xbe9882cf	-0.297873
206	0x3f0303c0	0.511776
207	0xbf296217	-0.661653
208	0x3cae4caf	0.0212768
209	0xbd87bf04	-0.0662823
210	0xbc845f76	-0.0161588
211	0xbf5519bd	-0.832424
212	0xbf1084f9	-0.564529
213	0xbf08d435	-0.534488
214	0x3d8c6ea3	0.0685704
215	0xbc1c6fa2	-0.0095481
216	0x3b11a381	0.00222227
217	0xbc2dcb14	-0.0106075
218	0x3b3176b0	0.00270788
219	0x3a51848f	0.000799247
220	0x3d2681fa	0.0406513
221	0xbc7754cb	-0.0150959
222	0xbf731ae3	-0.949629
223	0xbd5764bb	-0.0525863
224	0x3e016b98	0.126387
225	0xbfe8b8d0	-1.81814
226	0x3c901e5b	0.0175926
227	0xb9e6acd9	-0.000439978
228	0xba54cb27	-0.000811743
229	0xbbac2f5e	-0.00525467
230	0xbf334ff8	-0.700439
231	0xbf20a19d	-0.627466
232	0xbbc4fcdf	-0.00601159
233	0x3d544e51	0.0518325
234	0x3d4cd947	0.0500119
235	0x3c602bba	0.0136823
236	0x3e6ddb12	0.232281
237	0xbec64bec	-0.387298
238	0x3ed5612c	0.416757
239	0xbf345469	-0.704413
240	0xbe5a9e6f	-0.213495
241	0xbd4eb895	-0.050469
242	0x3f3255b0	0.69662
243	0x3c8728b3	0.0164989
244	0xbf815df6	-1.01068
245	0xbe0f2fdc	-0.139831
246	0xbeeef2e9	-0.466697
247	0x3e86fd00	0.263649
248	0xbe7c0e7c	-0.246149
249	0xbf1343b7	-0.575252

layers.10.bias f4 [50]
0	0x3e614e3c	0.220025
1	0xbd442dc2	-0.0478952
2	0xbf14867b	-0.580177
3	0xbe357cd4	-0.177234
4	0xbf12c9c1	-0.573391
5	0xbebaa476	-0.364536
6	0xbe9a0d56	-0.300883
7	0xbf84d10f	-1.03763
8	0xbe06277c	-0.13101
9	0xbeaa5acd	-0.332724
10	0xbe110be9	-0.141647
11	0xbdd7e1b9	-0.105411
12	0xbeb9085f	-0.361392
13	0xbf8bfeb0	-1.09371
14	0xbcf5ccd6	-0.0300049
15	0xbdee0d24	-0.116236
16	0xbd4dbb3f	-0.0502274
17	0x3d980a4d	0.0742384
18	0xbed0de2b	-0.407945
19	0xbe880a7c	-0.265705
20	0x3d1ed64f	0.0387786
21	0xbf8b6a94	-1.08919
22	0xbe89185d	-0.267764
23	0xbf918d7a	-1.13713
24	0xbefa1901	-0.488472
25	0x3e7454de	0.238605
26	0x3d2c7fd6	0.0421141
27	0xbdfcb46c	-0.123391
28	0xbf080746	-0.531361
29	0xbe1b7bf2	-0.15184
30	0xbd94b4f9	-0.0726108
31	0x3e09b1b8	0.134467
32	0x3d2fb275	0.0428948
33	0x3e005f6c	0.125364
34	0x3e2c100e	0.16803
35	0xbf0b6f4c	-0.544667
36	0xbecda6e7	-0.401664
37	0x3db26b14	0.0871183
38	0xbd0ba494	-0.0340925
39	0x3e19ae92	0.15008
40	0x3e5a500d	0.213196
41	0x3e5038a0	0.203341
42	0xbe8f9208	-0.280411
43	0xbdfee6fb	-0.124464
44	0xbd81d87d	-0.0634012
45	0xbf7ca06f	-0.986823
46	0xbe9a29a6	-0.301099
47	0xbe045522	-0.129231
48	0xbf07f9b5	-0.531154
49	0xbcb55b61	-0.0221383

layers.10.weight f4 [50, 50]
0	0x3f1e089e	0.617319
1	0xbdb19f4a	-0.0867296
2	0x3c45b368	0.0120667
3	0x3d93bc17	0.0721361
4	0x3cd5b467	0.026087
5	0x3c6d14d6	0.0144703
6	0xbd03628b	-0.0320764
7	0xbd978a1d	-0.0739939
8	0xbd48405b	-0.0488895
9	0x3d91bdb2	0.0711626
10	0xbc80bbb2	-0.0157145
11	0xbe141b76	-0.144636
12	0x3c7977bb	0.0152263
13	0x3e55903a	0.208558
14	0x3dec9108	0.115511
15	0x3d32d525	0.0436603
16	0x3f0c7464	0.548651
17	0x3ab662fe	0.0013915
18	0xbe3d8f50	-0.185117
19	0x3dea5508	0.11442
20	0x3e24940c	0.160721
21	0x3dfe0bd4	0.124046
22	0x3d2b2a35	0.0417883
23	0x3e172fba	0.147643
24	0xbe54c8bd	-0.207797
25	0xbd1ea324	-0.0387298
26	0x3e0625ea	0.131004
27	0xbdb59395	-0.0886604
28	0xbd854d6f	-0.0650891
29	0xbda819d2	-0.0820805
30	0x3cb4e8e0	0.0220837
31	0xbd5d62cc	-0.0540493
32	0x3d7a2fa7	0.0610806
33	0x3af69bfe	0.00188148
34	0xbe96f49d	-0.294835
35	0xbd077c2b	-0.0330774
36	0x3e74ec20	0.239182
37	0x3c9b9cdf	0.0189957
38	0xbdea65cf	-0.114452
39	0xbd951090	-0.0727855
40	0xbd34558d	-0.0440269
41	0x3d1ce63a	0.0383055
42	0xbd13c86a	-0.0360798
43	0x3bd10d64	0.00637977
44	0xbe7437c5	-0.238494
45	0x3d9d7038	0.0768742
46	0xbd4a0309	-0.0493193
47	0xbdbd9f4d	-0.092589
48	0x3ce32b13	0.0277305
49	0x3f34244f	0.703679
50	0xbcb3eb8a	-0.0219629
51	0xbd3c01be	-0.0459001
52	0xbb932018	-0.00448991
53	0x3cce8a72	0.0252125
54	0xbb61881b	-0.00344134
55	0x3d088143	0.0333264
56	0xbc879a5e	-0.0165531
57	0x3cd7de79	0.0263512
58	0xbcd02009	-0.0254059
59	0xbd2c55e4	-0.0420741
60	0xbcbcd8ce	-0.0230526
61	0x3b5dc81d	0.00338412
62	0xbd50afe6	-0.050949
63	0xbd156cff	-0.0364809
64	0xbd3366ca	-0.0437992
65	0x3d1d8150	0.0384534
66	0xbd6482cc	-0.0557888
67	0x3d0e8584	0.0347953
68	0xbc69c4c0	-0.0142681
69	0x3d47e705	0.0488043
70	0x3b0b1a25	0.00212253
71	0xbc0e9940	-0.00870353
72	0xbcb76882	-0.0223887
73	0xbd892429	-0.0669635
74	0xbd35edde	-0.0444163
75	0xbb4136c2	-0.00294821
76	0x3bd80565	0.00659244
77	0x3cbde53e	0.0231806
78	0xbd474a27	-0.0486547
79	0x3c55c0fd	0.0130465
80	0xbd053a31	-0.0325262
81	0xbc9cf752	-0.0191609
82	0xbd312770	-0.0432505
83	0xbd56105d	-0.0522617
84	0x3b93e2e1	0.00451313
85	0xbce4320e	-0.0278559
86	0xbcf55227	-0.0299464
87	0xbd3531a6	-0.0442368
88	0x3ba0f75c	0.0049123
89	0x3c458114	0.0120547
90	0xbd220b8e	-0.0395618
91	0xbc2bf841	-0.0104962
92	0xbc737e11	-0.0148616
93	0xbcfa7009	-0.030571
94	0x3c706269	0.0146719
95	0xbd1d40ee	-0.038392
96	0x3b4aeffe	0.00309658
97	0x3cb7b254	0.0224239
98	0xbceffa2e	-0.0292941
99	0x3c11596f	0.00887142
100	0xbed950db	-0.424445
101	0xbe98928a	-0.297993
102	0x3c542a24	0.0129495
103	0xbd60fd8c	-0.0549293
104	0x3ece1a61	0.402545
105	0xbd540ec6	-0.0517719
106	0x3c36bbe9	0.0111532
107	0xbcd9344f	-0.0265142
108	0xbd4c3a36	-0.0498602
109	0xbd0cc052	-0.0343631
110	0x3e88ea5b	0.267413
111	0xbdcc0351	-0.0996157
112	0x3e65f4a1	0.224566
113	0x3e9323ff	0.287384
114	0xbe836b4c	-0.256678
115	0xbdc6ce86	-0.0970736
116	0x3e3dfce3	0.185535
117	0x3e2f6274	0.171274
118	0xbdb8eb1e	-0.0902922
119	0x3e1d701e	0.153748
120	0x3d5d92ee	0.0540952
121	0xbd99042e	-0.074715
122	0x3dbee088	0.0932017
123	0xbe00ef56	-0.125913
124	0x3e4a619e	0.197638
125	0x3eb1d020	0.347291
126	0x3f046b48	0.517262
127	0xbe066c2b	-0.131272
128	0xc085aa26	-4.17702
129	0xbd08cfe8	-0.0334014
130	0x3e8662bb	0.262472
131	0xbf7c9c91	-0.986764
132	0x3e14e2f3	0.145397
133	0x3d8456f7	0.064619
134	0xbe9bd0e1	-0.304328
135	0xbd10c712	-0.0353461
136	0xbde929aa	-0.113849
137	0xbeaa7e0f	-0.332993
138	0x3e587f02	0.211422
139	0xbf877953	-1.05839
140	0x3dc5614e	0.096377
141	0xbcd865bd	-0.0264157
142	0x3df24d90	0.118312
143	0xbe3e4e6a	-0.185846
144	0x3c838c7c	0.0160582
145	0xbec276d9	-0.379813
146	0xbc6d2029	-0.014473
147	0x3dfd6063	0.123719
148	0xbd1716d3	-0.036887
149	0xbf0916ca	-0.535504
150	0x3e4070fc	0.187931
151	0x3ddde615	0.108349
152	0x3db7da2c	0.0897716
153	0x3e5cd20b	0.215645
154	0xbd165aeb	-0.0367078
155	0xbe59af19	-0.212582
156	0xbe7f401c	-0.249268
157	0xbe9a4a8c	-0.30135
158	0x3c2a9428	0.0104113
159	0x3deee419	0.116646
160	0x3e808462	0.25101
161	0x3e2d22c9	0.169078
162	0x3d8cd383	0.0687628
163	0x3de0a201	0.109684
164	0x3dd5c960	0.104388
165	0x3e962cba	0.29331
166	0x3f9c912a	1.22318
167	0xbde0b913	-0.109728
168	0x3dfbca10	0.122944
169	0xbef719f8	-0.48262
170	0x3daa58ea	0.0831774
171	0xbdb7e39c	-0.0897896
172	0xbdb35cef	-0.0875796
173	0xbd8507cf	-0.0649563
174	0xbdc11b03	-0.0942898
175	0xbdda9004	-0.10672
176	0xbed8d3ae	-0.42349
177	0xbe1efd87	-0.155264
178	0xbc82fd76	-0.01599
179	0x3d6e339f	0.0581547
180	0xbd80b1bc	-0.062839
181	0x3e493e60	0.196527
182	0x3e03d1cc	0.12873
183	0x3e6c7d1c	0.230946
184	0xbe2d80e5	-0.169437
185	0x3cbdb13b	0.0231558
186	0xbd5c2c36	-0.0537531
187	0x3d878c1b	0.0661852
188	0xbdc7f1df	-0.0976293
189	0x3dcaca00	0.0990181
190	0x3d9dcf89	0.077056
191	0x3d462889	0.0483785
192	0x3db01c50	0.0859915
193	0xbd5a80ea	-0.0533456
194	0xbda84c85	-0.0821772
195	0x3b73ddde	0.00372111
196	0xbd38b3db	-0.0450934
197	0x3daab078	0.0833444
198	0xbc2253b2	-0.00990765
199	0xc04e8049	-3.22658
200	0x4030be62	2.76162
201	0x3e6355ce	0.222007
202	0x3dc4e6f0	0.0961436
203	0xc0074e90	-2.11417
204	0xc04c08d9	-3.18804
205	0x3defb19e	0.117038
206	0xbf2488a4	-0.64271
207	0x3f507d4e	0.814412
208	0x3dc54cce	0.0963379
209	0xbe559f6f	-0.208616
210	0xbe9a5c5f	-0.301486
211	0xbc5f42f1	-0.0136268
212	0x3fb1320e	1.38434
213	0x3f697d18	0.912065
214	0x3f96c80c	1.17798
215	0x3e770825	0.241242
216	0x3f331dc5	0.699673
217	0xc038555c	-2.88021
218	0xbf7e7dcc	-0.994107
219	0xbebfcd46	-0.374613
220	0x3f17633d	0.591358
221	0xc0548c3f	-3.32106
222	0xbdcdb2f6	-0.100439
223	0xbf434938	-0.762836
224	0xbf1c3947	-0.610249
225	0xbf8fced9	-1.1235
226	0x3e33cfb3	0.175597
227	0xc01bd274	-2.43472
228	0xc0967aa2	-4.70247
229	0xbeff3669	-0.498462
230	0xbfddd8d8	-1.73318
231	0x3f7d4cdb	0.989454
232	0xc04e23b8	-3.22093
233	0x3ed49060	0.415164
234	0xbed2a045	-0.411379
235	0xbe1ecc3e	-0.155076
236	0xbfea425b	-1.83015
237	0xbf6f32cf	-0.934369
238	0x3ec50b74	0.384853
239	0xc0290553	-2.64095
240	0xbfc2238e	-1.51671
241	0xbe4e6794	-0.201567
242	0x3f00f9b1	0.50381
243	0xbe1503b8	-0.145522
244	0xbdddde37	-0.108334
245	0x3f007e07	0.501923
246	0x3f14c3e3	0.581114
247	0xbe57eb6c	-0.210859
248	0x3c24f3d5	0.0100679
249	0xbd338b12	-0.0438338
250	0x3f7cbef9	0.987289
251	0x3f0af241	0.542759
252	0xbe1ed30f	-0.155102
253	0xbe6ec0f9	-0.233158
254	0xc035b060	-2.83889
255	0xbd613321	-0.0549804

layers.12.bias f4 [5]
0	0xbcacbedb	-0.0210871
1	0xbc9beb83	-0.0190332
2	0x3c9b23a8	0.0189379
3	0xbc96cd01	-0.0184083
4	0x3c93e4ef	0.0180535

layers.12.weight f4 [5, 50]
0	0x3dc02f73	0.0938405
1	0xbd069eb5	-0.0328662
2	0x3cc6847e	0.0242331
3	0x3cbac19d	0.0227974
4	0xbcd49584	-0.0259502
5	0x3cc0aeb1	0.0235208
6	0x3d2926a0	0.0412966
7	0xbbba873a	-0.00569239
8	0x3d81ffdd	0.0634763
9	0x3c9c810a	0.0191045
10	0x3e6792d1	0.226146
11	0x3e05eb74	0.130781
12	0xbc93c9ac	-0.0180405
13	0x3ced0587	0.0289333
14	0xbc87b7ba	-0.0165671
15	0x3d279b1a	0.0409194
16	0x3cae6249	0.0212871
17	0x3b855dcd	0.00407002
18	0xbbbc4327	-0.00574531
19	0xbc37b6bb	-0.011213
20	0x3c1cc325	0.00956801
21	0xbd121038	-0.03566
22	0xbc95644b	-0.0182363
23	0xbc13d270	-0.00902234
24	0xbc6a2171	-0.0142902
25	0x3d8f4f6b	0.0699757
26	0x3cc7c12a	0.0243841
27	0xbc75ffcc	-0.0150146
28	0x3d0d41ed	0.0344867
29	0xbce75793	-0.02824
30	0xb94bace7	-0.00019424
31	0x3bb2bcd6	0.00545464
32	0xbce4388f	-0.027859
33	0xbc4a78ca	-0.0123579
34	0x3db57082	0.0885935
35	0x3d0b7b29	0.034053
36	0xbc14f3a2	-0.00909129
37	0xbcb62aca	-0.0222372
38	0x3e31c821	0.173615
39	0x3ca55773	0.0201833
40	0x3cd7bd56	0.0263354
41	0x3cf26e47	0.0295936
42	0xbcbacb78	-0.0228021
43	0x3c5b3eeb	0.0133817
44	0xbd394f27	-0.0452415
45	0xbc8a8453	-0.0169088
46	0xbc8bd7a5	-0.0170706
47	0x3db20495	0.0869228
48	0x3b69cb0a	0.0035674
49	0x3d0b38e3	0.0339898
50	0xbb86aeb0	-0.00411018
51	0x3d0c17b6	0.0342023
52	0x3caa26e5	0.0207705
53	0x3cb6413a	0.0222479
54	0xbd0db5cb	-0.0345972
55	0x3ccfe296	0.0253766
56	0x3d46cde5	0.0485362
57	0xbd0893b8	-0.033344
58	0x3d97faf1	0.0742091
59	0x3c232676	0.0099579
60	0x3e42da98	0.190287
61	0x3e9814d7	0.297034
62	0x3c2e6fea	0.0106468
63	0x3caaaba5	0.0208338
64	0x3cf6a868	0.0301096
65	0x3dcee30d	0.101019
66	0x3cc7addf	0.0243749
67	0xbc99ce07	-0.018775
68	0x3cb81c06	0.0224743
69	0xbced2e01	-0.0289526
70	0x3b034ba4	0.00200341
71	0xbce56f91	-0.0280073
72	0x3c790321	0.0151985
73	0xbc4a9b2f	-0.0123661
74	0xbcde983c	-0.0271722
75	0x3b8fb3a7	0.00438543
76	0x3d115740	0.0354836
77	0x3b4fb7b9	0.00316952
78	0x3cac4d66	0.021033
79	0xbc0045c0	-0.00782913
80	0x3bd6acca	0.00655136
81	0x3ba8842e	0.00514271
82	0xbca96264	-0.0206768
83	0xbd0e2fbe	-0.0347135
84	0xbc01dd45	-0.00792629
85	0xba11e057	-0.000556474
86	0xbb1dcf33	-0.00240798
87	0xbcc14a17	-0.0235949
88	0x3e19fc6e	0.150377
89	0xbcb37543	-0.0219065
90	0x3c6f4100	0.0146029
91	0x3d07e87c	0.0331807
92	0xbcc79f31	-0.0243679
93	0xbc9c4f8c	-0.0190809
94	0x3b3865b8	0.00281368
95	0xbc2628f4	-0.0101416
96	0xbcdb4967	-0.0267684
97	0x3d997e7f	0.0749483
98	0x3d113bfd	0.0354576
99	0x3d4cff22	0.050048
100	0xbc002fc6	-0.00782389
101	0x3d041ce0	0.0322541
102	0x3caf5558	0.021403
103	0x3cdb6079	0.0267794
104	0xbcdcfb4e	-0.0269753
105	0x3c9424e6	0.018084
106	0x3ca5d32e	0.0202423
107	0x3ba30a31	0.00497558
108	0x3d34fee5	0.0441884
109	0x3d356a60	0.0442909
110	0x3e5dd1a2	0.21662
111	0x3e86d613	0.263352
112	0xbb4fd8f1	-0.0031715
113	0x3d0d8f85	0.0345607
114	0xbba59566	-0.00505321
115	0x3e0199bb	0.126563
116	0x3d29a7cf	0.0414198
117	0x3cb9bb78	0.0226724
118	0x3bc309aa	0.00595208
119	0xbc0ee352	-0.00872119
120	0x3c5d249e	0.0134975
121	0xbd27d2fd	-0.0409727
122	0xbbcb7778	-0.00620931
123	0xbb046580	-0.00202021
124	0xbc4fba52	-0.0126787
125	0x3c7a1504	0.0152638
126	0x3d34ff00	0.0441885
127	0xbccbee4b	-0.0248939
128	0x3d1f19bc	0.0388429
129	0xbd035f30	-0.0320732
130	0x3cabca53	0.0209705
131	0x3d176f38	0.0369713
132	0x3c149bc3	0.00907034
133	0xbc3e4119	-0.0116122
134	0x3ae0f11c	0.00171617
135	0x3b32c4e4	0.0027278
136	0xbd503e56	-0.0508407
137	0xbcbf1e23	-0.0233298
138	0x3e3c6eb1	0.184016
139	0x3bca6b33	0.00617733
140	0x3caf39a9	0.0213898
141	0x3d12c20f	0.0358296
142	0xbcf8d2af	-0.0303739
143	0xbaada8f0	-0.00132492
144	0x39e38fdd	0.00043404
145	0xbc80f55e	-0.015742
146	0xbcd45a60	-0.025922
147	0x3d9f8d7f	0.0779066
148	0xbc476a22	-0.0121713
149	0x3cc88a7e	0.0244801
150	0x3c2ea23f	0.0106588
151	0x3aa44a78	0.00125344
152	0x3d10a0b2	0.0353095
153	0x3cf5a965	0.029988
154	0xbc8b149c	-0.0169776
155	0x3d90a8c5	0.0706344
156	0x3d677920	0.056512
157	0xbd934f68	-0.0719288
158	0x3d4c3be3	0.0498618
159	0xbbc0f6ab	-0.00588878
160	0x3e416ca4	0.188891
161	0x3e673f75	0.225828
162	0x3c952dc4	0.0182103
163	0x3c07490a	0.00825716
164	0x3c256804	0.0100956
165	0x3d7b97a1	0.0614239
166	0x3cbb0a62	0.0228321
167	0x3cc479e2	0.0239839
168	0x3d531afa	0.0515394
169	0xbd506d1b	-0.0508853
170	0xbcd294f8	-0.0257058
171	0xbb9e981c	-0.00483991
172	0x3d258be0	0.0404166
173	0xbcf471f8	-0.0298395
174	0xbc18fb4f	-0.00933726
175	0xbc2eb4b4	-0.0106632
176	0xbb8aa408	-0.00423098
177	0x3bfaca36	0.0076535
178	0xbd15a767	-0.0365366
179	0xbc9d8292	-0.0192273
180	0xbd26d04e	-0.040726
181	0xbb111df5	-0.00221431
182	0xbbfae63b	-0.00765684
183	0x3d0200a6	0.0317389
184	0x3c235e29	0.00997118
185	0x3aa55793	0.00126146
186	0x3c806ffd	0.0156784
187	0xbba28d08	-0.00496066
188	0x3e26683c	0.162507
189	0x3b4ef5c7	0.00315796
190	0xbc805708	-0.0156665
191	0x3d042a16	0.0322667
192	0xbbf04420	-0.00733234
193	0x3d0c5fa5	0.0342709
194	0xbadd0681	-0.00168629
195	0xbd7be554	-0.061498
196	0xbcf3fa03	-0.0297823
197	0x3d8014b6	0.0625395
198	0x3cba9c7e	0.0227797
199	0xbb6e7ea3	-0.00363914
200	0xbb26cbb1	-0.0025451
201	0xbb2b0d8a	-0.00261006
202	0x3d045118	0.0323039
203	0x3cf32e96	0.0296853
204	0xbd12ad9d	-0.0358101
205	0xbd281c7f	-0.0410428
206	0xbc09745d	-0.00838956
207	0x3c41d44b	0.0118304
208	0x3ce3a704	0.0277896
209	0x3d71fe4a	0.0590804
210	0x3e3e89a9	0.186072
211	0x3e7ce4eb	0.246967
212	0xbbe46e29	-0.00697114
213	0x3d3a4922	0.0454799
214	0xbb3f8ef7	-0.00292295
215	0x3dcffda4	0.101558
216	0x3d1f320f	0.0388661
217	0x3cbb3c82	0.022856
218	0xbbfa1a63	-0.00763254
219	0x3c4d4456	0.0125285
220	0x3cc54a8d	0.0240834
221	0xbd56f021	-0.0524751
222	0xbc7df422	-0.0155001
223	0x3baf59e0	0.00535129
224	0x3ba9ff58	0.00518791
225	0x3aec87a8	0.00180458
226	0x3b228d5e	0.00248035
227	0xbd76b40c	-0.0602303
228	0x3d5c2946	0.0537503
229	0xbcacacd2	-0.0210785
230	0x3d00f5c9	0.0314844
231	0x3d751b35	0.0598404
232	0x3d24e5ad	0.0402581
233	0xbc6e0dfb	-0.0145297
234	0xbae9a723	-0.00178263
235	0xba16ae1c	-0.000574799
236	0xbd8ef376	-0.0698003
237	0xbca761d9	-0.0204324
238	0x3e1d349c	0.153521
239	0x3ba014de	0.0048853
240	0x3c9c601d	0.0190888
241	0x3d0cf059	0.0344089
242	0xbcdd3606	-0.0270033
243	0xbaed2862	-0.00180937
244	0x3a175bb8	0.000577386
245	0x3d001dc8	0.0312784
246	0x3b64eed8	0.00349324
247	0x3da16052	0.078797
248	0xbd12225c	-0.0356773
249	0x3b9a5e91	0.00471098

layers.2.bias f4 [50]
0	0xbdf9231c	-0.121649
1	0xbe8f0004	-0.279297
2	0xbdcbe115	-0.0995504
3	0xbf636284	-0.888222
4	0x3f64e0ca	0.894055
5	0xbf5a1a72	-0.851966
6	0xbde22c45	-0.110436
7	0xbe4b46fe	-0.198513
8	0xbd97b528	-0.074076
9	0xbf93a0f9	-1.15335
10	0xbf221cde	-0.633253
11	0xbf719b80	-0.943779
12	0xbc92e0e3	-0.0179295
13	0x3d278d5d	0.0409063
14	0x3e2e7ee9	0.170406
15	0xbf300d5f	-0.687704
16	0x3e9b2a28	0.303056
17	0x3e830814	0.255921
18	0xbf7e147b	-0.9925
19	0x3e34cd75	0.176565
20	0xbf27e79f	-0.655878
21	0x3f259ba2	0.646906
22	0x3fb40ebf	1.4067
23	0xbeade15d	-0.33961
24	0x3f244e83	0.641823
25	0x3fcd55c5	1.60418
26	0x3ebbc9ac	0.366773
27	0xbf5967a9	-0.849238
28	0xbf399fe4	-0.725096
29	0xbc0b85b0	-0.00851576
30	0xbf330425	-0.699282
31	0xbdef4385	-0.116828
32	0x3f0698ab	0.525767
33	0xbbd4a447	-0.00648931
34	0xbe65219b	-0.223761
35	0xbec1bef5	-0.37841
36	0x3f050b20	0.519701
37	0x3d49572c	0.0491554
38	0xbd2fffa2	-0.0429684
39	0xbf21aa2e	-0.631503
40	0xbf8583f9	-1.04309
41	0xbd6104fe	-0.0549364
42	0xbdc5fde9	-0.0966757
43	0xbdb5ab20	-0.0887053
44	0xbf5beea2	-0.85911
45	0xbf1d8213	-0.615266
46	0xbcfe9425	-0.0310765
47	0xbf7221b8	-0.945827
48	0xbf6990c1	-0.912365
49	0x3ec86c44	0.391451

layers.2.weight f4 [50, 50]
0	0x3d1a7be2	0.0377158
1	0xbeee1dc9	-0.465071
2	0xbf25816b	-0.646506
3	0xbe90c0ad	-0.28272
4	0x3e867b3e	0.262659
5	0xbf235b2d	-0.63811
6	0x3bb9c8e4	0.0056697
7	0x3f1bbd9d	0.608362
8	0xbe923fab	-0.285642
9	0x3f109753	0.564809
10	0xbd16b0e7	-0.0367898
11	0xbc69199f	-0.0142273
12	0x3bb46cc4	0.00550613
13	0x3e5ac8a3	0.213656
14	0xbbb4f845	-0.00552276
15	0xbc8daf4b	-0.0172955
16	0x3bf93449	0.00760511
17	0xbfa05ac4	-1.25277
18	0xbe91a5a9	-0.284467
19	0x3f3f92d1	0.748334
20	0x3ee4d940	0.44697
21	0x3de36007	0.111023
22	0xbd03c389	-0.0321689
23	0xbf5c3cd1	-0.860303
24	0xbd9ede47	-0.0775724
25	0x3d0fe500	0.0351305
26	0xbf8a10e0	-1.07864
27	0xbf50e1f8	-0.815948
28	0xbf2c507a	-0.673103
29	0xbeb3b81b	-0.351014
30	0xbe2dde37	-0.169793
31	0x3b1fab2c	0.00243635
32	0xbef95c21	-0.487031
33	0xbed39b67	-0.413295
34	0x3e1d1676	0.153406
35	0x3ed031cf	0.40663
36	0x3d98fc93	0.0747005
37	0x3eb4e011	0.353272
38	0x3ed55c96	0.416722
39	0x3eaaa1b6	0.333265
40	0x3dd927d4	0.106033
41	0x3ee8ee28	0.454942
42	0x3c55f718	0.0130594
43	0xbbdd6099	-0.0067559
44	0x3e5fde72	0.218622
45	0x3d1d6c57	0.0384334
46	0x3ecf9e17	0.405503
47	0x3e9169c2	0.28401
48	0xbe7053e3	-0.234695
49	0xbd522a54	-0.0513099
50	0x40066cf4	2.1004
51	0xbec7646b	-0.389438
52	0x3e17735c	0.147901
53	0x3e9e6f2f	0.309442
54	0xbcc26f7c	-0.0237348
55	0xbcdfcd90	-0.0273197
56	0xbd52dd6d	-0.0514807
57	0x3d9bb89b	0.0760357
58	0x3bb980d5	0.00566111
59	0x3e428566	0.189962
60	0x3e6b27cc	0.229644
61	0xbddd5348	-0.108069
62	0xbdc70d70	-0.0971936
63	0x3d224e59	0.0396255
64	0x3d2b7041	0.0418551
65	0xbcdecd80	-0.0271976
66	0x3db70916	0.0893728
67	0xbe173b00	-0.147686
68	0xbe990710	-0.298882
69	0x3e1eb181	0.154974
70	0xbb9cdc6f	-0.00478702
71	0x3d8b99e2	0.0681646
72	0xc001e300	-2.02948
73	0x3df0cb29	0.117575
74	0xbebe2b8c	-0.371426
75	0x3de81345	0.113318
76	0xbe95d80e	-0.292664
77	0xbda75c65	-0.0817192
78	0xbcd09d72	-0.0254657
79	0x4004a79c	2.07273
80	0x3e93f78c	0.288998
81	0xbcfc9d3f	-0.0308367
82	0xbe2a0c6b	-0.166063
83	0xbe154a80	-0.145792
84	0x3f50575c	0.813833
85	0x3da30800	0.0796051
86	0x3ee3a451	0.444613
87	0x3e4ec95c	0.20194
88	0xbd7e3327	-0.0620605
89	0x3e87e7e2	0.265441
90	0xc04f0fa6	-3.23533
91	0x3eb3e4ac	0.351354
92	0x3e5c810a	0.215336
93	0xbcdcd050	-0.0269548
94	0xbe881e04	-0.265854
95	0x40c16d72	6.04461
96	0x3f43b225	0.764437
97	0xbd39eadd	-0.04539
98	0xbcfff36b	-0.031244
99	0xbe8e51b1	-0.277967
100	0x3e9ee504	0.310341
101	0xbc34103d	-0.0109902
102	0xbeba3726	-0.363702
103	0xbfbdaa50	-1.48176
104	0xbef1d0c8	-0.472296
105	0xbeba42f2	-0.363792
106	0xbee29479	-0.442539
107	0x3ff62878	1.92311
108	0x3f6e71ce	0.931424
109	0xbe391d58	-0.180776
110	0x3e48eb46	0.19621
111	0xbf562ab2	-0.836589
112	0xbf07db5e	-0.530691
113	0x3fb3caea	1.40463
114	0x3d884f3f	0.0665574
115	0x3d38467e	0.0449891
116	0x3f483c8e	0.782174
117	0xbf2a223e	-0.664585
118	0xbe493ff2	-0.196533
119	0x3cf84bd7	0.0303096
120	0x40055df6	2.08386
121	0x3f14027e	0.578163
122	0x3f9baf10	1.21628
123	0x3f1f6295	0.622598
124	0x3f906f69	1.1284
125	0x3dd44135	0.10364
126	0xbecad18d	-0.39613
127	0xbeb9d862	-0.362979
128	0x3fae04c0	1.35952
129	0x3e58f7db	0.211883
130	0x3ef228bb	0.472967
131	0x3c362988	0.0111183
132	0xbe8515ad	-0.259931
133	0xbf5b1045	-0.855717
134	0xbea427e9	-0.320617
135	0x3f081f64	0.531729
136	0xbe932874	-0.287418
137	0xbf6098c4	-0.877331
138	0x3fc862f6	1.56552
139	0xbe8b7889	-0.272404
140	0xbd27f14b	-0.0410016
141	0xbf590764	-0.847769
142	0xbeefa073	-0.468021
143	0xbcece358	-0.028917
144	0x3f10f0fa	0.566177
145	0xbf89fa44	-1.07795
146	0x3eb40d2c	0.351663
147	0x3e072d1b	0.132008
148	0x3f925365	1.14317
149	0x3fc6c860	1.55299
150	0x3f91c875	1.13893
151	0x3e700820	0.234406
152	0xbe8dff61	-0.277339
153	0xbd8ad879	-0.0677957
154	0xbeb8ced5	-0.360953
155	0x3eb6b789	0.356869
156	0x3efecb53	0.497645
157	0x3f2a5e78	0.665504
158	0xbe5a31a5	-0.21308
159	0x3e95b813	0.29242
160	0x3e4e76c9	0.201625
161	0x3e9ad3c8	0.302397
162	0x3f820ba2	1.01598
163	0xbe98891a	-0.297921
164	0xbd4eab29	-0.0504562
165	0xbd04fc03	-0.0324669
166	0x3efc9add	0.493369
167	0x3e89da59	0.269244
168	0xbea54802	-0.322815
169	0x3e8fadb0	0.280622
170	0x3dff0889	0.124528
171	0xbd32d93b	-0.0436642
172	0x3fac0496	1.34389
173	0x3d57216a	0.0525221
174	0x3ec95b79	0.393276
175	0x3e3503fb	0.176773
176	0x3ec6f30a	0.388573
177	0xbf51ced1	-0.819562
178	0x3e43df6e	0.191282
179	0x3fd8d79d	1.69408
180	0xbe41b329	-0.18916
181	0xbbd6ea07	-0.00655866
182	0xbebe8a0d	-0.372147
183	0xbe7df4c3	-0.248004
184	0x3f09f2bb	0.53886
185	0x3c28e63e	0.0103088
186	0xbd6cc6d3	-0.0578068
187	0x3d359d8c	0.0443397
188	0x3ea6ed03	0.326027
189	0xbe56a055	-0.209596
190	0x3f8f5ad9	1.11996
191	0x3e0c48ae	0.136996
192	0xbe0d755c	-0.138143
193	0xbc69a184	-0.0142597
194	0x3e85ec1c	0.261567
195	0x4028d899	2.63822
196	0x3ea3da51	0.320025
197	0xbf049918	-0.517961
198	0x3f244934	0.641742
199	0x3f043fa3	0.516596
200	0x3f5a4e48	0.852757
201	0x3f251b50	0.644948
202	0xbfc00054	-1.50001
203	0xbfa4bfb1	-1.2871
204	0xbd8f38d3	-0.0699326
205	0x3ec3cfb3	0.382444
206	0x3ebf9d91	0.374249
207	0x3f7d884c	0.990361
208	0xbe693a71	-0.227762
209	0x3e974491	0.295445
210	0x3e3986ba	0.181178
211	0xbfc83c9f	-1.56435
212	0xbe2eb6bf	-0.170619
213	0x3e1c304d	0.152528
214	0x3d2b295f	0.0417875
215	0x394f6912	0.000197802
216	0x3f47ce42	0.780491
217	0xbf1ee621	-0.620699
218	0xbd5bb2ff	-0.0536375
219	0xbef5daad	-0.480184
220	0xbd05a0be	-0.032624
221	0xbe89ac15	-0.268891
222	0xbf65d862	-0.897833
223	0x3f2716f4	0.652694
224	0x3efc48f1	0.492744
225	0x3dc3195a	0.0952632
226	0xbf1ba11b	-0.607927
227	0x3f864fca	1.04931
228	0xbf0d420b	-0.551789
229	0xbeeebe38	-0.466295
230	0xc04c5586	-3.19272
231	0xbce3227a	-0.0277264
232	0xbf98eaf2	-1.19467
233	0xbf9d6b12	-1.22983
234	0x3e0b5419	0.136063
235	0x3c288c10	0.0102873
236	0xbeefd780	-0.468441
237	0xbee71c97	-0.45139
238	0xc0807d03	-4.01526
239	0xbe7bddba	-0.245963
240	0x3e3bc16a	0.183355
241	0x3cbf99a9	0.0233887
242	0xbd283ec9	-0.0410755
243	0xbcaccd89	-0.0210941
244	0x3f014057	0.504888
245	0x3f4d8dac	0.802943
246	0x3c170c77	0.00921928
247	0xc0102d0e	-2.25275
248	0x3e6f68be	0.233798
249	0x3ccc868c	0.0249665
250	0xbf1232b1	-0.571086
251	0xbe389d28	-0.180287
252	0x3e339ef1	0.175411
253	0xbf27926c	-0.654578
254	0x3df69985	0.12041
255	0xbe7c4e2f	-0.246392

layers.4.bias f4 [50]
0	0xbe873ade	-0.264121
1	0x3f827d03	1.01944
2	0x3faee3e7	1.36633
3	0x3eccec85	0.400242
4	0x3f6b891e	0.920061
5	0x40214342	2.51973
6	0xbe2ab474	-0.166704
7	0xbfea0afa	-1.82846
8	0x3f118ab9	0.568523
9	0x3e48ae32	0.195977
10	0xbd3d3169	-0.0461897
11	0x3d82aa27	0.0638011
12	0xbeb9b3af	-0.362699
13	0xbee7bb95	-0.452603
14	0x3f3def74	0.741935
15	0xbf49fca0	-0.789011
16	0xbde658c5	-0.112474
17	0xbd28b3b3	-0.041187
18	0x3ed96180	0.424572
19	0xbe079182	-0.132391
20	0xbf33be23	-0.70212
21	0xbe1f038e	-0.155287
22	0x3bf07299	0.00733788
23	0xbf1620ab	-0.586436
24	0xbd95d207	-0.0731545
25	0x3ef1f03d	0.472536
26	0xbf93f77b	-1.15599
27	0xbf1b3f64	-0.606436
28	0x3fa649e4	1.29913
29	0x3f4e2963	0.805319
30	0x40167ff6	2.35156
31	0x3f5442c8	0.829144
32	0xbef7ed63	-0.484233
33	0xbf683409	-0.907044
34	0xbd24fc1e	-0.0402795
35	0x3d48cec1	0.0490253
36	0xbea59019	-0.323365
37	0x3e4b9410	0.198807
38	0x3c3b4840	0.0114308
39	0xbfb2f3a1	-1.39806
40	0xbfb053e3	-1.37756
41	0xbe8b7ed4	-0.272452
42	0xbf12f4e0	-0.574049
43	0xbf8b67a1	-1.0891
44	0x3eb375ea	0.350509
45	0xbfaaa066	-1.33302
46	0x3f999408	1.19983
47	0xbffc980b	-1.97339
48	0x3f829bd0	1.02038
49	0x3ff39336	1.90293

layers.4.weight f4 [50, 50]
0	0xbfb038b0	-1.37673
1	0x3ede4085	0.434086
2	0xbe58b695	-0.211634
3	0xbdf5c28f	-0.12
4	0x3efe603d	0.496828
5	0x3d1c200c	0.0381165
6	0x3f2208c0	0.632946
7	0x3f465c92	0.77485
8	0x3e5d7cf6	0.216297
9	0x3f40ebdd	0.753599
10	0x3ec92be5	0.392913
11	0xbf9be671	-1.21797
12	0x3cda708f	0.026665
13	0x3e8b0575	0.271526
14	0x3da78898	0.0818035
15	0x3f80a915	1.00516
16	0xbd584cc8	-0.0528076
17	0xbe00f990	-0.125952
18	0x3e247d3d	0.160634
19	0x3fbf1023	1.49268
20	0x3e1dcc64	0.1541
21	0x3e3afb7f	0.1826
22	0xbeb2702a	-0.348512
23	0xbee4f80e	-0.447205
24	0xbf487054	-0.782964
25	0xbdeff5c7	-0.117168
26	0x3e3fede9	0.187431
27	0xbe298809	-0.165558
28	0x3e3718a8	0.178805
29	0x3bc861c4	0.00611517
30	0xbfaf9d5e	-1.37199
31	0xbf3ea4db	-0.744703
32	0x3eb89742	0.360529
33	0xbd0fadf3	-0.035078
34	0xbb47083d	-0.00303699
35	0x3c7ce6db	0.0154359
36	0x3e20435f	0.156507
37	0x3e2a7c9e	0.166491
38	0xbe76805a	-0.240724
39	0x3e736c16	0.237717
40	0xbfc9e743	-1.57737
41	0xbf658351	-0.896535
42	0xbeb7cd03	-0.358986
43	0xbe549d7c	-0.207632
44	0x3fd29fbe	1.6455
45	0x3e4840e1	0.19556
46	0x3fa6c95c	1.30302
47	0x3d863b33	0.0655426
48	0xbe83d103	-0.257454
49	0xbe892f0a	-0.267937
50	0x3fa5b6c3	1.29464
51	0xbf27ab00	-0.654953
52	0xbe8953bd	-0.268217
53	0x3eaa960b	0.333176
54	0x3d7e68bc	0.0621116
55	0xbdd7f1fa	-0.105442
56	0xbe5bbbe8	-0.214584
57	0xbe744f1a	-0.238583
58	0x3eaf865d	0.342822
59	0x3ec1930c	0.378075
60	0x3e5f24d9	0.217914
61	0xbef1754b	-0.471598
62	0x3bf1cd37	0.0073792
63	0xbee131ec	-0.439834
64	0x3f03d5cb	0.514981
65	0x3ed42e99	0.414418
66	0x3f2dc422	0.678774
67	0xbf2535a8	-0.64535
68	0xbe979a07	-0.296097
69	0x3f474a77	0.77848
70	0xbca31bc4	-0.0199107
71	0xbebe2d1f	-0.371438
72	0xbed0eb03	-0.408043
73	0x3efed7e9	0.497741
74	0xbeb1f7f9	-0.347595
75	0xbd710830	-0.0588457
76	0xbe8f5a75	-0.279987
77	0x3ec830a1	0.390996
78	0x3dd79852	0.105271
79	0xbcb43df5	-0.0220022
80	0xbe96bdf5	-0.294418
81	0x3f0c43e5	0.547911
82	0xbe277e1c	-0.163567
83	0x3cca7c5b	0.0247175
84	0xbf1cadde	-0.612028
85	0x3f54bc5a	0.830999
86	0xbd365c63	-0.0445217
87	0xbef5fe54	-0.480456
88	0xbddb0ccc	-0.106958
89	0xbf0b14ba	-0.543285
90	0xbf4bfe7e	-0.796852
91	0x3eb344c3	0.350134
92	0x3ee0127b	0.437641
93	0xbdb648c7	-0.089006
94	0x3e88d068	0.267215
95	0x3f4498e5	0.767958
96	0x3f511e11	0.816865
97	0x3f1582dc	0.584028
98	0xbc62e7c1	-0.0138492
99	0xbf05bdc7	-0.522427
100	0xbc6ed74e	-0.0145777
101	0xbdf34938	-0.118792
102	0xbf46c051	-0.776372
103	0xbf4e2cdc	-0.805372
104	0xbc4bd124	-0.01244
105	0x3f658eeb	0.896712
106	0xbf7bd75e	-0.983755
107	0x3f3410a5	0.703379
108	0xbc8f3196	-0.0174797
109	0x3e92b12d	0.286508
110	0xbe9a9542	-0.30192
111	0xbe79945b	-0.24373
112	0x3cc94cb0	0.0245727
113	0xbf87866e	-1.05879
114	0xbf8b8ca8	-1.09023
115	0x3fae415f	1.36137
116	0xbdf54da5	-0.119777
117	0x3ee01b00	0.437706
118	0xbe09717e	-0.134222
119	0x3fb01840	1.37574
120	0xbe81a112	-0.253182
121	0xbf182f94	-0.594476
122	0xbf389c91	-0.721139
123	0x3d25366b	0.0403351
124	0x3dc3e97f	0.0956602
125	0x3ed7542a	0.420564
126	0xbf973626	-1.18134
127	0x3f112e94	0.567117
128	0xbe82bf12	-0.255364
129	0xbc5b7938	-0.0133956
130	0xbf6d613d	-0.927265
131	0xbe0d91ac	-0.138251
132	0xbf793ccd	-0.973584
133	0x3cdc8897	0.0269206
134	0xbe246e8f	-0.160578
135	0xbe79c0ec	-0.2439
136	0xbe8cef03	-0.275261
137	0xbf04448d	-0.516671
138	0xbf030542	-0.511799
139	0x3f102b1f	0.563158
140	0xbef3033a	-0.474634
141	0x3ea131a9	0.314832
142	0xbe75eaab	-0.240153
143	0x3d5c0aa8	0.0537211
144	0xbdc23176	-0.0948209
145	0x3c30d0ee	0.010792
146	0x3e43a57f	0.191061
147	0xbed5c28f	-0.4175
148	0x3d77a121	0.0604564
149	0xbeb570e7	-0.354377
150	0xbe865626	-0.262376
151	0x3f3e39f7	0.743072
152	0xbe530985	-0.206091
153	0x3fe2ed14	1.77286
154	0x3ebd332b	0.369531
155	0xbf08b967	-0.534079
156	0xbda82acf	-0.0821129
157	0x3efbffac	0.492185
158	0xbeb68a50	-0.356524
159	0xbe02513b	-0.127263
160	0x3eaf2e6a	0.342151
161	0x3dc2c75b	0.0951068
162	0xbd236d07	-0.0398989
163	0xbe7a886a	-0.244661
164	0xbeb77a2d	-0.358354
165	0x3f0e684d	0.556279
166	0x3dd8b71c	0.105818
167	0x3e3b3700	0.182827
168	0x3ec7635e	0.38943
169	0xbf264367	-0.649466
170	0xbf0d362f	-0.551608
171	0xbf12d118	-0.573503
172	0x3e391255	0.180734
173	0x3f07b7d8	0.530149
174	0x3ed87a6c	0.422809
175	0x3e2c0768	0.167997
176	0xbf2a6a87	-0.665688
177	0x3f1bfe2a	0.609347
178	0x3e8bf6e4	0.273368
179	0xbc9f068b	-0.0194123
180	0x3e306a2b	0.17228
181	0x3e951d47	0.291239
182	0xbc8eb280	-0.0174191
183	0xbd1a4683	-0.0376649
184	0x3e4f33ca	0.202346
185	0x3f25f959	0.648336
186	0x3c85e47b	0.0163443
187	0xbdf741d1	-0.120731
188	0xbf6f41d1	-0.934598
189	0xbf0b110e	-0.543229
190	0xbdade086	-0.0849009
191	0xbdf9e6ac	-0.122022
192	0x3ed9c6d2	0.425345
193	0x3e1757d6	0.147796
194	0xbe898def	-0.268661
195	0x3f0d8384	0.552788
196	0xbe9a57eb	-0.301452
197	0xbc2cf23c	-0.0105558
198	0x3eb2d624	0.34929
199	0xbf68397a	-0.907127
200	0xbf9ce465	-1.22572
201	0xbf20345d	-0.625799
202	0xbe4ca687	-0.199854
203	0xbffa90ac	-1.95754
204	0xbdc1e3eb	-0.094673
205	0xbf091117	-0.535417
206	0xbe6d4845	-0.231721
207	0xbda21519	-0.0791418
208	0x3ec9b77c	0.393978
209	0x3e9ba387	0.303982
210	0x3f60d76b	0.878287
211	0xbf88307f	-1.06398
212	0x3d2b1d1a	0.0417758
213	0xbf253133	-0.645282
214	0xbf49f44d	-0.788884
215	0xbf0d4941	-0.551899
216	0xbf8be719	-1.09299
217	0x3ed9e450	0.42557
218	0xc01b5fc4	-2.42772
219	0x3f69f40a	0.91388
220	0x3d579b78	0.0526385
221	0xbfc2fc26	-1.52332
222	0x3c96cbbf	0.0184077
223	0x3dd824d5	0.105539
224	0x3e98f0a6	0.298711
225	0x3f2c4988	0.672997
226	0xbec84189	-0.391125
227	0xbea705ea	-0.326217
228	0x3ed4bd34	0.415506
229	0x3bec04b6	0.00720271
230	0xc0b04381	-5.50824
231	0x3f0fefae	0.562251
232	0x3f0e2a2c	0.555331
233	0xbbfa0d0c	-0.00763095
234	0xbec9c821	-0.394105
235	0xbe08c47a	-0.133562
236	0xbeb45f5b	-0.35229
237	0x3f1de636	0.616794
238	0xbf73b8b2	-0.952037
239	0x3e99d4d8	0.300452
240	0xc0324578	-2.78549
241	0x3e8e490a	0.277901
242	0x3e4efaa4	0.202128
243	0xbcc441ae	-0.0239571
244	0xbea2c1b1	-0.317884
245	0x3f41b963	0.756735
246	0x3e719653	0.235925
247	0x3d96f057	0.0737006
248	0xbf6db5a6	-0.928553
249	0x3fbd143c	1.47718
250	0x3e50c49c	0.203875
251	0xbf6c869c	-0.923929
252	0x3dbd9fd3	0.09259
253	0xbf2b1290	-0.668252
254	0x3d26a444	0.040684
255	0x3cda1230	0.02662

layers.6.bias f4 [50]
0	0xbee3a01f	-0.444581
1	0xbf1d182b	-0.61365
2	0x3fc5182b	1.5398
3	0x3d18b62a	0.0372831
4	0x3f81f5ae	1.01531
5	0x3f035968	0.513083
6	0xbec6e3f8	-0.388458
7	0x3f3fbe88	0.749001
8	0xbf54d174	-0.831321
9	0x3fa7458d	1.30681
10	0xbf36c67a	-0.713966
11	0xbf8498b3	-1.03591
12	0x3f3010f9	0.687759
13	0xbfccb685	-1.59932
14	0xbf81590c	-1.01053
15	0xbc232bea	-0.0099592
16	0x3f25156a	0.644858
17	0xbf530eb2	-0.824443
18	0xbeb57732	-0.354425
19	0x3fa3126f	1.274
20	0xbe860158	-0.261729
21	0x3e2b2c84	0.167162
22	0xbcb79456	-0.0224096
23	0xbf2435ad	-0.641444
24	0x3efefe93	0.498036
25	0xc038ae53	-2.88564
26	0xbf1a50d7	-0.602796
27	0x3f5bc4f4	0.858474
28	0xc006d624	-2.10682
29	0x3f5d3f29	0.864245
30	0x3f2196a7	0.631205
31	0x3f92dd59	1.14738
32	0x3f631d71	0.887168
33	0xbe981ba8	-0.297086
34	0xbe2379b7	-0.159644
35	0xbe15579b	-0.145842
36	0x3e54577e	0.207365
37	0xbfbd187e	-1.47731
38	0x3fb2031d	1.39072
39	0xbfe5fa98	-1.79671
40	0xbfad4706	-1.35373
41	0x3f787dd4	0.97067
42	0x3ec7b41c	0.390046
43	0xbf868f5c	-1.05125
44	0x3f0548bb	0.520641
45	0xbed34678	-0.412647
46	0x3fbc6b7b	1.47203
47	0xbe3fd1dd	-0.187324
48	0xbf5a7642	-0.853367
49	0xbf94f41f	-1.1637

layers.6.weight f4 [50, 50]
0	0x3e5ba27b	0.214487
1	0x3edb9dc3	0.428938
2	0xbdb61581	-0.0889082
3	0x3e58754f	0.211385
4	0xbca21cf6	-0.0197892
5	0xbefe5e89	-0.496815
6	0xbe295bbc	-0.165389
7	0x3ef44dec	0.477157
8	0xbd3636be	-0.0444858
9	0x3e9d1266	0.306781
10	0x3e57c915	0.210728
11	0xbcd6843b	-0.0261861
12	0x3de26c3c	0.110558
13	0xbda13aad	-0.0787252
14	0x3e05ec3e	0.130784
15	0xbe3fcdab	-0.187308
16	0x3f0da661	0.55332
17	0xbfe5f5ae	-1.79656
18	0xbe1bb3c8	-0.152053
19	0xbfc38e4c	-1.52778
20	0x3d548ece	0.051894
21	0x3dec5650	0.115399
22	0xbd92ba3f	-0.0716443
23	0xbef1df33	-0.472406
24	0x3e8817fc	0.265808
25	0xbdc78f40	-0.0974412
26	0x3ec26959	0.37971
27	0x3f3d7258	0.740026
28	0x3ce01514	0.0273538
29	0x3ee79896	0.452336
30	0xbd049d89	-0.0323768
31	0xbe86b7ed	-0.263122
32	0xbd605815	-0.0547715
33	0x3cd9d37b	0.0265901
34	0xbe091c4c	-0.133897
35	0xbe8f574f	-0.279963
36	0xbf2c126a	-0.672156
37	0xbd98aa43	-0.0745435
38	0xbde3632c	-0.111029
39	0x3e0ee3d6	0.139541
40	0x3c4700db	0.0121462
41	0xbd22fc9f	-0.0397917
42	0x3f332863	0.699835
43	0xbe8b9607	-0.272629
44	0xbe193ccd	-0.149646
45	0x3ef349e0	0.475173
46	0xbea0e68e	-0.314259
47	0x3ac8a372	0.00153075
48	0xbddaa92e	-0.106768
49	0xbbdbea8c	-0.00671131
50	0xbf09b6d4	-0.537946
51	0x3e2b1a6d	0.167093
52	0xbc0be734	-0.00853901
53	0xbf32f5dc	-0.699064
54	0x3d822178	0.0635404
55	0x3da378d3	0.0798203
56	0xbe834ca1	-0.256444
57	0xbf8621ea	-1.04791
58	0x3ecc8d5c	0.399516
59	0x3ed5d895	0.417668
60	0x3ef6e808	0.482239
61	0xbfb7d513	-1.43619
62	0xbc759e12	-0.0149913
63	0x3db4cc76	0.0882806
64	0x3e5cb70b	0.215542
65	0xbf7161c3	-0.942898
66	0xbe4e4042	-0.201417
67	0x3c4a7f15	0.0123594
68	0x3e29db66	0.165876
69	0xbeb8c587	-0.360882
70	0x3d1dba91	0.038508
71	0xbe4cc78f	-0.19998
72	0xbd667bca	-0.0562704
73	0xbf0c14b6	-0.547191
74	0xbea2e1ce	-0.318129
75	0x3e5893fb	0.211502
76	0x3c8a7bba	0.0169047
77	0xc06ed552	-3.73177
78	0x3e5adc90	0.213732
79	0xbcaeb58b	-0.0213268
80	0x3e3dc337	0.185315
81	0x3eddc22b	0.433122
82	0xbfe83f92	-1.81444
83	0xbdf5a8df	-0.119951
84	0xbf31d3aa	-0.694636
85	0x3ec4bcf1	0.384254
86	0xbeecce1c	-0.46251
87	0x3e400368	0.187513
88	0xbb56c49d	-0.0032771
89	0x3f5b8130	0.85744
90	0xbf1d0929	-0.613421
91	0x3e69d12d	0.228337
92	0x3f836263	1.02644
93	0xbe81def0	-0.253654
94	0x3eba7547	0.364176
95	0x3fd0eb46	1.63218
96	0x3efc295a	0.492503
97	0xbf77a366	-0.967337
98	0x3f0928d0	0.535779
99	0xbe85f5ae	-0.26164
100	0xbc5e8dbf	-0.0135836
101	0x3ebc779a	0.3681
102	0x3db5fbc3	0.0888591
103	0xbcd4f667	-0.0259964
104	0xbe101f32	-0.140744
105	0xbef6494d	-0.481028
106	0xbe9062f6	-0.282005
107	0xbe04d595	-0.129721
108	0x3e919daa	0.284406
109	0xbe3c17ec	-0.183685
110	0x3d9d8044	0.0769048
111	0x3e87f7be	0.265562
112	0x3ecaf9ec	0.396438
113	0x3b31ad8d	0.00271115
114	0xbdcb0d1c	-0.0991461
115	0x3ed28a61	0.411212
116	0xbe493bc1	-0.196517
117	0xbed9717e	-0.424694
118	0x3e484cad	0.195605
119	0xbd197c73	-0.0374722
120	0x3de0aaeb	0.109701
121	0xbe4fe75c	-0.203031
122	0xbe1aa9f8	-0.151039
123	0xbe97aeff	-0.296257
124	0x3e957cb3	0.291967
125	0xbdff05ea	-0.124523
126	0x3d1cfce1	0.0383271
127	0xbe0a7158	-0.135198
128	0x3cea5574	0.0286052
129	0x3b6d684e	0.00362255
130	0xbda8e39f	-0.0824654
131	0xbc46d2b8	-0.0121352
132	0xbee92be5	-0.455413
133	0x3e4714fd	0.194416
134	0xbdda921d	-0.106724
135	0xbd4fbd78	-0.0507178
136	0x3eee6256	0.465594
137	0xbedbbfb6	-0.429197
138	0x3e1851a8	0.148749
139	0xbe8e605f	-0.278079
140	0x3e1a93f3	0.150955
141	0xbe8778ff	-0.264595
142	0xbe9150b9	-0.283819
143	0x3f20a0f5	0.627456
144	0x3dddbd30	0.108271
145	0xbf3cdc98	-0.737741
146	0xbe72a4db	-0.236957
147	0x3c9841e0	0.0185861
148	0xbd2ae07e	-0.041718
149	0xbe57de51	-0.210809
150	0x3eb3163c	0.349779
151	0x3e1d798e	0.153784
152	0xbe5945b7	-0.21218
153	0xbe13d2d8	-0.144359
154	0xbf2a1933	-0.664447
155	0xbf30c283	-0.690468
156	0x3f46390d	0.774308
157	0x3f01eba7	0.507502
158	0xbe610386	-0.21974
159	0x3f0d5fdd	0.552244
160	0xbdac40c3	-0.0841079
161	0xbe36bf44	-0.178464
162	0x400eb0c9	2.22954
163	0xbe8ededb	-0.279044
164	0xbf69dedf	-0.913557
165	0x3e4070fc	0.187931
166	0xbe951b0d	-0.291222
167	0x3fb13a93	1.3846
168	0x3f85e109	1.04593
169	0x3f4a20ab	0.789561
170	0x3f59cc85	0.850777
171	0xbbec370b	-0.00720871
172	0xbf0c954a	-0.549153
173	0xbd0ea133	-0.0348217
174	0xbd65852a	-0.0560352
175	0xbf894de8	-1.07269
176	0xbd7778f8	-0.0604181
177	0xbfe5d5e5	-1.79559
178	0xbf0618df	-0.523817
179	0xbf0ad57c	-0.54232
180	0xbf091516	-0.535478
181	0xbebbd35f	-0.366847
182	0x3e06dc5d	0.1317
183	0xbf102481	-0.563057
184	0xbf5d409a	-0.864267
185	0x3f1a2846	0.602177
186	0x3f7d0321	0.988329
187	0xbe7cec42	-0.246995
188	0x3dc26916	0.094927
189	0xbe82005c	-0.253909
190	0x3ea9b414	0.331452
191	0x3f18ccde	0.596876
192	0x3dd17bd9	0.102287
193	0x3ef6b1e6	0.481826
194	0xbe6e04c0	-0.23244
195	0x3f9840e1	1.18948
196	0x3f8c8755	1.09788
197	0x3e772d5e	0.241384
198	0x3d979f23	0.074034
199	0xbf02614a	-0.509297
200	0xbdd7268d	-0.105054
201	0x3dc43188	0.0957976
202	0xbe06ba06	-0.131569
203	0xbf0d8b61	-0.552908
204	0xbf6191ff	-0.881134
205	0xbe97c7c5	-0.296446
206	0x3eb18bb5	0.346769
207	0xbfcd49f9	-1.60382
208	0x3ed32ad0	0.412436
209	0xbd91e43b	-0.0712361
210	0x3d83f291	0.0644275
211	0xbe896d6e	-0.268413
212	0xbea5e764	-0.324031
213	0xbe6f2cb6	-0.233569
214	0xbe462c77	-0.193529
215	0xbeeb34e7	-0.459388
216	0x3d74c2b5	0.059756
217	0xbf9f0d84	-1.2426
218	0xbf2cd888	-0.675179
219	0x3cbb53c9	0.0228671
220	0x3f235fc4	0.63818
221	0xbe6e4ffd	-0.232727
222	0xbeb4c986	-0.3531
223	0xbe75a8df	-0.239902
224	0x3ea72b02	0.3265
225	0xbe69018e	-0.227545
226	0xbeac4977	-0.336498
227	0xbf4d5d81	-0.802208
228	0x3dadf040	0.0849309
229	0xbde23e18	-0.11047
230	0x3d63d1cc	0.05562
231	0xbe71a3f4	-0.235977
232	0x3ed85943	0.422556
233	0xbd6e63f6	-0.0582008
234	0x3ebd8666	0.370166
235	0xbe075254	-0.13215
236	0x3f1a742a	0.603335
237	0xbec9741d	-0.393464
238	0xbe8857b0	-0.266294
239	0x3edfd4bf	0.43717
240	0x3e0c6eb1	0.137141
241	0xbe701b86	-0.23448
242	0x3e90b631	0.28264
243	0xbed5b24f	-0.417376
244	0x3e89c194	0.269055
245	0xbf8e9d73	-1.11418
246	0x3e8de7a7	0.277158
247	0x3e677708	0.22604
248	0xbc973eab	-0.0184625
249	0x3bd8fcdc	0.00662194
250	0xbeb67e41	-0.356432
251	0x3f576bb1	0.841487
252	0xbe47b353	-0.19502
253	0x3e9d525d	0.307269
254	0x3e90f66a	0.28313
255	0xbea12663	-0.314746

layers.8.bias f4 [50]
0	0xbefffe4c	-0.499987
1	0x3e9f0b8d	0.310635
2	0xbe800d80	-0.250103
3	0xbe854717	-0.260308
4	0xbfe36b90	-1.77672
5	0xbfd3074a	-1.64866
6	0xbeb488a4	-0.352605
7	0x3f3c7bab	0.736262
8	0xbf71bbe0	-0.944273
9	0xbea14b5a	-0.315028
10	0x3ededce4	0.435279
11	0xbfad8bd6	-1.35583
12	0xbd3f421a	-0.0466939
13	0xbf76ffe3	-0.964842
14	0x3f241df3	0.641082
15	0xbf0ebde4	-0.557585
16	0xbf55249e	-0.83259
17	0x3ec83a54	0.39107
18	0xbd0a5284	-0.0337701
19	0xbea6a876	-0.325504
20	0xbd997fb3	-0.0749506
21	0xbf2e3e8e	-0.680642
22	0x3f01fa87	0.507729
23	0x3fabfd61	1.34367
24	0xbd9a8e9a	-0.0754673
25	0xbf412d34	-0.754596
26	0x3e7588e3	0.23978
27	0xbe3062d4	-0.172252
28	0x3fe8d20b	1.81891
29	0x3f0e64a1	0.556223
30	0xbe2d7c70	-0.16942
31	0xbe0d0bb7	-0.13774
32	0x3e87bf40	0.265131
33	0xbf78954a	-0.971028
34	0x3f19cfbc	0.600826
35	0xbfced1e1	-1.61578
36	0xbfa747d8	-1.30688
37	0x3f9c82bf	1.22274
38	0x3ebe0bd4	0.371184
39	0xbf84b780	-1.03685
40	0x3ea38499	0.319371
41	0x3d955476	0.072915
42	0xbf5a806b	-0.853522
43	0xbee92c28	-0.455415
44	0xc012cf42	-2.2939
45	0xbf358aca	-0.709149
46	0xbf88198f	-1.06328
47	0xbebcbad8	-0.368613
48	0xbd041f7f	-0.0322566
49	0xbf9890d6	-1.19192
